models/ogbl-collab_CN_2_1_0_run4_gnn.pt (torch, 668318 bytes, 10 tensors)

convs.0.bias f4 [256]
0	0x40015dbc	2.021346
1	0x3f3e05b1	0.74227434
2	0x3fbfff97	1.4999875
3	0xbf05b3fd	-0.52227765
4	0xbeea601a	-0.45776445
5	0x3fccd171	1.6001416
6	0xbe2db350	-0.16962934
7	0xbf49033b	-0.78520554
8	0x401704b9	2.3596632
9	0xbebe44c9	-0.37161854
10	0x3f8254c1	1.0182115
11	0x3fd20406	1.6407478
12	0xbf1b7a13	-0.60733145
13	0x4017071a	2.3598084
14	0xbf46daa2	-0.7767736
15	0x3f171399	0.5901428
16	0xbf318988	-0.6935048
17	0x3fe02292	1.751055
18	0xbf327886	-0.69715154
19	0xbf44c1e3	-0.7685835
20	0xbf4934f6	-0.78596437
21	0x404e8453	3.2268264
22	0x3e52853a	0.20558634
23	0xc0b0e1d7	-5.5275683
24	0x3e8d62c2	0.2761441
25	0x401a6dbc	2.4129477
26	0x3f96e91d	1.178989
27	0x406de0d8	3.7168484
28	0x3f99131a	1.1958954
29	0x3f2f0ad8	0.6837592
30	0xbf1b52cb	-0.6067321
31	0xbf01741f	-0.5056781
32	0xc00e7462	-2.2258534
33	0xc03fafae	-2.9950976
34	0x3dd80a53	0.10548844
35	0x3f953348	1.1656275
36	0x3fa9de06	1.3270881
37	0x3f877130	1.0581417
38	0x3ff2f404	1.8980718
39	0x3f97c566	1.1857116
40	0x3f6c717e	0.92360675
41	0x3ee3c8a4	0.44489014
42	0xbfb8749c	-1.4410586
43	0x407a46ac	3.9105635
44	0x40013177	2.018644
45	0xbf41fc68	-0.75775766
46	0x3e01f560	0.1269126
47	0x3f0364d8	0.5132575
48	0xbf8b58ab	-1.0886434
49	0x4061a12b	3.525462
50	0xbf0a5a3c	-0.54043937
51	0xbf083ef7	-0.53221077
52	0xbfc6bd2d	-1.5526482
53	0x3e0ca5f2	0.13735178
54	0x402c9704	2.6967173
55	0x40707e51	3.7577097
56	0x4047bee0	3.121025
57	0x40655f20	3.583931
58	0x3fc91570	1.5709667
59	0x3ceb75e1	0.028742732
60	0x3fef76c3	1.8708118
61	0x3fe03aa7	1.7517899
62	0xc10e6a16	-8.9009
63	0xbe91fd0f	-0.2851338
64	0x3e97940a	0.29605132
65	0x40327f9f	2.7890394
66	0xbfe1a102	-1.7627261
67	0xbee2d7b4	-0.44305193
68	0x3fa1b2e3	1.2632717
69	0x40c60ee3	6.189317
70	0x3f5dcaa2	0.8663732
71	0x3fa208f0	1.2658978
72	0x3f965529	1.1744739
73	0xbf81a51f	-1.0128516
74	0x40514e64	3.2704096
75	0x40933e54	4.6013584
76	0x405e5d4a	3.474444
77	0x3f9b7b33	1.2146972
78	0xbfb174d9	-1.3863784
79	0x3fc8afd9	1.5678664
80	0x3f63a49b	0.88923043
81	0xbe278804	-0.1636048
82	0x405708b8	3.3599072
83	0x3f228bc2	0.63494503
84	0x3c26e92c	0.010187428
85	0x40291b74	2.6423006
86	0xbf4877f9	-0.78308064
87	0xc00239b9	-2.034773
88	0x3fbb034c	1.4610381
89	0x3e08959b	0.1333832
90	0x3f85756f	1.0426463
91	0xbecf6bec	-0.40512025
92	0x400c2404	2.1896982
93	0xbdb24c71	-0.08705986
94	0x403bd9ba	2.935164
95	0x3f47440f	0.77838224
96	0x40075ce8	2.1150455
97	0xc100fc49	-8.061593
98	0x407b24ff	3.924133
99	0x3f50cf35	0.8156617
100	0xbeaf2bbf	-0.34213063
101	0x3f3e1c16	0.74261606
102	0xbf9686c4	-1.1759877
103	0x3f89e44b	1.0772794
104	0x3f8be6d2	1.0929816
105	0x3fe441f3	1.7832626
106	0xbf386c34	-0.72040105
107	0xbf5df3aa	-0.86699927
108	0xc113e45c	-9.243252
109	0x401bf5d4	2.4368792
110	0x4050732b	3.2570293
111	0xbef8ca58	-0.48591876
112	0x3f3fa129	0.74855286
113	0x3fa76e5a	1.3080552
114	0xbea22360	-0.31667614
115	0xbd2cbb34	-0.04217072
116	0x4015d21a	2.3409486
117	0xbea88c55	-0.32919565
118	0x3f43e66f	0.7652349
119	0x4039e207	2.9044206
120	0x3e9bd3cd	0.3043503
121	0xbedaba3a	-0.42720205
122	0x3f52d949	0.823628
123	0x400deafe	2.2174678
124	0xbf33f1db	-0.7029092
125	0xbf5b026d	-0.85550576
126	0x3fef8a92	1.8714163
127	0x3ff054a1	1.8775827
128	0x3e6a1a53	0.22861604
129	0xbf1dd278	-0.61649275
130	0xc0117868	-2.272974
131	0x40533437	3.300062
132	0xbf09e08f	-0.53858274
133	0xbf16261f	-0.5865192
134	0xbe03b07e	-0.12860295
135	0x3f31ca7f	0.6944961
136	0x3f606828	0.8765893
137	0x40846e03	4.138429
138	0xbe40bf07	-0.18822871
139	0x3fd95c02	1.6981204
140	0xbe02bb19	-0.12766685
141	0xbf0e28fc	-0.5553129
142	0x40892ea9	4.286946
143	0xbe67b4a9	-0.2262751
144	0x4004b522	2.0735555
145	0x3e6e5647	0.232751
146	0x40002e2b	2.0028179
147	0x3f1ecf10	0.620347
148	0xbf0e89c9	-0.55678993
149	0xbdf23571	-0.118265994
150	0x3fb12913	1.384066
151	0xbf38968d	-0.7210472
152	0x3fc973c9	1.573846
153	0xbfd1e3dc	-1.6397662
154	0xbf00cfe0	-0.5031719
155	0x3fb8339a	1.4390748
156	0xbffb8cd5	-1.9652354
157	0xc097a242	-4.738557
158	0x3b3a58b6	0.0028434223
159	0x3fa77015	1.308108
160	0x403272d1	2.7882578
161	0x3ffbdb3e	1.9676282
162	0xbf5bff21	-0.8593617
163	0x3ffaa5d8	1.9581861
164	0x400e34f1	2.2219813
165	0xbf2b56ed	-0.66929513
166	0x3e63eeb9	0.22259034
167	0x3eb3273b	0.34990868
168	0x3ffc01b7	1.9688023
169	0x3f8cc280	1.0996857
170	0xbcc603c8	-0.024171725
171	0xbf7b4d69	-0.98164994
172	0x3fb356e8	1.4010897
173	0xbf9a78af	-1.206808
174	0x3eca6ada	0.39534646
175	0x3e8621c9	0.2619765
176	0x40004e48	2.004778
177	0xc10cd714	-8.802509
178	0xbd3dd1f4	-0.046342805
179	0xc10dd6ac	-8.86491
180	0x3fbaa9dd	1.4583088
181	0x40324f08	2.7860737
182	0xbf2ffd09	-0.68745476
183	0x3f6383a7	0.8887276
184	0x3fbdacc8	1.4818354
185	0x3fb032e5	1.3765532
186	0x404ededd	3.2323525
187	0xbfb23e9e	-1.3925359
188	0xbfd07a8c	-1.6287398
189	0xbf047cd5	-0.5175298
190	0x3f8ca100	1.0986633
191	0x3ff633e1	1.9234582
192	0x3f046efc	0.5173185
193	0x3fd7b3c4	1.6851735
194	0xbf45a5e4	-0.77206254
195	0x3cd83c9e	0.026396092
196	0xbdae2893	-0.08503833
197	0xbe97edd2	-0.2967363
198	0x3fc8c13b	1.5683969
199	0xc060133b	-3.5011737
200	0x4024f399	2.577368
201	0xbf9d19f3	-1.2273544
202	0x4042e21f	3.0450513
203	0x404bceeb	3.1845043
204	0x3f6b7d94	0.9198849
205	0x40671887	3.610872
206	0xbf39571c	-0.72398543
207	0xbf07d24d	-0.5305527
208	0xbf5bf2f2	-0.8591758
209	0x408104ec	4.031851
210	0x3f692fe2	0.9108869
211	0xbee2129a	-0.44154817
212	0xbfe38f0e	-1.7778032
213	0x402e4644	2.7230387
214	0xbf89187e	-1.07106
215	0x401f2af6	2.4869971
216	0x3fcf0b59	1.6175338
217	0xbfaaa4c5	-1.3331534
218	0xbf169a6c	-0.5882938
219	0xbe7dc123	-0.24780707
220	0xc044c7a3	-3.0746849
221	0x400be0d8	2.1855984
222	0x408dbe36	4.429469
223	0x3d99a1ee	0.07501589
224	0xbe65db45	-0.22446926
225	0x403ef795	2.9838612
226	0x40131b51	2.2985423
227	0xbde1c5d7	-0.11024063
228	0xbf2b0249	-0.6680036
229	0x401390b4	2.305707
230	0x3d0b44e9	0.034001265
231	0xbf6bc5b5	-0.9209855
232	0x3ee29314	0.44252837
233	0x3f2c226e	0.67240036
234	0x402276aa	2.5384927
235	0x3fa5c781	1.2951509
236	0x403837de	2.8784099
237	0xbf470cea	-0.7775408
238	0x3e28d15a	0.16486111
239	0xbf884480	-1.0645905
240	0xbf4a149f	-0.78937715
241	0x3e92cf4f	0.2867379
242	0x4001457f	2.0198667
243	0x4061585f	3.5210187
244	0xbed9616d	-0.42457142
245	0x3f843c40	1.0330887
246	0x3fdef639	1.7418891
247	0x3f51f18f	0.82009214
248	0x3f3e0219	0.7422195
249	0x3fc31e35	1.5243593
250	0x403d2d58	2.9558926
251	0x400dedab	2.217631
252	0xbe14610c	-0.14490145
253	0x3f4cc1e7	0.7998337
254	0x3f9c87e2	1.2228968
255	0x3cc41a42	0.023938302

convs.0.lin.weight f4 [256, 128]
0	0xbe7e682e	-0.24844429
1	0x3ec99f88	0.39379525
2	0xbd7be0fa	-0.06149385
3	0x3c9b65b8	0.018969402
4	0x3df71bb2	0.12065829
5	0xbe99ab68	-0.30013585
6	0xbcf817b8	-0.030284747
7	0xbe2433d4	-0.16035396
8	0x3eacb659	0.3373287
9	0xbeffafa8	-0.49938703
10	0x3edb937b	0.42885956
11	0x3b80f0dd	0.003934963
12	0x3ccb8d50	0.024847656
13	0xbd3d4b62	-0.04621447
14	0xbd1195c9	-0.035543237
15	0x3da36ca3	0.07979705
16	0x3e32f587	0.17476474
17	0x3e35fe51	0.17772795
18	0x3e378fad	0.17925902
19	0xbe00dd04	-0.12584311
20	0xbd6c0932	-0.057625957
21	0x3dddf12a	0.10837014
22	0x3dcb7d66	0.09936027
23	0x3eddfd40	0.43357277
24	0xbc874496	-0.016512197
25	0x3d0a5ae6	0.033778094
26	0x3d4fc0df	0.050721046
27	0x3ded6c3e	0.11592911
28	0x3e373eee	0.178951
29	0x3e3d64e0	0.18495512
30	0xbea37858	-0.31927752
31	0x3ed06e2b	0.4070905
32	0xbea35bda	-0.31906015
33	0x3e7f8835	0.24954303
34	0xbe6fc503	-0.23414998
35	0xbe331ada	-0.17490712
36	0xbdb4b7ef	-0.08824145
37	0x3d157a82	0.036493786
38	0x3f37732c	0.71660113
39	0xbd8a77a1	-0.06761099
40	0x3dc233f4	0.094825655
41	0xbe719529	-0.23592056
42	0x3eb5bc08	0.3549502
43	0x3ded9560	0.11600757
44	0x3d217b7b	0.0394244
45	0x3e28f5c5	0.16500004
46	0x3e211b9f	0.15733193
47	0xbf4a07ac	-0.78917956
48	0xbc7208ff	-0.014772653
49	0x3eae734e	0.34072345
50	0x3e390c82	0.18071178
51	0xbb4c228a	-0.0031148517
52	0xbe0581c3	-0.13037781
53	0xbed9b080	-0.4251747
54	0xbd5f953c	-0.05458568
55	0x3e43aa0a	0.19107834
56	0xbe24c5bc	-0.16091055
57	0xbe9074cf	-0.28214118
58	0x3efd8c04	0.49520886
59	0x3d198ad2	0.037485905
60	0x3e14ac16	0.1451877
61	0x3ee80bd1	0.45321515
62	0x3e84c5fe	0.25932306
63	0xbe790500	-0.24318314
64	0x3e230adb	0.1592211
65	0xbccae2f6	-0.024766427
66	0xbeafc38b	-0.34328875
67	0xbe8c0a7e	-0.27351755
68	0x3d981d33	0.07427444
69	0xbdc517c2	-0.09623672
70	0x3df20918	0.11818141
71	0x3e6a8553	0.22902422
72	0xbe359b4e	-0.17735025
73	0xbe06cc41	-0.13163854
74	0xbe0e5afb	-0.13901894
75	0xbe1d48d3	-0.15359811
76	0x3c8cffda	0.017211843
77	0x3d91fc16	0.0712816
78	0xbdfb7261	-0.122776754
79	0x3d9645dc	0.07337543
80	0xbc624b30	-0.013811871
81	0xbd5cd120	-0.053910375
82	0x3d77bdc1	0.060483698
83	0x3d9033a2	0.07041098
84	0x3dbc80a4	0.09204224
85	0xbe0d2b19	-0.13785972
86	0x3ca0a47e	0.019609686
87	0x3ee41499	0.44546965
88	0x3f006d3e	0.5016669
89	0x3a6e7307	0.000909612
90	0x3e5a4dc5	0.21318729
91	0xbe1e6d0c	-0.15471286
92	0x3e3e45ac	0.18581265
93	0xbd3439a1	-0.04400027
94	0xbea66273	-0.32496986
95	0xbf013aa9	-0.50480133
96	0xbe337f3c	-0.17529005
97	0x3d9579f3	0.072986506
98	0x3b27c0d6	0.0025597117
99	0xbe6c2654	-0.23061496
100	0xbe518883	-0.20462231
101	0x3dfa3698	0.12217444
102	0xbe7a5c13	-0.24449186
103	0xbd925546	-0.07145171
104	0x3d0df099	0.03465328
105	0xbe59b5e2	-0.21260789
106	0x3dc7c0ed	0.097535945
107	0x3ee20995	0.44147936
108	0x3e982a3d	0.29719725
109	0x3e2f7fc4	0.17138582
110	0xbde34d6f	-0.11098754
111	0xbe91aab1	-0.2845054
112	0x3d3e9a96	0.046534143
113	0x3e9683eb	0.2939752
114	0x3e61568a	0.22005668
115	0x3e3a1bc2	0.18174651
116	0x3de1f9ff	0.11034011
117	0x3eba68f8	0.3640821
118	0xbdba6ecd	-0.09103165
119	0x3e6129ce	0.21988603
120	0xbdc9b085	-0.098481216
121	0xbd85d041	-0.06533862
122	0xbcd14172	-0.025543902
123	0x3e62bb78	0.22141826
124	0x3db6484c	0.08900508
125	0xbd7f9252	-0.0623954
126	0x3e392cbd	0.18083473
127	0x3e3fa0d0	0.18713689
128	0xbdf4c707	-0.11952024
129	0x3d1d9658	0.038473457
130	0x3da95aca	0.0826927
131	0xbf0e3830	-0.55554485
132	0xbe821732	-0.25408322
133	0xbe148c0f	-0.14506553
134	0xbd24b7b7	-0.040214267
135	0xbd050a66	-0.03248062
136	0x3ec140dd	0.377448
137	0xbcd3157a	-0.025767077
138	0x3e71abcd	0.23600693
139	0xbcefaffd	-0.029258722
140	0x3cd0f5f3	0.025507903
141	0xbdd45ddb	-0.10369464
142	0xbdb3243a	-0.08747144
143	0xbd6d9ea6	-0.058012627
144	0x3ebd1ca2	0.36935908
145	0xbcb24934	-0.021763422
146	0x3e0c2fa1	0.13690044
147	0xbe355626	-0.17708644
148	0xbd743b2c	-0.059626743
149	0x3e5b1f9a	0.21398774
150	0x3aa2c4db	0.0012418287
151	0x3d351b56	0.044215523
152	0xbe22cf8c	-0.15899485
153	0xbc70ef69	-0.014705517
154	0x3e7eaec7	0.2487136
155	0xbda5fdbe	-0.08105038
156	0x3f3aba0c	0.72940135
157	0x3d965bae	0.07341705
158	0x3d613663	0.054983508
159	0x3e07175e	0.13192508
160	0xbf4815c0	-0.7815819
161	0x3e3d14e8	0.18465006
162	0xbe237939	-0.15964212
163	0xbd170de7	-0.036878493
164	0xbe01d89a	-0.12680283
165	0xbe8cbdc0	-0.27488518
166	0x3d38733e	0.04503178
167	0x3e1379ed	0.1440198
168	0x3dcce1dc	0.10004017
169	0xbf1936f1	-0.5984946
170	0x3e8d8788	0.27642465
171	0xbde3bcb1	-0.111199744
172	0xbe639651	-0.2222531
173	0x3d99c7aa	0.07508786
174	0x3e41cd0a	0.18925872
175	0xbf3aa4ca	-0.729077
176	0x3e902975	0.2815663
177	0x3f12f151	0.5739947
178	0x3dfe0a08	0.12404257
179	0x3e11e6a5	0.1424814
180	0xbd42a4e9	-0.04752055
181	0xbdc5d86c	-0.0966042
182	0xbecb6857	-0.39728042
183	0x3e2bbb54	0.16770679
184	0xbe9f0ff9	-0.31066874
185	0xbdfa6caf	-0.12227761
186	0x3f376bc9	0.7164884
187	0xbe88c2c9	-0.2671111
188	0x3d137532	0.036000438
189	0x3f3438a4	0.70398927
190	0xbda07a76	-0.078358576
191	0xbe4dbd59	-0.20091762
192	0x3cd28431	0.0256978
193	0x3d940e1e	0.07229255
194	0xbe415e50	-0.18883634
195	0xbe65bb82	-0.2243481
196	0x3e47ecaf	0.19523881
197	0xbd985f92	-0.074401036
198	0x3dfdfdc2	0.12401916
199	0xbdd837bf	-0.10557508
200	0xbe05bd6a	-0.13060537
201	0xbd88173b	-0.06645056
202	0xbe331f5f	-0.17492436
203	0x3c2fcc48	0.010729857
204	0xbd9e8ffb	-0.07742306
205	0xbe0ee817	-0.13955723
206	0xbeb8c7ef	-0.36090037
207	0xbe3b0e77	-0.18267237
208	0x3d85d1df	0.0653417
209	0xbeeccc49	-0.46249607
210	0xbdc16ae4	-0.09444216
211	0xbdafec67	-0.08590012
212	0xbe0671e8	-0.1312939
213	0xbdfaec95	-0.12252156
214	0xbdc87416	-0.09787767
215	0x3e59da41	0.21274664
216	0x3dd5735d	0.104223944
217	0x3d9ca0c9	0.07647855
218	0x3d9e4632	0.077282324
219	0xbf00d901	-0.5033112
220	0xbe2da2c1	-0.16956617
221	0xbef86ac4	-0.48518956
222	0x3d127e56	0.035765015
223	0xbe883a18	-0.26606822
224	0xbe93e369	-0.28884438
225	0xbdf88d1a	-0.12136288
226	0x3d9e8580	0.07740307
227	0xbee02c18	-0.4378364
228	0xbe82d481	-0.25552753
229	0x3ea57415	0.32315126
230	0xbe94a8d3	-0.29035053
231	0x3e00d47a	0.12581053
232	0xbd499037	-0.0492098
233	0xbe8759f1	-0.26435807
234	0xbd29d224	-0.04146017
235	0x3eb96098	0.36206508
236	0xbe3037e8	-0.17208827
237	0xbd6bd42e	-0.057575397
238	0xbde96446	-0.11396079
239	0xbec62a99	-0.38704374
240	0xbb845fc2	-0.0040397355
241	0x3ec640ff	0.38721463
242	0x3e8a9510	0.2706685
243	0x3e16cd52	0.14726761
244	0x3e3e24f3	0.18568783
245	0x3eaee3c9	0.3415816
246	0xbe2814e3	-0.16414218
247	0x3f3920b6	0.7231554
248	0x3de69609	0.11259086
249	0x3d92eff6	0.07174675
250	0xbd3dcbcc	-0.046336934
251	0xbe2d3f0a	-0.16918579
252	0x3d9b0d8f	0.075709455
253	0xbc2a6dc1	-0.010402144
254	0x3e8f1fa1	0.27953818
255	0x3f0a12a0	0.5393467

convs.1.bias f4 [256]
0	0xc0015122	-2.020577
1	0x3ef85028	0.48498654
2	0xbfca9fd8	-1.583003
3	0xbf1fdedb	-0.62449425
4	0xbf198f75	-0.59984523
5	0xbf14b19b	-0.58083504
6	0x3dca8a47	0.098896556
7	0x3e49ba52	0.19699982
8	0x3ddf711e	0.10910247
9	0x40418f90	3.0243874
10	0x3efaffa4	0.49023163
11	0x3e2381bd	0.1596746
12	0x3e7f67fe	0.24942014
13	0xbe99f835	-0.3007218
14	0x3fc7e841	1.5617753
15	0x406910ec	3.6416578
16	0x3ff10bff	1.8831786
17	0x3f817151	1.0112706
18	0xbf9e2ce3	-1.2357448
19	0x3ff9dfbb	1.9521402
20	0xbe8921f1	-0.26783708
21	0xbde8e66c	-0.113720745
22	0x3abf9bb9	0.0014618553
23	0xc07102e0	-3.7658005
24	0xbea912d7	-0.33022186
25	0xbf6d31f4	-0.9265435
26	0xbe98e5cf	-0.2986283
27	0x3f9ccbed	1.2249733
28	0x3e029a59	0.12754191
29	0xbd8ab427	-0.067726426
30	0xbdf59d27	-0.11992865
31	0xbee8e502	-0.4548722
32	0xbf07ea0b	-0.53091496
33	0x3d952e18	0.07284182
34	0x3ef0d028	0.4703381
35	0x401145cd	2.2698853
36	0x3f8d323e	1.1030958
37	0x40791423	3.891854
38	0xbc6084c7	-0.013703532
39	0xbfd29117	-1.6450528
40	0xbe3626bb	-0.17788212
41	0x407bd5fc	3.9349356
42	0x4026b45c	2.6047583
43	0x3e8c9126	0.2745449
44	0xbd689953	-0.056786846
45	0x40008dbd	2.008651
46	0x3ea673d8	0.32510257
47	0x4011fbcc	2.2809935
48	0x3c90a03c	0.01765453
49	0x404cc08f	3.1992528
50	0x4057d1d3	3.3721817
51	0xbe197547	-0.14986144
52	0xbf20ae60	-0.62766075
53	0xbf060ae1	-0.5236035
54	0xbff7d8ea	-1.9363072
55	0x3e9e1774	0.30877268
56	0x3d9d1523	0.07670047
57	0xbee75e40	-0.45189095
58	0xbf2885b9	-0.65829045
59	0x400cebee	2.2019
60	0x400165ec	2.0218458
61	0xbfb1e919	-1.3899261
62	0xbf09097b	-0.5353009
63	0x4007e49e	2.1233287
64	0xbf82e0db	-1.022487
65	0x3cd2c146	0.025726926
66	0x3e3b68e4	0.18301731
67	0xbf249295	-0.64286166
68	0xbf09c50a	-0.5381628
69	0x3d153d54	0.03643544
70	0xbe521512	-0.2051585
71	0x3d40b0d0	0.04704362
72	0xbe84a0d6	-0.25903958
73	0x3f8e8ca7	1.1136674
74	0xbf36e328	-0.7144036
75	0x402d25f9	2.7054427
76	0xbe52b8ef	-0.20578359
77	0xbf296678	-0.6617198
78	0x403cba5b	2.9488742
79	0xbe95ff8e	-0.29296535
80	0x3f28d9b2	0.65957177
81	0x3ee62885	0.4495279
82	0x3e818b40	0.25301552
83	0x3fccf4b8	1.6012182
84	0xc01e9635	-2.477918
85	0x4049f201	3.1553957
86	0xbd7ddb6c	-0.061976835
87	0x3d12ad29	0.03580967
88	0x3d8ede02	0.069759384
89	0x3e8829b3	0.26594314
90	0xbeeefe73	-0.46678504
91	0x406d60b0	3.7090263
92	0xbf728f06	-0.94749486
93	0xc0338063	-2.804711
94	0x3ff5fc90	1.9217701
95	0x3f88e864	1.069592
96	0x404dee1f	3.2176588
97	0x3e9a1057	0.3009059
98	0x3f5d12d0	0.8635683
99	0xbff85b8a	-1.9402936
100	0x403798b1	2.8686945
101	0x3fc58f4b	1.5434355
102	0xbe8a00ed	-0.2695383
103	0xbe7cf98f	-0.24704574
104	0xbebeff6c	-0.37304246
105	0x4075205a	3.8300996
106	0xbe951904	-0.29120648
107	0x3e7b745c	0.24556106
108	0xbf3213dc	-0.69561553
109	0xbe457da9	-0.19286217
110	0xbf04b8ea	-0.51844656
111	0x3ef42325	0.47683063
112	0xbfeef472	-1.8668349
113	0xbf30058f	-0.6875848
114	0xbcbcf8dc	-0.023067884
115	0x3d8d6b2a	0.069052055
116	0x3d867792	0.06565775
117	0xbd6d0d90	-0.057874262
118	0xbec28d32	-0.37998348
119	0x3ede9b74	0.43477976
120	0x3f7d7e62	0.9902097
121	0xbe56f327	-0.20991193
122	0x3eb70cc8	0.3575194
123	0x3cc590a3	0.02411682
124	0x3e8f4a8e	0.27986568
125	0xbf3dcb42	-0.7413827
126	0xbf2a09d1	-0.6642123
127	0x3e92d03f	0.28674504
128	0xbf412f44	-0.75462747
129	0x3dcdac22	0.10042597
130	0x3f2f295c	0.68422484
131	0xbf3d27fd	-0.7388914
132	0x3de8fe57	0.113766365
133	0xbf79ba73	-0.97550124
134	0xbe3f7fc4	-0.18701082
135	0x40411997	3.0171869
136	0xbf4b05ec	-0.7930591
137	0xbf19301b	-0.5983903
138	0xbf27a908	-0.65492296
139	0x3dd46924	0.103716165
140	0x3d7a90ed	0.06117337
141	0xbf0960a7	-0.53663105
142	0xbf0fbafd	-0.56144696
143	0x3e0a10ab	0.13482921
144	0x3af6331d	0.0018783543
145	0x3e1711f6	0.14752945
146	0x3ec811a7	0.39075968
147	0xbfa12d97	-1.2592038
148	0xbe8899e8	-0.2667992
149	0xbde80723	-0.11329486
150	0x40460458	3.0940151
151	0x404ab67a	3.1673875
152	0xbede7efe	-0.43456262
153	0xbe859f06	-0.26097888
154	0xbe530b54	-0.2060979
155	0xbf5d4ee0	-0.8644848
156	0xbdeb824b	-0.11499461
157	0xbe8b8de3	-0.27256688
158	0xbebe6765	-0.3718826
159	0xbf7ad403	-0.97979754
160	0xbf4c0d47	-0.7970776
161	0x3faac5c9	1.3341609
162	0xbdf80e2e	-0.121120796
163	0x3e19e367	0.15028153
164	0xbdafed12	-0.085901394
165	0xbd82d5ea	-0.06388457
166	0x3e6e2d54	0.23259479
167	0xbea9eeb5	-0.33189932
168	0x3c26c06a	0.010177711
169	0x3eeaa1bb	0.45826516
170	0xbe26c623	-0.1628652
171	0xbe9f1ba9	-0.3107579
172	0x3e7a0a52	0.24418
173	0xbcc0b60f	-0.023524312
174	0x3e457651	0.19283415
175	0x3fec171e	1.8444555
176	0xbf7e11a1	-0.9924565
177	0x3cd319a5	0.025769064
178	0x3e60fe8a	0.21972099
179	0xbecfca0f	-0.40583846
180	0x3dc356c0	0.095380306
181	0x3904948d	0.0001264384
182	0x3f479e01	0.7797547
183	0xbee19e23	-0.4406596
184	0x403735ed	2.8626664
185	0x3f1f85ea	0.6231371
186	0xbf9907aa	-1.1955464
187	0x40695cbf	3.6462858
188	0x3df95153	0.121737145
189	0x3ff24fda	1.8930619
190	0x3e391a25	0.1807638
191	0xbf409205	-0.7522281
192	0x3fc3ae5f	1.5287589
193	0xbe90612d	-0.2819914
194	0x4032139d	2.782447
195	0x403720dd	2.8613808
196	0x3f0e7d48	0.55659914
197	0x408274c0	4.0767517
198	0x3f88a56e	1.0675485
199	0x3f9f35a2	1.2438242
200	0xbe669cdd	-0.22520776
201	0x405d2b08	3.4557514
202	0xbf1f159f	-0.62142366
203	0x3e425265	0.18976744
204	0x400d236e	2.2052875
205	0x402253d0	2.5363655
206	0x3e2fe7eb	0.17178313
207	0x3f83abe8	1.0286837
208	0x400417cf	2.0639532
209	0xbf3ad812	-0.7298595
210	0x3d046036	0.032318316
211	0x40105f25	2.2558072
212	0xbf4d1fb9	-0.8012653
213	0xbde09e0a	-0.109676436
214	0xc0189538	-2.3841076
215	0xbf1a6df2	-0.60324013
216	0x3ec62cf8	0.38706183
217	0x401e62fe	2.474792
218	0x3e852439	0.26004198
219	0xbec71e6a	-0.38890392
220	0xbdab9c9e	-0.08379482
221	0x3dcc356e	0.099711284
222	0xbf7660e1	-0.96241575
223	0x3f025e68	0.509253
224	0xbeffb279	-0.4994085
225	0xbe0dabd5	-0.1383508
226	0x3f978baf	1.1839503
227	0x3fd4957d	1.660812
228	0xbf79e207	-0.97610515
229	0x400d5107	2.2080705
230	0x3f969511	1.1764241
231	0x3f9a743a	1.206672
232	0x40015ea6	2.021402
233	0x3eb1d3f7	0.3473203
234	0x3e6a3da4	0.22875077
235	0x3ea18dfd	0.3155364
236	0x405f31da	3.4874177
237	0x400b9f2e	2.1815906
238	0x3e2edd47	0.17076598
239	0x3e5c570d	0.21517582
240	0xbef05ba9	-0.4694493
241	0x3e7b9e4b	0.24572103
242	0x3f8fb3c3	1.1226734
243	0xbef9532f	-0.48696277
244	0x404824b3	3.12724
245	0xbf6abb11	-0.9169169
246	0xbe435eb6	-0.19079098
247	0x3d9c3af7	0.07628434
248	0xbf003ca7	-0.5009255
249	0x3f85cd91	1.0453359
250	0x3fbca6f4	1.473845
251	0x3d6b5d7d	0.057462204
252	0xbf772f87	-0.96556896
253	0x4018fad5	2.3903096
254	0xbe67e6d1	-0.22646643
255	0xbec9ab53	-0.39388523

convs.1.lin.weight f4 [256, 256]
0	0xbf0edf6a	-0.5580965
1	0x3df8b482	0.12143804
2	0xbe7d60b6	-0.24743924
3	0x3f492d97	0.7858519
4	0x3e501f38	0.20324409
5	0x3e3acc26	0.18241939
6	0xbd8355ad	-0.06412826
7	0x3f42320c	0.75857615
8	0xbd7fdc07	-0.062465694
9	0xbe1bf553	-0.15230303
10	0xbdab85d2	-0.083751336
11	0x3d3625c3	0.044469606
12	0xbd257e1a	-0.040403463
13	0xbeb56eba	-0.3543604
14	0xbf21bdc5	-0.6318019
15	0xbde82e21	-0.113369234
16	0xbe8225ab	-0.25419363
17	0x3d393f7f	0.04522657
18	0x3fb316eb	1.3991369
19	0xbd9f4b47	-0.0777803
20	0xbfa76371	-1.3077222
21	0xbe0862d1	-0.13318945
22	0x3e5e2aad	0.21695967
23	0x3cc59337	0.02411805
24	0x3e94defe	0.2907638
25	0xbd8f1869	-0.06987078
26	0x3ec9f65d	0.39445773
27	0xbe2ff1af	-0.17182039
28	0x3d9949b1	0.07484759
29	0x3ed24685	0.41069427
30	0xbfc6ba4e	-1.5525606
31	0xbfbb2c1c	-1.4622836
32	0x3f91bc3b	1.1385568
33	0x3ede8aa9	0.43465164
34	0xbff3b9f8	-1.9041128
35	0xbe5ebecd	-0.21752472
36	0x3e35efe3	0.17767291
37	0xbcd06e7e	-0.025443312
38	0x3e3857e7	0.18002282
39	0x3ea2f959	0.31830862
40	0xbeff2ad7	-0.49837372
41	0x3ed3a034	0.41333163
42	0xbf20880a	-0.6270758
43	0x3e9057c1	0.2819195
44	0xbe1ef5f5	-0.15523513
45	0x3f2fa9a8	0.6861825
46	0x3eaa7dc4	0.33299077
47	0xbdd4a391	-0.1038276
48	0x3ddc08f3	0.107438944
49	0x3fb6b74d	1.4274689
50	0xbf82c5e4	-1.0216641
51	0x3f7c7bcc	0.986264
52	0x3f6687c8	0.90050936
53	0x3edb4209	0.42823818
54	0xbda737e5	-0.08164958
55	0xbdaae2ca	-0.08344038
56	0xbd818a22	-0.06325175
57	0xbdda48b9	-0.10658402
58	0xbf5c22f9	-0.85990864
59	0xbead049a	-0.33792573
60	0xbdce0d72	-0.10061158
61	0xbe5182fd	-0.20460124
62	0xbccb567e	-0.024821516
63	0x3f803c12	1.0018332
64	0xbfa1bbdd	-1.2635456
65	0xbdfe58ac	-0.124192566
66	0x3f2d600e	0.6772469
67	0x3f94cfe2	1.1625941
68	0x3d4e90a9	0.050430927
69	0xbd9c0dae	-0.07619797
70	0x3f19727e	0.59940326
71	0x3e352010	0.17688012
72	0x3e1c065c	0.15236801
73	0x3e1b0145	0.15137203
74	0x3d06723c	0.032823786
75	0x3f1d296a	0.6139132
76	0x39d10efe	0.00039874756
77	0x3ebd5e87	0.3698618
78	0xbe3356ce	-0.17513582
79	0x3dbbb360	0.091650724
80	0xbdc60b17	-0.09670084
81	0xbe87fe5e	-0.26561254
82	0xbe786308	-0.24256527
83	0xbc852f1c	-0.016257815
84	0xbf9dbcc9	-1.2323238
85	0xbe4cada9	-0.19988121
86	0xbee2955d	-0.4425458
87	0xbefe4953	-0.49665317
88	0x3e771e1a	0.24132577
89	0xbebc77cd	-0.3681015
90	0xbe6461f8	-0.22302997
91	0x3fa78daa	1.3090107
92	0x3dea72a4	0.11447647
93	0xbbd1fd8f	-0.0064084004
94	0xbe4d8a33	-0.2007225
95	0x3ee4f98b	0.44721636
96	0xbd7ac5b4	-0.0612237
97	0xbd799426	-0.0609323
98	0xbe780e36	-0.24224171
99	0x3fe6fa4a	1.8045132
100	0xbcc55377	-0.02408765
101	0xbe55c1a4	-0.2087465
102	0x3fc4736d	1.5347725
103	0xbdc9647b	-0.09833618
104	0xbbb0935b	-0.00538866
105	0x3f891ace	1.0711305
106	0x3fa41bb2	1.2820952
107	0x3f82eb88	1.0228128
108	0xbcaf678d	-0.021411682
109	0x3e251071	0.16119553
110	0xbe5a08ca	-0.21292415
111	0xbe3190bd	-0.1734037
112	0x3d0a35ca	0.033742703
113	0xbd6aff48	-0.05737236
114	0x3f646811	0.8922129
115	0x3fd52600	1.6652222
116	0x3dce54ee	0.10074793
117	0x3eb9c053	0.36279544
118	0xbf9b4136	-1.2129276
119	0x3dc33cf9	0.09533114
120	0x3ed02ace	0.40657657
121	0x3ee724fd	0.45145407
122	0xbe18787d	-0.14889713
123	0xbec2303e	-0.3792743
124	0xbdb0410b	-0.08606156
125	0x401ed709	2.4818747
126	0x3df1fb42	0.11815502
127	0x3c84adee	0.016196217
128	0x3b48865f	0.003059767
129	0x3e921bc8	0.2853682
130	0xbe6885c6	-0.2270728
131	0x3c9eb05b	0.019371202
132	0xbf6f9681	-0.93589026
133	0xbf00c034	-0.5029328
134	0xbf25ba01	-0.64736944
135	0xbe218283	-0.15772443
136	0x3dcaa284	0.09894279
137	0xbda19798	-0.07890242
138	0xbdb76715	-0.08955208
139	0xbc77a1a8	-0.015114225
140	0x3f9e929d	1.2388493
141	0x3e081eaa	0.13292947
142	0xbe61d97f	-0.22055624
143	0xbdb1fd7b	-0.08690926
144	0x3eb4fe4e	0.3535027
145	0xbc9a4005	-0.018829355
146	0xbd15c4ab	-0.03656451
147	0xbd359bee	-0.04433816
148	0x3fb5dfbf	1.4208907
149	0xbfa2b815	-1.2712427
150	0xbe1878ad	-0.14889784
151	0x3ef2b9d6	0.47407407
152	0x3e7d9085	0.24762161
153	0x3e44dafd	0.19224162
154	0xbead83dc	-0.33889663
155	0xbec07e4d	-0.3759636
156	0xbf0b9cfc	-0.54536414
157	0xbf4389f4	-0.76382375
158	0x3d3da5be	0.046300642
159	0x3cbe36dd	0.02321952
160	0xbc6d3acc	-0.01447935
161	0xbe155277	-0.14582239
162	0x3f795f64	0.9741118
163	0xbdddd225	-0.108310975
164	0x3d8913fe	0.06693266
165	0x3f869e60	1.0517082
166	0x3e2cd775	0.16879065
167	0x3dd5a4f2	0.104318514
168	0xbde6599d	-0.11247561
169	0x3e85c66c	0.26127946
170	0xbd944c1e	-0.07241081
171	0x3f2a9a6c	0.6664188
172	0x3e855244	0.26039326
173	0xbf9d255d	-1.2277027
174	0x3ddae98b	0.10689076
175	0xbf045986	-0.516991
176	0xbca3d3f2	-0.019998524
177	0x3a73228c	0.0009274862
178	0x3cca509e	0.024696644
179	0xbde0bdb4	-0.10973683
180	0x3ea5774b	0.32317576
181	0xbcfbe43f	-0.030748485
182	0x3f9ff990	1.2498035
183	0x3e9028b5	0.28156057
184	0xbda5ee5a	-0.081021026
185	0x3e2d9d37	0.16954504
186	0xbdb9bdd2	-0.090694085
187	0x3ea2db19	0.31807783
188	0x3f7ed27a	0.9953991
189	0xbd177cec	-0.03698437
190	0xbd64b79e	-0.055839173
191	0x3e362414	0.177872
192	0x3e0c05f3	0.13674144
193	0x3e4dbd8c	0.20091838
194	0xbe4af57a	-0.19820204
195	0x3c1881aa	0.009308258
196	0x3ebe24bf	0.3713741
197	0xbf072910	-0.5279703
198	0xbde5cf17	-0.1122114
199	0x3fa0bea2	1.2558177
200	0xbe56e7f2	-0.20986918
201	0x3ff8447f	1.9395903
202	0xbce18791	-0.027530463
203	0x3d552002	0.05203248
204	0x3ecbedf5	0.39829984
205	0xbd931f78	-0.071837366
206	0x3e0a1134	0.13483125
207	0x3ecb0ec0	0.3965969
208	0x3f82ef2b	1.0229238
209	0x3d832d65	0.06405143
210	0xbce54d89	-0.027991073
211	0x3e8b5686	0.2721445
212	0x3f81cd66	1.0140808
213	0x3e111864	0.1416946
214	0xbf34955c	-0.70540404
215	0xbd3b1b95	-0.0456806
216	0x3ad8bb9b	0.0016535403
217	0xbc9cc253	-0.01913563
218	0xc0143ebc	-2.316329
219	0x400c86ab	2.1957195
220	0x3f147f7e	0.5800704
221	0x3e2d2721	0.16909458
222	0xbd135e6b	-0.035978716
223	0x403eae52	2.9793897
224	0xc00852d2	-2.130055
225	0x3d9d1c0c	0.07671365
226	0xbe268b28	-0.16264021
227	0x3f33a8a4	0.701792
228	0xbe3f82e5	-0.18702276
229	0xbe2b0d81	-0.1670437
230	0xbfe138e2	-1.7595484
231	0x3fffa9cb	1.9973692
232	0x3f7cdd9d	0.98775655
233	0xbb72a2ee	-0.0037023383
234	0x3d5c6eb8	0.053816527
235	0xbe9e078c	-0.30865133
236	0x3f990d67	1.1957215
237	0x3f6f6564	0.93514085
238	0xbf8bddd1	-1.0927068
239	0xbf00cd4c	-0.5031326
240	0x3e6c1733	0.23055725
241	0xbfe53505	-1.7906805
242	0xbd3963cb	-0.045261186
243	0xbcc019c2	-0.023449782
244	0x3e6083d6	0.21925291
245	0x3e592866	0.21206817
246	0xbe76c900	-0.24100113
247	0x3e63c136	0.22241673
248	0xbe999462	-0.2999602
249	0x3d138985	0.03601982
250	0xbe301084	-0.171938
251	0x3cd91272	0.026498053
252	0xbec3cc68	-0.38241887
253	0xbc25cbf8	-0.010119431
254	0x3f8a494c	1.0803618
255	0x3d79c659	0.060980175

convs.2.bias f4 [256]
0	0x3f5399ae	0.8265637
1	0x3d53e3eb	0.05173103
2	0xbf9c9e35	-1.2235781
3	0xbf09cf4e	-0.53831947
4	0x3ef8702d	0.48523083
5	0x3f5bfed4	0.8593571
6	0x3e5aab52	0.21354416
7	0xbe12603f	-0.14294527
8	0x3da03e64	0.078244
9	0x3eb4cdef	0.35313365
10	0xbe8c2800	-0.27374268
11	0xbdc1d418	-0.09464282
12	0x3f83fada	1.0310929
13	0xbf58d6ec	-0.84702945
14	0x40228c5e	2.5398173
15	0x3fc6d100	1.5532532
16	0xbf485000	-0.7824707
17	0x3f933e7a	1.1503441
18	0x3da66446	0.081245944
19	0xbf0a86e0	-0.5411205
20	0x3f850c43	1.0394367
21	0xbd0af3c1	-0.033923868
22	0xbca9eb47	-0.020742072
23	0x3fd2bc51	1.646372
24	0xbf02df10	-0.51121616
25	0xbea1438b	-0.31496844
26	0x3e93e8f6	0.28888673
27	0xbef99f5d	-0.48754397
28	0x3f0993f7	0.537414
29	0x3ef24835	0.47320715
30	0x3f1cb799	0.6121765
31	0xbf3988b0	-0.72474194
32	0xbf0409c6	-0.51577413
33	0xbe6698e1	-0.22519256
34	0x3ed28e0d	0.41124
35	0xbd62b345	-0.055346746
36	0x3f63dffd	0.89013654
37	0x3f10ad61	0.56514555
38	0xbe1c318f	-0.1525328
39	0x3f123077	0.571052
40	0xbf186368	-0.5952668
41	0x3e1e1e45	0.15441234
42	0x3eb3807b	0.3505896
43	0x3f91249c	1.1339297
44	0xbed2ba56	-0.41157788
45	0x3e96d4b1	0.29459146
46	0xbeea88a7	-0.45807382
47	0x3f4e060a	0.80477965
48	0x3eb43639	0.3519762
49	0xbe8dff89	-0.2773402
50	0x3f5b7fbb	0.85741776
51	0xbe6e0811	-0.23245265
52	0xbf175ba4	-0.5912421
53	0xbf114578	-0.56746626
54	0x3f2a535a	0.66533434
55	0xbe156de9	-0.14592709
56	0xbe6d828f	-0.23194335
57	0x3d1a68c7	0.03769758
58	0xbeeacf64	-0.4586135
59	0x3eeb8490	0.45999575
60	0xbea512f1	-0.32241014
61	0x40845255	4.1350503
62	0x3f8a2148	1.0791407
63	0x3eca0db6	0.39463586
64	0xbd387af4	-0.045039132
65	0x3ee325a3	0.44364652
66	0xbe018fbb	-0.12652485
67	0x3ed2e287	0.41188452
68	0x3df55ae2	0.11980225
69	0x3d8ca0d9	0.06866617
70	0x3f2eb568	0.68245554
71	0xbff17846	-1.886483
72	0x3f03625f	0.5132198
73	0xbe9cc1be	-0.30616564
74	0xbf12f570	-0.5740576
75	0x3f98d5cf	1.1940249
76	0xbe086613	-0.13320188
77	0xbebe562e	-0.37175125
78	0x40804e94	4.009592
79	0xbeb6c819	-0.35699537
80	0xbe29b9c7	-0.16574775
81	0xbe91e1f7	-0.2849271
82	0xbe580451	-0.21095397
83	0x3ea928de	0.33038992
84	0x3f487f5e	0.78319347
85	0xbf2b81a9	-0.6699472
86	0x3fdbad6b	1.7162298
87	0x3f1d9aa9	0.6156412
88	0xbf2cbfd8	-0.6748023
89	0xbbbca890	-0.005757399
90	0x3f1a2c32	0.60223687
91	0x3f257171	0.6462622
92	0xbea3b5d6	-0.31974667
93	0xbf4af41a	-0.7927872
94	0x3ebd6312	0.36989647
95	0x3e8c49f4	0.27400172
96	0x3fb03b25	1.376805
97	0x3ebc0608	0.3672335
98	0xbe78e430	-0.24305797
99	0x3f6ddca7	0.92914814
100	0x3f353b87	0.70793957
101	0x3e9f0093	0.31055126
102	0xbe987b7c	-0.2978171
103	0x3ed2346a	0.41055614
104	0x3de8d86c	0.11369404
105	0x3ffd0be2	1.9769251
106	0x3e119989	0.14218725
107	0x3f2ad70f	0.66734403
108	0xbf045f61	-0.51708037
109	0x3e4bdab4	0.19907647
110	0x40494c85	3.1452954
111	0x3ec00647	0.3750479
112	0xbe09272d	-0.1339385
113	0x3d86c8a2	0.065812364
114	0x3e834d71	0.2564502
115	0xbf14ada8	-0.5807748
116	0xbde1975e	-0.11015199
117	0x3e32b203	0.17450719
118	0x3f57e42a	0.84332526
119	0xbfa82f15	-1.3139368
120	0xbe4990d0	-0.19684148
121	0x3e8b45e9	0.27201775
122	0xbf0a9bbf	-0.541439
123	0xbdbce6e4	-0.092237264
124	0x3e976adc	0.29573715
125	0x3eee88b6	0.46588677
126	0xbeaeb6f4	-0.34123957
127	0xbd0598b0	-0.032616317
128	0x3da6d1be	0.08145474
129	0x406c0712	3.6879315
130	0x3da480a6	0.0803235
131	0x3d8c87dc	0.068618506
132	0x3ec3aff4	0.3822018
133	0x3d3a85f8	0.04553792
134	0xbca53545	-0.020167002
135	0x3fb53530	1.4156857
136	0x3f1f6104	0.6225741
137	0x3e23b4d6	0.15986952
138	0xbe44fd59	-0.1923727
139	0xbf3439e8	-0.7040086
140	0x3f68c4cf	0.90925306
141	0x3de9b17e	0.11410807
142	0xbf7698a2	-0.9632665
143	0x3f6be432	0.92145073
144	0x3e8b7001	0.2723389
145	0x3e431089	0.19049276
146	0xbb9532e7	-0.004553187
147	0x3e58e5b2	0.21181372
148	0x3e07920e	0.13239309
149	0xbed99fb0	-0.42504644
150	0x40bd72f8	5.9202843
151	0xbf362aa3	-0.7115881
152	0xbf2f8767	-0.6856598
153	0x3ea89408	0.3292544
154	0xbe8c7ae7	-0.27437517
155	0xbc9fc31b	-0.019502213
156	0x3e9e44f4	0.30911982
157	0x3de4c05f	0.111695044
158	0xbf315f63	-0.69286174
159	0xbeafe8aa	-0.34357196
160	0xbeaf4121	-0.34229377
161	0x3f3b8262	0.73245823
162	0x3fa3aa0b	1.2786268
163	0x3eb8e658	0.36113238
164	0xbeff1590	-0.49821138
165	0xbec69e50	-0.38792658
166	0xbe96b061	-0.2943144
167	0xbee4466a	-0.44584972
168	0xbd607477	-0.05479857
169	0xbf6d7968	-0.92763376
170	0xbd6d9044	-0.05799891
171	0x3f9b0ad9	1.2112685
172	0x3f3cf217	0.738069
173	0x3e9794bc	0.29605663
174	0xbec57e80	-0.38573074
175	0x3fb89861	1.4421502
176	0x3f08e864	0.534796
177	0x3f1e8232	0.6191741
178	0x3f30b9d8	0.69033575
179	0x3eaf27cb	0.34210047
180	0x3edc6d16	0.43051976
181	0x3f7e1787	0.9925465
182	0xbf0e657a	-0.5562359
183	0xbeafe07a	-0.3435095
184	0xbe3c6ab0	-0.18400073
185	0x3fb40024	1.4062543
186	0xbe1f4666	-0.15554199
187	0x3cb6aeaa	0.022300083
188	0x4031615c	2.7715673
189	0x3e960297	0.2929885
190	0x3e206516	0.15663561
191	0x3edd92f8	0.4327619
192	0x3fccdb1f	1.600437
193	0x3d9280d7	0.071534805
194	0xbe89944c	-0.26870954
195	0x3ca13c20	0.01968199
196	0x3f122d71	0.5710059
197	0xbedeae7c	-0.43492496
198	0xbf01d6c9	-0.5071836
199	0xbec5f783	-0.386654
200	0x3e0a23ac	0.1349017
201	0x3f541111	0.8283854
202	0xbf795914	-0.9740155
203	0x3e085441	0.1331339
204	0x3fb25155	1.393107
205	0x3ef5a5c5	0.47978035
206	0x4012ed30	2.2957268
207	0xbf350150	-0.7070513
208	0x3d9629be	0.073321804
209	0x3fc44e78	1.5336447
210	0xbce01b04	-0.027356632
211	0x3de051f6	0.10953133
212	0xbe41cc60	-0.18925619
213	0x3edb8036	0.42871255
214	0xbe8a9556	-0.2706706
215	0xbe0ff2f8	-0.14057529
216	0x3d46362e	0.048391514
217	0xbebc0c4e	-0.36728138
218	0xbfa5a620	-1.2941322
219	0x3d54b5fc	0.051931366
220	0xbd9eeb66	-0.077597424
221	0xbe69b471	-0.22822739
222	0xbf68502d	-0.9074734
223	0x3ea47d6c	0.3212694
224	0x3fc3c87e	1.529556
225	0xbc69103d	-0.014225063
226	0xbefbe352	-0.4919687
227	0x3fc11f73	1.5087723
228	0xbdbfe083	-0.09368994
229	0x3e69dbdc	0.22837776
230	0x40934610	4.6023026
231	0xbf538690	-0.826272
232	0x3d41e91f	0.047341462
233	0x3fb54aae	1.4163415
234	0xbf070885	-0.52747375
235	0x3dda108a	0.10647686
236	0x3f1bc801	0.60852057
237	0xbd7e0daf	-0.06202477
238	0xbd107514	-0.035267904
239	0x3e8c6769	0.27422646
240	0x3ea5e60d	0.32402077
241	0xbf41a7ce	-0.75646675
242	0xbd8d1ed6	-0.06890647
243	0x3f8310bc	1.0239482
244	0x3f738d93	0.951379
245	0x3ea1d656	0.31608838
246	0x3e1578ed	0.14596911
247	0xbd166d5c	-0.036725387
248	0x3f378d37	0.7169985
249	0x3e922736	0.2854554
250	0x3dbc756b	0.09202083
251	0x3eae6d76	0.34067887
252	0x3ecdfd0e	0.40232128
253	0xbb8534a1	-0.0040651117
254	0xbe209983	-0.1568356
255	0x3f7e17b3	0.9925491

convs.2.lin.weight f4 [256, 256]
0	0x3fb6cdba	1.4281533
1	0x3f653b16	0.89543283
2	0x3f4178a2	0.75574696
3	0x3ee89376	0.45425004
4	0x3f426d59	0.759481
5	0xbf4829e4	-0.7818892
6	0xbed04cd0	-0.40683603
7	0x3f649b31	0.89299303
8	0x3fc093f9	1.5045158
9	0xbd2baefb	-0.04191492
10	0x3f6843be	0.90728366
11	0x3f1b8f76	0.6076578
12	0x3fc257b7	1.5183018
13	0x3e81f890	0.2538495
14	0xbfcdf367	-1.6089906
15	0x3d84e13d	0.06488273
16	0x3f3839a5	0.7196296
17	0x3eb0785e	0.34466833
18	0xbde7e86c	-0.11323628
19	0x3f00a5a6	0.5025276
20	0xbf739bab	-0.95159405
21	0xbea297a4	-0.31756318
22	0x3e93eae3	0.28890142
23	0x3f0b27d4	0.5435765
24	0x3f90625f	1.128002
25	0xbf6d3c1d	-0.9266985
26	0xbf03dce0	-0.51508904
27	0xbe481558	-0.19539392
28	0x3ee3d3b7	0.44497463
29	0x3ea4b195	0.32166734
30	0x3db8fddb	0.09032794
31	0x3e8eb385	0.27871338
32	0xbf6d5a47	-0.9271588
33	0x3f8a83cf	1.0821475
34	0x3ee6c418	0.45071483
35	0xbf1da987	-0.61586803
36	0x3e541a5a	0.20713177
37	0x3e120f8c	0.14263743
38	0xbe0fb487	-0.1403371
39	0x3f611da7	0.8793587
40	0xc00f8ef8	-2.2431011
41	0xbf168048	-0.5878949
42	0xbf204dfd	-0.62619
43	0x3fa432b9	1.2827979
44	0xbd33dc6b	-0.04391138
45	0x3fb422fb	1.4073175
46	0xbece3294	-0.40272963
47	0x3e2fefaf	0.17181276
48	0x3fc954ad	1.5728966
49	0x3fa52109	1.2900707
50	0x3ef34466	0.4751312
51	0x3e3a2003	0.18176274
52	0x3f623d6a	0.8837496
53	0xbf970c50	-1.1800632
54	0x3e92f8c3	0.28705415
55	0xc04d3212	-3.206181
56	0xbfa932a3	-1.3218578
57	0xbe2dc9f0	-0.16971564
58	0xbd96b9a9	-0.073596306
59	0xbec5091a	-0.38483506
60	0x3c9973ea	0.01873203
61	0xbeef7abe	-0.46773332
62	0x3f48d8e6	0.7845596
63	0xbf3b86cc	-0.7325256
64	0x3d369ac2	0.044581182
65	0x3e6cff64	0.23144299
66	0x3f048fbb	0.51781815
67	0x3e97bfeb	0.2963861
68	0xbc16a613	-0.009194869
69	0x3e51b8ca	0.20480648
70	0xbff1eff7	-1.8901356
71	0xbf8d1388	-1.1021585
72	0xbe8f6058	-0.28003192
73	0xbe18f517	-0.14937244
74	0xbf25df32	-0.64793694
75	0xbe80b2bd	-0.25136366
76	0x3e239b7c	0.15977281
77	0xbc9f162c	-0.019419752
78	0xbd644aaa	-0.055735268
79	0x3f598576	0.8496927
80	0x40138524	2.3050013
81	0xbf973fe3	-1.1816372
82	0xbf82fb4d	-1.0232941
83	0x3f437fe7	0.7636704
84	0xbf9e79d4	-1.2380929
85	0x3efb3abf	0.49068257
86	0xbe8602c1	-0.26173976
87	0xbea3dab3	-0.32002792
88	0xbeffcab0	-0.49959326
89	0x3f6e2920	0.930315
90	0x3df3b98c	0.11900625
91	0xbfdce3f7	-1.7257069
92	0x3ecc3f5a	0.39892083
93	0x3e53de76	0.20690331
94	0x3dcae75a	0.09907408
95	0xbec3b74d	-0.38225785
96	0x3d3bf4db	0.04588781
97	0xbf493e2d	-0.786105
98	0xbe7d014c	-0.24707526
99	0xbe6a1e0c	-0.22863024
100	0x3d9843d0	0.07434809
101	0x3d114e0e	0.03547483
102	0xbf65c56c	-0.89754367
103	0x3ff652c9	1.9244014
104	0xbf0e12e8	-0.554976
105	0x3ec14405	0.37747207
106	0x3f541df9	0.82858235
107	0xbea52ef1	-0.32262376
108	0x3dc7196d	0.097216465
109	0x3f94ee28	1.163518
110	0xbe1666ec	-0.14687699
111	0xbfacbdd6	-1.3495433
112	0xbf1ca9f7	-0.61196846
113	0xbe8692e5	-0.26283947
114	0x3e8a5bbf	0.27023122
115	0xbfbf637e	-1.4952238
116	0xbf5a59bb	-0.8529317
117	0xbe775ab1	-0.2415569
118	0xbf8b6454	-1.0889993
119	0x3f4ce0ba	0.80030406
120	0x3d88e15c	0.06683609
121	0x3d9077fe	0.07054137
122	0x3e3658b3	0.17807274
123	0x3f389301	0.7209931
124	0xbf4ce7e4	-0.80041337
125	0xbe45005b	-0.19238417
126	0x3fb34873	1.4006485
127	0xbf748518	-0.95515585
128	0x3e87d64a	0.26530677
129	0x3f132867	0.57483524
130	0xbd22f280	-0.039782047
131	0x3edcfdab	0.43162283
132	0x3f7ea17d	0.9946516
133	0x400c087c	2.1880178
134	0x3f1ff36d	0.62480813
135	0x3d4ab015	0.04948433
136	0x3e86cc84	0.26327908
137	0x3d0db9a1	0.034600858
138	0xbf56ad13	-0.8385784
139	0x3f60376a	0.87584555
140	0x404b2e18	3.1746883
141	0x3f87202c	1.0556693
142	0x3f1ed15f	0.62038225
143	0x3f25f2b4	0.6482346
144	0xbc440bca	-0.011965701
145	0xbfb41318	-1.4068327
146	0xbfc4beaa	-1.5370686
147	0xbe346539	-0.17616738
148	0x3f95981d	1.1687046
149	0xbfc0ea43	-1.5071491
150	0xbe1408c7	-0.14456473
151	0xc00734a4	-2.112588
152	0xbdfa19e5	-0.1221197
153	0x3fe50e69	1.7895023
154	0xbcb79cdb	-0.022413662
155	0x3fe088bd	1.7541729
156	0xbf3e25b2	-0.7427627
157	0xbdda763e	-0.10667084
158	0xbd8f022b	-0.069828354
159	0xbec48870	-0.38385344
160	0x3f4966c6	0.78672445
161	0x3f7ea51e	0.994707
162	0xbfbb8b8b	-1.465196
163	0x3f70a868	0.9400697
164	0xbd9aeda6	-0.07564859
165	0x3fa0b39e	1.2554815
166	0x4002aa69	2.041651
167	0x3f085bba	0.53264964
168	0x3f62faf0	0.8866415
169	0xbfa7103e	-1.3051832
170	0xbea38209	-0.31935146
171	0x3f00fb4f	0.50383466
172	0x3feef9f8	1.8670034
173	0x3e982d2c	0.29721963
174	0xbf8fd910	-1.1238117
175	0xbeb8f823	-0.36126813
176	0xbe4225d6	-0.18959746
177	0xbf82607d	-1.0185696
178	0xbf9577e7	-1.1677216
179	0xc00c2c81	-2.1902163
180	0xbe537ce8	-0.20653117
181	0x3e9bb5a5	0.3041202
182	0x3e8d829c	0.2763871
183	0x3f22ccca	0.63593733
184	0xbe6dce5c	-0.23223251
185	0xbefb22d9	-0.49050024
186	0xbf149043	-0.58032626
187	0x3f9d6722	1.2297099
188	0xbda1daca	-0.07903059
189	0xbf928a0a	-1.1448376
190	0xbcb9eb52	-0.022695217
191	0x3f20c202	0.6279603
192	0xbe36e542	-0.17860892
193	0x3fbef652	1.4918921
194	0xbf6e6093	-0.9311611
195	0xbe58c10b	-0.2116739
196	0xbe583b92	-0.21116474
197	0x3e9abe4a	0.30223304
198	0x3f6c0a41	0.92203146
199	0xbd50af32	-0.05094833
200	0x3e2ed449	0.17073168
201	0x3de7b4e5	0.113138
202	0xbea575f7	-0.32316563
203	0xbfb9903c	-1.4497142
204	0x3da98c77	0.08278745
205	0x3efc3918	0.4926231
206	0xbe736840	-0.23770237
207	0x40294364	2.6447382
208	0xbe44cff8	-0.19219959
209	0x3f94623a	1.1592476
210	0xbe9335e7	-0.28752062
211	0x3ec47585	0.3837091
212	0x3e48b230	0.19599223
213	0x3e825291	0.25453618
214	0xbf8fefc7	-1.1245049
215	0x3e4d4431	0.20045544
216	0x3f49c2bc	0.78812766
217	0x3f33b94a	0.70204604
218	0xbf70cf4d	-0.94066316
219	0xbe2552b4	-0.1614483
220	0x3ef1fbb9	0.47262362
221	0xbf471a05	-0.7777408
222	0x3f1cd3f1	0.61260897
223	0x3f8fd5d0	1.1237125
224	0x3f8fec66	1.1244018
225	0xbefef093	-0.4979292
226	0x3f37043d	0.7149084
227	0xbf357974	-0.7088845
228	0x3f89eabb	1.0774759
229	0x3dc8aae5	0.097982205
230	0xbf2461c9	-0.6421171
231	0xbe350c37	-0.17680441
232	0xbe2578dd	-0.16159387
233	0x3e45c8a0	0.19314814
234	0x3ff29eb4	1.8954682
235	0xbe2c8a88	-0.1684972
236	0xbe431d84	-0.19054228
237	0xbe3a1bac	-0.18174618
238	0x3f8fc2cb	1.1231321
239	0xbe8ab7dd	-0.27093402
240	0x3e1cc38c	0.1530897
241	0x3faf1617	1.3678616
242	0x3f15ebea	0.585631
243	0xbfc1a616	-1.512881
244	0xbef24977	-0.47321674
245	0x3e9b599e	0.3034181
246	0xbf882cc8	-1.0638666
247	0xbea9f9e5	-0.33198467
248	0x3f0fb644	0.5613749
249	0xbe46143a	-0.19343653
250	0x3e18e102	0.14929584
251	0xbfbccd22	-1.4750102
252	0xbdffda49	-0.124928065
253	0x3e0d351f	0.13789795
254	0x3f371699	0.71518856
255	0x40078982	2.1177678

lins.0.0.weight f4 [256]
0	0x3e9cdf2a	0.3063901
1	0x3f432f99	0.76244503
2	0x3e9f7519	0.31144026
3	0x3fa9d3e6	1.3267791
4	0x3fb8b29a	1.4429505
5	0x3f0c73c3	0.5486414
6	0x3f65429d	0.8955477
7	0x3fc575ca	1.5426571
8	0x3eed5bd4	0.46359122
9	0x3f9ff743	1.2497333
10	0x3f19b8f1	0.60047823
11	0x3edd0cd2	0.43173844
12	0x3f8b0923	1.0862163
13	0x3ede3747	0.43401548
14	0x3fd31047	1.6489342
15	0x3f0a924a	0.5412947
16	0x3f2b295b	0.6685998
17	0x3ebda754	0.37041724
18	0x3fb3fcc2	1.406151
19	0x3f16cacc	0.58903193
20	0x3f8ef489	1.1168376
21	0x3e80693d	0.2508029
22	0x3f94e77c	1.1633143
23	0x3f65d55f	0.89778703
24	0x3ede272f	0.4338927
25	0x3ee648d5	0.4497744
26	0x3ed97fa7	0.42480204
27	0x3e602ed2	0.2189286
28	0x3f120599	0.5703979
29	0x3f0c788a	0.5487143
30	0x400643e7	2.0978944
31	0x3f901b4e	1.1258333
32	0x401a53fc	2.411376
33	0x3f8a45c0	1.0802536
34	0x3fa7ff94	1.3124871
35	0x3f0179b1	0.5057631
36	0x3f08bbd9	0.5341163
37	0x3f230363	0.6367704
38	0x3edb162b	0.4279035
39	0x3ea76228	0.32692075
40	0x3f05d371	0.5227576
41	0x3fb5365c	1.4157214
42	0x3fc553b8	1.5416174
43	0x3d972e80	0.07381916
44	0x3ee91ef5	0.4553143
45	0x3fbfea74	1.4993424
46	0x3f263138	0.6491885
47	0x3f04e21f	0.51907533
48	0x3fbd6715	1.4797083
49	0x4069b941	3.651932
50	0x40101443	2.2512367
51	0x3fd5ef70	1.6713696
52	0x3f944221	1.1582681
53	0x3fbe1bc2	1.4852221
54	0x3e885565	0.2662765
55	0x3e758baa	0.23979059
56	0x3ead6c6a	0.33871776
57	0x3e5c53b3	0.21516304
58	0x3f164d33	0.58711547
59	0x3ff77865	1.9333616
60	0x3ef25b89	0.4733546
61	0x3ee7c432	0.45266873
62	0x3fc4fc65	1.5389525
63	0x3fbc2f82	1.4701998
64	0x3fdb137c	1.7115321
65	0x3eb09213	0.34486446
66	0x3f0b08d1	0.5431033
67	0x3fbd2c82	1.4779208
68	0x3ea57df8	0.3232267
69	0xbdeb0c1d	-0.1147692
70	0x3ecad374	0.3961445
71	0x3eaef35a	0.34170038
72	0x3f016413	0.50543326
73	0x4009ef89	2.155245
74	0x3e3ac01a	0.18237343
75	0x3e224869	0.15847935
76	0x3e71e9dd	0.23624368
77	0x3fd67819	1.6755401
78	0x3f9962ce	1.1983278
79	0x3efdc1b9	0.4956186
80	0x3ef83650	0.48478937
81	0x3fe3ef75	1.7807451
82	0x3e93fde8	0.28904653
83	0x3f1137d8	0.56725836
84	0x3feb9cfa	1.840728
85	0x3e59acf7	0.21257387
86	0x3f8fa779	1.1222984
87	0x3fd646a8	1.6740313
88	0x3ea91f02	0.3303147
89	0x3f5d4b5a	0.864431
90	0x3efa935e	0.48940557
91	0x3fb5adb2	1.4193633
92	0x3e88dfa2	0.26733118
93	0x3fcbbeaf	1.5917567
94	0x3e9341fa	0.28761274
95	0x3f072a36	0.52798784
96	0x3f0abe8a	0.5419699
97	0x3f7901ca	0.97268355
98	0x3e6e0ce0	0.23247099
99	0x3fa51509	1.2897044
100	0x401eed79	2.4832442
101	0x3f3bb38e	0.73320854
102	0x3fb71896	1.4304378
103	0x3ed7d35f	0.4215345
104	0x3ecd9468	0.40152287
105	0x3fab1449	1.3365566
106	0x3fcaee4d	1.5853974
107	0x3f96939e	1.1763799
108	0x3f584d1e	0.8449267
109	0x3eee7d24	0.4657985
110	0x3e81de2b	0.25364813
111	0x3f3dd14a	0.74147475
112	0x3f1a813d	0.6035345
113	0x3eded0e7	0.43518755
114	0x3fd8917a	1.6919396
115	0x3fd4736e	1.6597726
116	0x3efcd40c	0.4938053
117	0x3f8f580b	1.1198744
118	0x3fed870a	1.8556836
119	0x3eb23ea9	0.3481343
120	0x3fa7ce0b	1.3109754
121	0x3fc838b5	1.5642306
122	0x3f0e0e4b	0.5549056
123	0x3eb0393f	0.34418675
124	0x3fc1e6b1	1.5148526
125	0x3fa3295e	1.2746999
126	0x3ede1c7a	0.433811
127	0x3e6544cc	0.22389525
128	0x3e86684a	0.2625144
129	0x3fa5a4c7	1.2940911
130	0x3ff94283	1.9473423
131	0x3dcb99ab	0.09941419
132	0x3fc13e14	1.509707
133	0x3f7b25a6	0.9810432
134	0x40463b71	3.097378
135	0x3ec9ff97	0.39452812
136	0x3f061095	0.5236905
137	0x3e486d3e	0.19572923
138	0x3fc305fe	1.5236204
139	0x3edbfb39	0.42965105
140	0x3fb05615	1.377627
141	0x3f78b3ff	0.9714965
142	0x3e1645aa	0.14675012
143	0x3f9fcd81	1.248459
144	0x3f0ba875	0.5455392
145	0x3f86d762	1.053448
146	0x3ec0d0ba	0.37659246
147	0x3f2eb4fc	0.6824491
148	0x400b70fb	2.1787708
149	0x3fd33edd	1.6503559
150	0x3f41c8de	0.75697124
151	0x3fd51419	1.6646758
152	0x3eee775d	0.46575442
153	0x3fefbe19	1.8729888
154	0x3f027eaf	0.50974554
155	0x3eda58b3	0.42645797
156	0x3f84012c	1.0312858
157	0x3faa9161	1.3325616
158	0x3f4a3be9	0.78997666
159	0x3ebd6295	0.36989275
160	0x3e45b1ff	0.19306181
161	0x3f0fb46d	0.5613468
162	0x3fa11d14	1.2586999
163	0x3eedb4ee	0.464271
164	0x3eb5c86e	0.35504478
165	0x3fd1aa77	1.6380147
166	0x3fda7c89	1.7069255
167	0x3efebdee	0.4975428
168	0x3f0cf36c	0.5505893
169	0x3ec9261d	0.3928689
170	0x3f8b9069	1.0903445
171	0x3fc3551c	1.5260348
172	0x3e957faf	0.29198977
173	0x3fa1f6c4	1.2653432
174	0x3ef44be6	0.47714156
175	0x3ffcf9b8	1.9763708
176	0x3ede425e	0.4341001
177	0x3f94346e	1.15785
178	0x3fcf5809	1.6198741
179	0x3fc50023	1.5390667
180	0x3fabeaee	1.343107
181	0x3ea918a5	0.33026615
182	0x3fbba504	1.4659734
183	0x3f0c7cec	0.54878116
184	0x3effc241	0.4995289
185	0x3ef5c41c	0.48001182
186	0x3e8cb975	0.27485242
187	0x40213e7f	2.5194395
188	0x40075415	2.114507
189	0x3eec9626	0.46208304
190	0x3f01ea9f	0.5074863
191	0x3eccce89	0.40001324
192	0x3eca488d	0.39508477
193	0x3f02806a	0.50977194
194	0x3f9992b5	1.1997896
195	0x3f37f029	0.7185083
196	0x3fd45c15	1.6590601
197	0x3ff80327	1.9375962
198	0x3ecefab7	0.40425655
199	0x4060a717	3.5101984
200	0x3e6f5e3e	0.23375794
201	0x4046248d	3.095981
202	0x3e8682f3	0.2627178
203	0x3e9fb27f	0.3119087
204	0x3ec634ec	0.3871225
205	0x3ea034eb	0.31290373
206	0x3fa8084d	1.3127533
207	0x3ed82fe6	0.42224044
208	0x3ff4c9b9	1.9124061
209	0x3e96f45b	0.29483303
210	0x3f25851c	0.64656234
211	0x3f628024	0.8847678
212	0x3ff3b3a6	1.9039199
213	0x3d9b38fa	0.07579227
214	0x3f856733	1.0422119
215	0x3e6707ac	0.2256152
216	0x3f0ca0d3	0.549329
217	0x3fe678d2	1.8005621
218	0x3fbb014e	1.4609773
219	0x402b5621	2.677132
220	0x3f41fef9	0.7577968
221	0x3f039b2e	0.5140866
222	0x3d506fca	0.05088786
223	0x3fbfd061	1.4985467
224	0x3fd657d2	1.6745551
225	0x3e6d13d6	0.23152098
226	0x3ec63396	0.38711232
227	0x3f78a2ba	0.971233
228	0x3f9b543f	1.2135085
229	0x3eb44279	0.35206965
230	0x400ed9a1	2.232033
231	0x40178fd2	2.368153
232	0x3fd2d1ee	1.6470315
233	0x3f2a3453	0.6648609
234	0x3e3464d5	0.1761659
235	0x3f20bd06	0.62788427
236	0x3f9a460e	1.2052629
237	0x403a5f63	2.912072
238	0x3fb40672	1.4064467
239	0x3fbbb623	1.4664959
240	0x3fae772c	1.3630118
241	0x3f8f8b2a	1.1214345
242	0x3ee7feb3	0.45311508
243	0x3e5cfcf8	0.21580875
244	0x3f9f73a3	1.2457165
245	0x3f101668	0.5628419
246	0x3efe2649	0.49638584
247	0x3f3c5b9d	0.7357729
248	0x3f91a5f2	1.1378767
249	0x3f0b1ea2	0.54343617
250	0x3eb99927	0.36249658
251	0x3e37b5f8	0.1794051
252	0x3fd09634	1.6295838
253	0x3f40e4e6	0.7534927
254	0x3f03fcf5	0.51557857
255	0x3fe10812	1.7580588
