models/ogbl-collab_CN_2_1_0_run8_gnn.pt (torch, 668318 bytes, 10 tensors)

convs.0.bias f4 [256]
00000000: 7571 8e40 7e8f d33f c5bb 5840 11e1 a4bf
00000010: 4b0e f5bf d100 6640 2178 74be 378e 43bf
00000020: de9b a340 20ab 56bf 7b51 1740 342f 6d40
00000030: 9c02 b1bf 8d62 a440 8c7e bdbf ce95 b43f
00000040: 6160 c5bf 58c0 7940 8590 47bf 204e d3bf
00000050: 3fd8 43bf bec0 d940 25fd 94be 4ea3 30c1
00000060: a8e8 2e3f 090a a840 4d47 2b40 435e f440
00000070: bc09 3240 63a7 cd3f a831 afbf 68c4 ddbe
00000080: 0018 41c0 46bb d4c0 c292 1f3e 2a53 2d40
00000090: b42e 4140 068a 1f40 0154 8840 70d1 2d40
000000a0: 9870 0640 ab36 d43e 8762 4bc0 e4c4 ff40
000000b0: 6e8f 8e40 261f 2fbf 2776 c43e 1ba2 a13f
000000c0: 29ec 3cc0 08f9 aa40 b5b9 81bf cad3 fbbe
000000d0: db0e 88c0 0bdd 35bd 2ceb b840 3c26 f640
000000e0: e670 d240 2a58 ef40 89d8 5040 9a4d 8c3e
000000f0: a263 8540 d437 7c40 57ba 76c1 be8f 31bf
00000100: ac50 e93d 89e8 be40 3bb0 7dc0 bf3c 2cbf
00000110: 85f8 3640 b93c 3741 7f65 0340 c148 3a40
00000120: 0396 2d40 03b5 52c0 4c68 dc40 610b 1241
00000130: 4964 e740 957e 8c3f a6a7 d3bf 2db6 6640
00000140: 3c7b 0340 a655 12be 35cf e040 c2af bf3f
00000150: b2fb 28bc e0dd b540 3062 9abf 39ee a1c0
00000160: 2e75 5040 ad91 3b3e 3833 1a40 3023 3bbe
00000170: bb65 9940 99fe 28be a707 c940 7a2e e43f
00000180: c497 9340 9bce 67c1 2917 0041 d8ec 343f
00000190: bc6a 4dbf 7129 e23f ea59 acbf 2944 2140
000001a0: 69c9 2140 44b3 f83f 096f 41bf 3617 a3bf
000001b0: 5b0f 7dc1 ebf5 a840 2d94 da40 cb93 7bbf
000001c0: 684b df3f 34b1 3f40 aee8 8ebe 1839 1bbe
000001d0: 7fd2 a340 5725 6fbf bfb7 7b3f bd4f c640
000001e0: 1f23 923e e87e 94be 5332 f83f 9912 9c40
000001f0: 6ad6 69bf 1ea1 90bf 9d05 8440 1537 8540
00000200: 754b 153f f04b 16bf 930a c3c0 a809 de40
00000210: 4f79 34bf 5c15 02c0 e8db ccbd a63d d63f
00000220: 0fda 0040 2b1e 0641 f953 34be e97f 7140
00000230: 2f05 4fbd 7237 fcbf 8d66 0941 8915 0bbf
00000240: cb43 8540 4628 043e 1b04 8d40 0882 b93f
00000250: c1bb 55bf 3cd5 0cbe e4bf 2b40 5efe 4bbf
00000260: 36c4 6040 ddc0 80c0 783c 82bf a6e5 4f40
00000270: ebd9 9dc0 5d43 12c1 8fc3 ea3c c7f6 4040
00000280: 021b bf40 600b 8c40 14bf 9bbf acd8 8a40
00000290: efef 9b40 d708 0ec0 dbee 76be 21de 613f
000002a0: d782 8b40 db30 1f40 88ea 8abe e39f 7dbf
000002b0: 409c 4c40 8dc5 24c0 08aa 803f e0f5 ed3e
000002c0: 229f 8d40 c9ea 74c1 3c77 61bd 560d 75c1
000002d0: b3a2 cf3f 59a1 bf40 1102 1abf c136 0440
000002e0: 0e11 5740 e00b 4c40 c6bb da40 a120 48c0
000002f0: 5b5f 01c0 4583 92bf 48f1 2140 8a76 8840
00000300: 3fb6 9d3f 2fd7 7040 b560 02c0 2909 6e3d
00000310: f55d d4bd 67ea d7bd e5dd 6140 8e99 abc0
00000320: be8b b240 1920 06c0 d540 d040 e3eb d640
00000330: 4ebb 0640 5d38 ed40 3035 5ebf b04a 96bf
00000340: 3a33 21c0 a3d0 0241 357a 0940 7508 75bf
00000350: 55a4 68c0 929e bb40 2a3d 21c0 5f52 ad40
00000360: 0c77 6a40 fb44 4ac0 5f7a 12bf a2ef 70be
00000370: d93e d8c0 eedc 9840 7dd9 0d41 ddc9 523d
00000380: 2b2a 04bf fada ca40 a819 a040 e3d8 41be
00000390: 0fff cbbf 2fbb a140 a6fd c63d 5d07 03c0
000003a0: 43d5 c93e 7b7d d03f 4bb8 b040 e828 3c40
000003b0: 0137 4d40 c2bf 8bbf 8fb1 ad3d b521 ffbf
000003c0: 77d5 abbf 5f78 90be 098b 8e40 9ac6 ea40
000003d0: 88e0 d1be 032d 1840 a3d2 7840 183d f43f
000003e0: 7be3 3c3f df89 5d40 b577 ca40 78a5 9b40
000003f0: 55a2 e1be 827d f33f d5c2 3440 4d93 793d
4.4513497 1.6528165 3.3864605 -1.2881185 -1.9144987 3.5937998 -0.2387395 -0.7638888
5.1127768 -0.83854866 2.3643482 3.706006 -1.3828921 5.13703 -1.4804244 1.4108217
-1.5420038 3.9023647 -0.77954894 -1.6508217 -0.7650184 6.804778 -0.29099384 -11.039869
0.68323755 5.251225 2.6762269 7.6365066 2.7818441 1.6066707 -1.3687029 -0.4331391
-3.0170898 -6.6478605 0.15583327 2.708201 3.0184755 2.4927993 4.2602544 2.715908
2.1006222 0.41447958 -3.1778886 7.9927845 4.4550085 -0.68406904 0.38371393 1.2627596
-2.951914 5.3428993 -1.0134798 -0.4918502 -4.2518134 -0.044400256 5.7787075 7.6921673
6.5762815 7.479512 3.2632163 0.27402955 4.168412 3.9409075 -15.420493 -0.6935996
0.1139234 5.9658856 -3.9638813 -0.6728019 2.8589184 11.452325 2.0530698 2.9106905
2.712281 -3.292298 6.8877316 9.127778 7.230992 1.097613 -1.6535537 3.6048691
2.0543966 -0.14290485 7.025294 1.4975512 -0.010313915 5.6833344 -1.2061214 -5.06033
3.257152 0.1831729 2.4093761 -0.18275142 4.7936683 -0.16503371 6.282184 1.7826684
4.612276 -14.487941 8.005654 0.70673895 -0.8024099 1.7668897 -1.346494 2.5197852
2.527918 1.9429708 -0.7556005 -1.2741458 -15.816249 5.2800193 6.830588 -0.9827239
1.7444887 2.9951906 -0.27911896 -0.15158498 5.1194453 -0.9341635 0.9832725 6.1972337
0.2854242 -0.29003072 1.9390358 4.87727 -0.91342795 -1.1299169 4.125685 4.162974
0.58318263 -0.5870962 -6.095041 6.9386787 -0.704976 -2.0325537 -0.10002881 1.6737564
2.0133092 8.382365 -0.17610158 3.773432 -0.050542053 -1.970442 8.587537 -0.54329735
4.1645255 0.12905988 4.406751 1.4492807 -0.83489615 -0.13753217 2.683587 -0.7968501
3.5119758 -4.023543 -1.0174704 3.2483916 -4.9328513 -9.141446 0.028657703 3.015062
5.972047 4.3763885 -1.2167687 4.338949 4.873039 -2.2192895 -0.24114554 0.88229567
4.3597217 2.487357 -0.27132058 -0.9907209 3.1970367 -2.5745575 1.005189 0.4647665
4.4256754 -15.307321 -0.05504535 -15.315756 1.6221527 5.9884458 -0.60159403 2.065842
3.360416 3.1882248 6.8354216 -3.1269915 -2.021445 -1.144631 2.5303516 4.26447
1.2321242 3.7631338 -2.0371525 0.058114205 -0.103694834 -0.105427556 3.5291684 -5.3624945
5.5795584 -2.095709 6.507914 6.716295 2.1051822 7.4131303 -0.8679991 -1.1741543
-2.5187516 8.175937 2.148084 -0.9571603 -3.63503 5.8631067 -2.5193582 5.416305
3.663516 -3.1604602 -0.57217973 -0.23528913 -6.757672 4.776969 8.865598 0.051462043
-0.51626843 6.3392305 5.003132 -0.18930392 -1.5937213 5.0540996 0.09716348 -2.0473244
0.39420518 1.6288294 5.5224967 2.9399967 3.2064822 -1.0917895 0.08481132 -1.9932162
-1.3424519 -0.28216836 4.454472 7.3367434 -0.40991616 2.3777473 3.8878562 1.9081144
0.7378461 3.46154 6.3271127 4.863949 -0.44069162 1.9022677 2.8243916 0.060931493

convs.0.lin.weight f4 [256, 128]
00000000: ae8d 21be b683 643f 4adf 7ebd 3c05 e63d
00000010: 1e10 263e 0cef 4bbd 28eb cb3d ec4d 7e3d
00000020: cb39 3f3f 30f1 30bf 6adc 1a3f b159 d43d
00000030: 7202 8b3e 81f8 d33c 3854 c83d 69c1 af3e
00000040: 5afe fe3e 8aab 9a3e 59a0 013e 647c bcbe
00000050: 9fd8 143e 3400 2a3e 05c2 a13d 4655 083f
00000060: d43f b7bd ebe7 d93b 9ca5 423c 5c44 89bc
00000070: 7130 adbe fb6f 8dbc 335f 61be 8e6f 923e
00000080: 8f25 21bf 0058 873e 708b acbe 3cba 79be
00000090: 2c43 eebd 3cf7 0abc 731e 193f c01d 3b3e
000000a0: 6702 19be 7bc7 473e 3ebc da3e 3a78 9a3d
000000b0: bf43 7c3d 7c19 0c3f 1939 a53d 0301 e9be
000000c0: ae7d eebd d195 183f b838 0c3f cfe5 bb3d
000000d0: d760 01bf 5137 59bf cef3 1fbe bec1 c23c
000000e0: c348 00be 21ca d3be dd0e 1f3f 1d4b 79bd
000000f0: 486d 1b3e 056d 323f 3474 493e e96b a3be
00000100: cd88 cb3e e52d e43d 425b 9cbd 7d44 b1bc
00000110: 1007 1f3c 0346 63bc 99f8 673e 7e70 1b3e
00000120: e870 85be 8e39 b3bd b777 863d 3cc9 8abe
00000130: e616 a43e d083 72bb e245 a73d 5f5f e83d
00000140: 5f08 e8bd 159c a23e f8d6 b13d 71a2 203e
00000150: df9b 623e 9468 1ebd 4428 74bd 06df 5d3f
00000160: bda1 3e3f 364f ecbd 2067 883e 5122 c73d
00000170: 672f 973e b7f6 a3be 8c99 c7be d4df cbbe
00000180: 8055 05bd 583b 95bd faf3 45bd b075 62be
00000190: ead6 7abe bcc7 3e3e f6bc fcbd d49f 6fbd
000001a0: 29c6 873e c6da 7fbe 831a 81bd 4bd0 093f
000001b0: a3a2 e23e 97c1 6c3e d4f5 f2bd f5ca efbe
000001c0: c234 ce3e b43a 793e a49d 913c f75c 3c3e
000001d0: 2046 b13d 8191 543f 8da4 94bd 5f46 e3be
000001e0: 7c77 bcbe 956f a9be b24e 583e 525b 06be
000001f0: e1cf 203e 5bd8 b2be 39bc 053e 0ee3 4a3e
00000200: 75de f5bc c0f9 123f 1111 573b 811d 66bf
00000210: 35ee 94be 3f6a 933c 163c a03d 0176 f9bc
00000220: abc9 3f3f beaf c7bd 794f 9c3e 1436 ba3c
00000230: f699 d63e 83ed cdbc 0a10 663d 170f 953d
00000240: 11eb c73e 428a 0a3e 3c75 913e 8f48 cabe
00000250: 13ae c93b 54ce a03e 7953 27bd 6df8 ac3e
00000260: 4f24 90be e549 a83d e727 933e ab20 8fbe
00000270: 66a3 e63e 3514 523e f575 82ba 08e6 5fbd
00000280: d676 8ebf 0dd5 633e 551d d5bd e781 06be
00000290: 32f0 7cbe 402c 31be a16a 6d3d 822c ab3e
000002a0: db61 a73c cd38 84be 2c5a 9d3e 0816 ce3a
000002b0: 88fb 06be 5fb9 d83e 82a1 253e 0363 17bf
000002c0: d3ef 823e 39f9 633f c82e a23e 4c9d 953e
000002d0: 853d c0be bb5b cdbe 7aec e6be acac bd3e
000002e0: 6432 0ebf 1a69 d3bd 1f4e 6e3f 9d00 a0be
000002f0: e2e1 393e fe59 933f 5859 3bbe ad10 afbe
00000300: 516e 183e ded1 513e f2f8 a1bd 8712 8a3e
00000310: 6e87 3d3e 738d ab3d 4b4d cc3d 73f8 b2be
00000320: 4561 f73c f74a 1bbe 700c 62be 69bf d8bd
00000330: fe69 3c3e f247 3fbe c201 18bf 7e2e 9abe
00000340: de1a 01be 24c3 96be 59f8 81bc 53d7 38bd
00000350: f2b9 45be ab0c 593e d7c0 4abe fb27 233f
00000360: f3fb fd3e 89af 4a3e 8640 323e f482 c6be
00000370: c5a2 5ebd 76ec 2dbf d04a 863e 8bce 363d
00000380: 3d2d aebe 1fdf 1bbe d36d 213e a573 1cbf
00000390: 6756 ebbe d9bb ec3e f461 99be e925 a13c
000003a0: da0b 6c3e 3d00 0bbe b4df 95be 74fe 183f
000003b0: e46a 1f3e 9e7e 98bc d025 cdbd 03b2 28bf
000003c0: 82b9 cc3e e56a 163f a4f8 713e f8f0 983e
000003d0: 84d9 2e3e b3d8 843f 0edf 063b a031 ef3e
000003e0: 9751 14be f29d 91be 2283 993e 9720 07bf
000003f0: 158d 883e 0fc9 f9bd bbc5 523e 3dd9 213f
-0.15776703 0.89263475 -0.062224664 0.11231467 0.16217086 -0.04978852 0.09956962 0.06208603
0.7469756 -0.6911802 0.60492575 0.1036867 0.27150303 0.025875332 0.097816885 0.34327248
0.4980343 0.30209 0.12658824 -0.36813653 0.1453576 0.1660164 0.078983344 0.53255117
-0.08947721 0.006649961 0.011880305 -0.01675623 -0.3382602 -0.01726531 -0.22008972 0.28600734
-0.62947935 0.26434326 -0.33700132 -0.24387449 -0.11633906 -0.008481797 0.59812087 0.18273067
-0.14942323 0.1950969 0.42721742 0.07542463 0.061588045 0.54726386 0.08067531 -0.45508584
-0.11645065 0.596036 0.54774046 0.09174692 -0.5053839 -0.8485003 -0.15620348 0.023774024
-0.12527756 -0.4136515 0.62132055 -0.06086265 0.15178406 0.696976 0.19673234 -0.31918266
0.39752808 0.11141566 -0.076345935 -0.021639103 0.009706274 -0.013871673 0.22653426 0.15179631
-0.26062703 -0.08751212 0.065658025 -0.27106655 0.3204872 -0.0037004836 0.08167626 0.113463156
-0.11329722 0.31759706 0.0868358 0.15686966 0.22129773 -0.038673952 -0.059608713 0.8666843
0.74465543 -0.11538546 0.26641178 0.09723342 0.29528353 -0.32024166 -0.38984334 -0.39819205
-0.032552242 -0.072867095 -0.048328377 -0.22115207 -0.24496046 0.1863088 -0.12340729 -0.058502033
0.26518372 -0.24985799 -0.06303885 0.53833455 0.44264707 0.23120724 -0.11863294 -0.4683453
0.40274626 0.243388 0.017775364 0.18394838 0.086559534 0.8303452 -0.07257948 -0.44389626
-0.3680991 -0.33092943 0.2112377 -0.13120773 0.157043 -0.3493069 0.13060082 0.19813177
-0.030013302 0.5741234 0.003281657 -0.8988877 -0.29087988 0.017994998 0.078239605 -0.030451776
0.74917096 -0.09750317 0.30529383 0.022730865 0.41914338 -0.025137668 0.05616764 0.07278269
0.3904653 0.13529304 0.28409755 -0.39508483 0.0061547845 0.31407416 -0.04085109 0.33783284
-0.281527 0.08217219 0.2874138 -0.2795461 0.45046538 0.20515521 -0.0009953367 -0.054662734
-1.1130016 0.22249241 -0.10405985 -0.13135491 -0.24701002 -0.17302036 0.057963017 0.33432394
0.020432403 -0.25824586 0.30732858 0.0015723119 -0.13181889 0.42328927 0.16174892 -0.59135455
0.25573596 0.8905216 0.31676316 0.2922157 -0.37546936 -0.40109047 -0.45102292 0.370458
-0.5554564 -0.10322781 0.93087953 -0.31250468 0.18152574 1.1511838 -0.182958 -0.3419241
0.14885832 0.20490214 -0.07908811 0.2696726 0.18508694 0.08376589 0.0997568 -0.34955177
0.030197749 -0.15165316 -0.22075057 -0.105833836 0.18399808 -0.18679789 -0.5937768 -0.30113596
-0.12607905 -0.29445755 -0.015865492 -0.045127224 -0.19309214 0.21196239 -0.19800125 0.6373288
0.49606284 0.19793524 0.17407426 -0.38771784 -0.054354448 -0.67938936 0.26228952 0.04463057
-0.3401889 -0.15221833 0.15764551 -0.6111396 -0.45964357 0.46237066 -0.29957545 0.019671397
0.23051396 -0.1357431 -0.29272234 0.59763265 0.1556812 -0.018615063 -0.10016978 -0.65896624
0.3998528 0.5875686 0.23630005 0.29871345 0.17075163 1.0378631 0.0020579728 0.46717548
-0.14484249 -0.28440815 0.2998286 -0.52784103 0.26670137 -0.12196552 0.2058324 0.63222104

convs.1.bias f4 [256]
00000000: 69d7 30c0 0caa 563f c72c ffbf 5dc2 8fbf
00000010: c4ea 2cbf 130d 31bf 23c8 29bd 7a95 013f
00000020: 27be 5abe 88ba c640 8440 663f f28e c3bd
00000030: 4d9a fd3e 1681 cbbc 6b1e 8940 e839 e040
00000040: 1eb3 9a40 1c2e b63f d8b7 a0bf 1860 9d40
00000050: 14e7 c0be 496e 9fbd 1291 2bbe 7e63 a4c0
00000060: 0564 f1be a76e 77bf d885 99be 8c7a b53f
00000070: 6bfb 8d3e ac8e 09bf c3ab 3cbe ca75 71be
00000080: 8608 f1be 9168 273e 599a 253f 0bbf ab40
00000090: 5a8a 7140 4327 f040 f048 0bbf 2ac5 f3bf
000000a0: 5143 a1be 336f eb40 0836 b740 cbcd 333f
000000b0: 35f1 f73e f05e 9e40 bf40 f63e 07e6 a440
000000c0: acc1 f13b 097a d240 515d d640 336d e4be
000000d0: 6cfd 7ebf ef03 83be 831c 03c0 9012 c43d
000000e0: 9f3a a3be 1d18 edbe feaa dabe da70 3140
000000f0: 0eb9 9840 0722 29c0 247f 4bbf 31fe a240
00000100: 602c 71bf 790d b13e bd9b 543e 1a1f 01bf
00000110: 8603 3dbf 549f 9a3d 16cd d0be 7565 943e
00000120: aedf 86bd 7152 6a40 3441 46bf a3c2 7740
00000130: d3e2 2fbe a94b 27bf 2458 c640 26c5 d93d
00000140: f8c2 543f 57a8 883f 2ad3 893d 1375 8940
00000150: a274 54c0 ffa2 8d40 b6f7 403f 6dce d5bc
00000160: 8d4b 813e ee1b 883e cc4f 9dbf 240d df40
00000170: 49c9 82bf 7512 89c0 10a7 9540 97fa 853e
00000180: 9fd3 ca40 712c c23e 4631 0140 a092 40c0
00000190: 02ae c440 27aa 8940 cd3a 04bb a71e c2be
000001a0: 20b8 49be 2d07 9a40 a1ba 28be ee69 46bb
000001b0: 8a3a 4cbf aa19 afbe c527 24bf c53b 4e3f
000001c0: eb32 e2bf 9949 1bbf d261 093e c032 7e3c
000001d0: 0033 5a3e 2f2d a33e 9303 9cbe eded 1a3f
000001e0: e01d 9d3f 0e67 903e fa68 6d3d e9c4 b2be
000001f0: a0d7 0f3f 3a5c 68bf 96a6 01bf bd9d 1d3f
00000200: af2d ecbe 48e3 ab3e 6a89 983f 46a3 4ebf
00000210: e654 fb3e 9dff 28bf 9ed0 a6bd a107 c840
00000220: 892c 5abf d2af 08bf 80c0 29bf 574e 6bbe
00000230: f7ba ffbd 5c62 1fbf 88a0 dbbe 7563 173c
00000240: 7ca6 a73c 9e52 c03e 5d19 013f 4316 bebf
00000250: 7d1e a9be 62e1 af3e 7352 7d40 dc28 cd40
00000260: e56b 10bf cfff 23bf 4da1 8bbd a27d 4dbf
00000270: a883 23bf c863 543c fc66 60bf 1583 43bf
00000280: 55eb 4ebf 0a34 0b40 7af8 66be feb5 473e
00000290: 5f2c 90be 9373 babd de83 be3d e777 f1be
000002a0: 4afc a1bd c387 0f3f 30b7 1e3d 0705 d6be
000002b0: 17bd 673e e693 063c d1a5 0f3f fce0 3640
000002c0: 58f3 64bf 00c9 883e 2700 793f 374a 00bf
000002d0: 7905 9e3e e421 f83f ae0b 553f a8ee c9be
000002e0: 7b81 c240 7442 c53e 4d39 ddbf e564 e140
000002f0: 8406 60bd 0e07 9b40 b4f1 b03d 7c4c 81bf
00000300: 6543 8240 98c2 8ebe 81df bb40 4daa bf40
00000310: f22c 613f 1898 f140 ef01 903f 5044 7340
00000320: 6eb5 17bf a96b d840 ef90 17bf e8dd 143f
00000330: d60f a540 70ea b340 0449 663f 09e2 153f
00000340: 010c a140 0fb0 1bbf 819e 59bd eea6 4b40
00000350: 5a4e 56bf 8141 6bbe bd4b 5fc0 3142 09bf
00000360: ddcb 683f bc81 b040 a60e e33e 5ffa f1be
00000370: 264c f1be 0dda 2d3e f648 97bf 00bb 1e40
00000380: 6d1e 41be 4c33 763e 6da6 2e3f 30ff 2c40
00000390: af18 a5bf a7ae a740 691e e53f 8483 0840
000003a0: 430d 0240 1583 2940 c740 ba3e d499 ff3e
000003b0: 9663 e040 0399 a640 d4ec ac3e f951 3abb
000003c0: 9ef3 ccbe 6d65 4b3e 9a5c b73f d65c dcbe
000003d0: c544 ce40 d173 8bbf 4f6c 8fbd 660f 203e
000003e0: 3515 88bf 8be4 c43f ceb0 8840 8824 f2bd
000003f0: 6d64 4dbf e12d ad40 81d3 83be 94d9 c7be
-2.7631476 0.8385322 -1.993554 -1.123119 -0.67545724 -0.69160575 -0.04145063 0.5061871
-0.213616 6.21027 0.89942193 -0.09548749 0.49531785 -0.024841826 4.284963 7.0070686
4.834365 1.4232821 -1.2556105 4.91798 -0.376763 -0.07784707 -0.16754559 -5.137145
-0.4714662 -0.9665322 -0.29984927 1.4178023 0.2773088 -0.53733325 -0.18424897 -0.23580089
-0.47076815 0.16348483 0.6468864 5.3670707 3.7740693 7.5047927 -0.5440817 -1.9044545
-0.3149667 7.357324 5.7253456 0.7023589 0.48426214 4.949089 0.48096272 5.1530795
0.007377824 6.577397 6.698891 -0.44614562 -0.9960544 -0.2558894 -2.0486152 0.09573853
-0.31880662 -0.4630746 -0.42708582 2.772513 4.7725897 -2.6427019 -0.79490876 5.093529
-0.94208336 0.3458059 0.20762534 -0.5043808 -0.738335 0.07549921 -0.40781468 0.28983656
-0.06585632 3.6612818 -0.7744324 3.8712547 -0.1717637 -0.65349823 6.1982594 0.10633306
0.8311 1.0676373 0.067297295 4.2955413 -3.3196187 4.426147 0.75377977 -0.026099408
0.25252953 0.2658381 -1.2289977 6.970354 -1.0217677 -4.283503 4.6766434 0.26167747
6.3383327 0.3792453 2.0186324 -3.0089493 6.146241 4.3020205 -0.002017665 -0.3791401
-0.19699144 4.813376 -0.16477443 -0.0030275541 -0.79776824 -0.34199268 -0.64123183 0.8055995
-1.7671789 -0.60659176 0.13416222 0.015515029 0.21308517 0.3187041 -0.30471477 0.60519296
1.2274742 0.28203624 0.05796144 -0.34915856 0.5618839 -0.90765727 -0.50644815 0.61568815
-0.46128604 0.3357184 1.1916935 -0.80717885 0.4908821 -0.66015035 -0.08145259 6.2509313
-0.85224205 -0.5339328 -0.66309357 -0.22979103 -0.124868326 -0.6225946 -0.42895913 0.009240021
0.020465128 0.37563032 0.50429326 -1.4850544 -0.33031073 0.3435164 3.9581573 6.4112377
-0.56414634 -0.6406221 -0.06817875 -0.80269825 -0.63872766 0.012963243 -0.8765714 -0.7637189
-0.8082784 2.1750512 -0.22555724 0.19503018 -0.28158852 -0.09104075 0.093024954 -0.4716179
-0.079094484 0.5606653 0.03874892 -0.4180071 0.22630726 0.008213973 0.5611239 2.857482
-0.89433813 0.2671585 0.9726586 -0.5011324 0.3086355 1.9385343 0.83220947 -0.39439893
6.0783057 0.38527262 -1.7283112 7.043566 -0.054693714 4.844611 0.08639851 -1.0101466
4.070727 -0.27882838 5.871033 5.9895387 0.87959206 7.549816 1.125059 3.8010445
-0.59261215 6.763142 -0.59205526 0.581511 5.158183 5.622368 0.89955163 0.5854803
5.0327153 -0.6081552 -0.053129677 3.1820636 -0.83713305 -0.22974207 -3.4889977 -0.53616625
0.9093607 5.5158367 0.44347113 -0.4726133 -0.4712841 0.16977711 -1.1819141 2.4801636
-0.18859263 0.24043006 0.68222696 2.7030754 -1.2898158 5.24007 1.7899905 2.133027
2.0320594 2.6486256 0.36377546 0.4992205 7.0121565 5.206178 0.33774436 -0.0028430207
-0.40029615 0.1986291 1.4325135 -0.43039578 6.4458947 -1.0894719 -0.0700308 0.15630874
-1.0631472 1.5382246 4.2715826 -0.11823374 -0.8023136 5.4118505 -0.25747302 -0.39033186

convs.1.lin.weight f4 [256, 256]
00000000: 6adf 0ebf ba6c 953e b660 7dbe 6827 aa3f
00000010: d3d2 973f 26cc 3a3e 5d31 953e 94aa a13e
00000020: 5d20 8abd df57 67bd d285 abbd c325 363d
00000030: 0cd2 03be ba6e b5be d533 aa3f 212e e8bd
00000040: b42e 82be 7f3f 393d 45c2 ff3f f154 9fbd
00000050: 2cdf bdbf d162 08be 878e de3e 54ff 9d3b
00000060: fede 943e 6918 8fbd 5df6 c93e aff1 2fbe
00000070: c849 993d 4e24 d53e 8826 01c0 321f acbf
00000080: 0358 193f 3207 df3e 7a98 54c0 85bd 5ebe
00000090: 0a08 363e 4a16 b6bc e757 383e 59f9 a23e
000000a0: d72a ffbe de1a 2f3f beca ef3e c157 903e
000000b0: 75f6 1ebe 861c 903f 9a7e ab3e 91a3 d4bd
000000c0: fcde b43f 79d9 3640 18a5 d1bf 1672 a53f
000000d0: c516 993d 0f05 02be e537 a7bd cae2 aabd
000000e0: 228a 81bd b948 dabd 48be 5dbf 81f8 58bf
000000f0: 720d cebd addb 51be 43e5 b5bc 403d 2240
00000100: 6461 7dbd b058 febd d538 2d3f 5c64 b43f
00000110: a990 4e3d ae0d 9cbd 7e72 193f 1020 353e
00000120: 5c06 1c3e 7b7e a63f 3c72 063d 6a29 1d3f
00000130: fe0e d139 cd14 703e 50de 7fbe afb2 bb3d
00000140: 170b c6bd db26 febe 0863 78be 1c2f 85bc
00000150: 435c 0ac0 a9ad 4cbe 568c a9bc 07e8 d6be
00000160: 961d 773e d189 bbbf f861 64be 5b42 a13e
00000170: a472 ea3d fca2 b9be 338a 4dbe 3d80 e43e
00000180: b096 adbd 3b9a 79bd 360e 78be e37a fc3f
00000190: d120 11be 0db9 55be 59e7 cd3f 7b64 c9bd
000001a0: 5b93 b0bb 3354 6d3f 8b44 cd3f 19bf c4bf
000001b0: 5229 b8bc 7110 253e ca08 5abe 5c62 31be
000001c0: ca35 0a3d 48ff 6abd 1244 fe3f 232f 8e3f
000001d0: ee54 ce3d 1b07 9fbf 707e fdbf f93c c33d
000001e0: 5652 3f3f fa9f b23f 7c86 18be 3e30 c2be
000001f0: 92e7 8d3e 26f6 5540 42fb f13d eead 843c
00000200: 5f86 483b 2264 f93d 2bd0 1c3e 5bb0 9e3c
00000210: a3f2 e8be 3446 d1be 0f89 adbd 8382 21be
00000220: 8fa2 ca3d 9897 a1bd 573f 02bf a8a1 77bc
00000230: 898b 453f 6bc7 563f 7fd9 61be abe3 2240
00000240: e71b 763e e80e 2c3e abc4 15bd 1f0a 0fbd
00000250: 82c5 4440 f10b 93bf 3313 5fbe 2270 403f
00000260: 508e 7d3e 86b8 033e 7ff6 85be 109a c0be
00000270: 1c62 eb3e 9ade a03e 6b98 3d3d 2730 be3c
00000280: cc3a 6dbc 0353 15be fe5f 1440 70d1 ddbd
00000290: fe13 893d 3a5d 993f 85ab 8abe f2a4 d53d
000002a0: 9a60 e6bd 6cc6 853e 7523 d9bc 68d4 d23f
000002b0: 4452 853e e04e 92be 05f6 da3d 95cb 8abf
000002c0: f2d3 a3bc e6d2 5f3b 58d7 a2be 9941 403e
000002d0: 637e 5c3f 53e4 fbbc a9e9 bd3f b528 903e
000002e0: 85ef a5bd 88a3 2d3e d2bd b9bd 5b78 ec3e
000002f0: 8102 e23f be7e 17bd 9eb7 64bd 1424 363e
00000300: f305 0c3e 8cbd 4d3e 9713 a9bd 70ba 5fbd
00000310: 2833 00bf 042e 2b3f 3ccf e5bd 46b0 da3f
00000320: f2e7 56be 8f9b e73f 9187 e1bc 0220 553d
00000330: f5ed cb3e 781f 93bd e62d 8ebf c00e cb3e
00000340: 2f35 b13f 652d 833d 20f1 e3bc 23b8 9b3e
00000350: 578c 403f 6418 113e 4d97 2abf 951b 3bbd
00000360: 1865 d73a 6243 6440 d8ac 1ac0 f149 4240
00000370: 4393 143f 2127 2d3e 6b5e 13bd e747 1d40
00000380: 554c 3dc0 0c1c 9d3d 288b 26be f2aa 5e3f
00000390: 9e84 bd3e 810d 2bbe fa20 81bf 5c3d bb3f
000003a0: 36d3 a53f 70c0 ceba b86e 5c3d 22e6 a2be
000003b0: 207b 1140 40c3 2c3f edda e4bf 1b12 f6be
000003c0: f76a 483f 68c4 a2bf cb63 39bd c219 c0bc
000003d0: fc97 eb3e 6628 593e 00c9 76be 3736 633e
000003e0: 6f7a 3dbf 769c 133d 8410 30be 7212 d93c
000003f0: f0bb 71bf adfb 22bc 4c49 8a3f 3383 28bf
-0.5580965 0.29184514 -0.24743924 1.3293276 1.1861213 0.18241939 0.29139224 0.31575453
-0.06744454 -0.056480285 -0.083751336 0.044469606 -0.12873095 -0.3543604 1.3297068 -0.113369234
-0.25426257 0.04522657 1.9981161 -0.07779873 -1.4833732 -0.13318945 0.43468115 0.0048216973
0.2907638 -0.06987078 0.39445773 -0.17182039 0.07484776 0.4162926 -2.0179768 -1.344702
0.5989992 0.43560177 -3.3218064 -0.21751983 0.17776504 -0.022227425 0.18002282 0.31830862
-0.49837372 0.6840037 0.46834368 0.2819195 -0.15523703 1.1258705 0.33495027 -0.1038276
1.413055 2.8570235 -1.6378508 1.2925441 0.07475046 -0.12697242 -0.08164958 -0.08344038
-0.06325175 -0.10658402 -0.8661847 -0.84754187 -0.10061158 -0.20493956 -0.022204047 2.5349884
-0.061860457 -0.124192595 0.67664844 1.4093127 0.050430927 -0.07619797 0.59940326 0.17688012
0.15236801 1.3007349 0.032823786 0.6139132 0.00039874756 0.23445435 -0.24987149 0.091649406
-0.09670084 -0.4963902 -0.24256527 -0.016257815 -2.1618812 -0.19988121 -0.0206968 -0.41973898
0.2413238 -1.4651433 -0.22302997 0.31495938 0.11447647 -0.3625716 -0.2007225 0.44629088
-0.08476007 -0.0609381 -0.24224171 1.9725002 -0.14172675 -0.20871373 1.6086227 -0.09833618
-0.00538866 0.927066 1.6036543 -1.5370818 -0.02248064 0.16119553 -0.21292415 -0.17322677
0.033742703 -0.05737236 1.9864523 1.1108135 0.10074793 -1.2424043 -1.9804211 0.09533114
0.7473501 1.3955071 -0.14895052 -0.3792743 0.27715737 3.3431487 0.11815502 0.016196217
0.003059767 0.12177302 0.15313785 0.019371202 -0.45497617 -0.40873873 -0.084734075 -0.15772443
0.09894287 -0.07890242 -0.508779 -0.015114225 0.7716604 0.8389804 -0.22055624 2.5451458
0.24034081 0.16802561 -0.03656451 -0.03492176 3.074555 -1.1488019 -0.21784668 0.751711
0.24761319 0.12863359 -0.26164624 -0.3761754 0.4597329 0.31419832 0.046287935 0.02321632
-0.01447935 -0.14582448 2.318359 -0.10830963 0.06693266 1.1981575 -0.27083984 0.104318514
-0.11248894 0.26127946 -0.026506165 1.6471071 0.26039326 -0.28575802 0.10691456 -1.0843378
-0.019998524 0.0034152805 -0.3180492 0.18775024 0.8613035 -0.030748522 1.4836932 0.28156057
-0.08102325 0.16956913 -0.090694085 0.46185574 1.7657014 -0.036986105 -0.055839173 0.177872
0.13674144 0.20091838 -0.082556896 -0.05462116 -0.5007806 0.6686709 -0.112211674 1.7085044
-0.20986918 1.8094348 -0.027530463 0.05203248 0.39829984 -0.071837366 -1.1107757 0.3965969
1.3844355 0.06405143 -0.027824938 0.30413923 0.7521414 0.1416946 -0.66637117 -0.0456806
0.0016433327 3.5666127 -2.4167995 3.035763 0.58037204 0.16909458 -0.035978716 2.4575136
-2.957784 0.07671365 -0.16264021 0.8697959 0.3701524 -0.1670437 -1.0088189 1.46281
1.2955081 -0.0015773904 0.053816527 -0.31816202 2.27314 0.6748543 -1.7879311 -0.48060688
0.78288215 -1.2716188 -0.045261186 -0.023449782 0.46014392 0.21206817 -0.24100113 0.2218865
-0.74014944 0.036037885 -0.171938 0.026498053 -0.94427395 -0.0099476995 1.0803618 -0.65825194

convs.2.bias f4 [256]
00000000: faec 303f 7479 e43e 5112 ccbf 4d75 9dbf
00000010: f68f 113f fce4 d63f 45e5 3d3f 1457 efbe
00000020: fab8 03bd 09f1 0a3f f8fe b6be d9e1 373e
00000030: f20f d63f 6ec2 9fbf 0b52 a940 8af4 1240
00000040: eb27 13c0 b2e5 0a40 74ad a93e 919b d1bf
00000050: 4831 0240 4d76 9f3e d349 743d 0b3b 4d40
00000060: 901f c0bf 4232 a2bf 7165 a93e dd81 19bf
00000070: 6f3b eb3e fcd6 ce3e 3afe ed3f 8a9d 4cbf
00000080: 65af 63bf 6da4 e9be a3ba f33e 8da1 71bf
00000090: 234f 0640 dbb5 ba3f f3b7 f8be 2363 703f
000000a0: b5ef 4dbf cd7d 023e b0ca fa3e befb 0740
000000b0: f010 5ebf 6462 273f 2458 cbbf d2a0 bd3f
000000c0: d30d 6e3f c449 6dbc 5779 823f 544b 00bf
000000d0: f52d adbf d5e0 d7bf d70d b33f 8ebe 79bf
000000e0: 753a cdbd 295a e63d d181 89bf 4f66 153f
000000f0: 6aff 36bf 5811 d140 f66e c23f 863e 753f
00000100: bc77 adbe b0cb 353f 39cc 963e 6770 573f
00000110: 73e1 5a3c cc79 723e fd42 bc3f 9159 53c0
00000120: 5831 843f 3361 75be 797e 8abf 9463 0340
00000130: fb6a 1bbe c89c 24bf 01bb ca40 6714 9fbe
00000140: 3082 9ebf 93bc 4abe 7b22 4abd 1c57 d23f
00000150: b3e3 da3f e06d 2abf 61ee 2140 7654 673f
00000160: 91d5 9cbf b24c 813e 25bc 643f 03ad 243f
00000170: d636 0cbf 853b b1bf 8b83 0f3f 09eb c03c
00000180: c814 d33f d6e1 883f 3ebe e0be 267c 9a3f
00000190: 2758 ba3f 3f82 43be 15ea 3cbf 43e5 ba3f
000001a0: 014c eb3e 52dd 3340 cd76 0f3f 0424 a43f
000001b0: 41f1 a4bf 1c6a 30bd 97df b340 5504 123f
000001c0: 2a58 7fbd 6f2b fb3e cc9a 303f 9155 68bf
000001d0: a3fd 06bf 0f93 963f b555 a13f cf5c 04c0
000001e0: d9f8 2c3f 6b8e bcbe 18d8 89bf b75a e0be
000001f0: 73cd 6e3f 8b6d 093f 6100 35bf 95b8 2a3f
00000200: 6f5d c13d 9623 aa40 351e 9dbe 28eb c8bc
00000210: 277d 883f 69cf bd3e 0b0e 8ebf d2f5 1b40
00000220: 4ac9 473f 7a62 233e f2e9 5b3d 47e1 13c0
00000230: 6061 0b40 61bf 6dbe babb f2bf f7dc 9d3f
00000240: 0535 a93e f0de fd3d 1b5b a63e b1a2 1a3f
00000250: 8b5a 7dbd 940e 7abf bf22 2141 f231 a8bf
00000260: 6799 96bf fa2b 663f 0cb1 afbf 4ac2 0ebf
00000270: 2d2a 973f ca8a c73d 7506 55bf 8578 0d3e
00000280: 091a cdbe 45ec 1d3f ebfb 4240 a382 363f
00000290: ebb1 69bf efb4 57bd 74f6 10bf ead7 12be
000002a0: fa4b 28be 5f32 fdbf 6365 173e 6332 2440
000002b0: ec24 c13f ffc3 133f b93e 5fbd 6951 4140
000002c0: 57d7 1f3f c991 903f d5e5 cd3f 6965 6d3f
000002d0: 380b 523f bd29 f43f e34b bbbf 83cf 0cbf
000002e0: c62f 2abd ffe2 2c40 dfdd b03b 9dec 6cbe
000002f0: f454 8240 b224 183c dd27 003f facd 113f
00000300: 8ffe 1940 8c79 683e 95a7 2dbe 6124 5a3e
00000310: afe2 b33e 62f8 f1be 1e40 b1bf 3956 9cbf
00000320: 8a3b e33e 4088 9b3f 1917 ebbf 3af3 763f
00000330: 7476 0840 0249 543f c327 6140 d56e b4bf
00000340: e104 ac3e 36af 2240 aa7c 8cbd b269 b93e
00000350: e4e3 7bbe a2fd 9d3e 19ed 6dbf fa6a e73d
00000360: 497d d5be 9f56 d1bf 2149 febf 2929 c33e
00000370: 1ace 31be 6832 a7bf 8a8e 0ac0 b14d 4b3f
00000380: 2358 2140 86ff 073f 9f97 85bf c1df 3d40
00000390: 6eca 1fb9 9688 ef3e 2b1c c840 891e e6bf
000003a0: 3ad4 a6be 6411 0c40 c07c aebf 4185 67be
000003b0: e59a b13f 796c a33d 1ac4 033e d672 133f
000003c0: 0363 243f 95fb 01c0 05f3 8d3c 2d7b 833f
000003d0: 0ab5 e83f 34ee 9d3e 385c a43d 4fcf b33e
000003e0: 962b bd3f a728 053f cb6c 3e3f 0d70 523f
000003f0: a697 a03e 6b4a f4be 2e1e 83be 6326 723f
0.691116 0.4462391 -1.594309 -1.2301422 0.5686029 1.678863 0.7417796 -0.46746123
-0.03215883 0.5427404 -0.357414 0.17957248 1.6723616 -1.248121 5.291265 2.2961755
-2.2993114 2.1702695 0.33140147 -1.63756 2.034258 0.31144944 0.059640717 3.2067287
-1.5009632 -1.2671587 0.33085206 -0.5996378 0.45943782 0.40398395 1.8593209 -0.79927886
-0.88939506 -0.4563326 0.4760333 -0.9438713 2.0985801 1.4586748 -0.48577842 0.9390127
-0.8044389 0.12743302 0.48982763 2.1247401 -0.86744595 0.6538451 -1.5886273 1.4814703
0.92989844 -0.014482919 1.019328 -0.5011494 -1.352965 -1.6865488 1.3988599 -0.9755639
-0.100209154 0.112476654 -1.0742742 0.58359236 -0.7148348 6.533367 1.5190113 0.9579853
-0.33880413 0.7101393 0.29452685 0.8415589 0.013359415 0.23679274 1.4707943 -3.3023417
1.0327559 -0.2396286 -1.0819846 2.0529528 -0.15177529 -0.6430173 6.3353276 -0.31070253
-1.238348 -0.19798498 -0.04934929 1.6432834 1.7100738 -0.66573906 2.5301745 0.9036325
-1.2252675 0.25253826 0.89349586 0.64326495 -0.54771173 -1.3846289 0.56060094 0.023549573
1.6490717 1.069392 -0.43895143 1.2069137 1.4558152 -0.19092654 -0.7379468 1.4601215
0.45956424 2.8103833 0.5604065 1.2823491 -1.2886125 -0.043069944 5.6210437 0.5703786
-0.06233994 0.49056575 0.689862 -0.90755564 -0.5273077 1.1763629 1.2604281 -2.0681646
0.6756721 -0.36827406 -1.0769072 -0.4381921 0.9328224 0.53682774 -0.70703703 0.666879
0.09441649 5.316844 -0.3068711 -0.024526194 1.0663193 0.37072304 -1.1098036 2.4368787
0.7804152 0.15955535 0.053689905 -2.3106248 2.1778183 -0.23217537 -1.896354 1.2333058
0.33048263 0.123960376 0.32491383 0.604045 -0.061853927 -0.97678494 10.070983 -1.3140242
-1.1765565 0.8991085 -1.3725905 -0.5576521 1.1809746 0.09743269 -0.8321298 0.13815506
-0.40058926 0.61688644 3.0466259 0.71293086 -0.91287106 -0.052662786 -0.5662606 -0.14340177
-0.16435233 -1.9780997 0.1478477 2.5655754 1.5089393 0.5772094 -0.054503176 3.020594
0.6243796 1.129449 1.6085764 0.92732865 0.8204837 1.9075238 -1.4632534 -0.5500414
-0.041549467 2.7013547 0.005397543 -0.23137136 4.0728703 0.009286093 0.50060827 0.5695492
2.406162 0.22702616 -0.16958459 0.2130294 0.35133883 -0.47259814 -1.3847692 -1.2213813
0.44381362 1.2150955 -1.8366424 0.96464884 2.1322298 0.829239 3.5180519 -1.4096323
0.33597472 2.541944 -0.06859715 0.36213452 -0.24598652 0.3085757 -0.9293991 0.11299701
-0.41697147 -1.635456 -1.9866067 0.3811734 -0.17363778 -1.3062258 -2.16495 0.7941542
2.5210044 0.5312427 -1.0436896 2.9667819 -0.00015238833 0.46783894 6.2534385 -1.7978069
-0.3258379 2.1885614 -1.3631821 -0.22609426 1.3875395 0.07979674 0.12867776 0.575971
0.6421358 -2.0309803 0.017327795 1.0271965 1.8180249 0.30845797 0.08025402 0.351191
1.4778926 0.52015156 0.74384755 0.82202226 0.313657 -0.47713026 -0.25608963 0.94589823

convs.2.lin.weight f4 [256, 256]
00000000: cb00 1d40 f6fa 963e d2be b4bf 660c 2a3f
00000010: 23ac c43f 72b1 81bf 6ae3 95be ec39 933f
00000020: f443 6f40 b72b 01be 388a 99be 59c5 a03f
00000030: 0958 2b40 2f0b 383f 7f1a bdbf 3de1 843d
00000040: ee42 383f 658f f33e b1bb 863e 82cc 003f
00000050: 40d2 42bf 20ea c0be 197d 84bf cabc 66bd
00000060: 211f fd3f bc5f 0cc0 93a9 2b3f 57c4 9e3e
00000070: aaa3 50be 66b0 c33e 3bda a63f 5e69 0c3f
00000080: 27b8 57bf 6792 0b40 1de9 f63e 87a9 1dbf
00000090: d419 543e 9f31 103e e50c e6bd f36d b13f
000000a0: 36fe 24c0 9659 ab3e af18 b1be b0bf 893f
000000b0: 5698 66bc b84a f23f 3b67 bdbe afef 2f3e
000000c0: 061c 9c3f 6c9e cc3f 1ccb a4bf b882 4d3f
000000d0: ab24 c03f 80c6 22c0 b194 133f b47b 4ec0
000000e0: 0fce e7bf 8a50 0dbe c20f 143e d898 88bf
000000f0: ea73 993c 2232 05c0 9e10 873f b789 1c3e
00000100: f2c8 04be b7e6 843f 820b e43e 6056 793f
00000110: 6b12 28bf 74b4 343f df9b 8ebf 20bf fabf
00000120: 2782 66bf 62c1 1ebd 1d1a f7bf a1d2 d7bf
00000130: dc42 863d 8594 85bf a9e0 77bf 495d de3f
00000140: 07c5 6440 237f e4bf a891 24bb 7105 4a3f
00000150: daf1 3bc0 518f b3bf b02c 433f 1e98 e4bd
00000160: 01dd 93bf 55a9 01bf 0c8f e13e ab02 04c0
00000170: 1750 8d3f a036 86be 5ae7 ca3d 190a 44bf
00000180: 4cad 763c bd5f 8ebf 85f0 163f f272 613f
00000190: 18ce 703f 1026 113d b51b 35bf 3d6b 683f
000001a0: e0c9 743e 5265 423f d9b1 993f 158e 9f3d
000001b0: d2af 003f 3bf1 b23f c134 8fbf ab80 1cc0
000001c0: 3bdb 40bf 711d 693f 3ab6 e03e a2ca 6ac0
000001d0: 5fe3 96bf cc08 8bbf f885 01c0 826a eb3f
000001e0: ccf0 433e 641b 9f3f a6f6 7c3f c5d8 4b40
000001f0: 0173 adbf 0428 423e aabd 853f 9a4a 06c0
00000200: 2ac2 0040 0f34 af3f 9db7 5abf 715a 95bf
00000210: dc2a ae3f 395b 6e40 8207 f73e 15b0 4a3d
00000220: cf9b c6be e0cf 63c0 6ed3 edbf 0563 a63f
00000230: d191 9240 82a1 833f 264b 223e 3a0a e03f
00000240: 655a f53d c723 10c0 a38d 11c0 9fe2 273f
00000250: d537 553c cd97 42bf 553f 10bf 1a2a 27c0
00000260: 4121 0dc0 62b3 a23f d20a 4ebf 5a74 6b40
00000270: b95c 0d3d 9f7b e83e 396b 473f 1dc7 36bf
00000280: 09d0 fd3f b05e 9b3e dea6 2dc0 a83a f93d
00000290: 6d25 dfbf 1932 b93f fce4 d83f 8ee7 6d3f
000002a0: 18a2 58bf 16ac 40c0 495b de3d 619b f03f
000002b0: fa72 2740 4140 b43e 9fae 37c0 3a01 77bf
000002c0: 1f33 37bf eb75 03c0 96b0 a1bf 1e86 bbbf
000002d0: fe26 593e 3f54 783f d409 3a3f ba5d ca3e
000002e0: fece 6dbe 25cc 103d 6275 53bf 63c8 e13f
000002f0: 6083 833e 1f43 95bf aa2f 06c0 bb3c 793f
00000300: 42e5 36be 26e5 2340 d6fc 4fbf 339e 5abe
00000310: 8970 e8be 1af1 3fbe b8e6 babd ca3b 0b3e
00000320: bf81 b83f 6bc1 d53e 0a9e 2cbf 1b02 2ac0
00000330: 778c a93d 1839 fc3e 6dac 153f ac62 3940
00000340: 3b5c 8a3f 93ea 1340 be41 f3be e7f4 703f
00000350: e81a b63f a010 96be 1a48 cdbf a187 553f
00000360: b392 9b3f 49be 8e3f e5e3 95bf acef e6bd
00000370: ef9e c3bd f3bf 19bf f097 a03f 4b24 3a3f
00000380: 1e0f c93f 16ad 363d 9a8d ab3f c4bd a3bf
00000390: 56a5 e33e 378b 3cbd 93a0 b9bf 1335 89bf
000003a0: 19e6 c4be 2a1e 463e f468 a43f 5192 783f
000003b0: 2933 b13e 1dd0 9ebf d1d6 953f 99e0 ac3f
000003c0: b3b4 bebe ccff f03f 1850 1540 4c53 afbf
000003d0: 9870 1fbf 8867 39bc fa32 12c0 a971 bdbf
000003e0: 67f4 d93f 4df8 0040 5537 0f3e 9506 f3bf
000003f0: f1d2 fa3e 7431 0e3e 2e10 973e 45db 4540
2.4531734 0.29488343 -1.4120734 0.6642517 1.5365032 -1.0132277 -0.29275066 1.1502051
3.7385225 -0.12614332 -0.29988265 1.2560226 2.6772482 0.71892065 -1.4773711 0.06488273
0.71977127 0.4757034 0.26315072 0.50312054 -0.76102066 -0.37678623 -1.0350677 -0.056332387
1.9775125 -2.1933432 0.67055625 0.3100917 -0.20374933 0.3822052 1.3035349 0.5484828
-0.8426537 2.1808107 0.48224726 -0.61586803 0.20712978 0.14081429 -0.11232928 1.3861679
-2.5780158 0.33466786 -0.34589145 1.0761623 -0.014074406 1.8929052 -0.3699282 0.17181276
1.2196052 1.5985847 -1.2874484 0.80277586 1.501119 -2.5433655 0.5764876 -3.2263002
-1.8109759 -0.13800254 0.14459136 -1.0671644 0.01873203 -2.0811849 1.0551946 0.15286909
-0.1296728 1.0382909 0.4454003 0.9739742 -0.65653104 0.7058785 -1.1141318 -1.9589577
-0.90042347 -0.038758643 -1.9304844 -1.6861154 0.06555721 -1.043595 -0.9682718 1.7372218
3.5745256 -1.7851299 -0.0025111232 0.7891455 -2.9366364 -1.4028112 0.7624006 -0.111618266
-1.155182 -0.50649005 0.4405445 -2.0626628 1.1040066 -0.2621355 0.09907408 -0.7657791
0.015055966 -1.1122967 0.58960754 0.8806602 0.94064474 0.03543669 -0.707454 0.9078863
0.23905134 0.7593585 1.20074 0.07790772 0.5026828 1.3979868 -1.1187974 -2.4453533
-0.7533452 0.9106055 0.43889028 -3.6686177 -1.1788138 -1.086206 -2.0238018 1.8391879
0.19134825 1.2430234 0.98813856 3.1851056 -1.3550721 0.18960577 1.0448506 -2.0983033
2.0118508 1.3687762 -0.8543642 -1.1668226 1.360683 3.7243178 0.48247916 0.04948433
-0.38790748 -3.5595627 -1.8580148 1.2998968 4.5803 1.0283663 0.1584898 1.7503121
0.11980132 -2.2521837 -2.2742698 0.6558017 0.0130138 -0.7601288 -0.56346637 -2.6119447
-2.2051547 1.2710993 -0.8048526 3.6789765 0.034512255 0.45406815 0.77897984 -0.7139757
1.9829112 0.30345678 -2.7133098 0.12169391 -1.7433296 1.4468414 1.694488 0.9293145
-0.84622335 -3.0105033 0.10857255 1.8797418 2.6163926 0.35205272 -2.870033 -0.96486247
-0.7156238 -2.0540721 -1.2632015 -1.4650304 0.2120628 0.9700355 0.72671247 0.39524633
-0.23223493 0.035350937 -0.82600987 1.7639278 0.2568617 -1.1661109 -2.0966592 0.9735829
-0.17860892 2.560861 -0.8124517 -0.2134941 -0.45398358 -0.18744317 -0.09126037 0.13597026
1.4414595 0.4174913 -0.6742865 -2.6563785 0.08278745 0.4926231 0.58466226 2.8966475
1.0809397 2.3111923 -0.47511095 0.9412369 1.4226961 -0.2930956 -1.6037629 0.8341008
1.2154144 1.115182 -1.1710173 -0.112761825 -0.095517986 -0.60058516 1.2546368 0.7271163
1.5707738 0.04459866 1.3402588 -1.2792287 0.4446208 -0.046031203 -1.4502128 -1.0719322
-0.384568 0.19347444 1.2844529 0.9709826 0.34609345 -1.2407261 1.1706182 1.3506042
-0.37247238 1.8828063 2.3330135 -1.3697295 -0.6228118 -0.011316188 -2.2843614 -1.4800311
1.7027711 2.015155 0.13985951 -1.8986384 0.4898906 0.13886052 0.29504532 3.0915082

lins.0.0.weight f4 [256]
00000000: 2adf 9c3e bca3 393f 1975 9f3e 366d d73f
00000010: 3de9 ba3f c373 0c3f e07b 593f 5058 b53f
00000020: 1974 4d3e 7b33 403f f1b8 193f d20c dd3e
00000030: 8e0b 463f 4737 de3e bc4e 1740 4a92 0a3f
00000040: 96d5 0d3f 54a7 bd3e 15eb ad3f 51da 083f
00000050: 6d8d a03f 3d69 803e 9151 f03f af7d 1b3f
00000060: 2f27 de3e ef53 e63e a77f d93e d22e 603e
00000070: 6f9d 103f af5e d23e ce19 1140 5f54 763f
00000080: 70f1 1a40 37a9 4c3f bf53 cd3f 9a83 e63e
00000090: 8c7f 013f 7382 193f 2b16 db3e 2862 a73e
000000a0: 64cd 053f 15c8 b93f 83d1 1f40 802e 973d
000000b0: d8d8 d83e 2e13 ad3f aaa2 ec3e 1fe2 043f
000000c0: 5341 1240 9491 1c40 65ed 3040 4904 b63f
000000d0: ff29 9d3f e964 c43f 6555 883e aa8b 753e
000000e0: 6a6c ad3e b353 5c3e 9b30 103f f232 f63f
000000f0: 055b f23e a33d d03e ef90 903f 9b75 fd3f
00000100: d7e3 ed3f 4a07 af3e b938 9f3e 3a00 b13f
00000110: f87d a53e 1d0c ebbd 74d3 ca3e 5af3 ae3e
00000120: 1364 013f 8567 9b3f 1ac0 3a3e 6948 223e
00000130: dde9 713e ddc7 bf3f 592c 743f b287 e23e
00000140: 5036 f83e 480b b93f e8fd 933e d837 113f
00000150: 3486 b53f f7ac 593e 3fa3 813f aa65 ce3f
00000160: 207d a93e 8d60 8b3f 5593 fa3e cdb0 0a40
00000170: a2df 883e 6a62 9f3f fa41 933e dfe5 a93e
00000180: dde3 943e 1e23 6a3f e00c 6e3e 4676 ab3f
00000190: 0103 3740 6abb 1c3f de09 993f 5fd3 d73e
000001a0: 6894 cd3e a690 653f 33b9 aa3f 168c b23f
000001b0: 329a 2d3f 247d ee3e 2bde 813e 0710 153f
000001c0: f982 1a3f e7d0 de3e e3ae c03f f255 f43f
000001d0: f2da fc3e 5472 0e40 6c12 eb3f a93e b23e
000001e0: da0c a13f 6985 a33f 40a8 ee3e 3f39 b03e
000001f0: dd05 a43f 6a4e 903f 011c de3e cc44 653e
00000200: 4a68 863e 3a6f 963f 4870 1c40 ab99 cb3d
00000210: bb4e c83f 7130 6c3f 7121 2740 97ff c93e
00000220: 3a5c 063f 3e6d 483e 4a2a c73f 39fb db3e
00000230: cf9b b33f fb63 a63f aa45 163e 4a3c dc3f
00000240: 07a1 863e 4728 973f bad0 c03e 5640 f03e
00000250: e0cf 0c40 d810 a63f 1a14 da3e 27a7 c13f
00000260: 1288 ec3e 22fe 7c3f d1da e73e 2788 d53e
00000270: e658 0040 3990 ad3f b060 413f 333b b73e
00000280: ffb1 453e 72c7 0b3f 91cd a83f 411a e73e
00000290: 6ec8 b53e 6ee1 0140 bfa8 0640 eebd fe3e
000002a0: f079 0b3f 1d26 c93e b9cb 8b3f 16a8 a53f
000002b0: af7f 953e 6d27 0740 c12e ad3e e7e3 e93f
000002c0: 5e42 de3e c40f 733f d12b bb3f 2b29 b63f
000002d0: 7f09 d33f 3159 a63e 77d6 bf3f ec7c 0c3f
000002e0: d840 fa3e bfa5 d63e 75b9 8c3e 3556 5c40
000002f0: 3b46 0c40 1f58 ec3e 9fea 013f 89ce cc3e
00000300: 8d48 ca3e 6a80 023f 0be6 4040 d8a3 0b3f
00000310: c38f c63f c32b cc3f 1436 c03e 13fd 8040
00000320: 3e5e 6f3e 6e56 8740 f382 863e 7fb2 9f3e
00000330: ec34 c63e eb34 a03e 0fe2 a43f e62f d83e
00000340: d5b3 d03f 5bf4 963e bc80 163f 1fef de3e
00000350: 2bd7 cc3f fa38 9b3d fd04 163f ac07 673e
00000360: b5d0 0d3f bea1 2740 decf 9d3f 5d7b 1040
00000370: 2731 c13e a29a 033f ca6f 503d 50b1 b03f
00000380: 6db2 e53f d613 6d3e 9633 c63e 6a16 6f3f
00000390: 818d 0040 7942 b43e b6a8 0040 50a7 3440
000003a0: 1853 ae3f 2a7a 113f d564 343e fc23 0d3f
000003b0: b93f 1f3f 57ab 4440 b256 b23f abf2 0340
000003c0: ca24 c83f 5f09 ef3f b3fe e73e f8fc 5c3e
000003d0: 498a aa3f 6816 103f 4926 fe3e 7ae9 0d3f
000003e0: 0c29 9d3f dc5c 053f 2799 b93e f8b5 373e
000003f0: 81d6 c23f 61a0 103f f5fc 033f aa73 e63f
0.3063901 0.72515464 0.31144026 1.6830204 1.4602429 0.5486414 0.84954643 1.4167576
0.20063819 0.7507855 0.60047823 0.43173844 0.7736138 0.43401548 2.3641806 0.5412947
0.5540403 0.37041724 1.3587366 0.53458124 1.254316 0.2508029 1.8774892 0.6073865
0.4338927 0.4498591 0.42480204 0.2189286 0.56490225 0.41087863 2.2672 0.9622249
2.4209862 0.799457 1.6041182 0.4502228 0.50585246 0.59964675 0.4279035 0.32692075
0.52266526 1.4514185 2.4971626 0.07381916 0.4235294 1.3521478 0.46217853 0.51907533
2.285237 2.4463854 2.7644894 1.4220058 1.2278441 1.5343295 0.2662765 0.23979059
0.33871776 0.21516304 0.56324166 1.9234297 0.47335067 0.40672025 1.129423 1.9801515
1.8585156 0.3418525 0.31097963 1.3828194 0.3232267 -0.1147692 0.3961445 0.34170038
0.50543326 1.2140967 0.18237343 0.15847935 0.23624368 1.4982868 0.9538017 0.44244152
0.48478937 1.4456568 0.28904653 0.56725836 1.418158 0.21257387 1.0127944 1.6124775
0.33103275 1.088884 0.4894053 2.167041 0.26733118 1.2451909 0.28761274 0.3318319
0.29080096 0.91459835 0.23247099 1.3395469 2.8595583 0.6122347 1.1956136 0.4215345
0.40152287 0.8967384 1.3337768 1.3949001 0.6781341 0.4657985 0.25364813 0.5822758
0.603561 0.43518755 1.5053371 1.9088728 0.49385792 2.225728 1.8364997 0.3481343
1.2582047 1.2775089 0.4661274 0.34418675 1.2814289 1.127393 0.4338074 0.22389525
0.2625144 1.1752694 2.444353 0.09941419 1.5649027 0.92261416 2.611416 0.39452812
0.52484477 0.19572923 1.5559781 0.42965105 1.4031924 1.2999262 0.14675012 1.7205899
0.2629473 1.1809167 0.37659246 0.46924084 2.2001877 1.297389 0.4259346 1.5129136
0.46197563 0.98825276 0.4528413 0.41705438 2.005426 1.3559638 0.7553816 0.35787353
0.19306181 0.54601204 1.3187734 0.45137218 0.35504478 2.0293841 2.1040494 0.4975428
0.54482937 0.3928689 1.0921546 1.2941921 0.29198977 2.1117814 0.33824733 1.8272675
0.4341001 0.9494593 1.4622747 1.4231313 1.6487273 0.32489923 1.4987324 0.54878116
0.48877597 0.4192333 0.27485242 3.4427617 2.1917865 0.4616098 0.5074863 0.40001324
0.39508477 0.50977194 3.0140407 0.5454688 1.5512623 1.5950855 0.37541258 4.030893
0.23375794 4.2293005 0.2627178 0.3119087 0.3871225 0.31290373 1.2881488 0.42224044
1.630488 0.29483303 0.58790183 0.4354181 1.6003164 0.07579227 0.5860136 0.2256152
0.55396587 2.619247 1.2329061 2.2575295 0.37732813 0.51407826 0.05088786 1.3804111
1.7945076 0.23152098 0.38711232 0.93393576 2.0086367 0.35206965 2.0102973 2.822712
1.3619108 0.5682703 0.1761659 0.5513303 0.6220661 3.0729578 1.3932707 2.0616863
1.5636227 1.8674735 0.45311508 0.21580875 1.3323451 0.5628419 0.49638584 0.5543438
1.2278152 0.5209482 0.36249658 0.1794051 1.5221711 0.5649472 0.51557857 1.8004048

lins.0.0.bias f4 [256]
00000000: dea0 2abf 1188 21bf 5c7a fabe 2cc3 20bf
00000010: 6e0d 8fbf d10f 07bf 93fa a13e acf1 bb3e
00000020: 8d6e 55bf a802 64bf de11 01bf c129 2abf
00000030: 43e4 58bf 362a 2abf fbce 03bf 75e2 0dbf
00000040: 17ec 27bf 7d1a 2abf c485 f63e 4ce5 43bf
00000050: 0bcf 563d 3ea7 31bf e602 85bf 44e5 32bf
00000060: b7d1 17bf 06d2 03bf 015e 2abf 190e ebbe
00000070: 3b2e 19bf 11ae 1abf 2730 abbf a77f 883e
00000080: 2ed8 fa3d 76b8 87bf f299 763d f3dc f1be
00000090: 1540 d5be 9e77 0abf dd78 1cbf 46f6 36bf
000000a0: 8ca6 3cbf 5b3a 893e 40de 8ebe cbbc 6cbf
000000b0: 6686 fbbe 4418 823e 7d65 22bf f76c fcbe
000000c0: a7f7 40bf 9e86 cd3f 0221 2abe b620 6b3e
000000d0: 0600 b4be 0534 ef3d f2f1 6abf 3727 16bf
000000e0: 8c5e 0cbf 1ece 12bf 4c6c 57bf 4e35 d63e
000000f0: deb4 23bf f7f0 40bf f251 17bf 377c 5abd
00000100: 6464 3abe d6c7 51bf 3ba3 4fbf c784 a83e
00000110: a9a5 36bf a14f 51bf e775 1ebf 4fa0 1dbf
00000120: 627f 03bf f6bc 8bbf 8756 2dbf d49e 61bf
00000130: 5e5b f0be 386d 2d3e a63a e13e f3b9 10bf
00000140: 601d 22bf 0d58 db3e 8fd2 ffbe 80e6 0bbf
00000150: 5373 dd3e 6be3 d1be 352e 863e 42fe 0dbf
00000160: 958e 0dbf d5de 113e 12a1 1dbf 3c17 3cbe
00000170: 1942 fdbe 0d77 a23e 353d 3ebf 1ec5 1ebf
00000180: f7d5 49bf 0357 2cbf ba03 33bf 01d7 993e
00000190: 193b d0be 3922 19bf 24f8 ba3e 2e95 f3be
000001a0: 8abe 1dbf 287d 683e 0f17 ca3e 2680 b53d
000001b0: 7c42 edbe d1ad 0abf 9c42 18bf 5867 29bf
000001c0: 9b07 e7be e219 0bbf 41d5 d73e dcf2 e4be
000001d0: ab75 27bf 5078 fbbe 5e3d 773e 11be 11bf
000001e0: 24f0 ae3d 2237 c23e 2178 01bf e25c e4be
000001f0: 043c be3e 815c bd3e 1a53 12bf a13c 27bf
00000200: 67f5 35bf 1dc5 c03e 3fb8 96be ebdd 1cbf
00000210: 122a 643e 56ed 9ebf 8d76 2a3e 46e5 11bf
00000220: ae2b e7be f93e 0cbf 323c ac3e 436b 5cbf
00000230: 26cd e13e a66f 83be c9f3 53bf 873a 0fbf
00000240: 4319 54bf 18a8 a83e 0f8c 1dbf c193 1fbf
00000250: fd31 fabe cdd2 c73e 27aa 933e 8bff 823e
00000260: 2caf 11bf 81a9 8abf f91f 32bf 343b 0abf
00000270: 5f6f 9abb c808 873f e22a 29bf 7925 e0be
00000280: 0fe6 28bf 6871 0bbf 2fc0 a83e 83bf e6be
00000290: 44e4 e4be fd52 c0bd 4b6d 58bf bba8 febe
000002a0: f326 16bf 3698 74bf 98cf 3f3e 8411 c13e
000002b0: 2f52 11bf cd5b a8bd 4ab4 14bf 1175 6f3e
000002c0: 7727 1dbf 4f18 10bf ca5a a63e e923 04bf
000002d0: 963e 613e d36b ddbe f445 c63e 4179 31bf
000002e0: 0f2b dbbe cc6e 16bf 3cc4 14bf 6a67 77bf
000002f0: a4b6 003f 10b4 26bf 35ff 23bf a83f 2bbf
00000300: 1f42 f5be c87f 0ebf 6af2 4cbe 54be 15bf
00000310: 1b6d f03e 2e2c a63e 0ace 16bf d646 a2bf
00000320: 498e 50bf d071 92bf f47e 1abf 43d2 03bf
00000330: 4d61 cfbe 7620 5dbf eb6a ea3e 4c7c 1abf
00000340: 9268 1cbf f199 50bf ea27 02bf 9f7e 38bf
00000350: e3c4 283e 9d6d 3ebf fb24 6cbf 147b 18bf
00000360: 7150 10bf b07f a5be 105c eb3e aa6f 993d
00000370: 50d5 51bf c56e 0cbf f01d 93be d115 9b3e
00000380: 528a 9e3e ef89 52bf 8581 0abf 19b4 a63e
00000390: 3a0e 84be 7bbd 23bf 1c26 fabc 5533 b3bf
000003a0: 6778 303e 6932 0cbf 9bc6 3dbf 1a64 fabe
000003b0: 0607 843e b42f 0b3e 0437 173e 0ec3 51bc
000003c0: be81 133e ce95 80bf 35ef 14bf 878b dabe
000003d0: 109c 9f3e 9dde 0ebf e66f 16bf e9b5 24bf
000003e0: 1e7f 873e e5b0 f5be 2ebf 22bf 6f67 1bbf
000003f0: de3c 953e b6c3 2cbf 407f 3cbf 50e3 c23e
-0.66651714 -0.63098246 -0.48921478 -0.6279781 -1.1175973 -0.5275851 0.31636485 0.36707819
-0.8337181 -0.89066553 -0.5041789 -0.6646996 -0.847233 -0.6647066 -0.514877 -0.5542367
-0.6559462 -0.6644667 0.4814893 -0.76521754 0.052443545 -0.69395816 -1.039151 -0.6988108
-0.59304374 -0.51492345 -0.6654969 -0.45909193 -0.5983617 -0.60421854 -1.337407 0.2665989
0.12248264 -1.0603168 0.060205407 -0.47238883 -0.41650453 -0.5408877 -0.6112192 -0.71469533
-0.7369163 0.26802334 -0.27903938 -0.92475575 -0.49125975 0.25409138 -0.6343611 -0.49301884
-0.7537789 1.6056707 -0.16614154 0.22961697 -0.35156268 0.11679844 -0.9177543 -0.5865359
-0.5483177 -0.5734576 -0.8414962 0.41837543 -0.63947856 -0.75367683 -0.59109414 -0.053341117
-0.18202358 -0.8194555 -0.81108445 0.329138 -0.7134653 -0.8176213 -0.61898655 -0.61572737
-0.51366246 -1.0917041 -0.67710155 -0.8813298 -0.46944708 0.16936195 0.43990058 -0.56533736
-0.6332607 0.42840615 -0.4996533 -0.5464859 0.43252048 -0.4099382 0.26207128 -0.5546609
-0.5529569 0.1424516 -0.615739 -0.18368238 -0.4946449 0.31731454 -0.74312145 -0.62019527
-0.7884211 -0.6732027 -0.6992756 0.30046847 -0.40670088 -0.59817845 0.3651744 -0.47574753
-0.61618865 0.22703993 0.39470717 0.08862333 -0.46339786 -0.5417147 -0.5947664 -0.66173315
-0.4512299 -0.5433637 0.42154887 -0.44716537 -0.6541392 -0.4911523 0.24144503 -0.56930643
0.08541897 0.37932688 -0.5057393 -0.44602114 0.37155163 0.36984637 -0.5715805 -0.6532689
-0.7107758 0.37650385 -0.29437444 -0.6127612 0.22281674 -1.2416179 0.16646786 -0.5699047
-0.45150512 -0.5478359 0.33639675 -0.8610117 0.44101828 -0.25671118 -0.8279386 -0.5594868
-0.82851046 0.32940745 -0.6154184 -0.6233483 -0.48866263 0.39028016 0.28840753 0.2558559
-0.56907916 -1.0832978 -0.69580036 -0.53996587 -0.0047129835 1.0549555 -0.6608106 -0.4377859
-0.6597604 -0.5446992 0.32959124 -0.45067987 -0.44705403 -0.09390829 -0.8454177 -0.49738106
-0.5865318 -0.95544755 0.18731534 0.37708676 -0.5676603 -0.082206346 -0.580876 0.23384501
-0.61388344 -0.5628709 0.32491142 -0.51617295 0.21996531 -0.43246326 0.38725245 -0.69325644
-0.4280629 -0.5876281 -0.5811193 -0.9664217 0.5027869 -0.65118504 -0.6406129 -0.66894007
-0.4790201 -0.5566373 -0.20014349 -0.5849354 0.4695824 0.3245558 -0.5890814 -1.2677867
-0.8146711 -1.1440983 -0.60349965 -0.5149271 -0.40503922 -0.86377656 0.45784697 -0.6034591
-0.6109706 -0.81484896 -0.50842154 -0.7206821 0.16481356 -0.74386007 -0.9224393 -0.595628
-0.56372744 -0.3232398 0.45968676 0.07492001 -0.81966114 -0.5485652 -0.28733778 0.30290082
0.30964905 -0.8224172 -0.5410388 0.3255928 -0.25792104 -0.63961 -0.03053575 -1.400004
0.1723343 -0.5476442 -0.7413117 -0.48904496 0.25786608 0.13592416 0.1476708 -0.012802852
0.14404961 -1.0045717 -0.581775 -0.42684576 0.31173754 -0.5580843 -0.58764493 -0.6434007
0.2646417 -0.47986522 -0.6357297 -0.607047 0.29148 -0.6748613 -0.7363167 0.3806405
