models/ogbl-collab_CN_2_1_0_run9_sigvae.pt (torch, 160127 bytes, 6 tensors)

z_embedding.weight f4 [1000, 32]
00000000: 2f93 f63f f92a c03f c9aa 6b3f 13e7 06c0
00000010: 7cb4 2b3f 9bfa 95bf 093e c1bd 23e6 cabf
00000020: c358 38bf 88dc d13f b8bc b7be fbe8 afbf
00000030: 9711 40bf b335 0fbf 8a9c 31bf f29a 4b3f
00000040: 7923 cb3f ca2b edbd 5cec e4be 6463 bd3e
00000050: 6ba2 40bf 13b7 843f 0dc2 553f e8cc da3f
00000060: f4cf a23f 6e29 9f3f 73d0 193f 3f87 a73f
00000070: 85f0 4ebe 4754 073d 3b9c 87be 93ab 4f3f
00000080: 9811 31c0 d7b5 2ac0 c4ab 8ebf 2281 2240
00000090: 2b85 623f c19e 18be 63a5 d33f 9f84 c8bf
000000a0: 954c 0ac0 a5f0 7b3f 688e 0ac0 0e24 88bf
000000b0: d312 0ec0 db01 5f40 f973 18c0 a79b 38bf
000000c0: d3c6 94bf 4707 fbbf c4c8 a9be 447d fd3f
000000d0: 8112 6ebf 5da4 f93f 5027 17c0 0dd7 87bf
000000e0: a3c8 66c0 603e 87bf 28d9 01bf 51fa e93f
000000f0: 567f 0b3f d223 2b40 13cd 01c0 6ff7 0f40
00000100: 25fa b83f da3d 5b3f f4f4 0d40 2dee 053f
00000110: ac7b b13e 4111 4abe c5fc 86bf 5c95 a33f
00000120: 9c52 30be 0017 063f 48ec 673d 7d43 da3e
00000130: 8833 133f 0848 24bf a235 0dc0 a134 40bf
00000140: 4d10 323c a36f adbe 639b abbf d8da 15bf
00000150: a043 093f ab4d 063f e512 923f 3c88 533d
00000160: a373 3e3f 3b92 f6be e854 86bf 1d99 1a3f
00000170: 2a74 dcbf a9e8 53bf 8cd7 aa3f 7692 f73e
00000180: 609c 20c0 46db f93e afda 483f 81ad ea3c
00000190: 8a08 243f b44f 153f 0e91 883f 817a e6be
000001a0: c2b6 3dbe ceb4 403f 6a3c cf3e cabf 363e
000001b0: 38a2 873e 2ef7 a23f 49d1 abba f471 9bbe
000001c0: ee7f babf 2395 d1bd 1862 19bf bd40 f43e
000001d0: c0e6 393f d4ad ba3d 8e33 c7be 8925 073f
000001e0: c1d6 4fbc cc9d 763e 5ab7 073e 46a5 433f
000001f0: 4729 8c3f 3006 ae3e ca4f 383f 05a4 d23e
00000200: 4530 f73f c184 813f 2bdc b7bf 3f9f 90bf
00000210: a34c 0bbe 1a55 d13f 179d 273f 0975 133f
00000220: ef1c 923f bd14 983c 9f24 e7bf 4de9 6c3f
00000230: 232d c0be 353c 843f 5bc8 2fbf 3806 233f
00000240: 2801 79bf 7d5d 753f f641 cf3f 95ad b93f
00000250: 7cf9 893e cd6c 57be f698 3bbf 1a9a d53d
00000260: 958f b23e 40b4 773f b76e eebe ff69 cd3f
00000270: 4aba 1ec0 4bc8 d5be a104 99bf 50f5 4f3f
00000280: 5445 f3bf f70f 6a3e f3a5 cb3c 6420 b1be
00000290: c0db 923e 7d18 3bbf 1504 333e e005 8cbf
000002a0: 9713 cdbf ba2b ad3f 4ef8 a43f c733 563d
000002b0: 32ff c5bf 7db7 413f 7288 463f c2b2 0140
000002c0: 7db5 123d 39f7 f63d fa3f 4ebf 058f 54be
000002d0: 2294 6ebf c8a4 cbbf a767 91bf f5c8 05bf
000002e0: 54ce 04bf d329 c0bf 9b9c f6bf 6feb 023e
000002f0: d3ee 823f 9748 0ebf 384b 343f 6fba 353f
00000300: 291f e33f c4ea 6bbf 1e63 763f 408d acbe
00000310: 5571 96bf 4253 b73e 1121 f53e 0b46 ad3f
00000320: 01ac 063f a12b 0740 5750 05bf f497 6ebf
00000330: ef9a 3d3e e5ca 883f 853c a73f 6e6f eb3e
00000340: 638b 50bf f8b7 82bf 9f66 fdbe ce9d 17bf
00000350: 0005 1e3e 39ac e13e f0d9 17be 6061 14c0
00000360: 0bc6 cbbe 604d 8a3f 5df3 e3bf a207 c13f
00000370: 6b6d 9e3e 4114 00bf fc7a 843f 5b46 d83f
00000380: 1d9f 93bb 7459 d53f 409d 1d3e 5fb6 87bf
00000390: b099 12bf b825 ab3d 65c0 cc3e 579e fe3f
000003a0: 306e 93bd cff5 67bf 1a1e 03c0 0760 8abf
000003b0: 475e 903c f234 a03d 4acb 453e b7c0 d13e
000003c0: 7cdb 6dbf e468 8d3e bbf3 09bf 97d7 ec3e
000003d0: 2034 5fbf 5327 debc a1dc b4be aa5f bb3f
000003e0: 12b2 a03f 5807 37bf 759a 5a3f 6453 033f
000003f0: d02b 0a3f f0c4 103f 917b 013f e4ca 633e
1.9263667 1.5013114 0.9205747 -2.1078537 0.6707227 -1.1717104 -0.094356604 -1.5851482
-0.7201044 1.6395426 -0.35886168 -1.3742975 -0.7502684 -0.55941314 -0.69379485 0.795333
1.58702 -0.11580618 -0.44711578 0.36989892 -0.7524783 1.036837 0.83499223 1.7093782
1.2719712 1.2434518 0.60083693 1.3088149 -0.20208938 0.033039358 -0.26486382 0.81121176
-2.7666988 -2.6673486 -1.1146169 2.5391316 0.8848445 -0.1490431 1.6534847 -1.5665473
-2.1609242 0.9841407 -2.1649418 -1.0636003 -2.219899 3.4844882 -2.3820784 -0.72112507
-1.1623176 -1.9611596 -0.33160985 1.9803853 -0.92996985 1.9503285 -2.3617744 -1.0612503
-3.605996 -1.056591 -0.5072198 1.8279516 0.54491174 2.6740613 -2.0281417 2.2494771
1.4451338 0.85641253 2.2180758 0.5231655 0.34664667 -0.19733144 -1.0545889 1.2779956
-0.17219013 0.52378845 0.05662182 0.42629614 0.57500505 -0.6417241 -2.2063985 -0.75080305
0.010868144 -0.33874235 -1.3406795 -0.58537054 0.5361881 0.5246226 1.1412016 0.051643595
0.743952 -0.4815844 -1.0494661 0.6038988 -1.722295 -0.82776886 1.334703 0.48353928
-2.5095444 0.48800105 0.78458685 0.028647186 0.6407553 0.5832474 1.0669267 -0.45015338
-0.18526748 0.75275886 0.4047578 0.17846599 0.2649095 1.2731683 -0.0013108636 -0.30360377
-1.4570291 -0.10233524 -0.59915304 0.4770564 0.7261772 0.09115186 -0.3890652 0.5279165
-0.012685479 0.24083632 0.13253537 0.7642406 1.0950097 0.33989096 0.7199675 0.41140762
1.9311606 1.0118638 -1.4364065 -1.1298598 -0.13603453 1.6354096 0.65474075 0.57600456
1.141508 0.018564576 -1.8058051 0.9254349 -0.37534437 1.0330874 -0.68665093 0.63681364
-0.9726739 0.95845777 1.6192005 1.4506098 0.26948154 -0.21037598 -0.73280275 0.10429783
0.3487517 0.96759415 -0.46568844 1.6047972 -2.4801202 -0.41754374 -1.1954538 0.8123369
-1.9005532 0.22857653 0.024859404 -0.34595025 0.2868328 -0.7308424 0.17482026 -1.0939293
-1.6021603 1.3528969 1.2888277 0.052295472 -1.5468504 0.75670606 0.7755195 2.0265355
0.035817612 0.12058873 -0.8056637 -0.20757683 -0.9319478 -1.5909662 -1.1359757 -0.5225976
-0.5187733 -1.5012764 -1.9266542 0.12785123 1.0229133 -0.55579513 0.70427275 0.709876
1.7743884 -0.921551 0.9624499 -0.33701515 -1.1753336 0.35805708 0.4787679 1.3537
0.5260621 2.112038 -0.52075714 -0.9320061 0.18516134 1.0686918 1.3065344 0.45983452
-0.8146269 -1.0212393 -0.49492356 -0.59225166 0.15431595 0.44076708 -0.1482923 -2.3184433
-0.39799532 1.0804863 -1.7808644 1.5080454 0.30942854 -0.50030905 1.0350032 1.6896471
-0.0045050518 1.6667924 0.15392017 -1.060253 -0.5726576 0.08356804 0.39990535 1.9892071
-0.07198751 -0.9060945 -2.0487123 -1.0810555 0.01762308 0.078225985 0.1931583 0.40967342
-0.9291303 0.27619088 -0.5388753 0.46258232 -0.8718891 -0.02711836 -0.35324576 1.4638569
1.2554343 -0.7149558 0.8539193 0.5129912 0.539731 0.565505 0.5057917 0.22245365

gce.weight f4 [32, 32]
00000000: 8465 09be 3f5b 823e 4278 97be cc75 393d
00000010: b66e 733e db36 443e 7a70 e93d 51b6 953e
00000020: ab1e 023d 2d7e c23e a34e 8b3e 3900 753e
00000030: 3fa8 cabe e66d 2e3d 1c53 233e 548a 263e
00000040: 2284 f93d 2360 bcbe c221 c1bd 8156 b3bd
00000050: 2c54 51be 8f1f 443e b4e6 7f3e 23fe 943d
00000060: 2be3 3ebe f7af ec3d 8bf5 c93a 1ade a1be
00000070: 5614 27be 6aec d33d fdff a73c 7e79 a5bc
00000080: 40dd 733e 7f5b f0bd ed37 973d f4a0 7cbe
00000090: 5b00 acbd 398c c63d e44e 9c3e a9b7 923e
000000a0: 9d13 d1bb d994 4fbe 6a07 01be a6dd f9bc
000000b0: 033d 15be cad0 52be cbff 053f 3b4d 903e
000000c0: 10e7 82be 3afc 76be 1593 873d 1cd6 883e
000000d0: ce45 583e 583b 94be c5fb a53e 36e2 703e
000000e0: 2069 4a3e a25d 05bc b903 38be 9203 0abe
000000f0: 1dbe 503e 63d6 603e 4f7b 863e ad11 f4bd
00000100: 46d3 713e 526a 743e 3574 413e 9502 b8be
00000110: f9dd c2be b018 b63e 4c46 d0bc 812e 7d3d
00000120: bee1 533e 7c11 4b3e 4a8e 3b3d 0662 38bd
00000130: bb67 603b bba6 42be b225 ec3e 9ffc 983e
00000140: d7a9 53be f6a2 50be d720 57be 0cb4 b93e
00000150: 1af2 8bbe 043f 16bd 5c3b be3e 83c7 ee3c
00000160: 2541 0abe ba54 a7bc d560 083e 93ce f3bd
00000170: 7081 debe c3c4 02be e8bd 4b3e f755 023d
00000180: 653e c6be 6865 e93d 94e9 f93c f529 503e
00000190: 7bfa fc3e 76a5 7dbe 273b eb3d a344 0fbd
000001a0: ae8e ab3e d8a7 7f3e 3c9f 123e 90c2 bdbe
000001b0: e669 3fbd d184 f9bc ea75 d1be c828 893e
000001c0: 8316 4d3d 2d86 bc3e 248b 26bd ed1a ac3d
000001d0: d4e1 d0be 852f babc 2e85 3ebc 7d29 81be
000001e0: af1f 043e 4c37 dbbd ea4a d53d d0cd a5be
000001f0: 0d60 a4bd 36d6 6fbe 892a f6bd 0a91 86ba
00000200: 2afa 493d cee0 62be 67c8 3ebe 4ef0 a83e
00000210: 2582 c93e 4de9 36bd f235 62be a377 6d3d
00000220: cf9c 343e ef2b ca3d af9f 88be d28d a1be
00000230: 5f36 393d a669 9cbd 5f68 edbd 0b92 1a3e
00000240: 7bf3 963e 1c3f fe3e 931f 4ebe 49e7 313e
00000250: 15ec 72be d9f9 863e 7da3 3cbe 8f1d 38bd
00000260: 08cf 403e c11d 953c a6e2 3e3d 3256 70be
00000270: 7c1b 96bd 69f4 06be 2abb bf3e 1178 3d3e
00000280: 0d92 133e 8f27 96be f2a9 dcbd b75e 903e
00000290: 36e7 973c 2966 aabe 7e2d 793d 1dcb 823e
000002a0: 13ec 553e f6e1 923e dac1 98bd e4a5 9b3e
000002b0: 3bf5 12bd ae89 abbd 3fad dc3e e0c0 f03d
000002c0: af61 ebbd bfbf 773e 3eb4 11be c584 8f3d
000002d0: d853 60be f28b c5bc b1b4 3ebc dc0c a8bd
000002e0: 79da 3a3e 7636 593d beb5 8dbc 60f7 353e
000002f0: dbb2 8ebe 4fb1 1d3e 490e 873e cb2f bebd
00000300: d01e fbbd 018f 8a3d b5bc afbe bc82 ca3e
00000310: f6fe b13e 54d0 4fbe 5582 96bd 9c78 e1be
00000320: b4c6 9cbe 77dc 1e3e 3b25 02be 44b5 cd3c
00000330: eefb 643e d159 1d3e 8214 72bd 2f8f 7fbe
00000340: 5e39 00be d683 0f3f 6d10 c5be 9c78 9b3e
00000350: 5b66 b03e 81b7 3abe 65be 5cbd f135 97be
00000360: 1bee 8b3e 3862 653d 09c7 a43d ee52 58bd
00000370: 2a94 c03e 376d b03c 2b0c ab3e efe1 71bb
00000380: 976f 833d 99c0 0d3e 14d8 24bd 3a84 773d
00000390: 1058 91be 5c51 f4bd e010 113c fd25 bebe
000003a0: d85f 563e 194f 783e cb25 a1bd b904 443e
000003b0: 1f5e ddbe ccbd 9ebe cbcd cf3e 48d7 083e
000003c0: 1676 5f3d ff59 22be 5582 973e e8ad 173e
000003d0: 9673 023d c33c 843e 41a8 a9bd 957c b8be
000003e0: 8257 623e fabd 373e da0f 39bc 0606 b93d
000003f0: c0a1 28bd eb31 583d 68d0 ccbd 0756 3e3e
-0.13417631 0.2546024 -0.29583937 0.045278355 0.23772702 0.1916155 0.11398406 0.2924066
0.03176753 0.3798689 0.27208433 0.23925866 -0.39581487 0.042585276 0.15949672 0.16263705
0.121834055 -0.36792096 -0.09430267 -0.08756734 -0.20442265 0.19152664 0.2499035 0.07275035
-0.18641345 0.11557 0.001540826 -0.31614763 -0.16316351 0.10347827 0.020507807 -0.020199534
0.23814869 -0.117362015 0.07383714 -0.24670774 -0.08398505 0.09694714 0.3052894 0.28655747
-0.006380512 -0.20271625 -0.12600484 -0.030501198 -0.14574055 -0.20587459 0.52343434 0.28183922
-0.25566912 -0.24119654 0.066198505 0.26725852 0.21120378 -0.28951526 0.32418647 0.23523793
0.19766665 -0.00814 -0.1797017 -0.13477924 0.20385022 0.21956782 0.26265952 -0.11917434
0.2361575 0.23868683 0.18891986 -0.3593947 -0.38059977 0.3556571 -0.025424145 0.061811928
0.20691583 0.19830889 0.045789994 -0.045015357 0.0034241516 -0.19008915 0.4612251 0.29880235
-0.20670258 -0.20374665 -0.21008621 0.36270177 -0.27333146 -0.03668119 0.37154663 0.029147869
-0.13501413 -0.020426143 0.13318188 -0.11904635 -0.43458128 -0.12770371 0.19896662 0.031820264
-0.38719478 0.11396295 0.030506887 0.20328505 0.4940985 -0.2477015 0.11485892 -0.034977566
0.33507293 0.24966371 0.14318556 -0.37062502 -0.046731852 -0.03045884 -0.40910274 0.26788926
0.050070297 0.36821118 -0.04066004 0.08403573 -0.40797293 -0.022727737 -0.011628432 -0.25226966
0.12902711 -0.107039064 0.10414679 -0.32383585 -0.08026133 -0.23421559 -0.12019832 -0.0010266614
0.04931084 -0.22156069 -0.18631135 0.32995838 0.39357105 -0.044656087 -0.22090891 0.057975423
0.17637943 0.09871661 -0.2668433 -0.31553513 0.045217868 -0.07637338 -0.11592173 0.15094773
0.29482636 0.49657524 -0.20129232 0.17373385 -0.2372287 0.26362494 -0.18421741 -0.044950064
0.18828976 0.018202664 0.046602868 -0.23470381 -0.07329461 -0.13179173 0.37447482 0.18502833
0.14411183 -0.29327056 -0.10774602 0.28197262 0.018542867 -0.33281067 0.0608344 0.25545588
0.20890836 0.2868802 -0.07458849 0.30400002 -0.0358784 -0.0837587 0.43100926 0.11755538
-0.11493241 0.24194239 -0.14228913 0.07007746 -0.21906984 -0.024114583 -0.01163976 -0.08205578
0.18247403 0.053030454 -0.017298575 0.17770147 -0.2787083 0.15399669 0.26378086 -0.092864595
-0.122617364 0.06765557 -0.3432366 0.39552867 0.34764832 -0.20294315 -0.073490776 -0.4403733
-0.30620348 0.15513788 -0.12709515 0.025110848 0.22361729 0.15366293 -0.05910159 -0.24956964
-0.12521884 0.5606054 -0.38489094 0.30365455 0.3445309 -0.18234064 -0.053892512 -0.29533342
0.27330098 0.05600187 0.080457754 -0.052813463 0.3761304 0.021536453 0.3340772 -0.0036908349
0.064177684 0.13843001 -0.04024513 0.060428835 -0.283875 -0.119295806 0.008854121 -0.37138358
0.20934999 0.24248923 -0.078685366 0.19142427 -0.4323587 -0.3100418 0.40586695 0.13363373
0.054555975 -0.15854643 0.29591623 0.14812434 0.031848513 0.25827608 -0.08284045 -0.3603255
0.22103694 0.17943564 -0.011295283 0.09034352 -0.04116988 0.05278198 -0.10000688 0.18587504

gc1.weight f4 [160, 32]
00000000: a643 f9bc 9eb1 85bd 1d3d ac3d 8b96 89bd
00000010: c0d3 cdbd 6270 fb3c 71ec d4bc 7a68 55be
00000020: b1c0 c8be a9ba 023e 5d3d 913d 82cd 263b
00000030: a100 92bd ed54 ccbd 0072 a43c 54b2 27be
00000040: c83e 59be f221 9d3c ecac 96bc 65e2 62be
00000050: 6ccd 3d3e 4381 d2bd 6c3d 443d f867 a2bd
00000060: 91e8 963e 991a 84be 9979 e13c 4337 903d
00000070: 43ea 5dbe 76f7 12bd 6119 7ebe ece9 24bc
00000080: cf91 423e ee5e 973b b636 5fbe 7863 8a3d
00000090: c7ef c63c 13f1 473c 05d3 70be f9b3 8a3e
000000a0: 472e 293f 93d6 4f3e 67de ee3b 41de 803c
000000b0: 067d acbd be78 283e 2876 45bd 501e babd
000000c0: 5925 4e3e 52c4 aebd 1447 a9bd 7cd0 2b3e
000000d0: 4afc afbe 4445 ad3e 2531 cabe ca68 ff3e
000000e0: bc22 363c 8850 d7bd d34d 2f3d 3718 4c3e
000000f0: dacd 29be 1e19 6d3e 9fb7 9d3e 5b44 43bf
00000100: 248f 0b3e 264c 22be e0fd 5b3c 2d3f eb3d
00000110: cf1f a73d 47c4 8bbd 0a25 8b3e db77 80be
00000120: 47d0 abbc f45c 22be 0500 d7bc c6ea 6bbe
00000130: 0250 a63d b495 97bd 2f16 20be a58b 88bd
00000140: d50c 35bd 7fd9 973d b91d 383d fec4 163e
00000150: 4570 49bd 154f 073e c6a2 2fbe 9454 90be
00000160: 148d 353e 62ed 5abe b059 bebd 6f3a 183d
00000170: 6130 32bd e662 b43d 863f 89bd fb8d c43d
00000180: b497 d4be ff53 30bd 3e91 4dbe e57d f63d
00000190: b078 93bd 827b be3d e1ef 6cbe 2477 593e
000001a0: 4a29 bb3e 8c6d 82bc dfc2 043c c278 f8bd
000001b0: 83dc a7be f2bd 02bd e0f6 513d 4844 0b3d
000001c0: 3823 983d e989 a5bd 906f 77be fc9d 32be
000001d0: deda c1bd 5c65 873c cc4c 58be 100c 403e
000001e0: 16d0 f9bd 41e8 f4be f064 bbbc 9764 833e
000001f0: 2475 0cbe 89d7 e83d 39c8 4d3e 7568 debe
00000200: e2ad 193c 0b8c 973d 655a 4c3e 21e5 79bc
00000210: 1fab 00be 02b2 22bd 04db e23c 4883 ae3d
00000220: 9a0e 75bd bed9 1a3e dff4 5e3e 4d56 ad3e
00000230: 0bb1 e6bd dd9f 2ebd 69eb 33bd 3fd6 913e
00000240: 04f9 c33d 5362 ba3d 87e6 c1be b3dc a03d
00000250: 8c28 9e3e c660 77bd ff52 94bd 9785 20be
00000260: 00a6 9fbd 36c7 ff3d c7bd 813e 429f edbc
00000270: 2cd4 c33d 2694 243e 0d76 78be 3b18 fbbd
00000280: e1c0 8f3d b3fd f0be 2899 27bc 6673 0c3d
00000290: 4392 ac3d 38a0 43be 24f4 fabd 5994 ff3e
000002a0: b64b 283d 9a09 59be fa24 b53d 9955 02bf
000002b0: 4f84 26bc 6f91 e23d 47cf e8bd ea24 233e
000002c0: 8e46 8f3e 571b 80bc 0a32 263e b189 b3bd
000002d0: dced 76be b618 d73d a92c 06bd e276 8f3e
000002e0: de23 f5bd a128 13bf 4292 b0be dc86 cfbe
000002f0: ef1a febe 4e94 513c d232 6a3e d00d 67be
00000300: 291a df3c c821 503d 8ede 033e 2a2d 33bc
00000310: 7646 323c 1b5e b73d 37b2 cc3c e9ff cf3d
00000320: e699 91bd 773c 4e3d 1ac7 1abe 6b3f d93d
00000330: 1bf9 7c3c d2b4 18bd 634f 2d3e 6b3a 913d
00000340: 0552 1fbc 4e82 1dbd e61e 183e e0e2 28bb
00000350: f8e9 ebbc 3721 79bc 484d 7bbd 9255 e2bd
00000360: 57ae 0a3d 86db c9bd e2d5 87bd a96f 9e3d
00000370: 7e70 2cbe 3ca8 a2bd f7d8 fdbd 11d0 1b3d
00000380: 08f3 91bd 22e0 1ebe 61c5 883e 9b39 b6bc
00000390: d37d d93d 6573 703e 606c 413e 35e7 b2bc
000003a0: 2207 fabd b68b 26bd ba39 ff3c 6c10 e93d
000003b0: 582e 27be 589f 673d bb81 f0bd bc14 a23d
000003c0: d597 22be 2262 413d 891a 17bd 1331 c8bd
000003d0: 2181 a1bd 8847 73bd e5e8 103d f860 ea3d
000003e0: 7078 0b3e 1d44 b9bc b8a7 aebd 40b9 8d3e
000003f0: 97a6 42be 7bdd 06bd 331e 08bd 7040 923b
-0.030427765 -0.065280184 0.08410094 -0.06718167 -0.10050154 0.030693237 -0.02599165 -0.20840636
-0.39209512 0.12766518 0.07091782 0.0025452082 -0.07129026 -0.09977136 0.02007389 -0.1637662
-0.21215355 0.019181225 -0.018393002 -0.22156675 0.18535393 -0.10278561 0.04791014 -0.07929987
0.2947431 -0.25801542 0.027523803 0.0704179 -0.21671395 -0.03588053 -0.24814369 -0.010065537
0.19000934 0.004619471 -0.21798214 0.067572534 0.024284257 0.012203473 -0.23517998 0.27090433
0.6608624 0.20296697 0.007289696 0.015730979 -0.08422284 0.1645231 -0.048208386 -0.09087813
0.20131435 -0.08533539 -0.0826551 0.16778749 -0.3437217 0.33841908 -0.3949062 0.49884635
0.01111668 -0.10513407 0.04279883 0.19931112 -0.16582432 0.23154113 0.30804154 -0.7627618
0.13628823 -0.15849361 0.013427228 0.11486659 0.08160364 -0.06824546 0.27176696 -0.25091442
-0.020973338 -0.15855771 -0.026245127 -0.23038778 0.08120729 -0.074016005 -0.15633462 -0.0666726
-0.04420169 0.07414531 0.04495022 0.14723584 -0.049179334 0.13213761 -0.17151937 -0.28189528
0.17729598 -0.21379617 -0.0929445 0.0371651 -0.04350317 0.08807926 -0.06701569 0.09597393
-0.4152199 -0.043048855 -0.20074937 0.12035731 -0.07200754 0.09300901 -0.23138382 0.21236855
0.3655494 -0.015921377 0.0081031015 -0.12132408 -0.32785425 -0.031919427 0.05126083 0.034000665
0.074285924 -0.08082945 -0.24163651 -0.17443079 -0.09465574 0.016527824 -0.21123046 0.18754601
-0.12197892 -0.47833446 -0.02287528 0.2566268 -0.1371656 0.11369235 0.2009591 -0.4343907
0.009379836 0.07399758 0.19956358 -0.0152523825 -0.12565278 -0.039720543 0.027692325 0.08521134
-0.05982838 0.15122125 0.21773098 0.33854905 -0.11264237 -0.042632926 -0.043925676 0.2848377
0.0956898 0.09100785 -0.3787119 0.07854595 0.3089031 -0.060395025 -0.07242393 -0.1567596
-0.07795334 0.12489168 0.253401 -0.029006604 0.09561953 0.16072139 -0.24263783 -0.12260481
0.070192106 -0.47068557 -0.010229386 0.03428974 0.08426335 -0.19104087 -0.122535974 0.49917868
0.04108783 -0.21195069 0.08844943 -0.5091186 -0.010163381 0.110628955 -0.1136766 0.1593205
0.27983516 -0.015638037 0.16230026 -0.08766497 -0.24114174 0.1050276 -0.032757435 0.28020388
-0.11969732 -0.5748387 -0.34486586 -0.40532577 -0.49629924 0.012791706 0.22870949 -0.22563863
0.027234154 0.050813466 0.12877867 -0.010936061 0.010881057 0.08953496 0.024987323 0.10156233
-0.07109432 0.050350633 -0.15115014 0.10607799 0.015440251 -0.03728182 0.16924815 0.070912205
-0.009724145 -0.038454346 0.14855537 -0.0025769994 -0.028798088 -0.015205673 -0.061352998 -0.110514775
0.03385767 -0.09856324 -0.06632592 0.07736141 -0.16839787 -0.079422444 -0.123948984 0.038040224
-0.07126433 -0.15515187 0.26713088 -0.022244265 0.10619702 0.2348152 0.18888998 -0.021838764
-0.12208392 -0.040660582 0.031155456 0.11380085 -0.16326272 0.056548446 -0.11743494 0.07914111
-0.15878232 0.047212727 -0.03689054 -0.09774985 -0.078859575 -0.05939439 0.035378356 0.114442766
0.13620162 -0.022615487 -0.085280836 0.27680397 -0.19008861 -0.032926064 -0.033231925 0.004463248

gc2.weight f4 [32, 16]
00000000: be90 12bf d032 993d 038e 643e e20a b33d
00000010: 7bac 333f acc8 c23e 0b0f 0c3f fd0e 8fbe
00000020: 27c5 7d3f 9f55 33bd 2ac4 f43e 183f b0bf
00000030: c8ee 2cbe 8d8a d23d 8a36 6a3e bbaf c43e
00000040: 3b3b 8a3f 5593 ca3e 1ee1 27bf 3068 1a3a
00000050: 5263 453d fa74 263f b537 103e 47e9 12bd
00000060: 5789 71bf aa20 09bc caab 463f 3190 84be
00000070: fe0a 2a3e 0fdd 1b3f 27ca 94bf c809 fabc
00000080: f04c b13e 7af8 89bd 7f75 84be 64d7 12be
00000090: 6662 36be b45a 2f3d 5ae9 4e3d 8035 893d
000000a0: a5b4 39be b46d 90bd 6dd4 b53e bc39 4b3e
000000b0: 4909 3c3e c9a9 92be 9091 af3e 387d bb3e
000000c0: a610 a8be 78be 4bbf 0d0b 493e a9db ccbe
000000d0: d12c db3d b868 75be 181f c53e 2148 67be
000000e0: 6e6a d13d ef5b 8cbe 5c13 a4be dccf df3e
000000f0: 42db 9f3e 61b3 b9be 4266 193d c851 4d3e
00000100: c28c 2e3e 52fe babe c9e0 9a3d ba53 9d3d
00000110: 7d91 2d3e 201b fcbe e7e7 023e a2f9 8cbe
00000120: ff18 52be 0e79 343e c148 b13e e7c3 113e
00000130: 8333 02be c4b4 b63e 622d 92be 5f76 dc3c
00000140: efff dabf da6f 4d3f 415c 2a3f 7117 0440
00000150: db35 ed3e 9919 65be 4890 d73e 05a8 923e
00000160: c1f6 31be bf9c 253f 21fc 4bbf 6ff0 7d3e
00000170: 407d 003e 300f af3e 5357 ca3d 417b bebe
00000180: 58b3 c4be b32d 1b3f 0438 9bbd 8d0d cc3e
00000190: edea 60bc 142b 6c3d 2131 c53e e65a 4f3e
000001a0: da00 0dbf 4796 94bd aba2 683d 49a9 993e
000001b0: 5a15 da3e a263 a83d f3dc a93e 6d80 9abe
000001c0: b9e7 7b3e 94f1 b53e 4883 d53e f07e d6be
000001d0: 0c18 673b 5c39 be3e ef2a fcbb a6f3 f4bd
000001e0: 552a d73e 6086 dd3d 8acb e8bd 9d67 11bf
000001f0: cb0e e1be 26e7 f5bd b472 a3be 130e 383e
00000200: af9a a03c 39da 883e a5ea 90be 7f2a 173f
00000210: d577 c63d 1e40 2cbf 6740 9b3d 2bba 043e
00000220: d644 d1be 4a98 65bd 4be4 47be ecef aa3e
00000230: 2319 063f 2704 853e 2c3b 99bf 991c f7bd
00000240: 88df 8cbe 4614 2c3e a4b7 b63e 68b9 05bf
00000250: 4309 2fbf a924 c9be 9847 483f ba14 333f
00000260: 0560 53bf 11f4 7c3f cffd c6be 5ef0 0dbf
00000270: 7707 933f 8870 923e a68f 18bf d6d9 603e
00000280: 47c7 47be 8004 9f3e 909c 9b3e 325c 9abe
00000290: f812 02be c492 d33e fd75 56be d32e b4be
000002a0: 9633 b23e 4ac8 94be 082c a63d 9af7 0fbe
000002b0: a354 c0be 81c7 6dbe b7cc 313e 2d4b 833d
000002c0: c47b 0fbf 468d 5dbe dc71 28bf 2ad7 b93d
000002d0: 0604 493f 1e9a a33e e4dc 7abf e67f 6dbf
000002e0: fbe8 953f 718b 27bf 516b 403f d195 863f
000002f0: b7d9 90bf 9241 7fbf dbc5 813e 552a 803c
00000300: 62c5 ed3d 7823 c8be 173a b73f c8a7 193b
00000310: 0d39 373f e5fb 7cbd bea1 6c3f 0cca 8b3f
00000320: a837 2bbe 5061 963f d9f5 843e 2858 77be
00000330: 1106 8f3e 4915 213f 213b 98bf 0025 6dbe
00000340: ce87 153f d0bb 4ebe d4df ebbd ab1b 1cbe
00000350: 8c59 64bf 118a 173f 949d 22bf 5933 90be
00000360: 439e 803e 48ae 00bf cdf3 d53d 42c9 0fbf
00000370: a90c 11bf 8451 d8be 7b66 e63e 334c d63e
00000380: 6563 e13e 0cd3 5a40 f37f 04c0 0047 0cc0
00000390: f9db 5b40 97d5 73c0 26cc 0b3f d0a8 a33f
000003a0: e3ae 6d3f 9b30 0bbe 342c adbe 3d8d 7bbf
000003b0: b4af ae3d 8906 633e 6f2c ccbe f56e 80bf
000003c0: 14d2 d63e 80b8 933e 48f4 95be 4d3c 16bf
000003d0: a0cb 66bf ee64 d9bc 0828 e53c d597 b1bd
000003e0: 3962 803e 7788 8ebe ebb5 813d 4d05 cfbe
000003f0: fb0a 5ebd 3d15 f1be 2424 1a3e 6897 133f
-0.5725211 0.07480395 0.22319798 0.0874231 0.7018506 0.38043725 0.54710454 -0.27941123
0.99128956 -0.043782827 0.4780591 -1.3769255 -0.16887963 0.10280333 0.22872368 0.38415322
1.0799326 0.3956553 -0.65577877 0.0005890159 0.048190422 0.6502224 0.1408375 -0.035867
-0.9435019 -0.008369604 0.7760588 -0.2589126 0.16605756 0.60884184 -1.1624192 -0.030522242
0.3462901 -0.06736846 -0.25870892 -0.14339978 -0.17810974 0.04281111 0.05051551 0.066996574
-0.18135317 -0.07052174 0.3551363 0.19846243 0.18362917 -0.2864516 0.34290743 0.36618972
-0.32825202 -0.7958751 0.19633122 -0.40011337 0.107019074 -0.23965728 0.38500285 -0.22586109
0.10225378 -0.2741389 -0.3204602 0.43713272 0.31221968 -0.36269668 0.037451036 0.20050728
0.17045882 -0.36522156 0.075624056 0.07681985 0.1695003 -0.49239445 0.12783776 -0.27534205
-0.20517348 0.17624304 0.3462582 0.14234887 -0.12714963 0.35684788 -0.2855025 0.026911912
-1.7109355 0.80248797 0.6654702 2.0639307 0.4633015 -0.22373046 0.42102265 0.28643814
-0.17379285 0.646923 -0.79681593 0.2479875 0.12547779 0.34191275 0.09879937 -0.3720341
-0.38418078 0.60616606 -0.075790435 0.39854088 -0.013727886 0.05765827 0.38514045 0.20249519
-0.55079424 -0.07255226 0.056795757 0.30011967 0.42594415 0.082221285 0.33176383 -0.30176106
0.24600114 0.35535872 0.41701722 -0.4189372 0.0035262136 0.37153137 -0.007695548 -0.11960535
0.42024484 0.108166456 -0.11366947 -0.56798726 -0.439566 -0.12006979 -0.3192345 0.17974119
0.019605009 0.2672899 -0.2830402 0.5904922 0.09690825 -0.67285335 0.07580643 0.12961642
-0.4087283 -0.056053437 -0.1952068 0.3338617 0.52382106 0.2597973 -1.1971183 -0.120660014
-0.2751429 0.16804609 0.35686982 -0.5223603 -0.6837351 -0.39285782 0.78234243 0.699535
-0.8256839 0.98809916 -0.38865516 -0.55444896 1.1486653 0.2860148 -0.5959419 0.21958098
-0.19509612 0.3105812 0.30392885 -0.30148464 -0.12702549 0.4132291 -0.20943446 -0.35191974
0.34804982 -0.29059058 0.08113867 -0.14059296 -0.37564573 -0.23220636 0.17363249 0.06410823
-0.56048226 -0.21635923 -0.65798736 0.090742424 0.78521764 0.3195352 -0.979933 -0.9277328
1.1711725 -0.65447146 0.7516375 1.051447 -1.1316441 -0.9970943 0.25346264 0.015645185
0.116099134 -0.3908956 1.4314603 0.0023445953 0.7157143 -0.061763663 0.924343 1.0921035
-0.1672045 1.1748447 0.25968817 -0.24154723 0.27934316 0.62923104 -1.1893045 -0.23158646
0.58410347 -0.20188832 -0.11517301 -0.1524493 -0.8919914 0.5919505 -0.63521695 -0.28164175
0.25120744 -0.5026593 0.10446892 -0.5616647 -0.5665994 -0.4224969 0.4500006 0.4185501
0.44021145 3.4191313 -2.0703094 -2.1918335 3.435301 -3.8099115 0.5460838 1.2785892
0.9284498 -0.1359276 -0.33822787 -0.9826239 0.085296065 0.22170462 -0.3987765 -1.0033861
0.41957152 0.288517 -0.29287934 -0.5868576 -0.9015446 -0.026537385 0.02797319 -0.08671538
0.25074938 -0.2783849 0.06333526 -0.40433732 -0.05420969 -0.47086516 0.15052849 0.576529

gc3.weight f4 [32, 16]
00000000: 9b52 0ebe d0af fbbc a9e0 8e3e 04b0 aabd
00000010: 8e58 4cbd 2c86 d33c 6b55 acbd d16f e93e
00000020: 2654 29bf 01c6 5cbe c611 2b3f 949f 38bf
00000030: 2bac 823c f8ae a8bc dc82 cd3e b588 28be
00000040: c71b bbbe 1599 bbbe f0cb 5abf 15a1 e5be
00000050: 0dd4 90be 3f3d f4be 3a1f 44be 9c82 2ebf
00000060: eab5 c9be eefd 25bf 6cd5 7a3e e72d e1be
00000070: 85b8 f3be 9745 8bbe b245 7b3e 5d71 dabe
00000080: 5e95 4a3d f422 65be cfac acbd a634 6a3d
00000090: ea29 c4be 7a51 e9bd c254 eebd 7a01 01bf
000000a0: f71f 08be 7954 253e 85ba 7ebe b403 6ebe
000000b0: af9c a93d 701c 9bbd 6afb d7be 9276 aa3d
000000c0: 9dce 5b3e 8aa8 6b3e ee56 563e 5160 85bd
000000d0: 3643 18be 0803 ae3e 91fa a2be 9d7b 50bd
000000e0: 5d7d fe3d 2e2c fabc 3cde 583d e056 0e3e
000000f0: a0cd 91be eee1 c4be da78 1f3f 1039 1cbc
00000100: 8e8c 8c3d e3d7 39bf 9904 b3be 394c 8d3c
00000110: e128 dd3c 46e1 d4be 4419 3d3e 9efc abbe
00000120: 0efa a73d c4d7 5cbd c358 6abf 4df7 66be
00000130: a3a9 1ebe 3aac 4f3e 1f86 a1bf 7893 e23b
00000140: 6239 4f3e 7ca7 b0be 22df 1d3f 5dbd 933e
00000150: aa6b ae3d 2776 77be f38a 5dbc b1ef e93e
00000160: 941c 5e3e db1b 8f3e 1787 30bf 3903 d3bd
00000170: 6426 2bbd 6405 a13e 07c9 92be 2a70 4b3e
00000180: 6a82 fabe 2478 4bbe 3480 e2bc 4f94 92be
00000190: e560 8abe 4b9e f9be 7126 073e fece c3be
000001a0: 9f85 5bbc 33f0 583d bea5 1cbf 8264 75be
000001b0: f3fe 22bd 8ddc 8fbe d081 75bf 65e0 e5bd
000001c0: 2410 a3be e384 c5be 7dfa 02be 81e6 0ebf
000001d0: f336 19be 1702 4abe 12ba 583e dd1a 14bf
000001e0: 29a0 1abf b4f6 523e 47d1 2fbf 03c9 56bf
000001f0: f5ed 62be 869a 11be bbde 513f e88e a5be
00000200: 421a 9abf c281 ef3e f540 0dc0 af01 0cbe
00000210: c00e 713e eb53 cd3e 6a4f 6cbf bf5f 41c0
00000220: 90db 28bf 784d d4be 636d 233f f5d4 aa3d
00000230: 1fee 63bf f3d2 4cbf 27b9 7e3e 323f 31bf
00000240: db39 fe3c 2e70 31be e5d5 263e b7bb 6a3d
00000250: 3e03 ccbe 147c dbbd d66f 163e 3b7a 203e
00000260: c932 d83d 09ef 2ebd 61ca 46be f5a5 633d
00000270: ec28 083e 2dec 583e 335a 8c3d df44 293e
00000280: cfbd 8b3c 99ba 803d 0f3f 44bd 12cb 87be
00000290: a646 96be 2a63 12bf 8f9e e03d 7841 83be
000002a0: bf91 fbbd d157 babe 13f7 96be a2b3 5cbd
000002b0: 7d19 0d3e a5c6 5cbe 6e8a 3abe be13 aebc
000002c0: f993 3c3e 4f03 953e 860c f0bd d7ed 293d
000002d0: 9ad3 123f 1951 b03e 6e97 59bd 043f 9bbd
000002e0: daa3 d43d eeee 5f3e d52d 873e 8769 7a3e
000002f0: 571a 9abd 964f ccbd a954 133f 491a 9f3d
00000300: 8db7 b43e d20e 9c3e 7e02 cb3f 61b8 973e
00000310: 715a 793c f6ab 3a3f d688 ac3e bc2e eb3f
00000320: ba6f e13e e6e3 7f3e 0779 62bf 5935 f1bc
00000330: 881e a93e e3e0 733e f780 663f 4ae0 f53e
00000340: b71a a1be 87f2 d5be 0456 9bbc 6a2f aebe
00000350: 558f 67be b93f cebe 4efe 8fbe ee1b c5be
00000360: 66ce 5fbd daed 71be d51d ca3e 38a0 bebe
00000370: 926a 983d 2bd7 84be 3dd3 bf3e abd1 34be
00000380: d6a2 2c3d 21c6 18be a3ff 3e3e e24a ac3e
00000390: c74e 193e c15e 823d 1e97 29bc 7c41 86be
000003a0: 3ca1 56be a593 2cbe 9693 26be 97a5 a7be
000003b0: 6a4f 983d cb4d 3bbc 28b9 5e3d bd8d 273e
000003c0: 0558 01be 4dc6 14bc 1b44 ddbd 2a5f fe3a
000003d0: da43 813d c196 513e e1f3 48bd 27cb 01be
000003e0: 95c1 663e f110 35bd afe7 9fbd f079 f93d
000003f0: 1d36 da3d 251f a93e 191d e53e d1e6 a73d
-0.13898699 -0.030723482 0.27905777 -0.083343536 -0.04988914 0.025820814 -0.0841473 0.45593122
-0.66144025 -0.21559907 0.66823995 -0.72118497 0.015951237 -0.020591244 0.401389 -0.164584
-0.3654463 -0.3664023 -0.85467434 -0.44849458 -0.28286782 -0.47702977 -0.19152537 -0.68168044
-0.39396602 -0.6484059 0.24495476 -0.43980333 -0.47601715 -0.2720153 0.24538305 -0.42664614
0.049458854 -0.22376615 -0.08431398 0.057179116 -0.38313228 -0.113924935 -0.1163726 -0.5039288
-0.13293444 0.16145505 -0.24875839 -0.232436 0.08281838 -0.075737834 -0.42184 0.08323397
0.21465535 0.23013511 0.20931599 -0.065125115 -0.14869389 0.33986688 -0.31831792 -0.050899137
0.12426255 -0.030538645 0.052946314 0.13900328 -0.28477192 -0.3845362 0.6229378 -0.009535089
0.06862746 -0.7259504 -0.34964445 0.01724826 0.026997032 -0.4157812 0.1846667 -0.3359117
0.08201991 -0.053916708 -0.9154169 -0.22555275 -0.15494399 0.20280543 -1.2619056 0.0069145523
0.20236734 -0.3450278 0.616686 0.2885541 0.08516629 -0.24166165 -0.013521898 0.45690683
0.21690589 0.2795094 -0.6895613 -0.10303349 -0.04178466 0.31449425 -0.28668997 0.19867006
-0.48927623 -0.19870049 -0.027649023 -0.28628775 -0.2702705 -0.4875358 0.13198258 -0.3824386
-0.013398557 0.052963447 -0.611904 -0.23964122 -0.03979392 -0.28097954 -0.95901203 -0.112244405
-0.31848252 -0.38577947 -0.12790866 -0.5582047 -0.14962368 -0.1972736 0.2116473 -0.5785349
-0.60400635 0.20601922 -0.68678707 -0.8390047 -0.22161086 -0.14219102 0.81980485 -0.3233559
-1.2039263 0.46778685 -2.2070897 -0.13672517 0.23540783 0.40103087 -0.92308676 -3.0214689
-0.65960026 -0.41465354 0.63838786 0.083413996 -0.8903522 -0.8000938 0.24875318 -0.69237053
0.031033447 -0.1732795 0.16292532 0.057307925 -0.39846224 -0.107170254 0.146911 0.15671627
0.105565615 -0.04270843 -0.19413139 0.05557819 0.1329686 0.21183844 0.06853142 0.16530178
0.017058281 0.06285591 -0.0479117 -0.26522118 -0.29350775 -0.5718256 0.10967743 -0.25635886
-0.12283658 -0.36395124 -0.29485378 -0.05388225 0.13779254 -0.21560152 -0.18216869 -0.021249648
0.18415822 0.29104087 -0.11721139 0.041486587 0.5735413 0.34436873 -0.05312293 -0.07580379
0.10382815 0.21868488 0.26402155 0.24454318 -0.07524555 -0.09976117 0.57551056 0.07768685
0.35296288 0.30480057 1.5860136 0.29632857 0.015219317 0.7291864 0.33698148 1.8373637
0.44030553 0.2498928 -0.88465923 -0.029444383 0.33031106 0.23816256 0.90040535 0.4802268
-0.31465694 -0.41786596 -0.018961914 -0.3402055 -0.2261327 -0.40282992 -0.28123707 -0.3849787
-0.054640196 -0.2362589 0.39475885 -0.37231612 0.07442202 -0.2594541 0.3746585 -0.17658107
0.04214748 -0.1491933 0.18652205 0.3365088 0.14971457 0.06365729 -0.010350971 -0.26221836
-0.20959944 -0.16853197 -0.16267237 -0.32743523 0.07437022 -0.0114321215 0.054375798 0.16362663
-0.12631233 -0.009080482 -0.10804006 0.0019407023 0.0631177 0.20467664 -0.049060706 -0.12675153
0.22534783 -0.04420561 -0.07807862 0.12181461 0.106548525 0.33031574 0.44748762 0.081983216

dc.rk_lgt f4 [1, 16]
00000000: 6e6e fabf c5ca 89bf 5adf e8bf c399 eabf
00000010: 0376 d9bf dbe7 28bf 56e5 62c0 8d72 97bf
00000020: a521 d9bf bac1 57c0 a062 a8bd 387b 03c0
00000030: d0de 1ec0 febc 52c0 dcb8 223d e68a 2bc0
-1.956495 -1.0765005 -1.8193161 -1.8328174 -1.6989139 -0.65978783 -3.5452476 -1.1831833
-1.6963392 -3.3711991 -0.08221936 -2.0543957 -2.4823494 -3.2927852 0.039727077 -2.6803527
