models/ogbl-collab_CN_2_1_0_run2_sigvae.pt (torch, 160127 bytes, 6 tensors)

z_embedding.weight f4 [1000, 32]
000000 23 93 f6 3f 7d 2a c0 3f 22 ab 6b 3f 2e e7 06 c0
       1.9263653 1.5012966 0.92058 -2.10786
000010 a4 b5 2b 3f 2b fb 95 bf 29 39 c1 bd 3e e6 ca bf
       0.67074037 -1.1717275 -0.094347306 -1.5851514
000020 45 57 38 bf 91 db d1 3f 22 be b7 be 04 e9 af bf
       -0.7200816 1.6395131 -0.35887247 -1.3742986
000030 3b 14 40 bf 17 36 0f bf 6f 9b 31 bf 59 9a 4b 3f
       -0.7503087 -0.5594191 -0.693778 0.7953239
000040 cb 23 cb 3f 2a 3e ed bd b4 e7 e4 be 85 65 bd 3e
       1.5870298 -0.115841225 -0.44708025 0.36991516
000050 71 a1 40 bf 50 b7 84 3f ea c1 55 3f 9b cc da 3f
       -0.7524634 1.0368443 0.83499014 1.7093691
000060 dc cf a2 3f c1 29 9f 3f 64 d0 19 3f de 85 a7 3f
       1.2719684 1.2434617 0.60083604 1.3087728
000070 2d f6 4e be 91 50 07 3d 12 9b 87 be 08 ac 4f 3f
       -0.20211096 0.03303582 -0.26485497 0.81121874
000080 92 11 31 c0 d9 b5 2a c0 4b ab 8e bf 2d 81 22 40
       -2.7666974 -2.667349 -1.1146024 2.5391343
000090 48 84 62 3f c2 9f 18 be 84 a5 d3 3f 1c 85 c8 bf
       0.88483095 -0.14904693 1.6534886 -1.5665622
0000a0 85 4c 0a c0 b0 ef 7b 3f 5e 8e 0a c0 2f 24 88 bf
       -2.1609204 0.9841261 -2.1649394 -1.0636042
0000b0 b1 12 0e c0 ee 01 5f 40 f2 73 18 c0 79 9b 38 bf
       -2.2198908 3.4844928 -2.3820767 -0.7211223
0000c0 8f c6 94 bf 15 07 fb bf 1b c9 a9 be c7 7d fd 3f
       -1.1623095 -1.9611536 -0.33161244 1.9804009
0000d0 50 11 6e bf e1 a4 f9 3f 58 27 17 c0 18 d7 87 bf
       -0.92995167 1.9503442 -2.3617764 -1.0612516
0000e0 9c c8 66 c0 37 3e 87 bf a6 d8 01 bf 38 fa e9 3f
       -3.6059942 -1.0565861 -0.50721204 1.8279486
0000f0 e9 7e 0b 3f 38 24 2b 40 f0 cc 01 c0 73 f7 0f 40
       0.54490525 2.6740856 -2.0281334 2.249478
000100 25 fa b8 3f da 3d 5b 3f f4 f4 0d 40 2d ee 05 3f
       1.4451338 0.85641253 2.2180758 0.5231655
000110 ac 7b b1 3e 41 11 4a be c5 fc 86 bf 5c 95 a3 3f
       0.34664667 -0.19733144 -1.0545889 1.2779956
000120 9c 52 30 be 00 17 06 3f 48 ec 67 3d 7d 43 da 3e
       -0.17219013 0.52378845 0.05662182 0.42629614
000130 88 33 13 3f 08 48 24 bf a2 35 0d c0 a1 34 40 bf
       0.57500505 -0.6417241 -2.2063985 -0.75080305
000140 4d 10 32 3c a3 6f ad be 63 9b ab bf d8 da 15 bf
       0.010868144 -0.33874235 -1.3406795 -0.58537054
000150 a0 43 09 3f ab 4d 06 3f e5 12 92 3f 3c 88 53 3d
       0.5361881 0.5246226 1.1412016 0.051643595
000160 a3 73 3e 3f 3b 92 f6 be e8 54 86 bf 1d 99 1a 3f
       0.743952 -0.4815844 -1.0494661 0.6038988
000170 2a 74 dc bf a9 e8 53 bf 8c d7 aa 3f 76 92 f7 3e
       -1.722295 -0.82776886 1.334703 0.48353928
000180 60 9c 20 c0 46 db f9 3e af da 48 3f 81 ad ea 3c
       -2.5095444 0.48800105 0.78458685 0.028647186
000190 8a 08 24 3f b4 4f 15 3f 0e 91 88 3f 81 7a e6 be
       0.6407553 0.5832474 1.0669267 -0.45015338
0001a0 c2 b6 3d be ce b4 40 3f 6a 3c cf 3e ca bf 36 3e
       -0.18526748 0.75275886 0.4047578 0.17846599
0001b0 38 a2 87 3e 2e f7 a2 3f 49 d1 ab ba f4 71 9b be
       0.2649095 1.2731683 -0.0013108636 -0.30360377
0001c0 ee 7f ba bf 23 95 d1 bd 18 62 19 bf bd 40 f4 3e
       -1.4570291 -0.10233524 -0.59915304 0.4770564
0001d0 c0 e6 39 3f d4 ad ba 3d 8e 33 c7 be 89 25 07 3f
       0.7261772 0.09115186 -0.3890652 0.5279165
0001e0 c1 d6 4f bc cc 9d 76 3e 5a b7 07 3e 46 a5 43 3f
       -0.012685479 0.24083632 0.13253537 0.7642406
0001f0 47 29 8c 3f 30 06 ae 3e ca 4f 38 3f 05 a4 d2 3e
       1.0950097 0.33989096 0.7199675 0.41140762
000200 45 30 f7 3f c1 84 81 3f 2b dc b7 bf 3f 9f 90 bf
       1.9311606 1.0118638 -1.4364065 -1.1298598
000210 a3 4c 0b be 1a 55 d1 3f 17 9d 27 3f 09 75 13 3f
       -0.13603453 1.6354096 0.65474075 0.57600456
000220 ef 1c 92 3f bd 14 98 3c 9f 24 e7 bf 4d e9 6c 3f
       1.141508 0.018564576 -1.8058051 0.9254349
000230 23 2d c0 be 35 3c 84 3f 5b c8 2f bf 38 06 23 3f
       -0.37534437 1.0330874 -0.68665093 0.63681364
000240 28 01 79 bf 7d 5d 75 3f f6 41 cf 3f 95 ad b9 3f
       -0.9726739 0.95845777 1.6192005 1.4506098
000250 7c f9 89 3e cd 6c 57 be f6 98 3b bf 1a 9a d5 3d
       0.26948154 -0.21037598 -0.73280275 0.10429783
000260 95 8f b2 3e 40 b4 77 3f b7 6e ee be ff 69 cd 3f
       0.3487517 0.96759415 -0.46568844 1.6047972
000270 4a ba 1e c0 4b c8 d5 be a1 04 99 bf 50 f5 4f 3f
       -2.4801202 -0.41754374 -1.1954538 0.8123369
000280 54 45 f3 bf f7 0f 6a 3e f3 a5 cb 3c 64 20 b1 be
       -1.9005532 0.22857653 0.024859404 -0.34595025
000290 c0 db 92 3e 7d 18 3b bf 15 04 33 3e e0 05 8c bf
       0.2868328 -0.7308424 0.17482026 -1.0939293
0002a0 97 13 cd bf ba 2b ad 3f 4e f8 a4 3f c7 33 56 3d
       -1.6021603 1.3528969 1.2888277 0.052295472
0002b0 32 ff c5 bf 7d b7 41 3f 72 88 46 3f c2 b2 01 40
       -1.5468504 0.75670606 0.7755195 2.0265355
0002c0 7d b5 12 3d 39 f7 f6 3d fa 3f 4e bf 05 8f 54 be
       0.035817612 0.12058873 -0.8056637 -0.20757683
0002d0 22 94 6e bf c8 a4 cb bf a7 67 91 bf f5 c8 05 bf
       -0.9319478 -1.5909662 -1.1359757 -0.5225976
0002e0 54 ce 04 bf d3 29 c0 bf 9b 9c f6 bf 6f eb 02 3e
       -0.5187733 -1.5012764 -1.9266542 0.12785123
0002f0 d3 ee 82 3f 97 48 0e bf 38 4b 34 3f 6f ba 35 3f
       1.0229133 -0.55579513 0.70427275 0.709876
000300 29 1f e3 3f c4 ea 6b bf 1e 63 76 3f 40 8d ac be
       1.7743884 -0.921551 0.9624499 -0.33701515
000310 55 71 96 bf 42 53 b7 3e 11 21 f5 3e 0b 46 ad 3f
       -1.1753336 0.35805708 0.4787679 1.3537
000320 01 ac 06 3f a1 2b 07 40 57 50 05 bf f4 97 6e bf
       0.5260621 2.112038 -0.52075714 -0.9320061
000330 ef 9a 3d 3e e5 ca 88 3f 85 3c a7 3f 6e 6f eb 3e
       0.18516134 1.0686918 1.3065344 0.45983452
000340 63 8b 50 bf f8 b7 82 bf 9f 66 fd be ce 9d 17 bf
       -0.8146269 -1.0212393 -0.49492356 -0.59225166
000350 00 05 1e 3e 39 ac e1 3e f0 d9 17 be 60 61 14 c0
       0.15431595 0.44076708 -0.1482923 -2.3184433
000360 0b c6 cb be 60 4d 8a 3f 5d f3 e3 bf a2 07 c1 3f
       -0.39799532 1.0804863 -1.7808644 1.5080454
000370 6b 6d 9e 3e 41 14 00 bf fc 7a 84 3f 5b 46 d8 3f
       0.30942854 -0.50030905 1.0350032 1.6896471
000380 1d 9f 93 bb 74 59 d5 3f 40 9d 1d 3e 5f b6 87 bf
       -0.0045050518 1.6667924 0.15392017 -1.060253
000390 b0 99 12 bf b8 25 ab 3d 65 c0 cc 3e 57 9e fe 3f
       -0.5726576 0.08356804 0.39990535 1.9892071
0003a0 30 6e 93 bd cf f5 67 bf 1a 1e 03 c0 07 60 8a bf
       -0.07198751 -0.9060945 -2.0487123 -1.0810555
0003b0 47 5e 90 3c f2 34 a0 3d 4a cb 45 3e b7 c0 d1 3e
       0.01762308 0.078225985 0.1931583 0.40967342
0003c0 7c db 6d bf e4 68 8d 3e bb f3 09 bf 97 d7 ec 3e
       -0.9291303 0.27619088 -0.5388753 0.46258232
0003d0 20 34 5f bf 53 27 de bc a1 dc b4 be aa 5f bb 3f
       -0.8718891 -0.02711836 -0.35324576 1.4638569
0003e0 12 b2 a0 3f 58 07 37 bf 75 9a 5a 3f 64 53 03 3f
       1.2554343 -0.7149558 0.8539193 0.5129912
0003f0 d0 2b 0a 3f f0 c4 10 3f 91 7b 01 3f e4 ca 63 3e
       0.539731 0.565505 0.5057917 0.22245365

gce.weight f4 [32, 32]
000000 a1 60 09 be b9 5d 82 3e a2 75 97 be 1a 74 39 3d
       -0.13415767 0.2546213 -0.29581934 0.04527674
000010 59 66 73 3e b1 3f 44 3e 6e 79 e9 3d 25 b8 95 3e
       0.23769511 0.19164921 0.11400114 0.29242054
000020 6e 1a 02 3d 95 7f c2 3e eb 4e 8b 3e 0d 00 75 3e
       0.031763487 0.37987962 0.27208647 0.239258
000030 dd a4 ca be 86 5e 2e 3d 11 55 23 3e 16 88 26 3e
       -0.39578906 0.042570613 0.15950419 0.1626285
000040 94 73 f9 3d 83 5c bc be 51 10 c1 bd 61 62 b3 bd
       0.12180248 -0.3678933 -0.0942694 -0.08758999
000050 71 58 51 be 7d 1c 44 3e 87 ec 7f 3e a1 f8 94 3d
       -0.20443894 0.19151492 0.24992572 0.07273985
000060 58 e1 3e be 53 b3 ec 3d f3 4d ca 3a 38 db a1 be
       -0.1864065 0.11557641 0.0015434608 -0.31612563
000070 de 11 27 be 23 de d3 3d 59 ff a7 3c d6 43 a5 bc
       -0.1631541 0.103451036 0.020507501 -0.020173948
000080 c0 e1 73 3e 7a 52 f0 bd 6d 3f 97 3d 3c a0 7c be
       0.23816586 -0.11734481 0.073851444 -0.246705
000090 df 0f ac bd ad 9e c6 3d 24 51 9c 3e 07 b9 92 3e
       -0.08401465 0.09698234 0.30530655 0.2865679
0000a0 2d 2a d1 bb f6 91 4f be 2f 07 01 be b2 dd f9 bc
       -0.0063832016 -0.20270523 -0.12600397 -0.03050122
0000b0 e9 35 15 be df c9 52 be 50 00 06 3f db 4b 90 3e
       -0.14571346 -0.2058482 0.52344227 0.28182873
0000c0 62 eb 82 be 67 f4 76 be 39 a4 87 3d 59 d3 88 3e
       -0.25570208 -0.2411667 0.0662312 0.26723745
0000d0 0f 42 58 3e cc 3c 94 be 5e fe a5 3e cc df 70 3e
       0.2111895 -0.28952634 0.3242063 0.23522872
0000e0 97 6c 4a 3e 03 68 05 bc 8a 03 38 be ab fd 09 be
       0.19767986 -0.008142474 -0.179701 -0.13475673
0000f0 cb c0 50 3e e1 ce 60 3e 3e 7b 86 3e c5 01 f4 bd
       0.20386045 0.21953918 0.262659 -0.119144
000100 e6 d7 71 3e e7 6e 74 3e 2e 6d 41 3e b5 02 b8 be
       0.23617515 0.23870431 0.18889305 -0.35939565
000110 f2 e1 c2 be 93 1d b6 3e 17 1e d0 bc bb 3d 7d 3d
       -0.38063008 0.35569438 -0.025404973 0.06182645
000120 39 e0 53 3e 17 14 4b 3e 65 8e 3b 3d 6c 69 38 bd
       0.20691003 0.19831882 0.045790095 -0.045022413
000130 1f 17 62 3b 61 ab 42 be e3 26 ec 3e 54 fb 98 3e
       0.0034498645 -0.19010688 0.46123418 0.29879248
000140 af b2 53 be 0f 9c 50 be b2 17 57 be 26 b1 b9 3e
       -0.20673631 -0.20372032 -0.21005133 0.36267966
000150 35 f4 8b be ff 4b 16 bd 52 3d be 3e 5f b2 ee 3c
       -0.27334753 -0.03669357 0.3715616 0.029137788
000160 f0 3e 0a be 7f 58 a7 bc 26 61 08 3e 16 c3 f3 bd
       -0.13500571 -0.02042794 0.13318309 -0.11902444
000170 de 7f de be 5a cc 02 be c6 bd 4b 3e e4 71 02 3d
       -0.4345693 -0.12773266 0.19896612 0.031846896
000180 96 3c c6 be 61 6f e9 3d b1 1f f9 3c 0d 33 50 3e
       -0.38718098 0.11398197 0.03041062 0.20331974
000190 e0 f6 fc 3e e1 9b 7d be 7f 46 eb 3d 3c 3e 0f bd
       0.494071 -0.24766494 0.114880554 -0.03497146
0001a0 8e 8e ab 3e c7 aa 7f 3e 96 9e 12 3e 64 c4 bd be
       0.33507198 0.2496749 0.14318308 -0.37063897
0001b0 8e 4d 3f bd c4 43 f9 bc 5e 74 d1 be 7d 27 89 3e
       -0.04670482 -0.030427821 -0.40909094 0.2678794
0001c0 d2 f1 4c 3d c1 89 bc 3e 11 67 26 bd 5f 0d ac 3d
       0.050035305 0.36823848 -0.040625636 0.08400988
0001d0 8e e4 d0 be 53 52 ba bc 3c 26 3e bc bc 2a 81 be
       -0.40799373 -0.022744333 -0.0116057955 -0.25227916
0001e0 d6 21 04 3e 6e 36 db bd 6f 4a d5 3d d2 ca a5 be
       0.12903532 -0.10703741 0.10414588 -0.32381302
0001f0 bb 59 a4 bd 86 dd 6f be bc 2a f6 bd a0 55 82 ba
       -0.08024927 -0.23424348 -0.1201987 -0.0009943731
000200 d0 0a 4a 3d 1c db 62 be a5 cb 3e be 80 f5 a8 3e
       0.049326718 -0.22153896 -0.18632372 0.32999802
000210 28 7f c9 3e 29 c5 36 bd ab 31 62 be de 81 6d 3d
       0.39354825 -0.04462162 -0.2208926 0.05798518
000220 97 9b 34 3e 98 2f ca 3d 73 9f 88 be 91 8c a1 be
       0.17637478 0.09872359 -0.2668415 -0.31552556
000230 5d 52 39 3d bd 64 9c bd 34 65 ed bd 5c 8f 1a 3e
       0.045244563 -0.07636402 -0.115915686 0.1509375
000240 29 ef 96 3e 20 41 fe 3e 09 17 4e be be e0 31 3e
       0.2947934 0.4965906 -0.20125975 0.17370889
000250 ef f0 72 be b9 f7 86 3e 05 a0 3c be b0 27 38 bd
       -0.23724721 0.26360872 -0.18420418 -0.044959724
000260 cb d1 40 3e 44 fd 94 3c 6b e0 3e 3d 87 50 70 be
       0.1883003 0.018187173 0.04660074 -0.23468219
000270 38 16 96 bd b9 fb 06 be f9 ba bf 3e 1a 81 3d 3e
       -0.07328457 -0.13181962 0.37447336 0.1850628
000280 b2 96 13 3e ec 24 96 be f5 a4 dc bd 42 62 90 3e
       0.14412954 -0.29325044 -0.107736506 0.28199965
000290 94 a9 97 3c 98 61 aa be 18 42 79 3d 04 cc 82 3e
       0.018513478 -0.33277583 0.060854048 0.25546277
0002a0 11 eb 55 3e 4a e3 92 3e 50 c1 98 bd 68 a6 9b 3e
       0.20890452 0.28689033 -0.074587464 0.30400395
0002b0 25 db 12 bd 56 85 ab bd 15 ae dc 3e 43 bb f0 3d
       -0.035853524 -0.08375041 0.43101564 0.11754467
0002c0 79 73 eb bd 7e c6 77 3e cd ab 11 be 46 78 8f 3d
       -0.11496634 0.24196813 -0.14225693 0.07005362
0002d0 31 57 60 be 31 af c5 bc d0 59 3e bc 0a 11 a8 bd
       -0.21908261 -0.02413139 -0.011618093 -0.08206375
0002e0 fd dc 3a 3e ae 2e 59 3d f4 b0 8d bc 9a fd 35 3e
       0.18248363 0.053023033 -0.017296292 0.17772523
0002f0 8b b1 8e be 12 aa 1d 3e d9 0d 87 3e da 1a be bd
       -0.2786983 0.15396908 0.26377752 -0.09282465
000300 95 18 fb bd 25 9b 8a 3d d1 bc af be ff 86 ca 3e
       -0.12260548 0.06767873 -0.34323743 0.3955612
000310 96 fb b1 3e 9c c6 4f be 87 77 96 bd 02 78 e1 be
       0.34762257 -0.20290607 -0.07347017 -0.4403687
000320 ad c6 9c be 9a df 1e 3e fe 25 02 be 59 cf cd 3c
       -0.30620328 0.15514985 -0.12709805 0.025123285
000330 df 02 65 3e 83 60 1d 3e 44 0a 72 bd 49 92 7f be
       0.22364376 0.15368848 -0.05909182 -0.24958147
000340 72 42 00 be 53 84 0f 3f e4 0b c5 be 52 75 9b 3e
       -0.12525347 0.56061286 -0.38485634 0.30362946
000350 76 64 b0 3e a7 bb 3a be b1 a2 5c bd db 36 97 be
       0.34451646 -0.18235646 -0.053866092 -0.2953404
000360 3f ef 8b 3e b0 50 65 3d fc c6 a4 3d 70 39 58 bd
       0.27330968 0.055985153 0.08045766 -0.05278915
000370 83 95 c0 3e 2e 31 b0 3c 16 0c ab 3e 0e 35 6f bb
       0.37614068 0.021507826 0.33407658 -0.003650013
000380 3d 79 83 3d 0a c4 0d 3e 3e c8 24 bd ee 8a 77 3d
       0.06419609 0.13844314 -0.04023003 0.060435228
000390 b7 5b 91 be 96 3f f4 bd c8 5a 11 3c 3a 24 be be
       -0.28390285 -0.119261906 0.008871742 -0.37137014
0003a0 b2 5f 56 3e 5d 51 78 3e d6 24 a1 bd 64 06 44 3e
       0.20934942 0.24249788 -0.07868354 0.19143063
0003b0 73 5a dd be a4 ba 9e be bd ce cf 3e ee d4 08 3e
       -0.4323307 -0.3100177 0.40587416 0.13362476
0003c0 78 53 5f 3d 13 53 22 be 98 86 97 3e ec a7 17 3e
       0.05452296 -0.15852003 0.29594874 0.14810151
0003d0 d7 63 02 3d 92 3a 84 3e 44 98 a9 bd aa 7d b8 be
       0.031833496 0.25825936 -0.082809955 -0.36033374
0003e0 ce 59 62 3e 5e bd 37 3e e8 0c 39 bc c4 11 b9 3d
       0.2210457 0.17943332 -0.011294581 0.09036592
0003f0 bf 97 28 bd 86 14 58 3d 28 d1 cc bd e9 5d 3e 3e
       -0.04116034 0.052753948 -0.10000831 0.18590511

gc1.weight f4 [160, 32]
000000 37 4d f9 bc 22 b5 85 bd 85 45 ac 3d ae 91 89 bd
       -0.030432327 -0.06528689 0.08411697 -0.06717239
000010 a0 ca cd bd 24 76 fb 3c 22 e4 d4 bc ff 67 55 be
       -0.10048413 0.030695982 -0.025987688 -0.20840453
000020 02 bc c8 be 6e c2 02 3e 09 42 91 3d 44 d8 27 3b
       -0.3920594 0.12769482 0.07092673 0.0025611082
000030 f7 11 92 bd 60 4d cc bd 00 72 a4 3c 04 ae 27 be
       -0.07132333 -0.099756956 0.02007389 -0.16374975
000040 56 34 59 be f2 21 9d 3c 23 75 96 bc b5 df 62 be
       -0.21211371 0.019181225 -0.018366402 -0.2215565
000050 12 d0 3d 3e 65 84 d2 bd 5d 3a 44 3d c7 53 a2 bd
       0.18536404 -0.102791585 0.047907222 -0.079261355
000060 ec e9 96 3e c3 1f 84 be d3 83 e1 3c 6d 33 90 3d
       0.29475343 -0.25805482 0.027528679 0.07041059
000070 90 ec 5d be 0b e6 12 bd f5 16 7e be 23 08 25 bc
       -0.21672273 -0.035863917 -0.24813445 -0.010072741
000080 3c 8e 42 3e f8 48 97 3b 1c 3a 5f be 79 66 8a 3d
       0.1899957 0.004616853 -0.2179951 0.06757826
000090 e4 df c6 3c 84 fc 47 3c 06 d5 70 be 00 b4 8a 3e
       0.024276681 0.0122062005 -0.23518762 0.27090454
0000a0 0b 2e 29 3f ed d5 4f 3e ff ad ee 3b 1d 9a 80 3c
       0.6608588 0.2029645 0.0072839255 0.015698487
0000b0 23 7b ac bd 33 75 28 3e 28 76 45 bd 22 1f ba bd
       -0.08421924 0.16450958 -0.048208386 -0.09087969
0000c0 e0 20 4e 3e 52 c4 ae bd ad 4e a9 bd e1 cf 2b 3e
       0.20129728 -0.08533539 -0.08266959 0.16778518
0000d0 9f fc af be 69 44 ad 3e cf 33 ca be 2a 68 ff 3e
       -0.34372422 0.33841255 -0.39492652 0.49884158
0000e0 ea 04 36 3c 90 43 d7 bd c0 57 2f 3d 87 1e 4c 3e
       0.01110957 -0.105109334 0.042808294 0.1993352
0000f0 42 d2 29 be ad 15 6d 3e a2 b6 9d 3e 30 45 43 bf
       -0.16584113 0.231528 0.308034 -0.76277447
000100 f6 97 0b 3e 5a 4f 22 be 70 18 5c 3c 9e 45 eb 3d
       0.13632187 -0.15850583 0.013433561 0.11487888
000110 f1 23 a7 3d 0b b9 8b bd 4b 25 8b 3e 8c 78 80 be
       0.08161152 -0.068224035 0.2717689 -0.2509197
000120 8d ad ab bc cd 5f 22 be cb fd d6 bc 31 e5 6b be
       -0.020956779 -0.15856858 -0.026244065 -0.23036648
000130 42 4a a6 3d 6d 93 97 bd 2f 16 20 be 78 88 88 bd
       0.08119632 -0.07401166 -0.15633462 -0.06666654
000140 12 f1 34 bd 7f d9 97 3d ca 33 38 3d 92 c5 16 3e
       -0.044175215 0.07414531 0.044971265 0.14723805
000150 1d 6d 49 bd de 4c 07 3e 74 a3 2f be 7f 52 90 be
       -0.049176324 0.13212916 -0.17152196 -0.2818794
000160 47 8e 35 3e 05 f2 5a be d3 56 be bd aa 35 18 3d
       0.17730056 -0.21381386 -0.09293904 0.037160553
000170 ad 26 32 bd 90 66 b4 3d 7d 3d 89 bd a8 8b c4 3d
       -0.043493915 0.08808625 -0.06701181 0.0959695
000180 56 96 d4 be 74 6d 30 bd 04 93 4d be 67 8a f6 3d
       -0.41520947 -0.043073133 -0.20075613 0.12038117
000190 53 7f 93 bd e7 6e be 3d 31 f2 6c be 38 71 59 3e
       -0.072020195 0.09298497 -0.23139264 0.21234596
0001a0 7f 2a bb 3e d9 4d 82 bc ae 8f 04 3c ba 73 f8 bd
       0.3655586 -0.015906261 0.0080908965 -0.12131448
0001b0 5a df a7 be e2 bf 02 bd e0 f6 51 3d 58 47 0b 3d
       -0.3278759 -0.031921275 0.05126083 0.034003586
0001c0 c9 29 98 3d e9 89 a5 bd 14 6d 77 be f0 9d 32 be
       0.07429845 -0.08082945 -0.24162704 -0.17443061
0001d0 8c e5 c1 bd 02 8f 87 3c 54 4d 58 be a0 0e 40 3e
       -0.09467611 0.016547684 -0.21123248 0.18755579
0001e0 67 d9 f9 bd 8e e7 f4 be b2 52 bb bc 93 61 83 3e
       -0.12199669 -0.47832912 -0.02286658 0.2566038
0001f0 8b 76 0c be 81 d4 e8 3d 05 c3 4d 3e b2 67 de be
       -0.13717096 0.11368657 0.20093925 -0.43438488
000200 e4 3f 19 3c 67 95 97 3d 10 5c 4c 3e b4 2c 7a bc
       0.009353612 0.07401543 0.19956994 -0.015269447
000210 60 a8 00 be 6d ac 22 bd fb f6 e2 3c 53 8d ae 3d
       -0.1256423 -0.03971522 0.02770566 0.08523049
000220 bc 03 75 bd 17 da 1a 3e c2 f7 5e 3e ad 51 ad 3e
       -0.059818015 0.15122257 0.217742 0.33851376
000230 2b b6 e6 bd 93 98 2e bd 69 eb 33 bd 0f d4 91 3e
       -0.112652145 -0.042625975 -0.043925676 0.284821
000240 49 f4 c3 3d 53 62 ba 3d 49 e5 c1 be cd cb a0 3d
       0.09568078 0.09100785 -0.37870243 0.07851372
000250 23 2a 9e 3e 2c 75 77 bd c4 46 94 bd 79 83 20 be
       0.30891523 -0.06041448 -0.0724006 -0.15675153
000260 96 a1 9f bd ce d7 ff 3d 58 bc 81 3e b9 67 ed bc
       -0.07794492 0.12492333 0.25339007 -0.028980123
000270 39 cb c3 3d fb 95 24 3e d9 72 78 be d8 0b fb bd
       0.09560246 0.16072838 -0.24262561 -0.122581184
000280 bb c5 8f 3d a1 fd f0 be 92 75 27 bc b8 7a 0c 3d
       0.07020136 -0.47068503 -0.010220902 0.03429672
000290 63 99 ac 3d 0b a1 43 be 6d f0 fa bd 74 95 ff 3e
       0.08427694 -0.19104402 -0.12252889 0.4991871
0002a0 25 64 28 3d 8a 07 59 be 01 29 b5 3d 8e 55 02 bf
       0.04111113 -0.21194282 0.088457115 -0.50911796
0002b0 69 9c 26 bc 38 95 e2 3d 47 cf e8 bd 38 25 23 3e
       -0.010169127 0.110636175 -0.1136766 0.15932167
0002c0 2f 49 8f 3e 57 1b 80 bc 6c 36 26 3e 1e 8d b3 bd
       0.27985522 -0.015638037 0.16231698 -0.0876715
0002d0 e5 ec 76 be 31 1b d7 3d ba 24 06 bd bf 79 8f 3e
       -0.24113806 0.10503233 -0.03274987 0.28022572
0002e0 ed 1e f5 bd ee 28 13 bf 07 92 b0 be c4 86 cf be
       -0.11968789 -0.5748433 -0.3448641 -0.40532506
0002f0 f4 1b fe be be b5 51 3c 29 35 6a 3e f3 0c 67 be
       -0.49630702 0.012799678 0.22871841 -0.22563533
000300 f0 44 df 3c 5c 13 50 3d ff e1 03 3e fe 00 33 bc
       0.027254552 0.050799713 0.1287918 -0.0109255295
000310 a4 7e 32 3c 7f 62 b7 3d c8 b7 cc 3c 4b 00 d0 3d
       0.010894451 0.089543335 0.024989977 0.10156306
000320 b9 8b 91 bd 6d 34 4e 3d 07 c5 1a be 54 4d d9 3d
       -0.07106728 0.050342966 -0.15114222 0.10610452
000330 3e 9a 7c 3c 2f a6 18 bd 63 4f 2d 3e 0c 46 91 3d
       0.015417634 -0.03726786 0.16924815 0.070934385
000340 2d bc 1e bc 4e 82 1d bd 1e 25 18 3e 2f 24 28 bb
       -0.009688419 -0.038454346 0.14857909 -0.0025656333
000350 5c db eb bc 11 1a 79 bc e8 48 7b bd b8 4a e2 bd
       -0.028791122 -0.015203969 -0.061348826 -0.11049408
000360 70 b7 0a 3d 60 ec c9 bd 3d d4 87 bd 71 69 9e 3d
       0.033866346 -0.09859538 -0.06632278 0.07734955
000370 b8 70 2c be ec a0 a2 bd cc d4 fd bd 82 cb 1b 3d
       -0.16839874 -0.0794085 -0.123941034 0.038035877
000380 01 ea 91 bd 78 e3 1e be bd c5 88 3e 10 27 b6 bc
       -0.07124711 -0.1551646 0.26713362 -0.022235423
000390 f0 7f d9 3d a3 76 70 3e 26 6d 41 3e 4b ed b2 bc
       0.10620105 0.23482756 0.18889293 -0.021841666
0003a0 5e 05 fa bd 1c 84 26 bd 4b 40 ff 3c b1 1d e9 3d
       -0.12208055 -0.040653333 0.031158587 0.11382616
0003b0 d4 2c 27 be 94 a3 67 3d bb 81 f0 bd 56 19 a2 3d
       -0.16325694 0.056552485 -0.11743494 0.07914989
0003c0 45 94 22 be 22 62 41 3d c8 07 17 bd 9c 34 c8 bd
       -0.15876873 0.047212727 -0.036872655 -0.097756594
0003d0 04 81 a1 bd 48 45 73 bd 7f f7 10 3d 33 65 ea 3d
       -0.07885936 -0.059392244 0.03539228 0.114450835
0003e0 84 79 0b 3e ed 58 b9 bc f3 a8 ae bd 03 b8 8d 3e
       0.13620573 -0.02262541 -0.08528318 0.27679452
0003f0 53 a5 42 be 49 d8 06 bd 89 1b 08 bd 35 87 92 3b
       -0.19008379 -0.03292111 -0.033229385 0.0044716843

gc2.weight f4 [32, 16]
000000 2b 90 12 bf 50 3e 99 3d f4 90 64 3e d7 09 b3 3d
       -0.5725123 0.07482588 0.2232092 0.08742111
000010 19 ac 33 3f ce c8 c2 3e b6 0f 0c 3f 4b 0b 8f be
       0.70184475 0.38043827 0.54711473 -0.27938303
000020 7b c4 7d 3f c3 69 33 bd f7 c2 f4 3e 08 3f b0 bf
       0.9912793 -0.043802034 0.47804996 -1.3769236
000030 c1 ee 2c be 6e 90 d2 3d fe 34 6a 3e b7 ab c4 3e
       -0.16887952 0.10281454 0.22871777 0.38412258
000040 57 3b 8a 3f 53 92 ca 3e 01 e1 27 bf 86 88 17 3a
       1.0799359 0.39564762 -0.65577704 0.00057805364
000050 52 57 45 3d 35 75 26 3f 8d 35 10 3e c2 de 12 bd
       0.04817898 0.65022594 0.14082928 -0.03585697
000060 ec 88 71 bf e0 4c 09 bc 97 ab 46 3f e7 93 84 be
       -0.9434955 -0.008380145 0.77605575 -0.2589409
000070 34 0b 2a 3e eb dc 1b 3f cd c9 94 bf b6 ef f9 bc
       0.16605836 0.6088397 -1.1624085 -0.03050981
000080 21 48 b1 3e 17 ed 89 bd 09 72 84 be 1a db 12 be
       0.34625342 -0.067346744 -0.25868252 -0.14341393
000090 f6 63 36 be b9 5d 2f 3d 34 eb 4e 3d ce 3c 89 3d
       -0.1781157 0.04281399 0.050517276 0.06701051
0000a0 2f b1 39 be c9 71 90 bd d5 d3 b5 3e 0d 3b 4b 3e
       -0.18133996 -0.07052953 0.35513178 0.19846745
0000b0 21 06 3c 3e 39 a9 92 be 5a 93 af 3e d2 7c bb 3e
       0.18361713 -0.28644732 0.34292108 0.36618668
0000c0 51 10 a8 be f3 bd 4b bf a6 0f 49 3e db de cc be
       -0.32824948 -0.79586715 0.19634876 -0.40013775
0000d0 da 2a db 3d 3b 66 75 be c4 21 c5 3e 71 41 67 be
       0.10701533 -0.23964779 0.38502324 -0.22583558
0000e0 31 6d d1 3d 54 5f 8c be b5 16 a4 be 2a cf df 3e
       0.10225905 -0.2741648 -0.32048574 0.4371274
0000f0 d7 d9 9f 3e 80 b2 b9 be 3b 74 19 3d 20 52 4d 3e
       0.31220886 -0.36268997 0.03746436 0.2005086
000100 39 82 2e 3e c9 fa ba be 2f f5 9a 3d 86 56 9d 3d
       0.17041864 -0.3651946 0.07566296 0.07682519
000110 fe 93 2d 3e ae 1c fc be 14 e8 02 3e 61 f6 8c be
       0.16950986 -0.4924063 0.12783843 -0.27531722
000120 62 17 52 be 41 76 34 3e 54 49 b1 3e 7e c1 11 3e
       -0.20516732 0.17623235 0.34626257 0.14233968
000130 ac 32 02 be 05 b5 b6 3e ce 2b 92 be 78 5f dc 3c
       -0.12714642 0.35684982 -0.28549045 0.026900992
000140 b1 ff da bf ed 70 4d 3f db 5d 2a 3f 01 17 04 40
       -1.7109281 0.80250436 0.6654946 2.063904
000150 d2 34 ed 3e a6 17 65 be 0b 90 d7 3e e0 ab 92 3e
       0.4632936 -0.22372302 0.42102084 0.28646755
000160 26 f3 31 be 4e 9c 25 3f 8f fd 4b bf 49 f2 7d 3e
       -0.1737791 0.6469163 -0.79683775 0.24799456
000170 4f 79 00 3e 80 0f af 3e 5f 5c ca 3d e9 7a be be
       0.12546276 0.34191513 0.098809 -0.37203148
000180 b1 b8 c4 be 57 2f 1b 3f 49 20 9b bd d7 0d cc 3e
       -0.38422158 0.6061911 -0.07574517 0.3985431
000190 1e e3 60 bc 3b 23 6c 3d c6 30 c5 3e bd 5c 4f 3e
       -0.013726024 0.057650786 0.38513774 0.2025022
0001a0 54 00 0d bf c9 9a 94 bd 22 a6 68 3d 47 a8 99 3e
       -0.55078626 -0.072560854 0.05679906 0.30011198
0001b0 91 14 da 3e 7b 62 a8 3d 73 de a9 3e 95 80 9a be
       0.42593816 0.08221909 0.33177528 -0.30176225
0001c0 cf e2 7b 3e 59 f6 b5 3e 20 85 d5 3e e5 7e d6 be
       0.2459824 0.3553951 0.4170313 -0.41893688
0001d0 36 15 67 3b ae 3a be 3e 9d 71 fb bb 78 f2 f4 bd
       0.0035260445 0.37154144 -0.007673456 -0.1196031
0001e0 50 2b d7 3e 23 83 dd 3d 06 d6 e8 bd e2 68 11 bf
       0.42025232 0.10816028 -0.11368947 -0.56800663
0001f0 f0 0e e1 be 02 d7 f5 bd 3c 6f a3 be 8f 0c 38 3e
       -0.4395671 -0.120039 -0.31920803 0.1797354
000200 42 40 a0 3c ce db 88 3e 82 e4 90 be 98 2a 17 3f
       0.01956189 0.26730198 -0.28299338 0.5904937
000210 cb 73 c6 3d 0b 41 2c bf 9a 4d 9b 3d ca c4 04 3e
       0.096900545 -0.6728675 0.07583161 0.12965694
000220 e0 46 d1 be 4f 93 65 bd 63 e5 47 be 92 ef aa 3e
       -0.40874386 -0.056048688 -0.19521098 0.33385903
000230 b9 1a 06 3f d5 08 85 3e cf 3a 99 bf ae 2b f7 bd
       0.52384526 0.259833 -1.1971072 -0.12068878
000240 3f df 8c be 4a 11 2c 3e 1d b8 b6 3e 3f ba 05 bf
       -0.27514073 0.1680347 0.35687342 -0.52237314
000250 46 0a 2f bf 0d 24 c9 be 39 47 48 3f 85 15 33 3f
       -0.6837505 -0.39285317 0.7823368 0.6995471
000260 b6 5f 53 bf c5 f2 7c 3f 49 ff c6 be 2f f2 0d bf
       -0.8256792 0.98807937 -0.38866642 -0.5544767
000270 75 07 93 3f ba 70 92 3e 15 8f 18 bf 77 d9 60 3e
       1.1486651 0.2860163 -0.59593326 0.21957956
000280 1f d1 47 be e3 07 9f 3e de a0 9b 3e 49 5c 9a be
       -0.19513367 0.31060705 0.3039617 -0.30148533
000290 32 14 02 be 79 93 d3 3e 1e 75 56 be 62 2f b4 be
       -0.12703016 0.4132345 -0.20943114 -0.351924
0002a0 ec 34 b2 3e cc c8 94 be 3e 27 a6 3d 6f f7 0f be
       0.34806 -0.29059446 0.081129536 -0.14059232
0002b0 92 55 c0 be 95 c5 6d be 01 d0 31 3e df 42 83 3d
       -0.37565285 -0.23219903 0.17364503 0.06409239
0002c0 9b 7b 0f bf da 94 5d be c3 71 28 bf 5c d3 b9 3d
       -0.5604798 -0.21638814 -0.65798587 0.09073517
0002d0 b0 03 49 3f 52 9a a3 3e 0a dd 7a bf 64 7f 6d bf
       0.7852125 0.31953675 -0.9799353 -0.9277251
0002e0 0e e9 95 3f db 8b 27 bf 8e 6a 40 3f 5b 95 86 3f
       1.1711748 -0.6544778 0.7516259 1.051433
0002f0 b6 d9 90 bf c3 41 7f bf 93 c6 81 3e 71 33 80 3c
       -1.131644 -0.9970972 0.25346813 0.01564953
000300 e0 bd ed 3d 69 21 c8 be 30 39 b7 3f 0d f3 19 3b
       0.116084814 -0.3908799 1.4314327 0.0023490817
000310 6f 39 37 3f be 09 7d bd 65 9f 6c 3f a4 c9 8b 3f
       0.7157201 -0.06177687 0.92430717 1.0920911
000320 81 37 2b be e0 5f 96 3f 17 f3 84 3e 22 58 77 be
       -0.16720392 1.1748009 0.25966713 -0.24154714
000330 7f 05 8f 3e c7 13 21 3f 99 3a 98 bf d4 25 6d be
       0.2793388 0.629208 -1.1892883 -0.23158962
000340 b5 87 15 3f 6d b8 4e be 43 d8 eb bd 96 23 1c be
       0.584102 -0.2018754 -0.11515858 -0.1524795
000350 06 5a 64 bf 6c 8a 17 3f a6 9d 22 bf 25 30 90 be
       -0.89199865 0.5919559 -0.635218 -0.2816173
000360 0d 9f 80 3e bb ae 00 bf b6 f1 d5 3d 5c c8 0f bf
       0.25121346 -0.5026662 0.10446493 -0.561651
000370 ee 0c 11 bf b4 50 d8 be e4 67 e6 3e 31 4a d6 3e
       -0.56660354 -0.42249072 0.45001137 0.4185348
000380 ba 61 e1 3e 2a d3 5a 40 89 7f 04 c0 08 47 0c c0
       0.44019872 3.4191384 -2.0702841 -2.1918354
000390 de db 5b 40 4b d5 73 c0 e9 cb 0b 3f 91 a8 a3 3f
       3.4352946 -3.8098934 0.5460802 1.2785817
0003a0 93 af 6d 3f 24 30 0b be c8 2d ad be cb 8d 7b bf
       0.9284603 -0.13592583 -0.3382399 -0.98263234
0003b0 b7 ab ae 3d 6c 05 63 3e e2 2a cc be a4 6e 80 bf
       0.08528846 0.22170037 -0.39876467 -1.0033765
0003c0 81 cd d6 3e 64 bc 93 3e 6f f0 95 be ce 3c 16 bf
       0.41953662 0.28854668 -0.29285 -0.5868653
0003d0 0a cc 66 bf 0a 62 d9 bc 01 3a e5 3c aa 8f b1 bd
       -0.9015509 -0.026536006 0.02798176 -0.0866998
0003e0 ec 63 80 3e 03 88 8e be b2 ae 81 3d 89 05 cf be
       0.25076234 -0.27838144 0.063321486 -0.4043391
0003f0 72 10 5e bd 07 14 f1 be e9 26 1a 3e 4e 96 13 3f
       -0.054214902 -0.47085592 0.15053906 0.5765122

gc3.weight f4 [32, 16]
000000 13 53 0e be d2 b1 fb bc 94 e0 8e 3e 74 b1 aa bd
       -0.13898878 -0.03072444 0.27905715 -0.08334628
000010 f6 5c 4c bd 8c 88 d3 3c 21 52 ac bd dc 6f e9 3e
       -0.049893342 0.025821947 -0.08414102 0.45593154
000020 16 54 29 bf d1 c5 5c be ee 11 2b 3f 83 9f 38 bf
       -0.6614393 -0.21559836 0.66824234 -0.72118396
000030 fe 8e 82 3c 67 c8 a8 bc b0 82 cd 3e 48 89 28 be
       0.015937325 -0.020603372 0.4013877 -0.16458619
000040 a5 1d bb be 96 9a bb be 85 cc 5a bf 02 a3 e5 be
       -0.36546054 -0.36641377 -0.8546832 -0.44850928
000050 a7 d5 90 be a2 3e f4 be a1 24 44 be 4b 83 2e bf
       -0.28288004 -0.47704035 -0.19154598 -0.6816909
000060 7d b7 c9 be 0c ff 25 bf f3 d2 7a 3e dd 2f e1 be
       -0.39397803 -0.64842296 0.24494533 -0.4398183
000070 49 bb f3 be 6a 48 8b be 72 44 7b 3e dd 72 da be
       -0.47603825 -0.27203685 0.24537829 -0.4266576
000080 e7 97 4a 3d 68 22 65 be 6b ab ac bd 35 37 6a 3d
       0.04946127 -0.22376406 -0.08431133 0.057181556
000090 a9 29 c4 be 85 50 e9 bd eb 4b ee bd a8 01 01 bf
       -0.38313034 -0.11392311 -0.11635574 -0.5039315
0000a0 43 1f 08 be 77 58 25 3e f4 b9 7e be 38 03 6e be
       -0.13293175 0.16147028 -0.24875623 -0.23243415
0000b0 88 9e a9 3d 14 16 9b bd f2 fa d7 be 2c 7a aa 3d
       0.082821906 -0.075725704 -0.42183644 0.08324084
0000c0 80 cc 5b 3e a5 a6 6b 3e 76 55 56 3e 5f 64 85 bd
       0.2146473 0.23012789 0.20931038 -0.06513285
0000d0 34 45 18 be 39 02 ae 3e c8 fa a2 be 52 82 50 bd
       -0.14870149 0.3398607 -0.31831956 -0.050905533
0000e0 b0 79 fe 3d f6 35 fa bc 31 d8 58 3d ac 54 0e 3e
       0.12425554 -0.030543309 0.05294055 0.13899487
0000f0 30 cf 91 be b4 e2 c4 be a4 78 1f 3f 5b 52 1c bc
       -0.28478384 -0.3845421 0.6229346 -0.009541119
000100 77 91 8c 3d 4d d7 39 bf 72 03 b3 be 52 5e 8d 3c
       0.06863683 -0.7259415 -0.34963566 0.01725689
000110 74 39 dd 3c 2a e0 d4 be 28 1f 3d 3e 93 fb ab be
       0.027004935 -0.41577274 0.18468916 -0.33590373
000120 6e fe a7 3d e6 bf 5c bd 31 58 6a bf 31 f5 66 be
       0.082028255 -0.053893946 -0.9154082 -0.2255447
000130 bd a6 1e be 82 b1 4f 3e 04 86 a1 bf 04 00 e3 3b
       -0.15493293 0.20282558 -1.2619023 0.006927492
000140 5a 37 4f 3e 74 a8 b0 be b7 de 1d 3f 6c bc 93 3e
       0.20235959 -0.3450352 0.6166796 0.28854692
000150 c9 67 ae 3d ca 77 77 be 5e aa 5d bc d6 ee e9 3e
       0.08515889 -0.2416679 -0.013529388 0.4569003
000160 a0 1a 5e 3e 7c 1b 8f 3e 8f 87 30 bf c7 07 d3 bd
       0.21689844 0.27950656 -0.68956846 -0.10304218
000170 d1 30 2b bd 9b 04 a1 3e 9a c9 92 be 70 6e 4b 3e
       -0.0417946 0.31448826 -0.28669435 0.19866347
000180 29 81 fa be 3a 76 4b be 9b 6e e2 bc 1c 93 92 be
       -0.48926666 -0.19869319 -0.027640631 -0.2862786
000190 cb 5f 8a be 3c 9d f9 be 2e 2c 07 3e e7 cd c3 be
       -0.2702621 -0.48752773 0.13200447 -0.3824303
0001a0 07 64 5b bc e2 07 59 3d 3f a5 1c bf 72 62 75 be
       -0.013390548 0.052986033 -0.61189646 -0.23963335
0001b0 d6 f3 22 bd fc d9 8f be 54 81 75 bf ae d9 e5 bd
       -0.03978332 -0.28095996 -0.95900464 -0.1122316
0001c0 cb 10 a3 be af 85 c5 be eb fb 02 be dd e6 0e bf
       -0.3184875 -0.38578555 -0.12791412 -0.5582102
0001d0 bb 38 19 be d9 03 4a be e4 bd 58 3e 41 1b 14 bf
       -0.14963047 -0.1972803 0.21166188 -0.57854086
0001e0 7f a0 1a bf fe f9 52 3e a6 d1 2f bf 62 c9 56 bf
       -0.6040115 0.20603177 -0.68679273 -0.83901036
0001f0 fe ee 62 be a4 97 11 be 3e de 51 3f fe 8e a5 be
       -0.22161481 -0.14218003 0.8197974 -0.32335657
000200 12 19 9a bf 46 86 ef 3e 63 40 0d c0 aa f8 0b be
       -1.2038901 0.4678213 -2.2070549 -0.13669077
000210 d2 17 71 3e 67 58 cd 3e 38 4d 6c bf 37 5f 41 c0
       0.23544243 0.40106508 -0.92305326 -3.0214365
000220 6e d9 28 bf 88 48 d4 be 92 6f 23 3f 9e e6 aa 3d
       -0.6595677 -0.41461587 0.6384212 0.08344768
000230 d8 eb 63 bf 7a d0 4c bf 49 c2 7e 3e b7 3c 31 bf
       -0.89031744 -0.8000561 0.24878801 -0.6923327
000240 12 20 fe 3c b4 72 31 be 8d d3 26 3e 57 af 6a 3d
       0.031021152 -0.17328912 0.16291638 0.057296123
000250 96 04 cc be a2 80 db bd 35 6c 16 3e cb 77 20 3e
       -0.3984725 -0.10717894 0.14689715 0.15670697
000260 83 2d d8 3d 46 fc 2e bd 85 cc 46 be f1 98 63 3d
       0.10555556 -0.042721055 -0.19413956 0.05556578
000270 63 24 08 3e 06 e8 58 3e 65 57 8c 3d 6c 42 29 3e
       0.1329513 0.2118226 0.06852607 0.16529244
000280 d1 c3 8b 3c aa bb 80 3d ac 3b 44 bd af ca 87 be
       0.017061146 0.06285794 -0.04790847 -0.26521823
000290 5e 46 96 be 1c 63 12 bf 17 a9 e0 3d 24 41 83 be
       -0.2935056 -0.5718248 0.10969751 -0.25635636
0002a0 31 90 fb bd 6e 55 ba be c4 f6 96 be 1b b1 5c bd
       -0.12283362 -0.36393303 -0.29485142 -0.05387984
0002b0 90 1a 0d 3e b6 c2 5c be 8e 89 3a be e4 02 ae bc
       0.13779664 -0.21558651 -0.18216535 -0.021241613
0002c0 f9 8f 3c 3e bb 01 95 3e aa 11 f0 bd d6 dc 29 3d
       0.18414296 0.29102883 -0.11722119 0.04147037
0002d0 bf d2 12 3f fe 4f b0 3e 14 9b 59 bd 94 44 9b bd
       0.57352823 0.3443603 -0.05312641 -0.075814396
0002e0 41 9e d4 3d 13 eb 5f 3e d3 2c 87 3e 7c 65 7a 3e
       0.10381747 0.21867017 0.26401386 0.24452776
0002f0 eb 27 9a bd f8 5e cc bd 6f 54 13 3f e7 14 9f 3d
       -0.07527145 -0.09979051 0.5755071 0.07767659
000300 a6 b8 b4 3e f8 0f 9c 3e b1 02 cb 3f 90 b9 97 3e
       0.35297126 0.30480933 1.5860196 0.2963376
000310 fe 7f 79 3c 9b ac 3a 3f e6 8a ac 3e f6 2e eb 3f
       0.01522827 0.72919625 0.3369972 1.8373706
000320 c8 70 e1 3e 4b e8 7f 3e 69 78 62 bf 3f 23 f1 bc
       0.44031358 0.24990956 -0.8846498 -0.029435752
000330 d6 1f a9 3e 77 e3 73 3e 9a 81 66 3f 6b e1 f5 3e
       0.330321 0.2381724 0.90041506 0.48023543
000340 18 1b a1 be ed f2 d5 be 1a 5a 9b bc ca 2f ae be
       -0.31465983 -0.417869 -0.018963862 -0.34020835
000350 37 90 67 be 1d 40 ce be cd fc 8f be 72 1c c5 be
       -0.22613607 -0.4028329 -0.2812256 -0.38498265
000360 83 d0 5f bd 53 eb 71 be 80 1d ca 3e 9e a0 be be
       -0.05464221 -0.23624925 0.39475632 -0.37231916
000370 20 69 98 3d 5f d6 84 be 20 d3 bf 3e 36 d1 34 be
       0.07441926 -0.25944802 0.37465763 -0.17657933
000380 d6 a2 2c 3d 21 c6 18 be a3 ff 3e 3e e2 4a ac 3e
       0.04214748 -0.1491933 0.18652205 0.3365088
000390 c7 4e 19 3e c1 5e 82 3d 1e 97 29 bc 7c 41 86 be
       0.14971457 0.06365729 -0.010350971 -0.26221836
0003a0 3c a1 56 be a5 93 2c be 96 93 26 be 97 a5 a7 be
       -0.20959944 -0.16853197 -0.16267237 -0.32743523
0003b0 6a 4f 98 3d cb 4d 3b bc 28 b9 5e 3d bd 8d 27 3e
       0.07437022 -0.0114321215 0.054375798 0.16362663
0003c0 a1 57 01 be ad c3 14 bc 03 43 dd bd b5 97 fe 3a
       -0.12631084 -0.009079856 -0.10803797 0.0019423874
0003d0 46 44 81 3d 02 97 51 3e 37 de 48 bd e2 ca 01 be
       0.0631185 0.20467761 -0.049040046 -0.1267505
0003e0 0c c2 66 3e 34 fd 34 bd 26 e7 9f bd 8f 7a f9 3d
       0.2253496 -0.044186786 -0.0780776 0.12181579
0003f0 bd 37 da 3d 1e 21 a9 3e 64 1d e5 3e ad ea a7 3d
       0.106551625 0.3303308 0.44748986 0.08199058

dc.rk_lgt f4 [1, 16]
000000 59 6f fa bf 2c cb 89 bf 03 e1 e8 bf 3c 9b ea bf
       -1.9565231 -1.0765128 -1.8193668 -1.8328624
000010 7c 77 d9 bf 03 e8 28 bf a8 e5 62 c0 e7 73 97 bf
       -1.6989589 -0.6597902 -3.545267 -1.1832246
000020 24 22 d9 bf e4 c1 57 c0 25 62 a8 bd c4 7b 03 c0
       -1.6963544 -3.3712091 -0.082218446 -2.054429
000030 ce de 1e c0 76 bd 52 c0 03 b4 22 3d 4f 8b 2b c0
       -2.482349 -3.2928138 0.039722454 -2.6803777
