models/ogbl-collab_CN_2_1_0_run2_gnn.pt (torch, 668318 bytes, 10 tensors)

convs.0.bias f4 [256]
00000000: e2b5 673d 0301 883c d037 c23c f002 403e
00000010: 5961 fe3b 9156 383d be17 29be afae d2be
00000020: 8e68 6a3d 02f4 71bd c51f 203c fcb9 1d3d
00000030: 47ca 2cbd e5c9 b83d 172e 6e3d 91a8 dcbc
00000040: 2cd0 143d 1dca 933c 343b 29bf 600c a9be
00000050: f100 96bb e4cc 053e 144d 2a3d 5741 dabe
00000060: 48e1 213c d208 9c3d 5fa0 983c 6bf4 bc3e
00000070: 5854 a33c f689 013d e1e6 af3d 042c dabe
00000080: 5032 40bf b59b 89be adae 963d 07e3 ebbc
00000090: 1922 863c 6ea7 63bd e1e2 483d d65b 623c
000000a0: c28e a53d c0e2 0c3f 5748 113e 17ba e43e
000000b0: ee05 1b3d b819 08bf 0afe d6bb 6c89 2cbd
000000c0: d7b7 2c3d 7d1f fb3f aaae a13d 734e 81be
000000d0: 3aa5 abbc 644b 7c3e 7111 093e 0c8b cb3e
000000e0: 1d9c 2c3e f8c9 983e cd97 d53d 5dfd 963c
000000f0: f9b3 3a3d 695f c5bc cb70 14c0 b3b2 7a3d
00000100: f227 113d bfcd 813e 8aa3 153d 2417 8fbe
00000110: b5ea 003e bf24 0440 367b f63c 0e8b 143d
00000120: cbfe 393d 64b6 543c f689 2f3e 3b59 593f
00000130: 03c5 903e 7057 1d3f e4fa 6abf f019 273a
00000140: 1ad5 4e3b e3f5 c4bc c02a 453e a6c4 93bb
00000150: 8063 02be f540 063e fd61 9bbd 6d7e d1bb
00000160: 104e c53d e55c 133e 8cf9 c53c 6357 3ebd
00000170: 1410 483d 2efb 92bd 2e7d 5e3d 3db8 0ebb
00000180: 77c9 333d 3b3e 1cbf 2fc8 d93e d854 6c3f
00000190: fc51 aebd 8748 88bc 6474 35bf 9065 c33b
000001a0: caf3 7a3c 8879 c73f 9c8c 08bf 8491 843d
000001b0: d530 28c0 d799 8c3d a133 403e 2057 aabe
000001c0: 69c1 be3c 15d4 e63d aea2 65bd 6e6f 263e
000001d0: 6af5 ed3d af89 123e c111 b73e 7477 0c3e
000001e0: a6b7 a73e dbc1 4bbb 58d1 283c 9604 163e
000001f0: f70d 04bf 3528 1dbf ae34 163e f2cb 1b3d
00000200: 693d c23c 0594 21bf 8a6e a6bc b436 313e
00000210: 15fe 90bd 97fa e93d 4f0c cfbc 8953 08bd
00000220: ca82 193d f26f 1a3f 355e 653d 7fa1 ce3c
00000230: 1f88 9e3c 3a92 3f3a 8e29 073f 6062 5b3e
00000240: 43f5 4c3d 20e3 2e3f 3f18 f73c 909f 8a3c
00000250: 7b30 283d 444b 843d 0afb 093f df52 6abe
00000260: 4625 5b3d 60be 31be da51 b23c 8e7d 0b3e
00000270: 5171 373e f872 a6be f64b 4f3d 248d a03d
00000280: 696c d53d 7883 283d f1c6 c7be 0e77 4d3d
00000290: 4288 2e3d 0ccf 9c3d e6b4 973e 156f 803c
000002a0: ff32 833d c442 90bc 59b7 81bc 721d 0fbf
000002b0: 5701 9d3c b887 6abb 44b8 183e ee0f 513c
000002c0: 8d47 2e3d e0ed a0bf 1979 533d 6752 03bf
000002d0: 71b7 c93f 6607 8d3d bca8 abbd f165 2a3d
000002e0: a620 413d 4e3d 543d 98e2 2d3e 1d21 4abd
000002f0: 0d96 3fbf 9bb8 7abc 1889 8d3d aa05 373d
00000300: 7c4c de3c aa71 bd3c 24d7 6cbb 41f5 00bd
00000310: 252e 14bd fac4 40bb d280 043e 5b80 d9bf
00000320: 4cc1 043e 2278 cd3c 3599 2c3e 417c f23d
00000330: fb55 e33c cb6e d73e db34 4dbf 2034 793d
00000340: dcf9 22bd 5723 e83e 16da 563c 229c 253d
00000350: 2c4e 163d 718e 143e dab5 b13d a7b4 bb3d
00000360: 72a8 213d ca57 aabd a2cd 01bf 3711 043d
00000370: 3478 26be 0115 433d 17df 4b3f 2107 323e
00000380: 8b42 043d bfbc 0a3e 6dab f03d d09c 54be
00000390: 5a35 6f3d cd6e 17bc 4532 57bd 17db 983c
000003a0: 9bf8 083f 69e5 4cbd e57d 1a3e 3ad6 ae3c
000003b0: 5ae1 0540 e737 c5be e3e9 353e 2a11 c43b
000003c0: 06ef e5be b08f 2b3e 8205 283d 8766 9f3e
000003d0: 7d0c 8cbe 266b fc3b c780 153d c95e ddbc
000003e0: 06c0 093f 1f81 9a3c 057d b23d 0d35 193d
000003f0: 1f64 acbc 8644 e83a 9467 7a3d 98c0 b63d
0.05656994 0.016602045 0.023708254 0.1875112 0.0077630696 0.04500443 -0.16512963 -0.41148898
0.057228617 -0.059070595 0.009773199 0.038507447 -0.042185094 0.09022883 0.058149423 -0.026935847
0.03633134 0.018040711 -0.6610596 -0.33017254 -0.004577749 0.13066441 0.041577414 -0.42627975
0.009880371 0.0761887 0.018631158 0.36905226 0.01993768 0.03162571 0.085889585 -0.42611706
-0.7507677 -0.26876608 0.073575355 -0.028794779 0.01637368 -0.055579595 0.049044494 0.013815841
0.080838695 0.55033493 0.14187752 0.44673225 0.037847452 -0.53164244 -0.0065610455 -0.042123243
0.04216751 1.9618984 0.07894643 -0.25255165 -0.02095281 0.24638134 0.1338556 0.39754522
0.16856427 0.2984159 0.10429344 0.01843136 0.04558179 -0.024093347 -2.3193843 0.061205577
0.035438485 0.25352284 0.036532916 -0.27947342 0.12589534 2.0647428 0.030088048 0.036265425
0.045409005 0.012982938 0.17142472 0.8490178 0.28275308 0.61461544 -0.9178908 0.00063744094
0.0031560124 -0.02404303 0.19254589 -0.0045095263 -0.12733269 0.13110717 -0.07587049 -0.006393245
0.0963403 0.14390905 0.024166845 -0.046470057 0.04884346 -0.07176815 0.0543186 -0.0021777295
0.043893304 -0.61032456 0.4253554 0.9231696 -0.08511731 -0.016636146 -0.70880723 0.005963035
0.015316913 1.5583963 -0.5333955 0.064730674 -2.6279805 0.0686528 0.18769695 -0.33269596
0.023285585 0.1127092 -0.056063347 0.16253445 0.11619075 0.14310335 0.35755733 0.13717443
0.327573 -0.0031090889 0.010303818 0.14650187 -0.5158381 -0.61389476 0.14668533 0.038036294
0.023710923 -0.63116485 -0.020316381 0.17306024 -0.07079712 0.11424749 -0.025274424 -0.03328279
0.037478246 0.60327065 0.055998046 0.025223492 0.019352017 0.0007307861 0.5279778 0.21424246
0.050038587 0.68315315 0.030162929 0.016921788 0.04106186 0.06459668 0.5389868 -0.22883175
0.053502344 -0.17357779 0.021767545 0.13622114 0.1791432 -0.3250959 0.05060955 0.078394204
0.10421068 0.041141003 -0.39018968 0.050162368 0.042610414 0.076566786 0.29630202 0.015677968
0.06406211 -0.017609961 -0.015834497 -0.55904305 0.019165678 -0.003578646 0.14914042 0.012760146
0.042548705 -1.2572594 0.05162916 -0.5129761 1.5759107 0.06886177 -0.08381793 0.041601125
0.047150277 0.051816277 0.1698097 -0.049347986 -0.74838334 -0.015302802 0.06910914 0.044683136
0.02713608 0.023125488 -0.0036138976 -0.031483892 -0.03617682 -0.0029414282 0.12939766 -1.6992296
0.12964362 0.025081698 0.16855319 0.11840106 0.02775096 0.42076716 -0.80158776 0.060840726
-0.039789066 0.45339462 0.013113519 0.040432103 0.036695644 0.14507462 0.086772636 0.09165316
0.039467283 -0.08317526 -0.50704396 0.03224298 -0.16256791 0.047627453 0.79637283 0.17385532
0.032290023 0.13548563 0.11751447 -0.20762944 0.05840049 -0.009242726 -0.052538175 0.018659158
0.5350434 -0.05002347 0.15087087 0.021342386 2.0918794 -0.38519213 0.17765002 0.0059834914
-0.44908923 0.16754031 0.041020878 0.3113291 -0.27353278 0.007703203 0.036499765 -0.027022736
0.5380863 0.018860398 0.08715252 0.03740411 -0.021043835 0.0017720617 0.061133936 0.08923453

convs.0.lin.weight f4 [256, 128]
00000000: e692 b0bd b65e 113e 0dca e4bd a1b6 18be
00000010: b9f2 0d3e 3968 8cbd ff0d adbc debf 40bd
00000020: c57a 4fbd 8843 f5bc 8962 8a3c 4b34 8a3d
00000030: f2f0 53bd b603 29bd 5bec 823c af5e 103d
00000040: dfd1 84bc b6d8 e33d 9004 c0bc 6460 01bd
00000050: 7255 d33c a826 c23d 5462 9b3d a51f e73d
00000060: b5d6 debd 7d8a 593d 9bea ab3d df12 e33d
00000070: bd8c d03d cd63 523d 1fbd 05be 8c75 55bd
00000080: c2a8 52bd 8757 9fbd 8711 8abd 935c 3ebb
00000090: 20d7 033d 921e 253d 01b1 243e 9a76 60bd
000000a0: ea8e 423d e48d 67bd 0802 973d aa83 4d3d
000000b0: ca90 7ebb 39e3 023e a91a a5bc b2e7 0bbe
000000c0: b22c d3bd ba6f 00bd e564 1d3d 4313 03be
000000d0: 1e95 7a3d f4c9 cabd 1bd2 993d 0695 cabc
000000e0: b0bb 293d 8a05 9a3d 986a 963e 0c10 20be
000000f0: a2b2 fd3d 3b35 9c3e be60 47bc fbf5 14bc
00000100: 486b a83c 7725 65bd 098e 08be b8b2 88bd
00000110: e2e2 eebd f59f 0f3d 8bfd af3d 4842 ea3d
00000120: 91b3 173e 2695 aebc 1f3e ebbd 616c d8bd
00000130: 14a1 443d 170a adbd 0b44 f93d 7cad 193c
00000140: d319 78bc 3d3b 493d a126 903d deba 663d
00000150: fe64 74bd d216 153d 8792 7b3d 12f4 713c
00000160: 6db9 233e 18b6 b0bd 2b1b be3d fd72 38be
00000170: 5623 4abd 5c1b aa3a 3d5f 4bbe e588 50be
00000180: 45bd c2bd 5a39 393c 6007 9fbd 6be4 a23b
00000190: 07a7 adbd 7a17 233d 4262 223d c301 00be
000001a0: 0882 613b 66f4 01bd 7de3 9a3d 455f 0f3e
000001b0: 0281 0e3e 1f10 b43d 7166 18bd 3059 b73a
000001c0: 8739 b0bd 7893 323e b76f 073d 90e4 7a3d
000001d0: f4b1 ea3d b986 553e d607 5fbe 4df1 a9bd
000001e0: 6db1 2b3d 2098 e8bd 7cce 843d 01ae 03be
000001f0: aa11 8e3d b3cc 9dbd a8d7 acbd 64f7 7e3d
00000200: 702d 943c 2767 b13d af66 bf3d c230 7abe
00000210: 672e 643c 4404 a33c 72e6 e1bb f561 d83d
00000220: 3c45 ca3d e398 09be 80cb c3ba c465 dc3b
00000230: 59bf fdbd b0d3 9abd e0c9 aa3d 69ba 80bc
00000240: 4b58 1e3e c1bf 48bd 0e5d 923d ee1b b2bd
00000250: e803 b33d e170 163e 1f74 37bd a9bd c9bd
00000260: 2d00 2b3d 11cc 293c f351 97bc 9c3e ab3c
00000270: 597c 8c3e ce1a b43a c915 143d ad01 763c
00000280: 832b a8bc a2a2 cfbd 9d68 12be ad7c 7f3d
00000290: 0e1b 8d3d ca51 7cbe 2924 6bbd df77 c33c
000002a0: 7553 0c3c 6366 30be cf35 30bc 9e10 0ebe
000002b0: dac6 1bbe bfb9 203d 1c91 9abd 27f9 0fbe
000002c0: 39ca ca3d bb6d 943d b131 fd3c 4e26 4cbc
000002d0: 3dd9 c2bd ac94 193d 9a1f 63be 0a6e 853c
000002e0: b7e0 033d ca4f 093e f04a b73e c5dc 923d
000002f0: 2969 3b3c 20fb 503e 2c28 0ebe 5c15 913c
00000300: ee55 3cbb 25ca c93d 8ab4 25bc ae54 42bd
00000310: 139b 53bd f35c 663d cd17 85bc b0a7 fbbc
00000320: 1b21 ef3c e5e5 8fbb 2009 bfbd 39cc 853d
00000330: 878c 97bb a5c0 2dbe 817b 153e 2b44 9bbd
00000340: e679 29be b7ac b6bd e58e b4bd b86d 3a3d
00000350: f2d0 1bbe 66da b6bc fcc5 52bd 8c65 7cbd
00000360: 46ae e83b fcbe f7bd 46a2 b63d 7dd9 9bbe
00000370: 6590 16be 01b0 15bf 98cb 99bd 2d77 9ebe
00000380: 50f6 1cbe a607 843b e433 c53d 49f2 26be
00000390: 9990 20be 7b76 9f3d 6b46 1c3d f795 1c3d
000003a0: d418 6f3d 2da4 00bb e187 83bd 743d 14bd
000003b0: 07a9 b7bd 60db 0ebe cfe7 b9bd c175 8fbd
000003c0: 4a9d 10be 65c6 5d3d ecf8 953c 9d68 17bc
000003d0: 9032 043d 0d6b f23d cc8b 5d3d 2562 2c3e
000003e0: 4fbd 893d d476 953c 2c72 7b3c 4e35 a5be
000003f0: bd28 1f3d b3f1 ac3b c8b0 dcbb 4bc5 593e
-0.08621769 0.14196286 -0.11171351 -0.14913417 0.13862123 -0.068558164 -0.021124838 -0.04705798
-0.05065419 -0.029939428 0.016892688 0.06748255 -0.051743455 -0.041263305 0.015981844 0.035246547
-0.016213356 0.11125319 -0.023439676 -0.031586066 0.02579758 0.09480029 0.07587114 0.112853326
-0.10880796 0.05311059 0.08394357 0.11087584 0.10183094 0.05136471 -0.13060425 -0.052114055
-0.05143047 -0.077803664 -0.06741624 -0.0029046878 0.03218758 0.040312357 0.16083147 -0.054800607
0.047499575 -0.0565318 0.07373434 0.050174393 -0.0038843625 0.12781991 -0.020154314 -0.13662603
-0.10311259 -0.03135655 0.0384263 -0.12800317 0.061177365 -0.09901801 0.075107776 -0.024729263
0.04143876 0.07520588 0.293782 -0.15631121 0.12387587 0.30509362 -0.012169061 -0.009091849
0.020558968 -0.055943932 -0.13335432 -0.06674713 -0.11664368 0.035064656 0.08593281 0.114384234
0.14814593 -0.021311354 -0.11486458 -0.10567547 0.04800518 -0.0844919 0.12171181 0.009379741
-0.015142876 0.04912876 0.07038618 0.056330554 -0.059666626 0.036398716 0.061419036 0.014767664
0.15988703 -0.086284816 0.09282526 -0.18012615 -0.049350105 0.0012978124 -0.1986055 -0.20364721
-0.095087565 0.011305178 -0.077650785 0.004971077 -0.084791236 0.03981731 0.039644487 -0.12500672
0.003440978 -0.031727217 0.07562921 0.14001186 0.139164 0.08792137 -0.03720707 0.0013988372
-0.086047225 0.17439067 0.033065524 0.06125313 0.11459723 0.20852174 -0.21780333 -0.082979776
0.041917253 -0.113571405 0.06484696 -0.12859346 0.06936963 -0.07705059 -0.08439571 0.06224765
0.018088073 0.08662253 0.09345757 -0.24432662 0.013927079 0.019899495 -0.0068939263 0.10565559
0.09876487 -0.13437228 -0.0014937967 0.0067259986 -0.12390012 -0.075599074 0.08339286 -0.015713887
0.15463369 -0.049010996 0.07146655 -0.086967334 0.087409794 0.14691497 -0.044788476 -0.09850628
0.041748215 0.010363595 -0.018471694 0.020903878 0.2743862 0.0013740899 0.03615359 0.015015048
-0.02052856 -0.101384416 -0.1429772 0.06237476 0.06889926 -0.24640575 -0.057407532 0.02386087
0.00856482 -0.17226557 -0.0107550165 -0.13873526 -0.15212575 0.03923964 -0.07547209 -0.14059888
0.09901852 0.07247492 0.030907484 -0.012460304 -0.09514091 0.0374953 -0.22180024 0.016287822
0.032196727 0.13409343 0.3579936 0.07171015 0.011438646 0.20408297 -0.13882512 0.01771038
-0.0028737742 0.09853009 -0.010113845 -0.047444038 -0.051661562 0.056240987 -0.0162467 -0.030719608
0.02919059 -0.0043914192 -0.09327912 0.06533093 -0.0046249065 -0.1696802 0.14597894 -0.075813614
-0.16550407 -0.089196615 -0.088163175 0.045514792 -0.15216425 -0.022320937 -0.051458344 -0.06162028
0.007100853 -0.12096974 0.0891767 -0.30439368 -0.1470352 -0.58471686 -0.075095356 -0.309503
-0.15328336 0.004029232 0.09629038 -0.16303362 -0.1568016 0.0778627 0.038153093 0.038228955
0.058373287 -0.0019629106 -0.06422401 -0.03619142 -0.08967786 -0.13950872 -0.09077417 -0.07004882
-0.14122501 0.054144282 0.018307172 -0.00924125 0.032274783 0.118368246 0.0540884 0.16834314
0.06725561 0.018245138 0.015347045 -0.3226723 0.03885721 0.005277836 -0.006734941 0.21266668

convs.1.bias f4 [256]
00000000: 414e 66bf 230d c7bd e0c3 21bf da57 e43d
00000010: b643 a73c f1de 6cbd ac7b a9bc 00d6 ec3c
00000020: 9b98 91bc 1b99 30be 8c34 153d cd46 88bd
00000030: 5f54 c33e 3ebe 863d 1d6b 99bf 2f2b 0d3f
00000040: 802c 163e a34a 803f fd7d 43bf 318b 8dbc
00000050: 5056 2cbd d1b0 65bc a3f9 a83c 383e 19c0
00000060: c290 9cbd 75cd 0dbf d660 01be 080c 093f
00000070: 280f 163d 7990 69be 9b19 72bd 6b56 27be
00000080: 39e2 2bbe 8cf5 3dbe 7fcf 563d b897 8a3e
00000090: 3d37 a5bf 77fc 493f 1e8d 123d ece1 3dbf
000000a0: 7509 3e3e 8b44 1a3f fc4c cb3e fa76 5b3e
000000b0: 28fd 73be 6001 85bb 4f75 cd3d 7b03 36bf
000000c0: 5845 3e3c 901e b93e 96aa bf3e b693 e9bd
000000d0: e3ef b6bd ed34 2ebe b808 cfbf 76be c93d
000000e0: 908a fb3d 155e 88bd 4319 0dbe 4a4f 823f
000000f0: f5b9 40bf 639c 40bf 8385 febe b99c a53d
00000100: 29e1 00bf f847 133d 6498 093f 491a d8bd
00000110: a383 f8be f2fc a83e 1910 d3bc 1d73 7dbd
00000120: 56ce 6abd 405b 91bf 7851 12bf 86b3 c73f
00000130: e4e3 803d a193 f1be 6cb8 9f3e 6f7f 4ebd
00000140: 6f27 a33d e430 20bc 737c 183d e198 25bd
00000150: 1498 a4bf 5b02 8e3f 1f48 56be 7c99 8b3d
00000160: bfde 823c 9c76 2c3c 1d56 5bbe 4390 9d3e
00000170: 852b b3bd c986 abbf 8fe0 5bbf dda4 7f3f
00000180: 7d6d 213c f195 f5ba d4f2 9f3d b3e5 9cbe
00000190: a01a b73e a13f 0abd e0d6 6dbe 7fdc 1d3d
000001a0: bd97 683e 49b8 1640 4a02 87be 83dc 823d
000001b0: ed39 06bf 8210 2fbe caf3 673e f9f4 e8bc
000001c0: ee9c f8bf 6529 573d 4dd8 f7bc 80c7 f93d
000001d0: 1c05 4c3c b13a ba3d fced aa3c 6a08 663e
000001e0: 4702 eb3e ef52 43be 1430 053e ed64 3c3d
000001f0: 83e5 973d a859 24be 6207 f0bc ed02 723c
00000200: a66f 00bf 0402 763e d84d 033f 02d7 1cbd
00000210: 8a3f a73d 17a8 23bf 339e c2bd b95d d63e
00000220: 7bfb 1ebf 1f50 67be 0a2f 86be 7e5c d0bc
00000230: 1ead bfbe a677 4fbe e1f1 acbe 9603 12bc
00000240: 9a57 e8bc cdb5 a83c 0100 e23d 4b60 47bf
00000250: 6905 0abe 7536 a5be a692 1740 2d34 cb3e
00000260: 4120 21be 3faa 89be 4b6b 4d3d 656d 7abe
00000270: 06e0 48bd 4d71 37be e3cb f1bc b8df c2be
00000280: a985 9abe fe5f de3d 4f9e 3a3e f2e8 bf3d
00000290: fbca fbbd 6157 0b3e 1102 70bd ddc1 f73e
000002a0: 9ca8 263d f208 d1bc 5207 eabd 538f 9c3c
000002b0: 7aaf 483e 70fd 7ebd c87b e23c ae4f a83f
000002c0: 82f4 37bf e8af aabe 947e aa3d c48a b9be
000002d0: 386f 0dbe 4cc4 06be e984 6b3e 29af debd
000002e0: 9e54 953e a77f 733e 2cf3 6abf 2738 153f
000002f0: e3f4 a13d 979a fc3d 1b4f 383d 4a5f 8dbe
00000300: ce93 54bf 0bc2 03bc 5c56 a43d ac1c 55be
00000310: 4f0d 193e d2c4 523f 816a 353f b929 e0bd
00000320: 5014 37bd 55cc 0e3f 4d62 b53d dc9d dabc
00000330: ad55 673e 31f1 7e3e 43c4 7ebe 1d9d 6f3e
00000340: 9cb9 6f3d e591 31bf 4d4d c93c 1eae 513f
00000350: 376e d8be 58a7 6e3d 486f 7cbf e493 4bbe
00000360: c466 60bd f6fc 20bf 699a a83d a190 7fbd
00000370: 7fa5 3dbd 5780 2fbd 7810 fabd a958 ce3c
00000380: 6634 00be 2e57 14be 6be0 0d3e 618c b63f
00000390: 6654 88be 65e6 a83d 2728 8e3f b4ec 4e3d
000003a0: d27e 1140 7536 e9bf d85b 243e 82bb 1cbd
000003b0: a19b 4d3f de54 9c3c b718 f23d 1c35 13bd
000003c0: ce40 17be 247d efbd 43df ee3d 8d98 633c
000003d0: b4c2 bf3e 6967 0abf ba54 dabc 9abd acbd
000003e0: 7640 9ebd 9b8e d73d 1894 853d e55c cdbd
000003f0: 0f5b eebe e37d 543b a336 763c 59b7 31be
-0.89963156 -0.097193025 -0.63189507 0.11149569 0.02041803 -0.0578298 -0.020688854 0.028910637
-0.017772963 -0.17245905 0.036427066 -0.06654129 0.38150308 0.065792546 -1.1985813 0.5514402
0.14665413 1.0022777 -0.7636412 -0.017278286 -0.0420745 -0.014019207 0.020626849 -2.3944225
-0.07644798 -0.5539163 -0.12634596 0.53533983 0.036635548 -0.22809018 -0.05910645 -0.1634156
-0.16785516 -0.185507 0.052443977 0.27068877 -1.2907482 0.78900856 0.03577911 -0.74172854
0.18558295 0.6026084 0.39707172 0.21432105 -0.2382704 -0.004059002 0.100321405 -0.7109906
0.0116132125 0.3615613 0.37434834 -0.11405127 -0.089324735 -0.17012377 -1.6174536 0.09850781
0.12282288 -0.0665857 -0.13779168 1.0180447 -0.7528375 -0.7523863 -0.49711236 0.08086533
-0.5034357 0.035957307 0.53748155 -0.105518885 -0.4853793 0.33005482 -0.025764512 -0.06187736
-0.057325684 -1.1355972 -0.5715556 1.5601661 0.06293467 -0.47182944 0.3119539 -0.0504145
0.07966506 -0.009777281 0.03722806 -0.040429 -1.285891 1.1094469 -0.2092595 0.06816384
0.015975354 0.010526326 -0.21419568 0.30774125 -0.08748535 -1.3400508 -0.85889524 0.99860936
0.009852764 -0.0018736703 0.07809988 -0.30643997 0.357625 -0.033752088 -0.232265 0.03854036
0.22714134 2.3549979 -0.26368934 0.063897155 -0.5243214 -0.17096141 0.22651592 -0.028437125
-1.9422891 0.05252971 -0.030254507 0.12196255 0.01245239 0.09093226 0.020865433 0.22464147
0.45900175 -0.19074605 0.13006622 0.045994688 0.07416823 -0.16049826 -0.029300395 0.014771205
-0.5017036 0.24024206 0.51290655 -0.038290985 0.08166416 -0.6392836 -0.0950283 0.4186838
-0.6210248 -0.22589158 -0.26207763 -0.025434729 -0.37436765 -0.20260486 -0.3377829 -0.008911988
-0.028362084 0.020594502 0.11035157 -0.77881306 -0.13478626 -0.3226811 2.3683257 0.39688244
-0.1573496 -0.268877 0.05015115 -0.24455793 -0.04904177 -0.17914315 -0.029516166 -0.3806131
-0.301801 0.10858153 0.18224452 0.09370603 -0.12294575 0.13607551 -0.05859572 0.48390093
0.040688142 -0.02551696 -0.114271775 0.019111311 0.19598189 -0.062253416 0.027646914 1.3149316
-0.71857464 -0.3333733 0.08324924 -0.36238682 -0.13811958 -0.13160819 0.2299992 -0.10873253
0.2916612 0.23779164 -0.917773 0.58288807 0.079080366 0.12334173 0.044997316 -0.27611762
-0.8303803 -0.008041869 0.08024284 -0.20811719 0.14946483 0.82331574 0.7086564 -0.10945458
-0.044697106 0.55780536 0.0885664 -0.026686601 0.22591276 0.24896695 -0.24879555 0.23399778
0.05852662 -0.6936324 0.024572993 0.81906307 -0.42271587 0.05826506 -0.986073 -0.19880635
-0.054785505 -0.6288599 0.082325764 -0.06239379 -0.046300407 -0.042847004 -0.122101724 0.02518876
-0.12519988 -0.14486381 0.1385514 1.426159 -0.2662689 0.08247069 1.1106004 0.050518706
2.2733655 -1.8219744 0.1605066 -0.03826476 0.80315596 0.019083437 0.1182112 -0.03593932
-0.14770815 -0.116937906 0.116636775 0.013891351 0.37453234 -0.5406404 -0.026651729 -0.08434601
-0.07727139 0.10525247 0.06522387 -0.10027484 -0.46553847 0.0032423667 0.015027675 -0.17355098

convs.1.lin.weight f4 [256, 256]
00000000: ea71 cfbd 529b 423e 0736 13be 4e35 98bb
00000010: c807 adbd 4c49 2a3c 0bf5 b3bd 8416 2e3d
00000020: ef00 e9bc deb0 e5bd 555e 7dbd a7ee 07be
00000030: 66a6 cdbc e731 b6be 2e43 563e 744d 0abd
00000040: c420 25be b47d 263d 13ec 2a3e 09cd 91bd
00000050: 7bc2 a33e 4a00 23be 9a4d 9fbc 7db1 c53c
00000060: 5ce2 4e3e b061 233d 3ff5 453e aff1 2fbe
00000070: 2ea2 f83d c7ed ec3d aa8b 0cbe f4d2 9abf
00000080: b045 443f bde2 c23e f260 133e 51b5 5ebe
00000090: 2a22 393e 3d73 d0bc 7180 163d 52b6 253e
000000a0: 1ce5 acbe bed0 013f be6f f03d 3c56 813c
000000b0: 5dbf 35bc 749e 7d3f 386f d23c 557f d3bd
000000c0: 15ff a23d a4d4 343f 852c 91be 3791 ed3e
000000d0: 50bc c43d 4bdd 4bbe c9b8 743d cae2 aabd
000000e0: 6416 fdbd 7c4a 0cbe 8e41 3fbe 59d0 ea3c
000000f0: 23e7 a4bd e5ec 14be 7e56 cbbc ca13 6a3e
00000100: 40e5 0b3e e2a5 b8be c87b aabd 28c1 903f
00000110: c812 d73d ae0d 9cbd 93d9 233d 9e22 253e
00000120: 979f 4bbd 60a6 04be 26d9 4b3d 6a29 1d3f
00000130: fe0e d139 925d 6b3d 6aa3 9dbd 3fbc c93d
00000140: 527e f13c bba9 74be ced2 75be 1895 97bc
00000150: 02c8 7abf 5e6a a1bd 78e5 68bf fdfb 4fbd
00000160: a534 913e 44f3 3f3e 20f0 03bd d7a7 323e
00000170: 2bb2 e73d c576 5ebe 4751 35be 0099 3c3d
00000180: 0ba5 01be dc90 7bbd 2580 72be f991 243f
00000190: c67e dfbd b6ea 54be 0277 af3d 386e c9bd
000001a0: 5d8c 0d3d 01e1 753f 70d5 d03f 0401 b73d
000001b0: 8d67 afbc 5ae0 bb3d e544 12be 1403 2cbe
000001c0: 709f 1c3e b799 d0bd 91d3 fbbe 045a efbd
000001d0: 285a 093e 9ba1 ffbc 27f7 a53e 0b5c f03d
000001e0: 3741 443e 5e90 813f 00aa 1fbe d1e6 8dbe
000001f0: 1bbe 3dbf b931 e13f 06e1 a0bc 45fe 7d3c
00000200: af41 7d3d c716 c23e 55e0 04bf 89ab 23bd
00000210: 2be3 22be bf6b 3e3e 0d6e ccbd 17ef 1dbe
00000220: ae2c 9ebc 7e97 a1bd ca04 80bd 133b 46be
00000230: 550e 7c3e 231d 2cbd 6db8 60be a0a9 c0bc
00000240: 052a 843e f100 babd f027 91bd 7025 673e
00000250: 14cb 6abd b91b 97be 2310 f93d 724d 3fbe
00000260: 2128 b63d 19a6 62bd 23d7 dbbd 9e6a a83c
00000270: 0cf7 5ebe 36f3 bebe d552 89bc 85fc 723d
00000280: 273b 17be 0d37 09bd 48e9 fc3e 53a5 8f3d
00000290: 2895 15bc 1ce1 a2bc dfba 80bf 3866 67bd
000002a0: 9a60 f8bd 61c7 db3d 0b30 fdbd ccc1 b73e
000002b0: 138d 043e e2f8 f7be 7f9e 6b3d e052 223c
000002c0: 54a1 9bbc ba25 733a 6152 03bf e4db e0bd
000002d0: 9838 803e 3ed5 c3bd 2f6a 743f 7285 c33d
000002e0: fc28 3ebc df6d 82bd 3a41 b4bd 24c7 babd
000002f0: c88e 69be a11b 593d 848e 953d 1af0 383c
00000300: 0ab7 c33d b406 473e 68a9 0fbc db0d 2fbc
00000310: 1b10 163f 896a 2dbe 1efa 35bd 7ed7 7a3f
00000320: 5bfa f3bd c89d 1cbe e7d5 9abd e90d 5b3d
00000330: 0a33 7d3e 10f1 82bc e0c4 9a3d 95c2 123e
00000340: 0667 7b3c e6d0 823d ef3f e5bc c663 553d
00000350: a151 093d a5cd 20b9 ec2f bd3e 496a 0fbd
00000360: 5681 d4ba cec6 b03d 1aff 7bbf 0c50 a63d
00000370: be7f 143f fcd2 143e 6b5e 13bd 537c 9d3e
00000380: f197 a5be efea 053e 9db3 22be 2667 bf3e
00000390: 5b4f 34be 36c7 28be 15b6 90be 4aed b6bd
000003a0: b61e 583e 425e 8cbb 2f53 023d 69a1 7c3d
000003b0: 2f64 c13e a041 20be 02e4 63be 1e69 113e
000003c0: 4e82 293f d63d 1bbe 13bb 2bbd b419 c0bc
000003d0: 23a6 243f 0e16 583e ad2a ebbd feb2 633e
000003e0: ea96 4d3e 7f0b 8b3c d1ef aabd 7cc3 bfbd
000003f0: c239 13be adfe ab3b 6b2e 4b3d 0ce9 57be
-0.10129149 0.19004562 -0.14376079 -0.0046450263 -0.0844875 0.010393452 -0.087869726 0.04250194
-0.028442828 -0.11215375 -0.06185754 -0.13274632 -0.025103759 -0.35584947 0.20924065 -0.03376527
-0.1612578 0.040647224 0.16691618 -0.071191855 0.31984314 -0.15918079 -0.019446183 0.024132485
0.20203537 0.039888084 0.19331835 -0.17182039 0.12140308 0.1156879 -0.13725153 -1.2095628
0.76668835 0.38063613 0.1439245 -0.21748854 0.18079439 -0.025445575 0.036743585 0.16182831
-0.33768547 0.5070914 0.11740063 0.01578819 -0.011092988 0.99069905 0.025687799 -0.10327021
0.07958809 0.70636964 -0.28354278 0.46399853 0.0960623 -0.19908635 0.059746537 -0.08344038
-0.12357786 -0.13700289 -0.18677351 0.028663801 -0.08051898 -0.14543493 -0.024821516 0.22859111
0.1366167 -0.3606406 -0.08324391 1.1308947 0.10501629 -0.07619797 0.040002417 0.16126487
-0.049712744 -0.12954092 0.049767636 0.6139132 0.00039874756 0.057462282 -0.076971844 0.09850358
0.02947918 -0.23892872 -0.24006197 -0.01850371 -0.9796144 -0.07881616 -0.9097514 -0.050777424
0.28360477 0.18745142 -0.032211423 0.17446838 0.1131328 -0.21724994 -0.17706786 0.04604435
-0.12660615 -0.061417446 -0.23681696 0.64285237 -0.10912852 -0.2079266 0.08567621 -0.09835476
0.03455769 0.96046454 1.6315136 0.089357406 -0.021411682 0.09173651 -0.14284094 -0.16798049
0.15295196 -0.10185569 -0.4918485 -0.11687091 0.13413298 -0.03120499 0.32415125 0.11736306
0.19165502 1.0122182 -0.15592194 -0.2771516 -0.741182 1.7593299 -0.01963855 0.015502517
0.06183022 0.37908003 -0.51904804 -0.03995851 -0.1590697 0.1859579 -0.09981928 -0.15423237
-0.019308414 -0.07890223 -0.062509134 -0.19358473 0.24614842 -0.042019974 -0.21945353 -0.023518384
0.25813308 -0.09082211 -0.070876956 0.22572875 -0.057322577 -0.29513338 0.12161281 -0.18681887
0.08894373 -0.055334184 -0.107343934 0.020558652 -0.21773928 -0.3729493 -0.01676313 0.059322853
-0.14768659 -0.033499766 0.4939673 0.07013955 -0.0091298 -0.019882731 -1.0057029 -0.056493968
-0.121278 0.10731388 -0.12362679 0.35890043 0.1294444 -0.4843207 0.0575242 0.009907454
-0.018997826 0.0009275336 -0.51297575 -0.10979441 0.25043178 -0.09562157 0.95474523 0.09546937
-0.011606451 -0.063686125 -0.088015035 -0.09120014 -0.22808373 0.053004865 0.07302573 0.011287713
0.09556396 0.19436151 -0.008768417 -0.010684456 0.58618325 -0.16935171 -0.044427983 0.97985065
-0.11912986 -0.15294564 -0.0756033 0.053480063 0.24726501 -0.015984088 0.07557082 0.1433204
0.015344387 0.063875005 -0.027984587 0.052097104 0.033525113 -0.00015335398 0.36950624 -0.03501347
-0.0016212862 0.08631669 -0.9843613 0.081207365 0.5800742 0.14533609 -0.035978716 0.30758914
-0.32342485 0.13077901 -0.1588883 0.37383384 -0.17608397 -0.16482243 -0.28263918 -0.08931978
0.21105465 -0.0042836973 0.03181761 0.06167737 0.37771747 -0.15650034 -0.22254947 0.14200255
0.66214454 -0.15160307 -0.041926455 -0.023449756 0.64316005 0.21102163 -0.11482749 0.22236249
0.200771 0.016973255 -0.083465226 -0.093634576 -0.14377502 0.0052488656 0.049604814 -0.21084994

convs.2.bias f4 [256]
00000000: e914 fa3d 0c16 0f3e cbdf 88bd 100d 4bbe
00000010: f721 18bd 8429 9a3d 3a6e 343e b060 843d
00000020: a0a0 35be 8f82 29bd 842f eb3d 9f9b ae3a
00000030: 67ce 9fbb b952 c9be 10ab 9a3d 85e9 373e
00000040: a3d1 68be 2b4c 303e 1c2d 8e3c 9ecc c2bc
00000050: 71c0 77bd 41b8 943d 989c 313d 9318 a03e
00000060: 0f06 d5bc 9b68 493d f0b1 59bc e4ae 24be
00000070: da0a 703e 481c 9a3d e83d 0d3c 469a e0be
00000080: 635c 4a3d c790 b13d 6968 c73d a7b1 153e
00000090: ac5c 04be f149 673e 22d6 afbc 5081 b33c
000000a0: 3ff3 5abe 9440 7bbc c210 393e 2bb8 c53e
000000b0: 9a39 573c a0dd 013d de61 713e b24f 823e
000000c0: 7077 5c3d c2e8 25bd e103 b33e da71 17bd
000000d0: f5a8 d03a b3d4 38bd 3933 b53d 2d47 e8bc
000000e0: 750c e2bb 9234 143c 044b 6d3d 0ae9 213d
000000f0: 6a88 293d 5911 313f 4836 d63d c322 a0bd
00000100: efd8 223e 731a ac3d c50e 36be 025e 003e
00000110: 85ab aa3d a59a 353e 8a48 69be cdbb bebc
00000120: 3c42 29bd 6b18 28bc 039a 533c 7af2 873e
00000130: 8387 b13d 5d8c 92be 816a f23f 1a77 9f3e
00000140: cb10 023c 5447 1fbd 493e 913d 6148 093d
00000150: 2bde 14be 49cb df3d 3ce2 8c3f 3b8e 0c3e
00000160: 7648 693d d089 46bd ebfd dd3e 30d0 f53d
00000170: 8b1e 46bd df00 523d b6db c43d 8c2e 993d
00000180: e8ea 6f3c 3028 4d3d a1ee a4be f3c0 553d
00000190: 26a1 c43d 2bbb a93d e302 ed3d cb12 3c3e
000001a0: d18d 843c f304 753f 66d5 5a3c 64a8 6d3d
000001b0: 703c 4fbc 21ec 82bd 51b5 203f e237 733e
000001c0: 7474 92be a518 eb3d 0c74 193d 0792 0abe
000001d0: 7945 a73d 3b1c 82bc 652a cd3d d056 68bc
000001e0: a004 17bd 4181 973e 23b1 d63c caf4 203d
000001f0: b752 673d 5f33 1a3e 2a2c 863d a4da 963d
00000200: 8831 8abd 5669 de3f 1042 ec3d 0265 5bbd
00000210: 7374 db3d 0e7a 053e 8bb2 423d fa51 073f
00000220: 8c7f 0b3d 90da 5a3e 9f98 00be 460e 2dbd
00000230: 725a 583e cf29 403d 28da 11bf 230f 9a3e
00000240: db36 87bd a3f3 e53d 856a 793d 389c e3bd
00000250: a34b 023e 2892 393d a59f 1440 a773 18bf
00000260: 6420 883d 77f1 ff3d 01ae 4e3d 8fb0 bd3d
00000270: 3e3c e03b 43a0 453e d92e a63d fb9f 90bd
00000280: 9a01 1cbe 2808 063d 8624 c23d c2f9 39be
00000290: 352f 4fbd d2df 4e3d 606b 7fbc c141 dd3d
000002a0: 54c2 0ebd fdba d23c 2355 40be 4821 203e
000002b0: dde7 793e a144 b33c c347 64bc 9b00 2f3e
000002c0: 406c d23e b10e 47bd 8266 673d 8c1a cbbd
000002d0: 3ca4 503e 1808 313e a435 3abe 4ca4 f83b
000002e0: 470c 58bd 74ca 643f 97f8 b33d ac40 57bd
000002f0: 2e33 853d 6ca4 ae3d e1fd 28bd dc23 273d
00000300: 16f2 453f 1c33 823a 7ba1 983d baeb 4ebd
00000310: 1fc5 823d 00b3 d4be f4b6 bfbd 267f 1f3e
00000320: 95ed d03d f2b3 1d3e 9068 c33d 123d b3bd
00000330: d4b4 5e3d a1a9 403e 522b e63e ea6d ccbe
00000340: 665a e53d 45a8 783e 3c48 493d 0b4e 27bd
00000350: 39fc b83d 4dfa 793e 8169 8bbd a19c e63d
00000360: 9868 5b3d 6bf7 383d 3f12 27bf fa59 84bc
00000370: d247 083d b195 363d 2b0a 0cbe 12b2 dc3d
00000380: 834a 443d f895 873c e532 d2bb 1070 113f
00000390: d569 93be cbc5 c73d 9ccc 5240 e498 24be
000003a0: 7bd4 af3d 0947 673e 9ddf 663d 43c6 6d3e
000003b0: 6b25 953e 8ed8 453d 91eb bcbd 22f3 49bd
000003c0: 4c92 0c3e 5c64 743d 47fd 673d 79e2 aa3e
000003d0: e7ec 4b3e 4a6f 083e 9e34 443e 9e98 b63c
000003e0: b626 4d3d a384 5d3d d13a 0b3c 8a56 78bc
000003f0: 3edc 283e 8f0b 1a3d 10ba 36bd 1ff5 603d
0.122110195 0.13973254 -0.0668331 -0.19829202 -0.037141766 0.0752745 0.17620173 0.06463754
-0.17737055 -0.041384276 0.11483672 0.0013321525 -0.0048769 -0.39320925 0.07552159 0.17960174
-0.2273622 0.17216556 0.017355494 -0.02377921 -0.06048626 0.07261706 0.04336223 0.3126875
-0.026003866 0.049172025 -0.0132870525 -0.1608234 0.2344164 0.075249255 0.008620717 -0.438677
0.049404513 0.08670192 0.097367115 0.1461855 -0.12925977 0.225868 -0.021464411 0.021912247
-0.21381854 -0.015335221 0.18072799 0.38617072 0.013136292 0.0317055 0.2357249 0.25451428
0.053824842 -0.04050518 0.34963897 -0.03697381 0.0015919494 -0.04512472 0.088476606 -0.028354252
-0.0068984577 0.009045737 0.05793287 0.039528884 0.04138986 0.69167095 0.10459572 -0.0781913
0.15903066 0.08403482 -0.17779072 0.12535861 0.08333496 0.17734773 -0.22781578 -0.02328291
-0.04132293 -0.010259728 0.012915137 0.26552182 0.08668425 -0.28622714 1.8938752 0.31145555
0.007938574 -0.038886383 0.07091958 0.03351629 -0.14537875 0.109274454 1.1006541 0.13726132
0.05695387 -0.048471272 0.43357787 0.12002599 -0.04836897 0.051270362 0.09612219 0.07479581
0.014643408 0.050087154 -0.3221331 0.052185964 0.09601049 0.082876526 0.11572816 0.18366544
0.016180905 0.95710677 0.013356542 0.058021918 -0.012648687 -0.06392694 0.62776667 0.23751786
-0.28604472 0.1147931 0.037464187 -0.13532268 0.08167548 -0.015882602 0.10017852 -0.014180854
-0.036869645 0.295908 0.026207512 0.03929595 0.056475367 0.15058659 0.065513924 0.07365921
-0.067477286 1.7375896 0.11536038 -0.053563125 0.1071557 0.13034841 0.047533553 0.5285946
0.034057185 0.21372437 -0.1255822 -0.04224994 0.21128252 0.04691487 -0.56973505 0.30089673
-0.0660226 0.11228111 0.0608926 -0.11113781 0.12724166 0.0453054 2.322244 -0.5955147
0.06646803 0.12497228 0.05045891 0.092621915 0.006843119 0.19299416 0.08114404 -0.07061764
-0.15234986 0.032722622 0.094796225 -0.18161681 -0.05058213 0.05050642 -0.015589565 0.10803557
-0.034853294 0.025723929 -0.18782477 0.15637696 0.24404855 0.02188331 -0.013933125 0.17090075
0.41098213 -0.048597995 0.056494243 -0.09917173 0.2037515 0.17288244 -0.18184525 0.007587945
-0.052746084 0.8937142 0.08787649 -0.05255191 0.065039024 0.08527455 -0.041257743 0.040805683
0.7732252 0.0009933445 0.07452675 -0.050517775 0.06385254 -0.41542816 -0.093610674 0.15575847
0.10201565 0.15400675 0.09541428 -0.087518826 0.05437167 0.18814708 0.44954926 -0.39927608
0.11198883 0.2428294 0.049141154 -0.040845912 0.09032483 0.24411888 -0.06807233 0.11260343
0.053566545 0.04515783 -0.65262216 -0.016156185 0.03327162 0.04457635 -0.13675754 0.10776152
0.047922622 0.016551003 -0.0064147585 0.5681162 -0.2879168 0.09754523 3.2937384 -0.16073948
0.08585449 0.22585692 0.056365598 0.23220162 0.2913011 0.048302226 -0.09224618 -0.049304135
0.13727683 0.059666023 0.05663803 0.3337591 0.1991459 0.13323703 0.19160697 0.02228957
0.050085746 0.05408157 0.00849791 -0.015157351 0.16490266 0.03760868 -0.044611037 0.054921266

convs.2.lin.weight f4 [256, 256]
00000000: 9193 1d3e 6f74 133d 69af 7b3e 1a58 423c
00000010: 44df 6e3e ce86 523e fd70 0f3a bb67 b9bc
00000020: 1bab 143e 84a1 b93d 16ec f53c a451 78bc
00000030: f5bf 613c 7c8d 41be 31d6 bfbe a1b8 a53d
00000040: ad07 423e c706 04bd 8168 bcba b874 343e
00000050: 8657 e63b f42d 333e 9881 5d3d 8f7b 5dbe
00000060: b68e 133e 52c0 513b 3d21 233e 6afd 323e
00000070: 1318 0abe 169e 9e3c 55a5 0c3e de40 abbc
00000080: 6f61 c9bc 8f22 eb3d 11af 3b3e a1b7 b93d
00000090: 86ce fd3d 0339 123e 1848 413e 2043 223d
000000a0: c03c fcbd c03a bebd 8999 5b3e 5ab0 2bbc
000000b0: c1f5 243e 3cca 233e a095 333e 1736 303e
000000c0: 5953 913d 53eb 863e 57f4 723d 8b80 a93d
000000d0: f4aa 323d d0fb 913d 6569 ad3e 3ccf 903d
000000e0: dfe3 2abe f294 c43b bca8 6abe ee47 fe3d
000000f0: b5ba cabb fc01 3b3d baed 3b3b 0beb b4be
00000100: b300 c43d e384 1d3e 75e8 5b3d 763e e93d
00000110: 8af7 3b3e 23ea 843b 2571 233d 2464 98ba
00000120: 059b 0b3e 9ffb cabb f20c c9bd 0a74 1bbf
00000130: 697b 343e a1df 393d 05b4 6b3c 545e f03d
00000140: fa9a 303e 9c50 26bd db02 0f3e b367 333d
00000150: 853e 303c f55f b3bd b7a0 0a3e 4a6e 92bd
00000160: 6a21 e3bc d52b 51bd da89 5cbc f2ad 3dbd
00000170: 307c 733d 7036 933d 5a58 b23d 22ab 45bd
00000180: 1891 763d dd87 c83c ac94 b73e fdd2 50bd
00000190: 7907 5b3e eb1a 0f3d 7120 773d 962b 383e
000001a0: 8df6 3f3e 29e9 b5bd 4b5e c23d 2215 243d
000001b0: 1b82 843d 8494 683e 947c bebd be9c f93c
000001c0: 0d6c 113d 4616 273e 8f53 bb3d 8f2b 2dbe
000001d0: 2bdf 343e 914f 3bbe 8fd2 513d 36d3 dd3d
000001e0: 2785 a9bc 0611 863e 6d40 183e d42b c53d
000001f0: f6a3 333e fd45 cb3d 0b0c f43d 3b02 94bc
00000200: 1559 14bc c74e 4bbc 38fc ec3d 4350 ce3b
00000210: 915c 7e3d 269f e33d fecd ae3b 34b9 723d
00000220: 28b0 063e 8f41 d43d 2e92 9dbc a25d 0b3e
00000230: 6fc5 793e 8eff 973d 163c 8d3e 4698 a33c
00000240: 4f6c 4e3d 09c0 2c3c 44b9 8a3d 3818 743d
00000250: c083 c83d 1d31 563e 7ac1 183d c8bd 383d
00000260: 39d8 513d 8a2b 883d c47b 243c 7f4d 093e
00000270: 2877 d43d f710 443e b2e0 8f3d a3e0 19bd
00000280: 3f6e 8c3d 296a bb3b 3b5e 5fbe 3b24 1e3b
00000290: dec1 8a3d 8232 fcbb 1b93 5d3d 1e16 74bd
000002a0: f49c 053e 5074 bcbd 4387 d53d bf02 473e
000002b0: 8081 3a3e 6d23 9b3c 6b1d fd3c d23d 31be
000002c0: c6e6 f1bd 5bb9 653c 4d12 20b9 f97a 16bd
000002d0: 220c dd3d 6c5c 9d3d 5060 173e a291 083e
000002e0: 4b8d 0dbe 0dc4 b53d 6ffc f93d c128 bd3d
000002f0: 3d53 f7bd 2f36 26be d7e6 8e3d cc44 f73d
00000300: 32f3 e93d b9cb b93d 0038 99be ae83 89be
00000310: 8c7d 8ebd fbfa 1a3e 62b2 313d b161 d9bc
00000320: daeb f73d 75d3 05be 8cce 03bb 96f0 e73d
00000330: 5893 ce3d 00c7 2a3e 2d16 713c 93ec ae3d
00000340: 70f1 d4bc 2f55 093d bf59 a73d 04f2 5abc
00000350: 5c76 ebbc d6a7 29bd 6c0a d13d f93c 983c
00000360: e07a 473e 8155 6abe 1a7a 2cbe c9aa 6c3b
00000370: 8ae8 9c3d 9c8a 0f3d eeec 56be a78e 0b3e
00000380: 459c 9e3d 242e c6bb 7aad bb3c 8866 3f3c
00000390: c240 653e db78 1b3e 9c81 53be 21a4 3c3c
000003a0: 5be4 3c3d 80a9 453e 018f c23d 315d 643d
000003b0: f891 703e 1b5a 253e 860e 463d 48c0 263d
000003c0: 260e 533d a842 1d3e 8165 2e3c 46e2 b1bd
000003d0: 3c65 92be 0d63 4e3c 35c8 893d 3459 8e3d
000003e0: 8fbc 1f3d 9423 553a 6725 ac3d 5a92 5bbd
000003f0: 71ee 01bc 5a24 0d3e 7b46 7cbc 3c45 6b3e
0.15388323 0.03599971 0.24578632 0.011861825 0.23327357 0.20559236 0.00054718537 -0.02263247
0.14518397 0.0906401 0.030019801 -0.015156183 0.013778676 -0.18901628 -0.37468103 0.08091856
0.1894824 -0.032233026 -0.0014374406 0.1762265 0.0070294766 0.17497998 0.05407867 -0.21629165
0.14409909 0.00320055 0.15930648 0.17479482 -0.13485746 0.01936249 0.13734944 -0.020904955
-0.024582593 0.11481201 0.18328501 0.090682276 0.12392907 0.1427956 0.18875158 0.039614797
-0.12316275 -0.092885494 0.21445288 -0.010479057 0.16109373 0.15995115 0.17537546 0.17208134
0.070959754 0.26351413 0.059315052 0.08276471 0.043620065 0.071281075 0.33869472 0.07070777
-0.16688488 0.005999201 -0.2291593 0.12416063 -0.006186808 0.04565619 0.0028675632 -0.35335574
0.09570446 0.15382724 0.053688485 0.113888666 0.18356147 0.0040562316 0.039902825 -0.0011626524
0.13633354 -0.0061945464 -0.09816922 -0.60723937 0.17625202 0.045379285 0.014386182 0.11736742
0.17246619 -0.04060422 0.13965933 0.043800067 0.010757093 -0.08758537 0.1353787 -0.07149942
-0.027725894 -0.051067192 -0.013460601 -0.046308465 0.059444606 0.071881175 0.08708258 -0.048258908
0.060196966 0.024478847 0.35855615 -0.050982464 0.2138957 0.03493778 0.060333673 0.17985377
0.18746395 -0.088823624 0.09490641 0.040059216 0.06470128 0.22712904 -0.09301105 0.030470248
0.035503436 0.1631709 0.09146797 -0.16911148 0.17663257 -0.18292071 0.051226195 0.10831301
-0.020693375 0.26184863 0.14868326 0.096275 0.17543015 0.099254586 0.119163595 -0.01806747
-0.009054442 -0.012408919 0.115715444 0.006296189 0.062099997 0.111143395 0.005334615 0.059258655
0.13153136 0.10364067 -0.019234743 0.13609937 0.24391721 0.0742179 0.27584904 0.01997007
0.05039626 0.010543832 0.06773618 0.05959341 0.09790754 0.20917173 0.03729389 0.045102865
0.051231597 0.066489294 0.010039274 0.13408469 0.1037429 0.19147097 0.07025279 -0.037567746
0.06856965 0.0057194424 -0.2181329 0.0024130482 0.067752585 -0.0076964507 0.05409537 -0.059591405
0.13048154 -0.09201872 0.1042619 0.19434641 0.18213463 0.01893779 0.030897817 -0.17308739
-0.11811595 0.014021243 -0.00015265607 -0.03673837 0.1079333 0.07683644 0.14782834 0.13336805
-0.1382343 0.08875284 0.12206351 0.09236289 -0.12076423 -0.16231607 0.06977623 0.12073669
0.11423339 0.0907206 -0.29925537 -0.26858276 -0.0695754 0.15134804 0.04338301 -0.02653584
0.12105532 -0.13068946 -0.0020112125 0.11325185 0.10086697 0.16677475 0.01471476 0.08541217
-0.025994033 0.033528503 0.081714146 -0.013363365 -0.028742962 -0.041419826 0.10207066 0.018583762
0.19480467 -0.2288418 -0.16843453 0.0036112538 0.07661541 0.035044298 -0.20988819 0.13628636
0.0774465 -0.006047981 0.022909869 0.01168216 0.22387984 0.15182821 -0.20654911 0.011513741
0.046116214 0.1930294 0.09499932 0.055752937 0.23493183 0.16147654 0.048353694 0.040710717
0.051527165 0.15357459 0.010644318 -0.08685736 -0.2859286 0.012596858 0.067276396 0.06950608
0.038998183 0.0008130607 0.084055714 -0.05360637 -0.007930384 0.13783398 -0.015397663 0.2297563

lins.0.0.weight f4 [256]
00000000: 20fa 523f 95c2 533f c2cc 633f 308a 6a3f
00000010: 344e 7c3f 3354 6c3f 39ae a43f 258c f53f
00000020: 4dfe 443f 1643 713f 7205 393f b160 5e3f
00000030: a326 613f d6e6 443f bb4f 7e3f 1f3d 493f
00000040: 3310 5a3f f91d 523f cc53 e73f f99b 3c3f
00000050: 5737 973f 37e9 bc3e 6277 503f 1b90 643f
00000060: e1cb 583f acd1 413f 5772 603f d22e 603e
00000070: 284f 3a3f 7b30 693f 3d8f 5a3f cde1 b33f
00000080: e99d ea3f 7e98 9d3f 83e4 443f 500f 0c3f
00000090: 36ce 5e3f c614 233f ac85 233f 0ab4 693f
000000a0: 000c 6a3f f16c ac3f 8264 8e3f 6c87 bf3e
000000b0: d652 543f d25a ce3f 1b6c 523f afec 313f
000000c0: afc0 1c3f 3fd3 4840 32ab 503f ed7e c63f
000000d0: 7b97 a43f f552 773f 5835 213f aa8b 753e
000000e0: 0bf7 f93e 43d6 a03e 84f3 3b3f c038 a53f
000000f0: b17b 293f d1e0 103f 65fc c43f 66e9 813f
00000100: 37ec 433f 5ae1 0e3f 82a3 543f bdb4 1240
00000110: d8c6 043f 1d0c ebbd 2c76 533f 6ad1 5b3f
00000120: cba4 4e3f c2a9 843f 2508 af3e 6948 223e
00000130: dde9 713e 9830 bf3f 975f 0340 aae0 293f
00000140: 4f61 6d3f 58fd 2540 a1ce b73e 9c6b 653f
00000150: dc08 4040 4444 a03e a7df c73f 6ee1 873f
00000160: 5a06 003f fa5b 883f 377b 473f 70dd 4b3f
00000170: 7891 4c3f 7ebf bc3f 3199 013f 4eb8 5c3f
00000180: a54c 5d3f 7ecf 783f a120 a43e eab7 9e3f
00000190: cb17 603f b837 553f 5b71 e33f 8483 193f
000001a0: ffb3 523f a947 0f40 56c2 f03f 5670 8a3f
000001b0: 1e4d 583f 7d85 3f3f adae e03e 474c 453f
000001c0: 7e3f 623f 6a9d 2a3f f579 da3f 81ec 353f
000001d0: f4e1 443f 8549 693f 5eca 853f 0093 fd3e
000001e0: bae8 763f 7ea3 cb3f 57cb 1d3f 9179 f93e
000001f0: bfc9 e33f 8dfe ec3f 829d 193f 8397 fe3e
00000200: d589 533f c849 f23f b3ea 733f f655 a43e
00000210: daf9 ea3f 81a2 3c3f 5f74 ac3f 7ac2 193f
00000220: 9cb7 583f dac5 4c3e 2dad db3f 1d2d 4c3f
00000230: 94cd ce3f 7b03 683f 222e aa3e 6191 7b3f
00000240: 595d 673f 8a26 9b3f 9c4d 403f 9407 543f
00000250: 752d 553f 02a1 cf3f 96c4 b83f 3446 c53f
00000260: b41b 3c3f a562 b13f eff4 323f 2051 263f
00000270: 4331 643f 8c52 d03f 9076 743f c07f 2b3f
00000280: 3028 fd3e 1f6c 593f 2d94 ec3f 378d 4f3f
00000290: 0da8 4f3f 4747 8b3f 3784 2c3f 23a4 3a3f
000002a0: cb46 503f 2dd3 123f 83de 9f3f 789c 1040
000002b0: 8599 573f 5c90 b13f 71d3 483f 431e 673f
000002c0: 4711 4b3f 6e34 943f 9012 d83f 62af c43f
000002d0: 9845 ad3f 0f8c d53e 56ea 9c3f 5b98 6d3f
000002e0: 9606 583f 6512 243f 20d2 ad3e a4fe 833f
000002f0: e265 e73f e269 523f 0c19 383f 629b 363f
00000300: b7d1 5f3f aa4b 563f f8bc 6b3f aa9e 683f
00000310: b344 1e40 bdeb e53f 9006 133f ebac 2040
00000320: 90c0 183f e272 753f c228 c63e f893 be3e
00000330: 331c 4f3f d656 d63e 8989 0240 b18c 423f
00000340: 467c 543f 09fd d13e 2995 3a3f 9c2f 7a3f
00000350: cc0f 953f e65e ac3e 5433 443f 8f1a fd3e
00000360: 1cfb 5d3f 58f4 633f e80f 0b40 0741 813f
00000370: c908 423f c37c 593f ca6f 503d f742 a13f
00000380: 17e8 0440 6b5b 2c3f 1539 0a3f e504 993f
00000390: 91e2 713f 32ce 153f 3cb9 c13f 6027 813f
000003a0: 1b13 9a3f 693e 393f a45a f63e b1e8 483f
000003b0: 76c6 0640 bd8e c73f 2850 8f3f cad6 853f
000003c0: b930 0640 2111 353f 8dfd 273f 054d 5d3e
000003d0: c456 c83f 3c19 593f c70e 573f 5544 593f
000003e0: 2cc6 ae3f a016 363f 5cb4 1b3f 163d 433f
000003f0: f08c 0d40 499a 523f 73ad 603f 77b7 fc3f
0.8241291 0.82718784 0.8898431 0.9161711 0.9855683 0.9231598 1.2865669 1.9183394
0.7695053 0.9424299 0.72273934 0.8686629 0.8794958 0.7691473 0.9934041 0.7860889
0.8518097 0.82076985 1.8072448 0.73675495 1.1813763 0.3689668 0.81432164 0.8928239
0.84686095 0.7571056 0.8767447 0.2189286 0.7277703 0.910896 0.85374814 1.4053284
1.832944 1.2312162 0.7691118 0.54710865 0.870334 0.6370357 0.6387584 0.9129034
0.9142456 1.3470746 1.1124423 0.37408006 0.829389 1.6121466 0.82196206 0.69501776
0.6123151 3.1378934 0.81511223 1.5507485 1.2858728 0.9661096 0.6297202 0.23979059
0.4882129 0.3141347 0.7341845 1.2907944 0.66204363 0.5659304 1.5389525 1.0149353
0.7653231 0.5581261 0.83061993 2.2922814 0.5186591 -0.1147692 0.8260219 0.85866416
0.80720204 1.0364306 0.341859 0.15847935 0.23624368 1.4936705 2.0527093 0.66358435
0.92726606 2.5935879 0.35899833 0.89617324 3.0005407 0.31302083 1.5615128 1.0615671
0.5000969 1.0653069 0.77922386 0.7963476 0.7990947 1.4745939 0.50624377 0.86218727
0.86445075 0.9719161 0.32056144 1.2399876 0.87536305 0.83288145 1.7768968 0.599663
0.823059 2.2387488 1.8809307 1.0815532 0.8449267 0.7481306 0.43883267 0.77069515
0.8837813 0.66646445 1.7068468 0.71064 0.7690728 0.91127807 1.0452383 0.49526215
0.9644886 1.5909269 0.61638397 0.4872556 1.7795943 1.8515183 0.6000596 0.4972497
0.8263219 1.8928766 0.9528 0.32096833 1.8357499 0.7368546 1.3473014 0.6006237
0.84655166 0.1999735 1.7162224 0.7975634 1.6156487 0.9063031 0.33238322 0.98268706
0.9037681 1.2121136 0.7511842 0.82824063 0.83272487 1.6221011 1.4434993 1.5412049
0.7347977 1.3858229 0.6990499 0.64967537 0.8913767 1.6275191 0.9549341 0.66991806
0.49444723 0.84930605 1.848272 0.8107485 0.811158 1.0881127 0.67389244 0.729067
0.8135802 0.5735348 1.248978 2.25955 0.8421863 1.387218 0.78447634 0.9028055
0.7932324 1.15785 1.6880665 1.5366023 1.3536863 0.4170842 1.2259014 0.928106
0.8438505 0.6409057 0.33949375 1.0312085 1.8077967 0.82192814 0.7191322 0.71330845
0.87429374 0.83709204 0.9208522 0.908671 2.472943 1.7962567 0.5743189 2.510554
0.5966883 0.9587842 0.3870297 0.37222266 0.80902404 0.41863126 2.0396445 0.7599593
0.83002126 0.41013363 0.7288385 0.97728896 1.1645446 0.33666152 0.7664082 0.49434325
0.8671129 0.89044714 2.1728458 1.009797 0.75794655 0.84955996 0.05088786 1.2598561
2.0766656 0.6732699 0.5399335 1.1954619 0.9448634 0.58517754 1.5134654 1.0090141
1.203708 0.72360855 0.48116028 0.7848006 2.105863 1.5590435 1.1196337 1.0456173
2.0967238 0.7072926 0.6562126 0.21611412 1.5651479 0.8480413 0.84006923 0.8486989
1.3654227 0.71128273 0.6082208 0.76265085 2.2117271 0.8226667 0.8776466 1.9743489

lins.0.0.bias f4 [256]
00000000: ee14 3abe 5cc7 83be f573 cebd f90e cfbe
00000010: 0de7 a3bd 65b4 18be e0a2 c7bd d022 643c
00000020: 56fa 70be b538 b1bd ca97 a1be d6aa 2dbe
00000030: 5f11 0fbe 12ce b0be 29d8 f7bb 7a4a 8bbe
00000040: 198b a4be eaeb 69be 71ca b33d 91f1 f9be
00000050: 6382 45be f610 11bf 3724 99be 22d2 26be
00000060: 46cf 40be c50f a0be 0f30 eabd 190e ebbe
00000070: 67a8 95be 0671 47be 5fcc 99be e956 ccbd
00000080: 1f23 64bd 792d 1ebf 6b58 9dbe 9bda b4be
00000090: 55ac 03be ff7c debe 298a b4be e247 07be
000000a0: 2717 8fbe 8e12 89be d815 b3bd ef15 1bbf
000000b0: a5fb 24be 6abd 1bbe 67af 8fbe f457 7fbe
000000c0: 73dc a0be 1368 47bd 1e6a d7be bb1c b2be
000000d0: 4d53 82be 4f5d 59be 6bed f9be 3727 16bf
000000e0: ec3f cdbe e03a f6be d560 f6be 8517 1fbe
000000f0: 139e dcbe 4628 07bf d499 5ebd 3f3c ac3c
00000100: b172 b5be 5b73 0bbf d442 f9be 8c48 8a3e
00000110: 33f8 d5be a14f 51bf 74f3 60be 1ba6 02be
00000120: 9b92 39be 4bd0 8ebe ea7c 03bf d49e 61bf
00000130: 5e5b f0be 6575 f9bd 4c83 ff3d 5489 a0be
00000140: d578 10be 05b6 2c3c ce89 e5be 1170 1ebe
00000150: 4cd8 39bc dd66 aebe 31a0 4c3e 82bf 6cbe
00000160: c6c1 86be a5f4 1bbe 6a36 a0be 1d4b c1be
00000170: c738 54be 5c13 54be 3bfd 06bf 3282 d0bd
00000180: 6e52 3bbe 96c1 16bf 144b 17bf 5de1 81bd
00000190: 025c 9dbe 8cdd 7abe caa2 d8bb ad54 87be
000001a0: fc78 3dbe 3535 2a3d 65ec dabd 50c5 74be
000001b0: c948 71be 92cd 72be 8210 ddbe 39b1 d7be
000001c0: eade 0dbe 6cd8 8ebe aeb0 5dbd 5235 cebe
000001d0: d2eb d0be e4f7 84be c41b 73be 4edb dfbe
000001e0: fd75 bcbe a99b 10be 6167 82be c79e acbe
000001f0: e4b3 3ebd 270d 133d 1af2 d5be 9bd3 b5be
00000200: 8fca 95be 65c9 dc3d e5a8 16be ca5a ccbe
00000210: abbb 07be 138d a8be 6629 f4bd 4118 8ebe
00000220: 60e3 1ebe cbd9 0bbf 2640 b4bc 09fb f7be
00000230: 2e40 4cbd cea2 353d d288 2abf d87a 5dbe
00000240: d4c6 28be ce55 b7bd ff0c 68be 5380 86be
00000250: 7110 96be d5e0 1fbd 239a ca3d cc64 53be
00000260: 7b1c 83be a3a6 0fbe d2b8 9ebe dc7a 85be
00000270: 69b5 cabe a0a8 223e 8f1d 7bbe a5f3 32be
00000280: 078b c5be 5493 66be 301d 2b3e bb10 48be
00000290: 61be 59be cb8a 81bd 78d5 08bf 7805 a7be
000002a0: 3485 a8be 5b63 1ebf 7e51 23be f8f8 a63d
000002b0: 64f5 19be fea7 69bd 3f9d 1ebe d21c c3be
000002c0: 044f 47be 0b59 7cbe 4d95 7dbd 8a6f b9bd
000002d0: ab42 01be fc69 b0be 898a 67bd 61e3 2dbe
000002e0: 104d 23be a00f bfbe 1de0 04bf 4fc7 13be
000002f0: 27ce 9d3e 18cc 34be 1e7d cabe 0d5a 91be
00000300: 63be 02be 5ab9 5abe 0653 4bbd a297 d9bd
00000310: db7f 083e 5274 6fbd 02bf ccbe 0d07 6f3d
00000320: 56fb e3be 77f0 04be 16e9 e3be 6333 e7be
00000330: ead3 35be 19ba 3dbf b21e 603d 93f3 79be
00000340: 55ba a5be cd4d 37bf ec73 8fbe 5f95 03bc
00000350: 06be 03be bae0 d7be 847a f7be a791 abbe
00000360: 2e1c 36be 929f 48bd e204 f53d 6f1b efbc
00000370: e695 cabe dfa2 4cbe f01d 93be a722 17be
00000380: 839e 433b 5a02 d7be 1f25 bcbe 4938 3ebe
00000390: 2b72 a7be 6340 d3be 7602 f6be 5f4c 94be
000003a0: 9769 c5be 4d8a aabe 85dc d0be da2b 57be
000003b0: 1f04 2b3e 35bb 03be 3f11 b2be 0b14 41be
000003c0: 23e6 01bd 0cf8 d1be e8e4 c5be 6177 dabe
000003d0: d073 7ebe 72ed 48be f399 2ebe d533 10be
000003e0: c533 15bd ce19 94be 45f3 d3be 2ea1 54be
000003f0: 29b0 0e3d 8985 b5be 1224 48be f0ab 2abd
-0.18172047 -0.25738037 -0.10080711 -0.4044111 -0.08003054 -0.14912565 -0.09747863 0.013924316
-0.23532996 -0.08653394 -0.31561118 -0.169597 -0.1397147 -0.3453222 -0.00756361 -0.2720526
-0.32137373 -0.228439 0.08778847 -0.48817113 -0.1928802 -0.56666505 -0.29910442 -0.16291097
-0.18829069 -0.3126203 -0.11434948 -0.45909193 -0.29230043 -0.19476709 -0.30038735 -0.09977514
-0.055697557 -0.61788136 -0.3073152 -0.35323033 -0.12858708 -0.4345474 -0.35261658 -0.13211015
-0.2794735 -0.2677197 -0.08744401 -0.60580343 -0.1611162 -0.15208974 -0.2806351 -0.24935895
-0.3141819 -0.048683237 -0.42073148 -0.34787545 -0.25454178 -0.21227 -0.48813948 -0.5865359
-0.4008783 -0.48091793 -0.48120752 -0.15536316 -0.4308935 -0.5279583 -0.05434592 0.021024821
-0.35439065 -0.54472893 -0.48683798 0.27008474 -0.41790923 -0.8176213 -0.2196787 -0.12758677
-0.18122332 -0.2789329 -0.5136248 -0.8813298 -0.46944708 -0.12180594 0.12476215 -0.31354773
-0.14108594 0.010541444 -0.448317 -0.15472437 -0.011343073 -0.34062853 0.19982983 -0.2311993
-0.26319712 -0.15230043 -0.31291515 -0.3775262 -0.20724784 -0.2071051 -0.5273015 -0.10181083
-0.18293163 -0.5888914 -0.59098935 -0.06341813 -0.3073426 -0.24498576 -0.006611203 -0.2643179
-0.18503183 0.04155465 -0.1068962 -0.23903394 -0.23562922 -0.23711231 -0.43176657 -0.42127398
-0.13854566 -0.27899492 -0.054123573 -0.40275055 -0.40804917 -0.25970376 -0.2374106 -0.43722004
-0.36808768 -0.1412188 -0.25469497 -0.33714887 -0.046558276 0.035901215 -0.4178627 -0.35513005
-0.29256102 0.107806005 -0.14712866 -0.39913017 -0.13255183 -0.3292013 -0.119219586 -0.2775288
-0.15516424 -0.546292 -0.022003245 -0.48433712 -0.049865894 0.044344716 -0.6661502 -0.21628892
-0.16482097 -0.08951913 -0.22661208 -0.2626978 -0.2930942 -0.039032776 0.098926805 -0.2064392
-0.25607666 -0.1402841 -0.31000382 -0.26070297 -0.3959153 0.15884638 -0.24522994 -0.17475756
-0.38582632 -0.22517139 0.16710353 -0.19537632 -0.2126403 -0.06325301 -0.5345073 -0.3262136
-0.32914126 -0.61870354 -0.15949056 0.08152956 -0.15035015 -0.057044975 -0.15489672 -0.38107926
-0.19463736 -0.24643342 -0.061909962 -0.090544775 -0.12623088 -0.3445586 -0.0565286 -0.1698127
-0.15947366 -0.37316608 -0.5190447 -0.14431499 0.30821344 -0.1765598 -0.39548582 -0.28389016
-0.1276794 -0.21359769 -0.049639724 -0.10624625 0.13330023 -0.05846054 -0.39989477 0.058356334
-0.44527692 -0.12982355 -0.44513768 -0.45156392 -0.1775662 -0.7411209 0.054716773 -0.24409322
-0.32368723 -0.7160309 -0.2801813 -0.008031218 -0.12865457 -0.4216364 -0.4833566 -0.3350956
-0.17784187 -0.048980303 0.11963822 -0.029187886 -0.39567488 -0.19984005 -0.28733778 -0.14759313
0.002984912 -0.41993982 -0.3674707 -0.18576159 -0.3270429 -0.4126006 -0.48048753 -0.28964517
-0.3855712 -0.3330864 -0.40793243 -0.21012822 0.16700791 -0.12864383 -0.34778783 -0.18855302
-0.031713616 -0.41009557 -0.38651204 -0.42669204 -0.24848866 -0.19621828 -0.17050914 -0.14082272
-0.036426324 -0.28925937 -0.41396537 -0.2076461 0.03483597 -0.35453442 -0.1954501 -0.04166788
