models/ogbl-collab_CN_2_1_0_run8_sigvae.pt (torch, 160127 bytes, 6 tensors)

z_embedding.weight f4 [1000, 32]
1.9263645 1.5012931 0.9205816 -2.1078646 0.67073447 -1.1717311 -0.09433807 -1.5851606
-0.7200793 1.6395228 -0.3588711 -1.3742948 -0.7502802 -0.55941725 -0.6937878 0.7953208
1.5870537 -0.11582855 -0.4471188 0.369911 -0.752443 1.0368567 0.8349862 1.7093642
1.2719674 1.2434726 0.600832 1.3088057 -0.20211427 0.033048842 -0.26485804 0.8112221
-2.7666903 -2.6673489 -1.1146126 2.539128 0.88482755 -0.14905313 1.6534956 -1.5665694
-2.160912 0.9841262 -2.1649399 -1.0636042 -2.219874 3.4844904 -2.382078 -0.72112834
-1.1623086 -1.9611663 -0.33160672 1.9804059 -0.9299613 1.9503322 -2.3617737 -1.061256
-3.6059942 -1.0565835 -0.5072227 1.8279748 0.5449253 2.6740718 -2.02814 2.2494771
1.4451338 0.85641253 2.2180758 0.5231655 0.34664667 -0.19733144 -1.0545889 1.2779956
-0.17219013 0.52378845 0.05662182 0.42629614 0.57500505 -0.6417241 -2.2063985 -0.75080305
0.010868144 -0.33874235 -1.3406795 -0.58537054 0.5361881 0.5246226 1.1412016 0.051643595
0.743952 -0.4815844 -1.0494661 0.6038988 -1.722295 -0.82776886 1.334703 0.48353928
-2.5095444 0.48800105 0.78458685 0.028647186 0.6407553 0.5832474 1.0669267 -0.45015338
-0.18526748 0.75275886 0.4047578 0.17846599 0.2649095 1.2731683 -0.0013108636 -0.30360377
-1.4570291 -0.10233524 -0.59915304 0.4770564 0.7261772 0.09115186 -0.3890652 0.5279165
-0.012685479 0.24083632 0.13253537 0.7642406 1.0950097 0.33989096 0.7199675 0.41140762
1.9311606 1.0118638 -1.4364065 -1.1298598 -0.13603453 1.6354096 0.65474075 0.57600456
1.141508 0.018564576 -1.8058051 0.9254349 -0.37534437 1.0330874 -0.68665093 0.63681364
-0.9726739 0.95845777 1.6192005 1.4506098 0.26948154 -0.21037598 -0.73280275 0.10429783
0.3487517 0.96759415 -0.46568844 1.6047972 -2.4801202 -0.41754374 -1.1954538 0.8123369
-1.9005532 0.22857653 0.024859404 -0.34595025 0.2868328 -0.7308424 0.17482026 -1.0939293
-1.6021603 1.3528969 1.2888277 0.052295472 -1.5468504 0.75670606 0.7755195 2.0265355
0.035817612 0.12058873 -0.8056637 -0.20757683 -0.9319478 -1.5909662 -1.1359757 -0.5225976
-0.5187733 -1.5012764 -1.9266542 0.12785123 1.0229133 -0.55579513 0.70427275 0.709876
1.7743884 -0.921551 0.9624499 -0.33701515 -1.1753336 0.35805708 0.4787679 1.3537
0.5260621 2.112038 -0.52075714 -0.9320061 0.18516134 1.0686918 1.3065344 0.45983452
-0.8146269 -1.0212393 -0.49492356 -0.59225166 0.15431595 0.44076708 -0.1482923 -2.3184433
-0.39799532 1.0804863 -1.7808644 1.5080454 0.30942854 -0.50030905 1.0350032 1.6896471
-0.0045050518 1.6667924 0.15392017 -1.060253 -0.5726576 0.08356804 0.39990535 1.9892071
-0.07198751 -0.9060945 -2.0487123 -1.0810555 0.01762308 0.078225985 0.1931583 0.40967342
-0.9291303 0.27619088 -0.5388753 0.46258232 -0.8718891 -0.02711836 -0.35324576 1.4638569
1.2554343 -0.7149558 0.8539193 0.5129912 0.539731 0.565505 0.5057917 0.22245365
00000000: 1d93 f63f 5f2a c03f 3cab 6b3f 41e7 06c0
00000010: 41b5 2b3f 49fb 95bf 5134 c1bd 8be6 cabf
00000020: 1e57 38bf e2db d13f f4bd b7be e4e8 afbf
00000030: 5d12 40bf f835 0fbf 149c 31bf 259a 4b3f
00000040: 9324 cb3f 8537 edbd c1ec e4be f964 bd3e
00000050: 1ba0 40bf b8b7 843f a8c1 553f 72cc da3f
00000060: d4cf a23f 1c2a 9f3f 20d0 193f f286 a73f
00000070: 0bf7 4ebe 395e 073d 799b 87be 40ac 4f3f
00000080: 7411 31c0 d8b5 2ac0 a0ab 8ebf 1381 2240
00000090: 0f84 623f 62a1 18be bea5 d33f 5985 c8bf
000000a0: 624c 0ac0 b2ef 7b3f 608e 0ac0 2f24 88bf
000000b0: 6a12 0ec0 e401 5f40 f773 18c0 de9b 38bf
000000c0: 87c6 94bf 7f07 fbbf 5bc8 a9be f17d fd3f
000000d0: f211 6ebf 7ca4 f93f 4d27 17c0 3dd7 87bf
000000e0: 9cc8 66c0 213e 87bf 59d9 01bf 14fb e93f
000000f0: 3980 0b3f fe23 2b40 0ccd 01c0 6ff7 0f40
00000100: 25fa b83f da3d 5b3f f4f4 0d40 2dee 053f
00000110: ac7b b13e 4111 4abe c5fc 86bf 5c95 a33f
00000120: 9c52 30be 0017 063f 48ec 673d 7d43 da3e
00000130: 8833 133f 0848 24bf a235 0dc0 a134 40bf
00000140: 4d10 323c a36f adbe 639b abbf d8da 15bf
00000150: a043 093f ab4d 063f e512 923f 3c88 533d
00000160: a373 3e3f 3b92 f6be e854 86bf 1d99 1a3f
00000170: 2a74 dcbf a9e8 53bf 8cd7 aa3f 7692 f73e
00000180: 609c 20c0 46db f93e afda 483f 81ad ea3c
00000190: 8a08 243f b44f 153f 0e91 883f 817a e6be
000001a0: c2b6 3dbe ceb4 403f 6a3c cf3e cabf 363e
000001b0: 38a2 873e 2ef7 a23f 49d1 abba f471 9bbe
000001c0: ee7f babf 2395 d1bd 1862 19bf bd40 f43e
000001d0: c0e6 393f d4ad ba3d 8e33 c7be 8925 073f
000001e0: c1d6 4fbc cc9d 763e 5ab7 073e 46a5 433f
000001f0: 4729 8c3f 3006 ae3e ca4f 383f 05a4 d23e
00000200: 4530 f73f c184 813f 2bdc b7bf 3f9f 90bf
00000210: a34c 0bbe 1a55 d13f 179d 273f 0975 133f
00000220: ef1c 923f bd14 983c 9f24 e7bf 4de9 6c3f
00000230: 232d c0be 353c 843f 5bc8 2fbf 3806 233f
00000240: 2801 79bf 7d5d 753f f641 cf3f 95ad b93f
00000250: 7cf9 893e cd6c 57be f698 3bbf 1a9a d53d
00000260: 958f b23e 40b4 773f b76e eebe ff69 cd3f
00000270: 4aba 1ec0 4bc8 d5be a104 99bf 50f5 4f3f
00000280: 5445 f3bf f70f 6a3e f3a5 cb3c 6420 b1be
00000290: c0db 923e 7d18 3bbf 1504 333e e005 8cbf
000002a0: 9713 cdbf ba2b ad3f 4ef8 a43f c733 563d
000002b0: 32ff c5bf 7db7 413f 7288 463f c2b2 0140
000002c0: 7db5 123d 39f7 f63d fa3f 4ebf 058f 54be
000002d0: 2294 6ebf c8a4 cbbf a767 91bf f5c8 05bf
000002e0: 54ce 04bf d329 c0bf 9b9c f6bf 6feb 023e
000002f0: d3ee 823f 9748 0ebf 384b 343f 6fba 353f
00000300: 291f e33f c4ea 6bbf 1e63 763f 408d acbe
00000310: 5571 96bf 4253 b73e 1121 f53e 0b46 ad3f
00000320: 01ac 063f a12b 0740 5750 05bf f497 6ebf
00000330: ef9a 3d3e e5ca 883f 853c a73f 6e6f eb3e
00000340: 638b 50bf f8b7 82bf 9f66 fdbe ce9d 17bf
00000350: 0005 1e3e 39ac e13e f0d9 17be 6061 14c0
00000360: 0bc6 cbbe 604d 8a3f 5df3 e3bf a207 c13f
00000370: 6b6d 9e3e 4114 00bf fc7a 843f 5b46 d83f
00000380: 1d9f 93bb 7459 d53f 409d 1d3e 5fb6 87bf
00000390: b099 12bf b825 ab3d 65c0 cc3e 579e fe3f
000003a0: 306e 93bd cff5 67bf 1a1e 03c0 0760 8abf
000003b0: 475e 903c f234 a03d 4acb 453e b7c0 d13e
000003c0: 7cdb 6dbf e468 8d3e bbf3 09bf 97d7 ec3e
000003d0: 2034 5fbf 5327 debc a1dc b4be aa5f bb3f
000003e0: 12b2 a03f 5807 37bf 759a 5a3f 6453 033f
000003f0: d02b 0a3f f0c4 103f 917b 013f e4ca 633e

gce.weight f4 [32, 32]
-0.13416539 0.2546142 -0.29581755 0.045288563 0.23770444 0.19164617 0.11402158 0.29239976
0.031761143 0.37988004 0.27206874 0.23923889 -0.39577618 0.042590123 0.15950492 0.16262928
0.12180162 -0.36788887 -0.09427004 -0.0875897 -0.2044228 0.19151321 0.24991629 0.07272253
-0.18641141 0.115541786 0.0015435739 -0.3161318 -0.16314049 0.103452325 0.020506496 -0.020186799
0.23815782 -0.11735072 0.07387522 -0.24670029 -0.08401404 0.09697691 0.3053266 0.28655002
-0.00638486 -0.20270567 -0.12601914 -0.030501176 -0.14570089 -0.20585065 0.52344245 0.28183144
-0.25569993 -0.24116893 0.066229865 0.2672385 0.21120484 -0.28952643 0.32420066 0.23521069
0.1976777 -0.008172184 -0.17969875 -0.13476382 0.20387335 0.21954277 0.2626587 -0.11915864
0.2361671 0.23869582 0.18890686 -0.3593846 -0.3806248 0.35569057 -0.025383834 0.0618053
0.20690984 0.19832161 0.04577228 -0.04502507 0.003464438 -0.19012146 0.4612355 0.2987934
-0.20673591 -0.20371246 -0.2100525 0.36268017 -0.27333122 -0.0366938 0.37155735 0.029121337
-0.13500635 -0.020460403 0.13318327 -0.1190298 -0.43455768 -0.12772976 0.19896628 0.031833485
-0.387194 0.11397455 0.030435618 0.20332703 0.49407265 -0.24767007 0.11489861 -0.034993134
0.33506915 0.24967872 0.14316513 -0.37063387 -0.046691705 -0.03045915 -0.4090838 0.2678828
0.050036617 0.36823994 -0.040626217 0.08401028 -0.40797612 -0.022740781 -0.0116137685 -0.25229934
0.12902406 -0.10707012 0.10414797 -0.32382017 -0.08023627 -0.23424228 -0.120199874 -0.0010093165
0.049313325 -0.22154766 -0.18630564 0.33000168 0.39354688 -0.044624913 -0.22087213 0.057959374
0.17637601 0.09872839 -0.2668632 -0.3155503 0.045259327 -0.07639303 -0.115914226 0.15093878
0.29479262 0.49659383 -0.20126009 0.17370868 -0.23722982 0.26360887 -0.18420823 -0.044978503
0.18828851 0.018162843 0.04660531 -0.23468731 -0.07327133 -0.13181897 0.37447348 0.18504795
0.1441178 -0.2932588 -0.107720666 0.28201577 0.018519469 -0.33278027 0.06087277 0.25544122
0.20890695 0.2868939 -0.07460812 0.30398023 -0.035840582 -0.0837705 0.4310192 0.117546454
-0.11496719 0.24197404 -0.14225689 0.070054844 -0.21906821 -0.02413187 -0.011626175 -0.08208216
0.18247207 0.0529951 -0.017294323 0.1777179 -0.27868447 0.15397121 0.26377946 -0.09284254
-0.12261896 0.06766871 -0.34327024 0.39556742 0.34762582 -0.20291084 -0.07344969 -0.44039294
-0.30620852 0.15515262 -0.12711759 0.025094816 0.22365892 0.15368368 -0.059092566 -0.24958105
-0.12525268 0.5606216 -0.38485914 0.30363086 0.34453475 -0.18235834 -0.053877488 -0.2953574
0.27329963 0.055962306 0.08046045 -0.052794963 0.37615576 0.02151001 0.3340759 -0.003668385
0.06418558 0.13844386 -0.040225737 0.06044573 -0.283904 -0.11926609 0.008892756 -0.37139025
0.20934594 0.24250042 -0.07870227 0.19141884 -0.4323202 -0.30999824 0.4058755 0.1336268
0.05452328 -0.15851459 0.29594696 0.14810307 0.031851146 0.25825816 -0.08282523 -0.3603525
0.22103928 0.17940281 -0.0112914005 0.090359874 -0.041149046 0.052756026 -0.10000861 0.18588926
00000000: a762 09be cb5c 823e 6675 97be 8080 393d
00000010: cb68 733e e53e 443e 2584 e93d 6cb5 953e
00000020: f917 023d a37f c23e 984c 8b3e 0afb 743e
00000030: 2da3 cabe fb72 2e3d 4255 233e 4a88 263e
00000040: 2173 f93d ee5b bcbe a710 c1bd 3b62 b3bd
00000050: 3654 51be 0a1c 443e 0eea 7f3e 8def 943d
00000060: a2e2 3ebe 2ca1 ec3d bf51 ca3a 07dc a1be
00000070: 4d0e 27be d0de d33d 3dfd a73c c95e a5bc
00000080: a5df 733e 9355 f0bd e44b 973d 009f 7cbe
00000090: 8e0f acbd d59b c63d c553 9c3e afb6 923e
000000a0: 1638 d1bb 1392 4fbe 290b 01be 9add f9bc
000000b0: 9d32 15be 83ca 52be 5300 063f 364c 903e
000000c0: 1aeb 82be fdf4 76be 86a3 873d 7cd3 883e
000000d0: 1546 583e cf3c 94be a1fd a53e 12db 703e
000000e0: 066c 4a3e a0e4 05bc f302 38be 87ff 09be
000000f0: 2dc4 503e d2cf 603e 337b 863e 7209 f4bd
00000100: cad5 713e ad6c 743e cd70 413e 4201 b8be
00000110: 41e1 c2be 131d b63e c2f1 cfbc 8e27 7d3d
00000120: 2ce0 533e d214 4b3e b77b 3b3d 356c 38bd
00000130: a00b 633b 33af 42be 0f27 ec3e 73fb 983e
00000140: 94b2 53be 009a 50be 0118 57be 37b1 b93e
00000150: 12f2 8bbe 3d4c 16bd c43c be3e df8f ee3c
00000160: 1b3f 0abe 939c a7bc 3261 083e e5c5 f3bd
00000170: 587e debe 97cb 02be d1bd 4b3e d463 023d
00000180: 4b3e c6be 7d6b e93d 1e54 f93c f634 503e
00000190: 17f7 fc3e 399d 7dbe f64f eb3d f654 0fbd
000001a0: 2f8e ab3e c7ab 7f3e e199 123e b9c3 bdbe
000001b0: cd3f 3fbd 7885 f9bc 6f73 d1be ef27 893e
000001c0: 32f3 4c3d f289 bc3e ad67 26bd 950d ac3d
000001d0: 3fe2 d0be e04a babc ad47 3ebc 612d 81be
000001e0: e21e 043e 9447 dbbd 884b d53d c2cb a5be
000001f0: ea52 a4bd 35dd 6fbe 5a2b f6bd 0b4b 84ba
00000200: c5fc 493d 64dd 62be e8c6 3ebe fbf5 a83e
00000210: fa7e c93e 9dc8 36bd 4e2c 62be cf66 6d3d
00000220: ea9b 343e 1c32 ca3d 4ba2 88be cf8f a1be
00000230: d861 393d f373 9cbd 7064 edbd b28f 1a3e
00000240: 0fef 963e 8c41 fe3e 2017 4ebe b0e0 313e
00000250: 60ec 72be bef7 863e 15a1 3cbe 613b 38bd
00000260: b4ce 403e 3eca 943c 36e5 3e3d df51 70be
00000270: 470f 96bd 8dfb 06be fdba bf3e 367d 3d3e
00000280: 9e93 133e 0426 96be a79c dcbd 5f64 903e
00000290: 24b6 973c 2d62 aabe ba55 793d 31c9 823e
000002a0: b4eb 553e c2e3 923e 24cc 98bd 4ca3 9b3e
000002b0: 93cd 12bd de8f abbd 8cae dc3e 32bc f03d
000002c0: eb73 ebbd 0bc8 773e caab 11be ea78 8f3d
000002d0: 6b53 60be 33b0 c5bc b67b 3ebc b11a a8bd
000002e0: f5d9 3a3e 6411 593d d3ac 8dbc aefb 353e
000002f0: bbaf 8ebe a1aa 1d3e 1a0e 873e 3b24 bebd
00000300: a61f fbbd e595 8a3d 1ec1 afbe d087 ca3e
00000310: 03fc b13e dcc7 4fbe cb6c 96bd 2f7b e1be
00000320: 5dc7 9cbe 54e0 1e3e 1d2b 02be a593 cd3c
00000330: d806 653e 415f 1d3e 0c0b 72bd 2d92 7fbe
00000340: 3d42 00be e684 0f3f 420c c5be 8175 9b3e
00000350: dc66 b03e 25bc 3abe a4ae 5cbd 1639 97be
00000360: eeed 8b3e bb38 653d 73c8 a43d 883f 58bd
00000370: 7d97 c03e c335 b03c ff0b ab3e 4a69 70bb
00000380: bb73 833d 3ac4 0d3e bec3 24bd f195 773d
00000390: dd5b 91be c841 f4bd ecb2 113c dd26 bebe
000003a0: c85e 563e 0852 783e a82e a1bd 4d03 443e
000003b0: 1359 ddbe 17b8 9ebe eace cf3e 77d5 083e
000003c0: ce53 5f3d a651 22be 5c86 973e 55a8 173e
000003d0: 5976 023d 6a3a 843e 46a0 a9bd 1f80 b8be
000003e0: 1f58 623e 5fb5 373e 91ff 38bc 990e b93d
000003f0: e78b 28bd b416 583d 50d1 ccbd c159 3e3e

gc1.weight f4 [160, 32]
-0.030416684 -0.06529119 0.08410403 -0.067180105 -0.100492746 0.030687638 -0.025995072 -0.20839725
-0.39207876 0.12768616 0.07092632 0.0025624705 -0.07131008 -0.09976168 0.02007389 -0.16375692
-0.21212848 0.019181225 -0.018377602 -0.22155707 0.18535776 -0.102799475 0.047908638 -0.07927838
0.294746 -0.25803548 0.027528172 0.07041271 -0.21672948 -0.03587147 -0.24813809 -0.010088109
0.19000034 0.004619446 -0.21800399 0.067601345 0.02426687 0.012229021 -0.23519787 0.27089605
0.6608402 0.2029903 0.0072753318 0.015731769 -0.08420432 0.16450214 -0.048208386 -0.09089229
0.20128934 -0.08533539 -0.08267653 0.16780001 -0.34373033 0.33842376 -0.39491317 0.49882513
0.011101734 -0.105123386 0.04281204 0.19931678 -0.16582002 0.23152067 0.30802795 -0.7627599
0.13632107 -0.15851034 0.0134361815 0.114870586 0.08161695 -0.06824577 0.27177635 -0.25090966
-0.020942952 -0.15857217 -0.026236428 -0.23036548 0.08118765 -0.07400874 -0.15633462 -0.066661246
-0.044173278 0.07414531 0.044967115 0.14723246 -0.049176775 0.13213012 -0.17152354 -0.28185794
0.17730708 -0.21380103 -0.09294161 0.03716865 -0.043514814 0.088093504 -0.06700682 0.09595967
-0.41522586 -0.043082926 -0.20077989 0.120371126 -0.07201982 0.093013145 -0.23138842 0.21233118
0.3655584 -0.015947714 0.008069102 -0.12128584 -0.32786864 -0.031962186 0.05126083 0.03397272
0.074300975 -0.08082945 -0.24162112 -0.17441149 -0.09468053 0.016536081 -0.21123129 0.18756685
-0.12200667 -0.47829533 -0.022861166 0.2566305 -0.13713679 0.113672815 0.20093216 -0.43438005
0.009353823 0.074029095 0.19955935 -0.015250639 -0.12565735 -0.039692 0.027691552 0.08521795
-0.059847016 0.15123112 0.21772893 0.33850485 -0.112634405 -0.04263454 -0.043925676 0.28482112
0.09567031 0.09100785 -0.37872425 0.07852917 0.30890557 -0.060405403 -0.072412886 -0.15677787
-0.077956036 0.12489482 0.2533996 -0.028997317 0.095629744 0.16071752 -0.24263486 -0.12260085
0.07019513 -0.47069022 -0.010234333 0.034300018 0.08426126 -0.19106613 -0.12254032 0.49918807
0.041106414 -0.21195683 0.08845072 -0.5091019 -0.010157205 0.11062649 -0.1136766 0.1593191
0.27985957 -0.015638037 0.16231835 -0.08766029 -0.24114928 0.105018646 -0.032757025 0.28020906
-0.11969919 -0.5748508 -0.34486336 -0.4053349 -0.4963183 0.012789766 0.22870785 -0.22564474
0.027245635 0.050796386 0.12878759 -0.01093525 0.010892659 0.08951818 0.02499083 0.10156746
-0.07106588 0.05033568 -0.15114199 0.10610367 0.015418031 -0.037270583 0.16924815 0.07093318
-0.009693106 -0.038454346 0.14856824 -0.0025698328 -0.02879398 -0.015206675 -0.061352156 -0.11048985
0.033864897 -0.0985672 -0.0663248 0.07735757 -0.16841173 -0.0794101 -0.123941876 0.038026057
-0.07125957 -0.15517335 0.26712948 -0.022240685 0.10620134 0.23481035 0.18889245 -0.021836085
-0.12206125 -0.040676262 0.031158507 0.1138384 -0.16326462 0.05655044 -0.11743494 0.07915127
-0.15875888 0.047212727 -0.036886822 -0.09776163 -0.078861415 -0.059397124 0.035385355 0.11446607
0.13620397 -0.022607075 -0.085281044 0.2768105 -0.19008482 -0.032921247 -0.03322911 0.0044546113
00000000: 692c f9bc 63b7 85bd bc3e ac3d b995 89bd
00000010: 24cf cdbd a464 fb3c 9ef3 d4bc 1766 55be
00000020: 8cbe c8be 29c0 023e d241 913d 1fef 273b
00000030: 050b 92bd da4f ccbd 0072 a43c e5af 27be
00000040: 3538 59be f221 9d3c a08c 96bc dbdf 62be
00000050: 6dce 3d3e 8888 d2bd d93b 443d b45c a2bd
00000060: f3e8 963e 3a1d 84be c382 e13c 8a34 903d
00000070: 55ee 5dbe f6ed 12bd e917 7ebe 9948 25bc
00000080: 738f 423e b95e 973b 703c 5fbe 9372 8a3d
00000090: 51cb c63c 3b5c 483c b6d7 70be e3b2 8a3e
000000a0: d32c 293f b0dc 4f3e e865 ee3b e9df 803c
000000b0: 5173 acbd 4073 283e 2876 45bd bd25 babd
000000c0: cb1e 4e3e 52c4 aebd 5052 a9bd c4d3 2b3e
000000d0: 6cfd afbe e145 ad3e 0f32 cabe 0266 ff3e
000000e0: 0ce4 353c ee4a d7bd ad5b 2f3d b319 4c3e
000000f0: b9cc 29be c113 6d3e d7b5 9d3e 3c44 43bf
00000100: c097 0b3e 8950 22be 6e23 5c3c 4541 eb3d
00000110: ca26 a73d 70c4 8bbd 4526 8b3e 3b77 80be
00000120: 8e90 abbc be60 22be c7ed d6bc eee4 6bbe
00000130: b645 a63d e591 97bd 2f16 20be b185 88bd
00000140: 0aef 34bd 7fd9 973d 702f 383d 1bc4 163e
00000150: 966d 49bd 1e4d 073e dea3 2fbe af4f 90be
00000160: fd8f 353e a8ee 5abe 2c58 bebd 283e 183d
00000170: 973c 32bd 5e6a b43d df3a 89bd 8186 c43d
00000180: 7c98 d4be b977 30bd 3e99 4dbe 2385 f63d
00000190: 217f 93bd ad7d be3d 16f1 6cbe 586d 593e
000001a0: 782a bb3e c8a4 82bc 4434 043c b664 f8bd
000001b0: 66de a7be c8ea 02bd e0f6 513d fb26 0b3d
000001c0: 1c2b 983d e989 a5bd 876b 77be ed98 32be
000001d0: dee7 c1bd ad76 873c 044d 58be 8611 403e
000001e0: a2de f9bd 20e3 f4be 5747 bbbc 1365 833e
000001f0: 966d 0cbe 4bcd e83d 29c1 4d3e 1067 debe
00000200: c740 193c 919c 973d 4959 4c3e d1dd 79bc
00000210: 52ac 00be 1494 22bd 65d9 e23c c086 ae3d
00000220: 2522 75bd 55dc 1a3e 55f4 5e3e 8250 ad3e
00000230: deac e6bd 8ea1 2ebd 69eb 33bd 13d4 913e
00000240: ccee c33d 5362 ba3d 25e8 c1be e7d3 a03d
00000250: df28 9e3e a86b 77bd 354d 94bd 618a 20be
00000260: 6aa7 9fbd dbc8 ff3d 98bd 813e c88b edbc
00000270: 87d9 c33d 2293 243e 4675 78be 2816 fbbd
00000280: 77c2 8f3d 4ffe f0be e7ad 27bc 2d7e 0c3d
00000290: 2b91 ac3d d7a6 43be 6bf6 fabd 9495 ff3e
000002a0: 335f 283d 360b 59be a725 b53d 8154 02bf
000002b0: 686a 26bc 2490 e23d 47cf e8bd 8c24 233e
000002c0: c149 8f3e 571b 80bc c836 263e 3d87 b3bd
000002d0: d6ef 76be 0414 d73d 3b2c 06bd 9077 8f3e
000002e0: d924 f5bd 6c29 13bf ee91 b0be 0e88 cfbe
000002f0: 6f1d febe 2b8c 513c 6432 6a3e 6a0f 67be
00000300: 3d32 df3c df0f 503d e5e0 033e c329 33bc
00000310: 2077 323c 4f55 b73d 92b9 cc3c 9a02 d03d
00000320: fd8a 91bd c92c 4e3d f7c4 1abe e24c d93d
00000330: e99b 7c3c 0aa9 18bd 634f 2d3e 6a45 913d
00000340: d5cf 1ebc 4e82 1dbd 4622 183e a46a 28bb
00000350: 5ae1 ebbc 6b25 79bc 664c 7bbd 8148 e2bd
00000360: ebb5 0a3d 9add c9bd 4cd5 87bd a56d 9e3d
00000370: 2074 2cbe c3a1 a2bd 3dd5 fdbd 36c1 1b3d
00000380: 8af0 91bd c3e5 1ebe 32c5 883e 1932 b6bc
00000390: 1780 d93d 2072 703e 066d 413e 97e1 b2bc
000003a0: 40fb f9bd 279c 26bd 2040 ff3c 1b24 e93d
000003b0: d72e 27be 6fa1 673d bb81 f0bd 101a a23d
000003c0: b091 22be 2262 413d a316 17bd 4037 c8bd
000003d0: 1882 a1bd 664a 73bd 3cf0 103d 306d ea3d
000003e0: 0e79 0b3e 7932 b9bc d4a7 aebd 1bba 8d3e
000003f0: 98a5 42be 6ed8 06bd 3f1b 08bd fdf7 913b

gc2.weight f4 [32, 16]
-0.572527 0.0748059 0.22319926 0.08740779 0.7018377 0.38046744 0.5471098 -0.27937165
0.99129647 -0.04378955 0.47804016 -1.3769088 -0.1688698 0.10282425 0.22871621 0.38413692
1.0799229 0.39565033 -0.6557875 0.0005891246 0.048187908 0.65023845 0.14086626 -0.035847954
-0.9435005 -0.008356266 0.7760453 -0.25892878 0.16606216 0.60885155 -1.162421 -0.030507982
0.34625673 -0.06738787 -0.2586959 -0.14340886 -0.17812286 0.04283118 0.050510965 0.06703516
-0.18134953 -0.07050974 0.3551283 0.19848928 0.18363723 -0.2864315 0.34292445 0.36618385
-0.32826573 -0.79589117 0.19633642 -0.40013927 0.10700726 -0.23963185 0.38500977 -0.22581594
0.102254525 -0.27413675 -0.32047668 0.437139 0.31223595 -0.36267105 0.037455563 0.20050548
0.17043146 -0.36523548 0.07563663 0.07681801 0.16949452 -0.4923859 0.12783635 -0.27532452
-0.20518167 0.1762442 0.34625715 0.1423409 -0.12713297 0.3568431 -0.28548327 0.02688794
-1.7109567 0.8024901 0.66548 2.0639012 0.4632901 -0.22370511 0.42102513 0.28648624
-0.17379601 0.64691824 -0.79683506 0.24803935 0.12549251 0.34194425 0.09880082 -0.37202954
-0.38420582 0.6061593 -0.075772606 0.398544 -0.013742737 0.05767379 0.38513654 0.20249097
-0.55080384 -0.072547816 0.056794956 0.30011022 0.42595625 0.082212135 0.3317838 -0.30176935
0.24598068 0.3553752 0.41701037 -0.41894093 0.0035231132 0.37155622 -0.0076560955 -0.119607635
0.4202421 0.108163975 -0.11370478 -0.56799525 -0.43955663 -0.12005563 -0.31921405 0.17973013
0.019569298 0.2672902 -0.28301185 0.59050894 0.0968882 -0.6728647 0.07582676 0.12964658
-0.40875465 -0.056058 -0.1951922 0.3338853 0.52385247 0.25981778 -1.197128 -0.1206772
-0.27515566 0.16802613 0.35686117 -0.5223597 -0.6837447 -0.39283827 0.78233993 0.69955516
-0.8256824 0.9881091 -0.38865462 -0.55447173 1.1486734 0.28602755 -0.5959432 0.21958697
-0.19512968 0.3105672 0.3039436 -0.3014805 -0.12703653 0.41325164 -0.2094318 -0.35190067
0.3480516 -0.29057443 0.081121385 -0.14056976 -0.37563542 -0.23218164 0.17365035 0.06408437
-0.5604909 -0.21637529 -0.65799725 0.09074585 0.7852325 0.31955248 -0.97990495 -0.92771786
1.1711746 -0.65446234 0.7516084 1.0514463 -1.1316427 -0.99709046 0.2534567 0.015654152
0.1160911 -0.39093322 1.431469 0.002340605 0.71569395 -0.061737105 0.9243403 1.0920857
-0.16720507 1.1748416 0.25969023 -0.24155907 0.27933162 0.62922823 -1.1892691 -0.23158859
0.5840982 -0.20190829 -0.11517043 -0.1524725 -0.8920016 0.5919734 -0.63521165 -0.2815988
0.2512082 -0.5026347 0.104459964 -0.5616257 -0.56659275 -0.4224701 0.45000046 0.41853464
0.44020286 3.4191215 -2.0703022 -2.1918464 3.4352791 -3.8098898 0.5460812 1.2785982
0.928452 -0.13590845 -0.33824605 -0.98262954 0.0853039 0.22169878 -0.39876086 -1.0033693
0.41954228 0.28850558 -0.2928678 -0.58686 -0.9015554 -0.026520109 0.02798812 -0.086678036
0.25075042 -0.27836087 0.063320056 -0.40431315 -0.05419979 -0.47083932 0.15054084 0.5765052
00000000: 2191 12bf d633 993d 598e 643e db02 b33d
00000010: a3ab 333f a1cc c23e 630f 0c3f cd09 8fbe
00000020: 9bc5 7d3f ac5c 33bd aec1 f43e 8c3e b0bf
00000030: 34ec 2cbe 8595 d23d 9534 6a3e 98ad c43e
00000040: ea3a 8a3f ae92 ca3e b1e1 27bf 7c6f 1a3a
00000050: af60 453d 0776 263f 3f3f 103e 4ed5 12bd
00000060: 4089 71bf b8e8 08bc e8aa 463f 5092 84be
00000070: 330c 2a3e b2dd 1b3f 36ca 94bf e0eb f9bc
00000080: 9048 b13e a702 8abd ca73 84be c6d9 12be
00000090: d765 36be bf6f 2f3d 96e4 4e3d bb49 893d
000000a0: b1b3 39be 6967 90bd 60d3 b53e c640 4b3e
000000b0: 660b 3c3e 26a7 92be cb93 af3e 737c bb3e
000000c0: 7212 a8be 86bf 4bbf 6a0c 493e 0edf ccbe
000000d0: 9f26 db3d 0d62 75be 0020 c53e 4b3c 67be
000000e0: d26a d13d a75b 8cbe 8515 a4be afd0 df3e
000000f0: 64dd 9f3e 05b0 b9be 016b 193d 4f51 4d3e
00000100: 9685 2e3e 2500 bbbe 61e7 9a3d c352 9d3d
00000110: f98f 2d3e 011a fcbe 88e7 023e 56f7 8cbe
00000120: 251b 52be 5c79 343e 9e48 b13e d0c1 113e
00000130: 252f 02be 24b4 b63e dd2a 92be 1944 dc3c
00000140: a100 dbbf fe6f 4d3f e65c 2a3f f516 0440
00000150: 5c34 ed3e f412 65be 9b90 d73e 53ae 923e
00000160: 95f7 31be 6f9c 253f 62fd 4bbf 07fe 7d3e
00000170: 1c81 003e 5113 af3e 1658 ca3d a87a bebe
00000180: a0b6 c4be 422d 1b3f ab2e 9bbd f60d cc3e
00000190: 3729 61bc 5a3b 6c3d 9e30 c53e cb59 4f3e
000001a0: 7b01 0dbf f393 94bd d4a1 683d 0ca8 993e
000001b0: f016 da3e d65e a83d 91df a93e 8381 9abe
000001c0: 5ce2 7b3e bdf3 b53e 6282 d53e 6d7f d6be
000001d0: 08e4 663b 9e3c be3e fcdf fabb d9f4 f4bd
000001e0: f929 d73e 1385 dd3d 0dde e8bd 2368 11bf
000001f0: 910d e1be badf f5bd 0670 a3be 2d0b 383e
00000200: cb4f a03c 43da 883e eee6 90be 982b 173f
00000210: 526d c63d dc40 2cbf 0f4b 9b3d 13c2 043e
00000220: 4a48 d1be 139d 65bd 77e0 47be 04f3 aa3e
00000230: 321b 063f d606 853e 7e3b 99bf 9c25 f7bd
00000240: 34e1 8cbe 0b0f 2c3e 82b6 b63e 5eb9 05bf
00000250: e509 2fbf 1922 c9be 6e47 483f 0c16 333f
00000260: ec5f 53bf b8f4 7c3f bdfd c6be dcf1 0dbf
00000270: bb07 933f 3472 923e bc8f 18bf 68db 603e
00000280: 13d0 47be aa02 9f3e 7f9e 9b3e a75b 9abe
00000290: dd15 02be b895 d33e 4a75 56be 532c b4be
000002a0: d233 b23e 2cc6 94be f822 a63d 85f1 0fbe
000002b0: 4953 c0be 06c1 6dbe 66d1 313e ab3e 833d
000002c0: 557c 0fbf 7c91 5dbe 8272 28bf f6d8 b93d
000002d0: ff04 493f 629c a33e 0ddb 7abf eb7e 6dbf
000002e0: 0de9 953f d88a 27bf 6869 403f cb95 863f
000002f0: abd9 90bf 5241 7fbf 14c5 813e 233d 803c
00000300: 2cc1 ed3d 6628 c8be 603a b73f d664 193b
00000310: b837 373f 0ce0 7cbd 91a1 6c3f 77c9 8b3f
00000320: ce37 2bbe 3661 963f 1ef6 843e 435b 77be
00000330: 8e04 8f3e 1a15 213f f839 98bf 8f25 6dbe
00000340: 7687 153f 0cc1 4ebe 79de ebbd c021 1cbe
00000350: 385a 64bf 928b 173f 3b9d 22bf b82d 90be
00000360: 5c9e 803e abac 00bf 1bef d53d b4c6 0fbf
00000370: 390c 11bf 004e d8be 7666 e63e 2c4a d63e
00000380: 4562 e13e e3d2 5a40 d57f 04c0 3647 0cc0
00000390: 9ddb 5b40 3cd5 73c0 facb 0b3f 1ba9 a33f
000003a0: 08af 6d3f 962b 0bbe 962e adbe 9c8d 7bbf
000003b0: d0b3 ae3d 0105 633e 622a ccbe 686e 80bf
000003c0: 3fce d63e 01b7 933e c5f2 95be 753c 16bf
000003d0: 56cc 66bf b340 d9bc 5847 e53c 4184 b1bd
000003e0: 5c62 803e 5185 8ebe f2ad 813d 2202 cfbe
000003f0: 9900 5ebd da11 f1be 6127 1a3e d895 133f

gc3.weight f4 [32, 16]
-0.13899578 -0.030739399 0.27904245 -0.08336406 -0.04990891 0.02580591 -0.084136546 0.455915
-0.6614544 -0.21560961 0.6682248 -0.7211937 0.015930226 -0.020604663 0.4013841 -0.16458575
-0.36545935 -0.36641812 -0.85468835 -0.4485183 -0.28288487 -0.47704506 -0.19151838 -0.68169683
-0.39398178 -0.64841896 0.24493936 -0.4398198 -0.4760389 -0.27204 0.24537884 -0.42665178
0.049461413 -0.22376561 -0.08431235 0.05718018 -0.38313144 -0.113924466 -0.11635151 -0.50393105
-0.13293254 0.1614713 -0.2487583 -0.23243438 0.08282232 -0.0757238 -0.42183676 0.08324227
0.21464947 0.23012592 0.20930763 -0.06513676 -0.14870419 0.33985835 -0.31830382 -0.050908618
0.124254405 -0.030540198 0.05293719 0.13899553 -0.28478202 -0.38453856 0.6229363 -0.009535671
0.06863805 -0.72594094 -0.3496339 0.017258309 0.027006136 -0.41577166 0.18469171 -0.33590212
0.082029976 -0.053893454 -0.9154077 -0.22554287 -0.15493125 0.20282829 -1.2619025 0.006929225
0.20236407 -0.34503314 0.6166838 0.28854787 0.08516024 -0.24166644 -0.0135122845 0.45690098
0.21690111 0.27951232 -0.68956643 -0.10303831 -0.041789815 0.31449497 -0.28669068 0.19867092
-0.48926812 -0.19869389 -0.027641168 -0.28627938 -0.27026343 -0.48752913 0.13200532 -0.38243154
-0.013391064 0.052984666 -0.61189884 -0.2396341 -0.039783582 -0.28096005 -0.9590071 -0.11223192
-0.318478 -0.38577577 -0.12790474 -0.5582004 -0.14962089 -0.19727075 0.2116677 -0.57853186
-0.6040017 0.2060372 -0.68678397 -0.8390001 -0.22160572 -0.14217548 0.8198072 -0.32334745
-1.2038959 0.46781808 -2.2070558 -0.13669296 0.23544073 0.40106186 -0.9230592 -3.0214357
-0.6595685 -0.41462722 0.63841957 0.08344593 -0.89032096 -0.80006546 0.24878569 -0.692339
0.031020744 -0.17329425 0.16291082 0.057288256 -0.39847878 -0.107184276 0.14691344 0.15670098
0.10555123 -0.042723298 -0.19414577 0.055563286 0.13294943 0.2118188 0.06852594 0.16529489
0.017061168 0.062856525 -0.047909718 -0.2652199 -0.29350707 -0.57182693 0.10969931 -0.25635785
-0.12283458 -0.36393413 -0.29485288 -0.05388008 0.13779683 -0.2155873 -0.18216561 -0.021240817
0.18414547 0.29102337 -0.117227934 0.041458286 0.5735222 0.3443534 -0.05310334 -0.07582182
0.10381151 0.2186841 0.26400554 0.24452698 -0.07527239 -0.09978892 0.5755085 0.07768373
0.35296148 0.3047976 1.5860105 0.2963266 0.015216603 0.7291839 0.33699185 1.8373594
0.44030318 0.24990076 -0.88466215 -0.029446758 0.330311 0.2381696 0.90040267 0.480228
-0.31465802 -0.41786978 -0.01896448 -0.34021032 -0.22613712 -0.40283385 -0.281218 -0.38498318
-0.054642163 -0.23624678 0.39475536 -0.37231752 0.07442099 -0.2594456 0.37465897 -0.17657588
0.04214748 -0.1491933 0.18652205 0.3365088 0.14971457 0.06365729 -0.010350971 -0.26221836
-0.20959944 -0.16853197 -0.16267237 -0.32743523 0.07437022 -0.0114321215 0.054375798 0.16362663
-0.1263108 -0.00908106 -0.108039215 0.0019406346 0.063116916 0.20467617 -0.04903865 -0.12675183
0.22534886 -0.04418754 -0.07807929 0.12181563 0.10655158 0.3303296 0.44749033 0.081991546
00000000: e954 0ebe 31d1 fbbc a7de 8e3e c7ba aabd
00000010: 496d 4cbd ea66 d33c c84f acbd b16d e93e
00000020: 1355 29bf c4c8 5cbe c810 2b3f 26a0 38bf
00000030: 1b80 823c 1ccb a8bc 3782 cd3e 2b89 28be
00000040: 7d1d bbbe 289b bbbe dbcc 5abf 31a4 e5be
00000050: 49d6 90be 403f f4be 651d 44be af83 2ebf
00000060: fbb7 c9be c9fe 25bf 62d1 7a3e 1030 e1be
00000070: 5fbb f3be d448 8bbe 9744 7b3e 1a72 dabe
00000080: 0d98 4a3d d022 65be f4ab acbd c435 6a3d
00000090: ce29 c4be 3b51 e9bd b349 eebd a001 01bf
000000a0: 781f 08be bc58 253e 7fba 7ebe 4703 6ebe
000000b0: c09e a93d 1415 9bbd fdfa d7be ec7a aa3d
000000c0: 12cd 5b3e 21a6 6b3e bd54 563e 6c66 85bd
000000d0: e945 18be ea01 ae3e b8f8 a2be 8e85 50bd
000000e0: 1879 fe3d 702f fabc abd4 583d d854 0e3e
000000f0: f3ce 91be 3de2 c4be c178 1f3f 813b 1cbc
00000100: 1b92 8c3d 44d7 39bf 3703 b3be 4c61 8d3c
00000110: f93b dd3c 06e0 d4be d31f 3d3e 5dfb abbe
00000120: 55ff a73d 62bf 5cbd 2958 6abf b6f4 66be
00000130: 4ca6 1ebe 38b2 4f3e 0586 a1bf 8d0e e33b
00000140: 8738 4f3e 2fa8 b0be fdde 1d3f 8cbc 933e
00000150: 7e68 ae3d 6877 77be a162 5dbc edee e93e
00000160: 531b 5e3e 3d1c 8f3e 6d87 30bf c005 d3bd
00000170: cc2b 2bbd 7c05 a13e 1fc9 92be 6470 4b3e
00000180: 5a81 fabe 6976 4bbe bb6f e2bc 3693 92be
00000190: f85f 8abe 6b9d f9be 672c 073e 11ce c3be
000001a0: 3166 5bbc 7306 593d 67a5 1cbf a462 75be
000001b0: 1cf4 22bd ffd9 8fbe 7d81 75bf d9d9 e5bd
000001c0: 8c0f a3be 6784 c5be 76f9 02be 39e6 0ebf
000001d0: 3836 19be 5801 4abe 6bbf 583e aa1a 14bf
000001e0: db9f 1abf 6afb 523e 13d1 2fbf b6c8 56bf
000001f0: 9cec 62be 7396 11be e2de 513f cc8d a5be
00000200: 4319 9abf da85 ef3e 6740 0dc0 3df9 0bbe
00000210: 6017 713e fb57 cd3e 9c4d 6cbf 345f 41c0
00000220: 7bd9 28bf 054a d4be 776f 233f b3e5 aa3d
00000230: 13ec 63bf 17d1 4cbf adc1 7e3e 213d 31bf
00000240: 371f fe3c 0c74 31be 18d2 263e 17a7 6a3d
00000250: 6905 ccbe 6e83 dbbd 7a70 163e 3976 203e
00000260: 3e2b d83d a0fe 2ebd 26ce 46be 5496 633d
00000270: e523 083e 07e7 583e 5457 8c3d 1043 293e
00000280: ddc3 8b3c ecba 803d fb3c 44bd e7ca 87be
00000290: 8f46 96be 4063 12bf 08aa e03d 5641 83be
000002a0: b290 fbbd 9355 babe f5f6 96be 5cb1 5cbd
000002b0: 9d1a 0d3e ebc2 5cbe 9f89 3abe 3901 aebc
000002c0: a190 3c3e 0401 953e 3315 f0bd 2ad0 293d
000002d0: 5ad2 123f 174f b03e e382 59bd 7848 9bbd
000002e0: 219b d43d baee 5f3e bc2b 873e 4865 7a3e
000002f0: 6928 9abd 225e ccbd 8654 133f a618 9f3d
00000300: 5eb7 b43e 6e0e 9c3e 6402 cb3f 1fb8 973e
00000310: 0f4f 793c ccab 3a3f 328a ac3e 982e eb3f
00000320: 6b6f e13e fce5 7f3e 3879 62bf 543a f1bc
00000330: 861e a93e bbe2 733e ca80 663f 72e0 f53e
00000340: db1a a1be 07f3 d5be 665b 9bbc 0c30 aebe
00000350: 7d90 67be 3d40 cebe cefb 8fbe 841c c5be
00000360: 76d0 5fbd adea 71be 601d ca3e 67a0 bebe
00000370: 086a 983d 0ed6 84be 4dd3 bf3e 4fd0 34be
00000380: d6a2 2c3d 21c6 18be a3ff 3e3e e24a ac3e
00000390: c74e 193e c15e 823d 1e97 29bc 7c41 86be
000003a0: 3ca1 56be a593 2cbe 9693 26be 97a5 a7be
000003b0: 6a4f 983d cb4d 3bbc 28b9 5e3d bd8d 273e
000003c0: 9e57 01be bac8 14bc aa43 ddbd e45c fe3a
000003d0: 7143 813d a196 513e c0dc 48bd 3bcb 01be
000003e0: dac1 663e fefd 34bd 09e8 9fbd 797a f93d
000003f0: b737 da3d f620 a93e 741d e53e 2feb a73d

dc.rk_lgt f4 [1, 16]
-1.9565116 -1.0765045 -1.819347 -1.8328279 -1.6989522 -0.6598006 -3.5452592 -1.1832252
-1.6963257 -3.3712108 -0.08222706 -2.0543938 -2.4823594 -3.292794 0.039715916 -2.6803339
00000000: f96e fabf e6ca 89bf 5de0 e8bf 1b9a eabf
00000010: 4477 d9bf b1e8 28bf 87e5 62c0 ec73 97bf
00000020: 3321 d9bf ebc1 57c0 a966 a8bd 307b 03c0
00000030: fade 1ec0 23bd 52c0 28ad 223d 978a 2bc0
