models/ogbl-collab_CN_2_1_0_run5_gnn.pt (torch, 668318 bytes, 10 tensors)

convs.0.bias f4 [256]
0	0x401e4267	2.4728029
1	0x3f4f54cc	0.80988765
2	0x3fe95988	1.8230448
3	0xbf49231a	-0.78569186
4	0xbf51e093	-0.819833
5	0x3ff9008a	1.945329
6	0xbe265b7f	-0.1624584
7	0xbf3ebc74	-0.74506307
8	0x403856ff	2.8803098
9	0xbf164c9e	-0.5871066
10	0x3f9c3f70	1.220686
11	0x40005712	2.0053144
12	0xbf66a527	-0.9009575
13	0x403915d3	2.891957
14	0xbf878bb3	-1.0589508
15	0x3f2bfc5f	0.6718196
16	0xbf7fa035	-0.9985383
17	0x4008e2bb	2.1388385
18	0xbf3beee4	-0.73411393
19	0xbf8a9f05	-1.0829779
20	0xbf56e14c	-0.83937526
21	0x407b4385	3.925996
22	0x3bd19d80	0.0063969493
23	0xc0e52821	-7.1611485
24	0x3e899164	0.26868737
25	0x403cb83e	2.9487453
26	0x3fb52ac2	1.4153674
27	0x408fa181	4.488465
28	0x3fb8c8cf	1.4436282
29	0x3f4bb774	0.795768
30	0xbf501c5c	-0.8129327
31	0xbeda9dac	-0.4269842
32	0xc014c772	-2.3246732
33	0xc08156e6	-4.0418577
34	0x3de9a39c	0.11408159
35	0x3fb4da70	1.4129162
36	0x3fce0193	1.609423
37	0x3fa2a24e	1.2705781
38	0x4014d917	2.32575
39	0x3fb791ec	1.4341407
40	0x3f8c5288	1.0962687
41	0x3eddadd5	0.43296686
42	0xc0073d71	-2.113125
43	0x409766fb	4.731321
44	0x401e5566	2.4739623
45	0xbf43500b	-0.7629401
46	0x3dbb1edc	0.09136745
47	0x3f13e562	0.57771885
48	0xbfc0f42d	-1.5074517
49	0x407cc7e7	3.949701
50	0xbf465fcf	-0.7748994
51	0xbf16c7f2	-0.5889884
52	0xc00dc54e	-2.2151675
53	0x3de15a29	0.11003525
54	0x4052c256	3.2931113
55	0x40915084	4.5410786
56	0x407287bc	3.7895346
57	0x408b5fd6	4.3554487
58	0x3fe2e080	1.7724762
59	0x3cecd2f2	0.02890918
60	0x4012c022	2.2929769
61	0x400940b4	2.1445742
62	0xc12c050b	-10.751231
63	0xbefc3b59	-0.4926403
64	0x3e1e96f6	0.15487275
65	0x40598d1b	3.3992374
66	0xc01ab9e5	-2.417596
67	0xbf03a1fa	-0.5141903
68	0x3fc5a54c	1.544107
69	0x40e8121d	7.252211
70	0x3f85ac51	1.0443212
71	0x3fc41b2a	1.532079
72	0x3fb608d0	1.4221439
73	0xbfe47c54	-1.7850442
74	0x407eb213	3.9796188
75	0x40b0962d	5.518332
76	0x4086c607	4.2116733
77	0x3fa9e330	1.3272457
78	0xbfba92aa	-1.4576008
79	0x3ff5f36b	1.921491
80	0x3f86c2b4	1.0528169
81	0xbe55ce27	-0.20879422
82	0x408272dd	4.0765214
83	0x3f3d7767	0.7401032
84	0xbc584187	-0.013199217
85	0x404e6537	3.2249277
86	0xbf62f686	-0.88657415
87	0xc02aebad	-2.6706345
88	0x3fe17b32	1.7615721
89	0x3e7d0871	0.24710251
90	0x3fa027fa	1.25122
91	0xbe767225	-0.2406698
92	0x402b7301	2.6788943
93	0xbd988ac1	-0.0744834
94	0x40651eb5	3.5799992
95	0x3f694ebf	0.9113578
96	0x4023b1c3	2.5577247
97	0xc11f19ff	-9.943847
98	0x40976a39	4.7317166
99	0x3f40b152	0.7527057
100	0xbedbe43b	-0.42947564
101	0x3f608125	0.8769706
102	0xbf9d6b96	-1.2298458
103	0x3fa5e1ad	1.2959496
104	0x3fa8ce00	1.3187866
105	0x3fecc0e9	1.8496372
106	0xbf348cc5	-0.705273
107	0xbf84cafd	-1.0374447
108	0xc131841a	-11.094751
109	0x403eae8d	2.9794037
110	0x407d8126	3.9610076
111	0xbf35ed16	-0.7106489
112	0x3f6072a8	0.8767495
113	0x3fcb3c5c	1.5877795
114	0xbe9d6edd	-0.30748644
115	0xbe696c99	-0.22795333
116	0x40378da8	2.868021
117	0xbee485de	-0.44633383
118	0x3f3ed1bd	0.74538785
119	0x40624792	3.5356183
120	0x3e7a9b9b	0.24473421
121	0xbeba3810	-0.36370897
122	0x3f7898cb	0.97108144
123	0x402d8c48	2.711687
124	0xbf2cba5f	-0.6747188
125	0xbf6ce766	-0.92540586
126	0x4011b5c0	2.2767181
127	0x401307de	2.2973552
128	0x3e49743f	0.1967325
129	0xbf137c63	-0.57611674
130	0xc04d42ea	-3.207209
131	0x408054ba	4.0103426
132	0xbf230d66	-0.6369232
133	0xbf6a9941	-0.91640097
134	0xbe443560	-0.19160986
135	0x3f504f94	0.81371427
136	0x3f83d8e3	1.0300564
137	0x409f72e8	4.9827766
138	0xbe5abfb4	-0.21362191
139	0x40045f3b	2.0683124
140	0xbcd1ada7	-0.0255955
141	0xbf64727e	-0.892372
142	0x40a51da1	5.159867
143	0xbed4b5d6	-0.4154498
144	0x40227fbe	2.5390468
145	0x3e0ee115	0.1395305
146	0x401cf14d	2.4522278
147	0x3f3499f9	0.70547444
148	0xbf405fe7	-0.75146335
149	0xbe352a3f	-0.17691897
150	0x3fccea93	1.6009086
151	0xbf3c54a7	-0.7356667
152	0x3ff641b6	1.9238803
153	0xc01471e1	-2.3194506
154	0xbf39ff5c	-0.7265527
155	0x3fdf08a7	1.7424515
156	0xc02d3e9b	-2.7069461
157	0xc0c25cbb	-6.0738196
158	0xbdb40950	-0.08790839
159	0x3fcba5f0	1.5910015
160	0x40596dea	3.3973336
161	0x401a3d69	2.4099982
162	0xbf7cd60c	-0.9876411
163	0x4019533e	2.3957057
164	0x402e4b74	2.7233553
165	0xbf8f45ff	-1.1193236
166	0x3db85877	0.09001248
167	0x3ebb90e2	0.36633974
168	0x4019faa9	2.405924
169	0x3faad702	1.3346865
170	0xbd9bc7f7	-0.076065
171	0xbf8cd424	-1.100224
172	0x3fd979f3	1.6990341
173	0xbfe62e79	-1.7982932
174	0x3edc61f5	0.43043485
175	0x3ebaf45f	0.36514565
176	0x401cf0e8	2.4522038
177	0xc12aef77	-10.683463
178	0xbd8573fe	-0.065162644
179	0xc12b8a3c	-10.721249
180	0x3fc24a70	1.5178967
181	0x4059d77f	3.4037778
182	0xbf1e693c	-0.61879325
183	0x3f8702ec	1.0547767
184	0x3fe7e9db	1.8118242
185	0x3fd67cf2	1.675688
186	0x407bc386	3.9338088
187	0xc0016dac	-2.0223188
188	0xbfe70fff	-1.8051757
189	0xbf48e86d	-0.78479654
190	0x3fa8fe9c	1.3202701
191	0x40165ec3	2.3495338
192	0x3f12b187	0.57302135
193	0x4003ba94	2.0582628
194	0xbf92be7b	-1.146438
195	0xbd969b2c	-0.073538154
196	0xbd55e9c3	-0.052224886
197	0xbea29c73	-0.31759986
198	0x3ff3d64c	1.9049773
199	0xc0776616	-3.8656058
200	0x4049b448	3.1516285
201	0xbfc058ab	-1.5027059
202	0x406d8b18	3.7116146
203	0x4078414c	3.8789854
204	0x3f8a05b2	1.0782988
205	0x408bf500	4.373657
206	0xbf4442ed	-0.7666462
207	0xbf4a65f6	-0.7906183
208	0xbfa0611a	-1.2529633
209	0x409bc86e	4.8682165
210	0x3f8b537a	1.088485
211	0xbf2a0682	-0.6641618
212	0xc018a68d	-2.3851655
213	0x4054c3c8	3.3244495
214	0xbfc9c25f	-1.5762442
215	0x4042bb58	3.0426846
216	0x3ffd6240	1.9795609
217	0xbfde4c56	-1.7367046
218	0xbf1e2201	-0.61770636
219	0xbe925696	-0.28581685
220	0xc0845a3c	-4.136015
221	0x402aedc8	2.670763
222	0x40aa0ac3	5.3138137
223	0x3e0c93bb	0.1372823
224	0xbe644637	-0.2229241
225	0x4068704a	3.6318536
226	0x4033ac55	2.8073933
227	0xbe097eb7	-0.13427244
228	0xbf7781e2	-0.9668256
229	0x4034975c	2.8217382
230	0x3e1d4ab0	0.15360522
231	0xbfa564f3	-1.2921432
232	0x3ef0e8df	0.47052667
233	0x3f4aed4b	0.7926833
234	0x40468f33	3.1024902
235	0x3fc850ca	1.5649655
236	0x403dc0e8	2.964899
237	0xbf6a7386	-0.91582525
238	0x3dc80559	0.09766645
239	0xbfabcbac	-1.3421531
240	0xbf686136	-0.9077333
241	0x3c225746	0.009908503
242	0x401e5bd6	2.4743552
243	0x4088989f	4.2686305
244	0xbec0cac8	-0.3765471
245	0x3f9e00d4	1.2344003
246	0x40082fd1	2.1279185
247	0x3f78545f	0.9700374
248	0x3f445a60	0.767004
249	0x3fee50bf	1.8618392
250	0x4066fba7	3.6091096
251	0x402d99c0	2.7125092
252	0xbe5cf9cf	-0.2157967
253	0x3f7284c1	0.94733816
254	0x3fbe143f	1.4849929
255	0x3d3549c2	0.044259794

convs.0.lin.weight f4 [256, 128]
0	0xbe26e889	-0.16299643
1	0x3f3813bc	0.7190511
2	0xbe5d341b	-0.21601908
3	0x3d16b39d	0.036792386
4	0xbd899765	-0.06718329
5	0xbe57dcd5	-0.21080334
6	0xbda5b2ca	-0.08090742
7	0xbe546ac0	-0.20743847
8	0x3e824b32	0.25447994
9	0xbedb4165	-0.4282333
10	0x3e483ad6	0.19553694
11	0x3d33ba9a	0.04387913
12	0xbbe20e78	-0.0068986975
13	0x3cc37415	0.023859063
14	0x3cfe6f6e	0.031058993
15	0x3e816df6	0.25279206
16	0x3e995f5d	0.2995557
17	0x3e5a6209	0.2132646
18	0x3e85bc50	0.26120234
19	0xbe19fa6c	-0.15036935
20	0xbd037cd0	-0.032101452
21	0x3d98236a	0.0742863
22	0x3d89adef	0.06722628
23	0x3efcac86	0.49350375
24	0xbd565e2e	-0.05233591
25	0x3b8c230e	0.00427664
26	0xbc87effc	-0.016593926
27	0x3e286824	0.16445976
28	0x3d626434	0.055271342
29	0x3d5ee673	0.054418992
30	0xbecd4ef4	-0.400993
31	0x3ea0bcf9	0.31394175
32	0xbe90c676	-0.28276414
33	0x3e09c533	0.13454132
34	0xbea942e0	-0.33058834
35	0xbe4cc78c	-0.19997996
36	0x3b2275a7	0.0024789365
37	0xbdac981c	-0.0842745
38	0x3f248131	0.6425963
39	0x3d31b8f1	0.043389264
40	0xbb81f9c4	-0.003966542
41	0xbc836c19	-0.016042756
42	0x3e95ea5a	0.2928036
43	0x3da5b463	0.08091047
44	0x3d8f45c6	0.0699573
45	0x3eb81153	0.35950717
46	0x3e484aa4	0.19559723
47	0xbf3c19aa	-0.7347666
48	0xbc898c25	-0.016790459
49	0x3ea3fc37	0.32028362
50	0x3df1456e	0.11780821
51	0xbdea0bd3	-0.114280365
52	0xbe4d743d	-0.20063873
53	0xbe9d48c9	-0.30719593
54	0xbd40763e	-0.046987765
55	0x3e6a1adb	0.22861807
56	0xbe11b815	-0.14230378
57	0xbeb7c28c	-0.35890615
58	0x3eb61c9d	0.35568705
59	0x3c87cb71	0.0165765
60	0x3e489887	0.19589435
61	0x3ea50f54	0.32238257
62	0x3e7fd2cb	0.24982755
63	0xbe39dfdc	-0.18151802
64	0x3ebe1a39	0.3712938
65	0xbdfe9885	-0.124314345
66	0xbe18459c	-0.14870304
67	0xbe23b8d2	-0.15988472
68	0xbd9e93c0	-0.07743025
69	0x3dc93735	0.09824983
70	0x3e0afb90	0.13572526
71	0x3d15b056	0.03654512
72	0xbe59e118	-0.21277273
73	0xbe3d0032	-0.18457106
74	0xbd4486ff	-0.047980305
75	0xbe33f7cc	-0.17574996
76	0xbd84d146	-0.06485228
77	0x3e0bec87	0.13664447
78	0xbd9ef6d0	-0.077619195
79	0x3d1338e2	0.03594292
80	0xbd61c0aa	-0.05511538
81	0xbe7a2c66	-0.24430999
82	0x3e04eb08	0.12980282
83	0x3e1b4a1b	0.15164988
84	0xbd295f21	-0.041350488
85	0xbdbde76a	-0.09272654
86	0xbce04268	-0.027375415
87	0x3f451ed8	0.7700019
88	0x3f05a720	0.5220814
89	0xbdb9d71b	-0.09074231
90	0x3e946f73	0.2899128
91	0xbc578779	-0.013154858
92	0x3e8fe044	0.2810079
93	0xbe8e10ca	-0.27747184
94	0xbe9ae8af	-0.30255648
95	0xbf143092	-0.5788661
96	0xbd35812c	-0.04431264
97	0xbd4e6071	-0.050384942
98	0xbd815d3a	-0.0631661
99	0xbe43a4fb	-0.19105904
100	0xbef10c0e	-0.4707951
101	0x3e12d0bd	0.1433744
102	0xbe779840	-0.24179173
103	0xbc20ed40	-0.00982219
104	0x3de7867c	0.11304948
105	0xbd97f28f	-0.07419311
106	0x3c5e7b84	0.013579253
107	0x3ee58f21	0.4483576
108	0x3ebeb92a	0.37250644
109	0x3e0b44ee	0.13600513
110	0xbd509961	-0.050927524
111	0xbef9d8a5	-0.487981
112	0xbb15ca35	-0.002285612
113	0x3eb58d36	0.35459298
114	0x3e04bd2e	0.12962791
115	0x3ea88d0c	0.3292011
116	0x3e2ec623	0.1706777
117	0x3ea0ba99	0.31392363
118	0x3e0e33ab	0.13886897
119	0x3e1b0dad	0.15141936
120	0xbe73c21e	-0.23804519
121	0xbd2e8536	-0.04260751
122	0x3d58819b	0.052857976
123	0x3e06df4e	0.13171121
124	0x3ce7d100	0.028297901
125	0xbd96b075	-0.07357875
126	0x3e263556	0.16231284
127	0x3e20c48e	0.1569998
128	0xbd219ad9	-0.039454315
129	0x3ea15c5f	0.31515786
130	0xbd2f57d6	-0.042808376
131	0xbf3164b7	-0.69294304
132	0xbecf867c	-0.4053229
133	0xbdc7b6dc	-0.097516745
134	0xbdd4a26b	-0.10382541
135	0xbe1ca657	-0.15297829
136	0x3ea6f65a	0.32609826
137	0x3c1c6e8c	0.009547841
138	0xbda93dfc	-0.08263776
139	0x3d526b71	0.051371995
140	0xbcacc8ab	-0.02109178
141	0x3d4c6cd9	0.049908493
142	0x3acad52c	0.0015474907
143	0x3e011ac6	0.1260787
144	0x3ea1e440	0.31619453
145	0x3d28cc56	0.041210495
146	0x3e9eb546	0.30997676
147	0xbe2e4ce7	-0.17021523
148	0xbde58c27	-0.112083726
149	0x3e48f798	0.196257
150	0xbd576bb5	-0.05259295
151	0x3e0e0a30	0.13871074
152	0xbe787d59	-0.24266566
153	0xbc9a667d	-0.018847698
154	0x3e719878	0.23593318
155	0xbceb7a4d	-0.028744841
156	0x3f15ac82	0.5846635
157	0x3b83b15c	0.0040189456
158	0xbd91c239	-0.07117123
159	0xbccf4302	-0.025300507
160	0xbf26bf8e	-0.6513604
161	0x3da4921f	0.08035683
162	0xbe5c7726	-0.21529827
163	0xbdc98bca	-0.09841116
164	0xbdbddab4	-0.0927023
165	0xbeb72ed3	-0.35777912
166	0xbd6f42f8	-0.058413476
167	0x3e6fc578	0.23415172
168	0x3d292d12	0.041302748
169	0xbead74d8	-0.33878207
170	0x3e74051f	0.23830079
171	0x3c9a4750	0.018832833
172	0xbe3ce7a9	-0.18447746
173	0x3e71dcad	0.23619337
174	0x3e6cb7ca	0.23116985
175	0xbf409507	-0.752274
176	0x3ea1a560	0.31571484
177	0x3f0bf878	0.5467601
178	0x3d197621	0.037466172
179	0x3d8aa592	0.06769861
180	0xbe36bbea	-0.17845121
181	0x3dc87cdd	0.09789441
182	0xbed12f88	-0.40856576
183	0x3eab58d8	0.3346622
184	0xbeb6a000	-0.35668945
185	0xbe4bcd8f	-0.19902633
186	0x3f104b55	0.5636495
187	0xbe5488d4	-0.20755321
188	0x3de71581	0.112833984
189	0x3f175168	0.5910859
190	0xbdd033d6	-0.10166137
191	0xbe4c651c	-0.19960445
192	0x3e2971d8	0.16547334
193	0xbd3e3c65	-0.046444315
194	0xbc594427	-0.013260878
195	0xbda50302	-0.08057214
196	0x3d44dc58	0.0480617
197	0x3e31e35c	0.17371887
198	0x3dabfa9e	0.08397411
199	0xbe9372c2	-0.2879849
200	0xbe2e7eab	-0.17040507
201	0xbe2914b4	-0.16511804
202	0xbe62a7b9	-0.22134294
203	0x3cb5ba2a	0.022183497
204	0xbe3ea6e2	-0.18618348
205	0xbd793162	-0.06083811
206	0xbeedf397	-0.46474907
207	0xbe4a25e7	-0.19741021
208	0x3c123ee9	0.008926132
209	0xbf481c48	-0.78168154
210	0x3c4957aa	0.012288967
211	0xbbefd6d2	-0.0073193097
212	0xbeada52d	-0.33915082
213	0x3b8adc41	0.004237682
214	0xbe2d3586	-0.16914949
215	0x3f07d42d	0.5305813
216	0x3dcb57a4	0.099288255
217	0xbd3e5e32	-0.04647655
218	0x3e190cc3	0.14946274
219	0xbe96f963	-0.29487142
220	0xbd0ee182	-0.03488303
221	0xbf416a2e	-0.7555264
222	0x3dac151f	0.08402466
223	0xbed282bb	-0.41115364
224	0xbe98b9a5	-0.29829136
225	0xbe4c36be	-0.19942757
226	0x3d9e2de1	0.077235945
227	0xbecca5ce	-0.3997025
228	0xbf1df358	-0.6169944
229	0x3ebaa97f	0.3645744
230	0xbea82a00	-0.32844543
231	0x3e04d652	0.12972382
232	0x3cbb90b0	0.02289614
233	0xbdadf7bb	-0.084945165
234	0xbe2203a7	-0.15821706
235	0x3ed13af2	0.40865284
236	0xbad52076	-0.0016260284
237	0xbde8c0bf	-0.113648884
238	0xbcc12bbb	-0.023580423
239	0xbf1ba920	-0.6080494
240	0xbdb181ec	-0.08667359
241	0x3ee18a12	0.44050652
242	0x3e4ff51c	0.20308346
243	0x3ea46a01	0.32112125
244	0x3e8e7607	0.27824423
245	0x3e783b25	0.24241312
246	0x3e2da9bd	0.16959281
247	0x3f3b853c	0.73250175
248	0x3b663670	0.0035127662
249	0x3c34a491	0.011025564
250	0x3d9d67f4	0.07685843
251	0xbe238754	-0.15969592
252	0x3c8e822f	0.01739606
253	0xbd16022b	-0.03662316
254	0x3e996f5d	0.29967776
255	0x3f09742d	0.53692895

convs.1.bias f4 [256]
0	0xc0094a45	-2.145158
1	0x3f019b06	0.5062717
2	0xbfcecd35	-1.6156374
3	0xbf6247a9	-0.88390595
4	0xbf2d33f6	-0.6765741
5	0xbf4ababd	-0.7919119
6	0x3e3584d1	0.17726447
7	0x3e876cc4	0.2645017
8	0x3e845361	0.25844863
9	0x406bd12b	3.6846416
10	0x3f0456ee	0.51695144
11	0x3d8defde	0.06930517
12	0x3f09d870	0.5384588
13	0xbe96899b	-0.2940186
14	0x4006daf4	2.1071138
15	0x408bdaf8	4.3704796
16	0x4021ec38	2.5300426
17	0x3f8378b8	1.0271215
18	0xbfa9754d	-1.3238922
19	0x4025fd35	2.5935795
20	0xbe6d7412	-0.23188809
21	0xbe708e3c	-0.23491758
22	0xbe118ea2	-0.14214566
23	0xc082f558	-4.092449
24	0xbedad773	-0.427425
25	0xbf52f53a	-0.82405436
26	0xbe41b729	-0.18917526
27	0x3fa3b4dd	1.278957
28	0x3e2b0f0b	0.16704957
29	0xbd814297	-0.06311529
30	0xbe3370c7	-0.1752349
31	0xbeda3c07	-0.42623922
32	0xbf1e94d6	-0.61945856
33	0x3df26454	0.11835542
34	0x3f1b9cc7	0.607861
35	0x403c29c0	2.9400482
36	0x3fd4882f	1.660406
37	0x4095952f	4.674461
38	0x3c7f090a	0.01556612
39	0xbfd98382	-1.6993258
40	0xbeb540d8	-0.35401034
41	0x4095af64	4.67766
42	0x4052a410	3.2912636
43	0x3ee17f53	0.44042453
44	0x3e080811	0.13284327
45	0x402964bb	2.646773
46	0x3db6c800	0.08924866
47	0x40383c55	2.8786824
48	0xbc8db3e2	-0.017297689
49	0x407b8add	3.9303505
50	0x4082bf20	4.0858307
51	0xbe660e1f	-0.22466324
52	0xbf1e95a4	-0.61947083
53	0xbeac4fd3	-0.3365465
54	0xbff882ee	-1.9414957
55	0x3eb0c514	0.3452536
56	0x3c34aa09	0.011026868
57	0xbedb4cc5	-0.42832008
58	0xbf2e7de1	-0.68160826
59	0x401aa1bf	2.4161222
60	0x4025d0df	2.5908735
61	0xbfd7276b	-1.6808904
62	0xbf22954a	-0.6350905
63	0x403131bf	2.7686613
64	0xbf84122b	-1.0318044
65	0x3ce0a39b	0.027421763
66	0xbd6abb17	-0.05730733
67	0xbf1be8bd	-0.60902005
68	0xbf22e289	-0.63626915
69	0x3daa4fb2	0.08315982
70	0xbd962fe1	-0.07333351
71	0x3dd35d45	0.10320524
72	0xbe9c1721	-0.30486396
73	0x3fcf616b	1.6201605
74	0xbf3deafa	-0.7418667
75	0x403c3c08	2.941164
76	0xbeb56358	-0.35427356
77	0xbf2e3e56	-0.6806387
78	0x4069d8d2	3.6538587
79	0xbe62da2b	-0.22153537
80	0x3f114747	0.56749386
81	0x3f3024cc	0.6880615
82	0x3e1262f2	0.14295557
83	0x400af4e5	2.1711972
84	0xc02e9756	-2.7279868
85	0x405e2b57	3.4713953
86	0x3e43f8c4	0.19137865
87	0x3c8e2cad	0.017355287
88	0x3e0df4e2	0.13862947
89	0x3e508db8	0.20366561
90	0xbf39d942	-0.72597134
91	0x408d2b48	4.4115334
92	0xbf815830	-1.0105038
93	0xc048f805	-3.140138
94	0x401ecd47	2.4812791
95	0x3f7aca82	0.9796525
96	0x4078a666	3.8851562
97	0x3dfe099f	0.12404179
98	0x3f926a1b	1.1438631
99	0xc00c1a7b	-2.1891162
100	0x40654195	3.5821278
101	0x4009b3fe	2.1516109
102	0xbe28b942	-0.1647692
103	0xbe91e4cb	-0.28494868
104	0xbec76ad3	-0.38948688
105	0x40811c20	4.034683
106	0xbe68269b	-0.22670977
107	0x3e234dcb	0.15947644
108	0xbf52db71	-0.8236609
109	0xbe6722f0	-0.22571921
110	0xbf1548d1	-0.58314234
111	0x3f14457d	0.5791853
112	0xbff9bdfb	-1.9511102
113	0xbf2e12dc	-0.6799753
114	0xbc32a217	-0.010902903
115	0xbcda6a09	-0.02666189
116	0x3dba1c18	0.0908739
117	0xbdeb38c8	-0.114854395
118	0xbebb9dfa	-0.36643964
119	0x3eddf89a	0.4335373
120	0x3f752d90	0.9577265
121	0xbdf3ae2a	-0.118984535
122	0x3ec6e61b	0.38847432
123	0xbd958714	-0.07301155
124	0x3e9ea0c8	0.3098204
125	0xbf74e7ed	-0.9566639
126	0xbf0a7fc2	-0.5410119
127	0x3ebfe402	0.37478644
128	0xbf324d6d	-0.6964939
129	0x3c859774	0.01630757
130	0x3f50445f	0.81354326
131	0xbf35788d	-0.7088707
132	0x3eb8e61f	0.36113068
133	0xbf7f5f34	-0.99754643
134	0x3d0228f3	0.031777333
135	0x406e1b27	3.7204072
136	0xbf5d79b6	-0.8651384
137	0xbf1a5d82	-0.6029893
138	0xbf30aa55	-0.69009906
139	0xbd00cba0	-0.031444192
140	0x3dabbe2a	0.0838588
141	0xbf040352	-0.51567566
142	0xbf1a6865	-0.60315543
143	0x3d9d345e	0.07676004
144	0x3dd7b123	0.10531833
145	0x3ea15579	0.31510523
146	0x3eac1223	0.33607587
147	0xbfa1e29d	-1.2647282
148	0xbe8dd0dd	-0.27698413
149	0x3bc673ed	0.0060563
150	0x4052195c	3.2827978
151	0x40778957	3.8677576
152	0xbf120338	-0.5703616
153	0xbee6414a	-0.44971687
154	0xbde4252c	-0.111399025
155	0xbf827f53	-1.0195106
156	0xbd268569	-0.040654574
157	0xbeb2ff20	-0.3496027
158	0xbf0ef70a	-0.558457
159	0xbf7372eb	-0.95097226
160	0xbf572eab	-0.84055585
161	0x3fbee2e1	1.4912988
162	0xbdb58cee	-0.08864771
163	0x3e28fa80	0.16501808
164	0xbd9936ac	-0.07481131
165	0xbc3f4774	-0.011674751
166	0x3ea7ba38	0.3275926
167	0xbebf7c6a	-0.37399608
168	0xbe420514	-0.1894725
169	0x3ea2e998	0.31818843
170	0xbe2ed0cd	-0.17071839
171	0xbe19669a	-0.14980546
172	0x3e3a0ebc	0.18169683
173	0x3ccee48a	0.02525546
174	0x3ea80db5	0.32822958
175	0x3fffecd4	1.9994149
176	0xbf5808db	-0.8438851
177	0x3d606bc0	0.05479026
178	0x3f0cf618	0.5506301
179	0xbf0300f0	-0.51173306
180	0x3e25061d	0.16115613
181	0x3daa1a05	0.08305744
182	0x3f618d1c	0.8810594
183	0xbed39afc	-0.4132918
184	0x406387a5	3.555154
185	0x3f1e76e1	0.61900145
186	0xbfae1a8b	-1.360185
187	0x408c3e6f	4.3826213
188	0x3e502efe	0.20330426
189	0x401d2fa5	2.456033
190	0x3dd2cdd6	0.10293166
191	0xbf4e5086	-0.8059162
192	0x4002a105	2.0410779
193	0xbe32f3c9	-0.17475809
194	0x405c45ba	3.4417558
195	0x406075fd	3.5072014
196	0x3f0f498f	0.55971617
197	0x409aabe4	4.8334827
198	0x3f8015e8	1.0006685
199	0x3fe3ec40	1.7806473
200	0xbea6e2c4	-0.32594883
201	0x4085a8bb	4.176847
202	0xbf3517d2	-0.7073947
203	0x3e976901	0.295723
204	0x40366b95	2.8503163
205	0x404cbfcb	3.199206
206	0x3e9af764	0.3026687
207	0x3f7b4dce	0.98165596
208	0x402d3ce5	2.7068417
209	0xbf378041	-0.71680075
210	0x3d71ab95	0.059001524
211	0x4021f99b	2.5308597
212	0xbf3a01ec	-0.7265918
213	0xbd1ad03d	-0.037796248
214	0xc02a9b9b	-2.6657474
215	0xbf0dbdee	-0.55367935
216	0x3ed98946	0.42487544
217	0x4046797a	3.1011643
218	0x3e8925bc	0.26786602
219	0xbee702e6	-0.451194
220	0xbed31c1d	-0.41232386
221	0x3db80fc9	0.08987386
222	0xbf8c6bee	-1.0970438
223	0x3f52cb77	0.8234171
224	0xbef7c673	-0.48393592
225	0xbb3e1a74	-0.0029007467
226	0x3f70c1b1	0.9404555
227	0x3fe3bc35	1.7791811
228	0xbf9990e9	-1.1997348
229	0x40368cff	2.8523557
230	0x3fa4953b	1.2858042
231	0x3fb06f96	1.3784053
232	0x4005bcf0	2.0896568
233	0x3f4bed75	0.79659206
234	0x3e858084	0.26074612
235	0x3ee0867a	0.43852597
236	0x4088cbc7	4.274875
237	0x403580d8	2.835989
238	0x3e4a2df4	0.19744092
239	0x3e3b0b50	0.18266034
240	0xbf0564a9	-0.5210672
241	0x3ec6ea84	0.38850796
242	0x3fa68584	1.3009496
243	0xbecbb396	-0.3978545
244	0x4075e9f1	3.8424037
245	0xbf75110b	-0.9572913
246	0xbe1bac3a	-0.15202418
247	0xbd5ec678	-0.054388493
248	0xbf322b66	-0.6959747
249	0x3f8e4962	1.1116145
250	0x4004884b	2.0708187
251	0xbc3af0ed	-0.01140998
252	0xbf7f192d	-0.9964779
253	0x40418493	3.0237167
254	0xbe6350ae	-0.22198746
255	0xbef33571	-0.4750171

convs.1.lin.weight f4 [256, 256]
0	0xbf0edf6a	-0.5580965
1	0x3e956cba	0.29184514
2	0xbe7d60b6	-0.24743924
3	0x3f4f2359	0.8091331
4	0xbe076d37	-0.13225256
5	0x3e3acc26	0.18241939
6	0x3d6db6c4	0.058035627
7	0x3f078b8b	0.529473
8	0xbd8a205d	-0.06744454
9	0xbe1fca79	-0.15604581
10	0xbdab85d2	-0.083751336
11	0x3d3625c3	0.044469606
12	0xbe0664c4	-0.13124377
13	0xbeb56eba	-0.3543604
14	0xbf01ae6f	-0.5065679
15	0xbde82e21	-0.113369234
16	0xbe822632	-0.25419766
17	0x3d393f7f	0.04522657
18	0x3fd60aba	1.6722023
19	0xbd9f54f1	-0.07779873
20	0xbfa50953	-1.289347
21	0xbe0862d1	-0.13318945
22	0x3eb8e457	0.3611171
23	0x3cc59337	0.02411805
24	0x3e94defe	0.2907638
25	0xbd8f1869	-0.06987078
26	0x3ec9f65d	0.39445773
27	0xbe2ff1af	-0.17182039
28	0x3d9949b1	0.07484759
29	0x3ed171f5	0.40907255
30	0xbfef972e	-1.8718011
31	0xbfb5a3c2	-1.41906
32	0x3ed97aef	0.42476603
33	0x3ede8a8a	0.43465072
34	0xc00d5149	-2.2080863
35	0xbe5ebd85	-0.21751983
36	0x3e35eec1	0.17766859
37	0xbcb559ea	-0.0221376
38	0x3e3857e7	0.18002282
39	0x3ea2f959	0.31830862
40	0xbeff2ad7	-0.49837372
41	0x3ebfffaa	0.37499744
42	0xbf0ac66a	-0.54209006
43	0x3e9057c1	0.2819195
44	0xbe1ef5f5	-0.15523513
45	0x3f2d7db5	0.6776994
46	0x3eaa7dc4	0.33299077
47	0xbdd4a391	-0.1038276
48	0x3d329d9f	0.04360735
49	0x3fe99b50	1.8250523
50	0xbf21657a	-0.63045466
51	0x3f6c4405	0.9229129
52	0x3f4453c9	0.76690346
53	0x3ecccfef	0.4000239
54	0xbda737e5	-0.08164958
55	0xbdaae2ca	-0.08344038
56	0xbd818a22	-0.06325175
57	0xbdda48b9	-0.10658402
58	0xbf5dc0bb	-0.8662221
59	0xbd7ef875	-0.062248666
60	0xbdce0d72	-0.10061158
61	0xbe5185b3	-0.20461158
62	0xbccb567e	-0.024821516
63	0x3f7d5d12	0.9897014
64	0xbf95aca4	-1.1693311
65	0xbdfe58b5	-0.12419263
66	0x3f2d38d5	0.67664844
67	0x3f880633	1.0626892
68	0x3d4e90a9	0.050430927
69	0xbd9c0dae	-0.07619797
70	0x3f19727e	0.59940326
71	0x3e352010	0.17688012
72	0x3e1c065c	0.15236801
73	0x3f8ecf88	1.1157084
74	0x3d06723c	0.032823786
75	0x3f1d296a	0.6139132
76	0x39d10efe	0.00039874756
77	0x3e9a52ca	0.30141288
78	0xbef3eba7	-0.47640726
79	0x3dbbb2af	0.091649406
80	0xbdc60b17	-0.09670084
81	0xbd4ba306	-0.04971602
82	0xbe786308	-0.24256527
83	0xbc852f1c	-0.016257815
84	0xbfde7e8a	-1.7382367
85	0xbe4cada9	-0.19988121
86	0xbeda103d	-0.42590514
87	0xbe961e34	-0.29319918
88	0x3e771e1a	0.24132577
89	0xbfa4053c	-1.2814097
90	0xbe6461f8	-0.22302997
91	0x3f67bec3	0.90525454
92	0x3dea72a4	0.11447647
93	0xbecc11a8	-0.3985722
94	0xbe4d8a33	-0.2007225
95	0x3ee4f98b	0.44721636
96	0xbdad96b0	-0.08476007
97	0xbd799426	-0.0609323
98	0xbe780e36	-0.24224171
99	0x3fe99410	1.824831
100	0xbc5ff16f	-0.013668402
101	0xbe55c1a4	-0.2087465
102	0x3fab788d	1.3396164
103	0xbdc9647b	-0.09833618
104	0xbbb0935b	-0.00538866
105	0x3f8ad2cd	1.0845581
106	0x3fa10a2b	1.2581228
107	0x3f1c77e8	0.6112046
108	0xbcaf678d	-0.021411682
109	0x3e251071	0.16119553
110	0xbe5a08ca	-0.21292415
111	0xbe317ac5	-0.17331989
112	0x3d0a35ca	0.033742703
113	0xbd6aff48	-0.05737236
114	0x3f86bb96	1.0525997
115	0x3ff9da8b	1.9519819
116	0x3dce54ee	0.10074793
117	0x3e03569e	0.1282601
118	0xbfc49db9	-1.5360633
119	0x3dc33cf9	0.09533114
120	0x3e9de2a3	0.30836973
121	0x3f336f0d	0.70091325
122	0xbe187891	-0.14889742
123	0xbec2303e	-0.3792743
124	0xbea5c01e	-0.32373136
125	0x40281f87	2.6269243
126	0x3df1fb42	0.11815502
127	0x3c84adee	0.016196217
128	0x3b48865f	0.003059767
129	0x3ea1d6df	0.31609246
130	0xbea87c76	-0.32907456
131	0x3c9eb05b	0.019371202
132	0xbf5ee583	-0.8706896
133	0xbeca1439	-0.39468554
134	0xbea2b9c2	-0.31782347
135	0xbe218283	-0.15772443
136	0x3dcaa284	0.09894279
137	0xbda19798	-0.07890242
138	0x3e220513	0.15822248
139	0xbc77a1a8	-0.015114225
140	0x3f6bc76c	0.9210117
141	0x3f02f633	0.5115692
142	0xbe61d97f	-0.22055624
143	0x3f81452f	1.0099238
144	0x3eb4fe44	0.3535024
145	0xbcfd21ac	-0.030899845
146	0xbd15c4ab	-0.03656451
147	0xbd0f0a1f	-0.03492176
148	0x401722ac	2.3614912
149	0xbfadfe9d	-1.3593327
150	0xbe600e3b	-0.21880428
151	0x3de962d1	0.11395801
152	0x3e7d9081	0.24762155
153	0xbe6dd4d2	-0.23225716
154	0xbeaceb16	-0.33773106
155	0xbec07e4d	-0.3759636
156	0xbf36ac89	-0.7135702
157	0xbe675eed	-0.22594805
158	0x3d3da249	0.046297345
159	0x3cbe36dd	0.02321952
160	0xbc6d3acc	-0.01447935
161	0xbe155251	-0.14582182
162	0x3f8f9c71	1.1219617
163	0xbdddd33d	-0.10831306
164	0x3d8913fe	0.06693266
165	0x3f7eb0b8	0.994884
166	0x3ecba2fe	0.3977279
167	0x3dd5a4f2	0.104318514
168	0xbde661e5	-0.11249141
169	0x3e85c66c	0.26127946
170	0xbdf85eba	-0.12127443
171	0x3ed8993a	0.42304403
172	0x3e855244	0.26039326
173	0xbee161e8	-0.4402001
174	0x3ddaeecd	0.10690079
175	0xbfcb7cbd	-1.5897442
176	0xbca3d3f2	-0.019998524
177	0x3a73228c	0.0009274862
178	0xbe0376b8	-0.12838256
179	0xbde03f12	-0.1094953
180	0x3db50cf7	0.088403635
181	0xbcfbe453	-0.030748522
182	0x3fb0c9c4	1.3811574
183	0x3e9028b5	0.28156057
184	0xbda5ef6c	-0.08102307
185	0x3e2da388	0.16956913
186	0xbdb9bdd2	-0.090694085
187	0x3ecc940c	0.399567
188	0x3f9e2d88	1.2357645
189	0xbd177cf1	-0.036984388
190	0xbd64b79e	-0.055839173
191	0x3e362414	0.177872
192	0x3e0c05f3	0.13674144
193	0x3e4dbd8c	0.20091838
194	0xbea55bbd	-0.32296553
195	0xbd5fba70	-0.05462116
196	0x3e559c68	0.20860445
197	0xbdee96e0	-0.11649871
198	0xbde5cfa1	-0.11221243
199	0x3fb9131a	1.4458954
200	0xbe56e7f2	-0.20986918
201	0x3ff4efdf	1.9135703
202	0xbce18791	-0.027530463
203	0x3d552002	0.05203248
204	0x3ecbedf5	0.39829984
205	0xbd931f78	-0.071837366
206	0x3da9b12b	0.08285745
207	0x3ecb0ec0	0.3965969
208	0x3fa6b7b5	1.3024813
209	0x3d832d65	0.06405143
210	0xbce54d89	-0.027991073
211	0x3e88778e	0.26653713
212	0x3fac5e64	1.3466306
213	0x3e111864	0.1416946
214	0xbf3386f0	-0.70127773
215	0xbd3b1b95	-0.0456806
216	0x3ad7678f	0.0016434061
217	0x3ebef0ba	0.37293035
218	0xc02327e8	-2.5493107
219	0x402adec6	2.669847
220	0x3f147f76	0.5800699
221	0x3e2d2721	0.16909458
222	0xbd135e6b	-0.035978716
223	0x4039d632	2.9036984
224	0xc02c1091	-2.6885111
225	0x3d9d1c0c	0.07671365
226	0xbe268b28	-0.16264021
227	0x3f5416e0	0.82847404
228	0x3e552fac	0.20818967
229	0xbe2b0d81	-0.1670437
230	0xbff7b73d	-1.9352795
231	0x4012260a	2.2835717
232	0x3f57afb5	0.8425248
233	0xbb711803	-0.0036787994
234	0x3d5c6eb8	0.053816527
235	0xbea2e146	-0.31812495
236	0x3fa3b6f3	1.2790207
237	0x3f421fe9	0.7582994
238	0xbf515883	-0.81775683
239	0xbefd3251	-0.4945245
240	0x3ee6beab	0.45067343
241	0xbf937d3e	-1.1522596
242	0xbd3963cb	-0.045261186
243	0xbcc019c2	-0.023449782
244	0x3e683a61	0.2267852
245	0x3e592866	0.21206817
246	0xbe76c900	-0.24100113
247	0x3e63c11e	0.22241637
248	0xbebdcda0	-0.37070942
249	0x3d139cd9	0.036038253
250	0xbe301084	-0.171938
251	0x3cd91272	0.026498053
252	0xbeeff9a2	-0.46870142
253	0xbc25a5b2	-0.010110306
254	0x3f8a494c	1.0803618
255	0xbe91c507	-0.28470632

convs.2.bias f4 [256]
0	0x3f44e159	0.76906353
1	0xbd0596c0	-0.03261447
2	0xbf94cc33	-1.1624817
3	0xbf4f90cc	-0.8108032
4	0x3f097b88	0.5370412
5	0x3f78787e	0.97058856
6	0x3eb5dca3	0.35519895
7	0xbe4d5f59	-0.20055903
8	0x3df66b45	0.12032179
9	0x3efc4f83	0.49279413
10	0xbe0948ff	-0.13406752
11	0xbce9ed86	-0.028555643
12	0x3f830b05	1.0237738
13	0xbf92d636	-1.1471622
14	0x404cf35a	3.202353
15	0x3feab936	1.8337772
16	0xbf64853d	-0.89265805
17	0x3fa714ed	1.3053261
18	0x3db03b74	0.0860509
19	0xbf38a975	-0.7213357
20	0x3f935417	1.1510037
21	0x3de40305	0.111333884
22	0xbe2c57c3	-0.16830353
23	0x3feccb9c	1.8499637
24	0xbf48a7b6	-0.78380907
25	0xbf2c77fa	-0.6737057
26	0x3e904f47	0.28185484
27	0xbed9b0aa	-0.42517596
28	0x3eea1217	0.45716926
29	0x3e9e7a89	0.30952862
30	0x3f7ff53f	0.9998359
31	0xbf04ee20	-0.5192585
32	0xbf30e52e	-0.690997
33	0xbe3d67d6	-0.18496642
34	0x3ee56bae	0.44808716
35	0xbdab0f40	-0.08352518
36	0x3f88fd39	1.0702277
37	0x3f1f13f6	0.6213983
38	0xbead3faf	-0.3383765
39	0x3f2cc336	0.6748537
40	0xbf24d611	-0.6438914
41	0x3dd751a1	0.10513616
42	0x3e59b712	0.21261242
43	0x3fc08611	1.5040914
44	0xbf05a83a	-0.5220982
45	0x3ec3a5da	0.38212472
46	0xbf457a98	-0.7714019
47	0x3f7695e6	0.96322477
48	0x3f1670ab	0.5876567
49	0xbe615a58	-0.2200712
50	0x3f6d608a	0.9272543
51	0xbeacc879	-0.33746698
52	0xbf4ff93a	-0.81239665
53	0xbf345da8	-0.7045541
54	0x3f5d9509	0.86555535
55	0xbeb2f966	-0.349559
56	0x3d099bdc	0.033595905
57	0xbd14eb9f	-0.03635752
58	0xbf0e90c5	-0.5568965
59	0x3f229b9b	0.63518685
60	0xbe9b594d	-0.3034157
61	0x40958526	4.6725035
62	0x3f751708	0.9573827
63	0x3e82e349	0.2556403
64	0xbdb754e8	-0.089517415
65	0x3f02b912	0.51063645
66	0x3e5b4b8c	0.21415538
67	0x3ee4417c	0.4458121
68	0x3d6ca28c	0.057772204
69	0x3e29de77	0.1658877
70	0x3f5df8e2	0.8670789
71	0xc0079453	-2.118428
72	0x3f369e88	0.7133565
73	0xbe8ba568	-0.27274632
74	0xbf3cf88d	-0.7381676
75	0x3fb95174	1.4477983
76	0xbd9b4aa6	-0.075825974
77	0xbec4d22e	-0.38441604
78	0x408f7a66	4.483691
79	0xbea27a95	-0.31734148
80	0xbee54d85	-0.44785705
81	0xbeb4507a	-0.3521765
82	0xbe53e4d8	-0.20692766
83	0x3f041595	0.5159543
84	0x3f971281	1.1802522
85	0xbf7a5db1	-0.9779921
86	0x3fe6a926	1.802037
87	0x3f57cf3a	0.8430058
88	0xbf2d47bd	-0.6768759
89	0x3e413bad	0.18870421
90	0x3f439d8a	0.7641226
91	0x3f2c96db	0.6741769
92	0xbe9fb00f	-0.3118901
93	0xbf64a411	-0.89312845
94	0x3eeb0502	0.45902258
95	0x3e86e7d4	0.26348746
96	0x3fa4ebf2	1.2884505
97	0x3f27c7c9	0.6553922
98	0xbe53d49f	-0.20686577
99	0x3f7bdbd6	0.9838232
100	0x3f0009a1	0.5001469
101	0x3ead860f	0.3389134
102	0xbeafe834	-0.34356844
103	0x3f0c2a63	0.54752177
104	0x3e4dd258	0.20099771
105	0x400c954d	2.1966126
106	0x3e6e83cf	0.23292468
107	0x3f3365d7	0.7007727
108	0xbf027204	-0.50955224
109	0x3de7fbe8	0.11327344
110	0x406844f3	3.6292083
111	0x3f06a824	0.5260031
112	0xbe87158c	-0.26383626
113	0x3e3219a4	0.17392594
114	0x3e5e5d2b	0.21715228
115	0xbf1e9af5	-0.61955196
116	0xbe362faa	-0.1779162
117	0x3f07c850	0.5304003
118	0x3f84e96d	1.0383736
119	0xbfb711de	-1.4302328
120	0xbc9ed77c	-0.01938986
121	0x3e65e30f	0.22449897
122	0xbf12a009	-0.57275444
123	0x3d3e117c	0.046403393
124	0x3ed9de08	0.4255221
125	0x3eaca3a9	0.33718613
126	0xbf25918c	-0.6467521
127	0x3df0b6c0	0.11753607
128	0x3e3e5387	0.1858655
129	0x4080fbb2	4.0307245
130	0x3ddc2ef9	0.10751147
131	0xbd9ee9a1	-0.07759405
132	0x3f47f742	0.7811166
133	0x3e050ec3	0.12993912
134	0xbe8799ab	-0.26484427
135	0x3fbfc89f	1.49831
136	0x3f2df878	0.6795726
137	0x39807452	0.00024500728
138	0xbdaa9d64	-0.08330801
139	0xbf93dd29	-1.1551868
140	0x3f9ab0c2	1.2085192
141	0xbce322f2	-0.027726624
142	0xbfa9eb02	-1.3274844
143	0x3f7a78df	0.97840685
144	0x3eadf5cc	0.3397659
145	0x3e3e264c	0.18569297
146	0x3e1aeae5	0.15128668
147	0x3ed1dbca	0.40987998
148	0x3d4a706f	0.04942363
149	0xbf25a250	-0.64700794
150	0x40dcbf9e	6.898391
151	0xbf837c19	-1.0272247
152	0xbf6f10fe	-0.93385303
153	0x3eb1175f	0.34588143
154	0xbf100df4	-0.5627129
155	0xbe5efe45	-0.21776684
156	0x3f1c5674	0.61069417
157	0x3d82f9c6	0.06395297
158	0xbf245d13	-0.6420452
159	0xbe810956	-0.25202435
160	0xbea3aee5	-0.3196937
161	0x3f6dae35	0.92843944
162	0x3fbbe423	1.4678997
163	0x3f08001d	0.5312517
164	0xbf079613	-0.5296337
165	0xbe116e83	-0.14202313
166	0xbeabd071	-0.33557466
167	0xbf227310	-0.6345682
168	0xbe09c6d2	-0.1345475
169	0xbf83237e	-1.0245206
170	0xbd8b5156	-0.06802623
171	0x3fb5404c	1.4160247
172	0x3f532f3d	0.82493955
173	0x3dcef4b8	0.1010527
174	0xbea3a545	-0.31962028
175	0x3fe58de3	1.7933925
176	0x3ee4daf2	0.44698292
177	0x3f5a54b8	0.8528552
178	0x3f77ada7	0.9674935
179	0x3ee98fd9	0.4561756
180	0x3f006011	0.50146586
181	0x3f9e174a	1.2350857
182	0xbf4c19e3	-0.79727
183	0xbdc0b372	-0.094092265
184	0xbe957f3f	-0.29198644
185	0x3fde6b5a	1.7376511
186	0xbb88541b	-0.004160417
187	0xbd996bd6	-0.07491271
188	0x404ef1a2	3.233498
189	0x3ea0fb84	0.3144189
190	0x3e9d7671	0.30754426
191	0x3ea66215	0.32496706
192	0x3fe89758	1.8171186
193	0x3dc92461	0.09821392
194	0x3cfaab72	0.03059933
195	0xbd8c696f	-0.06856047
196	0x3f08572a	0.53258
197	0xbef6bbbb	-0.48190102
198	0xbf27aba4	-0.6549628
199	0xbf0d12c1	-0.5510674
200	0x3e82a012	0.2551275
201	0x3f731d42	0.9496652
202	0xbf975575	-1.1822954
203	0x3eb0900e	0.34484905
204	0x3fc84eb3	1.5649017
205	0x3ea4b86f	0.32171962
206	0x401ddcf5	2.4666111
207	0xbf521c88	-0.82074785
208	0x3e4ad670	0.19808364
209	0x400367f9	2.053221
210	0x3d5a598d	0.05330806
211	0x3e6889d4	0.22708827
212	0xbd7c0a3c	-0.061533198
213	0x3ea59228	0.3233807
214	0xbed93590	-0.42423677
215	0x3d20cf3c	0.039260134
216	0x3c8c35e9	0.01711555
217	0xbf41c89f	-0.7569675
218	0xbfc641d9	-1.5488845
219	0x3e8f7dad	0.2802557
220	0xbda5b8e0	-0.08091903
221	0xbe9d1893	-0.3068281
222	0xbf881b21	-1.0633279
223	0x3f209a29	0.6273523
224	0x3fd97830	1.6989803
225	0x3d6aad8b	0.05729441
226	0xbf07ec5c	-0.5309503
227	0x3ff369e3	1.9016689
228	0xbe78416d	-0.24243708
229	0x3e5cdb82	0.2156811
230	0x40a1b04e	5.0527716
231	0xbf65d639	-0.8978
232	0x3d7dbdd2	0.061948605
233	0x3fab5317	1.3384732
234	0xbf364cb4	-0.7121079
235	0x3e264504	0.16237265
236	0x3f2c12d3	0.67216223
237	0xbe04a082	-0.12951854
238	0x3df398d3	0.11894383
239	0x3ee4a4f1	0.4465709
240	0x3e75a784	0.23989683
241	0xbf7e22a3	-0.992716
242	0xbbdd4847	-0.006753001
243	0x3f54fb38	0.8319583
244	0x3f99440d	1.1973892
245	0x3ec3323c	0.38124263
246	0xba5df728	-0.000846731
247	0xbdc1ae9d	-0.09457133
248	0x3f761f58	0.96141577
249	0x3ecf5bf1	0.40499833
250	0x3eacef48	0.33776307
251	0x3ee1e4e0	0.4411993
252	0x3f1ea2bf	0.6196708
253	0xbe680371	-0.22657563
254	0xbc95a3e9	-0.018266635
255	0x3f89d846	1.0769126

convs.2.lin.weight f4 [256, 256]
0	0x3fe1e677	1.7648457
1	0x3f6d0265	0.9258178
2	0x3ea2676e	0.31719536
3	0x3f0c88e7	0.54896396
4	0x3f369714	0.71324277
5	0xbf512beb	-0.8170764
6	0xbe139021	-0.1441045
7	0x3f60c163	0.87795085
8	0x40117cff	2.2732542
9	0xbd2b26af	-0.04178494
10	0x3f0e9cb1	0.5570784
11	0x3f1340c1	0.5752068
12	0x3fc7e44d	1.5616547
13	0x3e2c42f2	0.16822413
14	0xbf831f82	-1.024399
15	0x3d84e13d	0.06488273
16	0x3f382b75	0.7194131
17	0x3e2cfd79	0.16893567
18	0xba82cc67	-0.000997913
19	0x3f00cc82	0.50312054
20	0xbee5df8e	-0.4489712
21	0xbe371501	-0.17879106
22	0x3df27213	0.11838164
23	0x3eaf5927	0.34247705
24	0x3faea4dd	1.3644062
25	0xbf703aff	-0.9384002
26	0xbe7f0726	-0.2490507
27	0x3e0a6337	0.1351441
28	0x3eef7fbc	0.4677714
29	0x3f1756c8	0.5911679
30	0x3ed3e9fb	0.4138945
31	0x3e9803d1	0.29690412
32	0xbf1b4ba0	-0.6066227
33	0x3f89db0a	1.076997
34	0x3ec0aad8	0.37630343
35	0xbf1da987	-0.61586803
36	0x3e54197a	0.20712844
37	0x3e1032f6	0.1408194
38	0xbc3e4fc3	-0.011615696
39	0x3f8b914e	1.0903718
40	0xc0186b7f	-2.381561
41	0xbe1458e5	-0.14487036
42	0xbf622b06	-0.883469
43	0x3f60fac2	0.87882626
44	0xbe769c4a	-0.24083057
45	0x3fab5fd3	1.3388618
46	0xbf7a1154	-0.9768269
47	0x3e2fefaf	0.17181276
48	0x40074916	2.1138358
49	0x3fa681c6	1.3008354
50	0xbd07c707	-0.03314879
51	0x3f04087c	0.51575446
52	0x3fa8f829	1.3200732
53	0xbf9068da	-1.1281998
54	0x3f0cb369	0.5496126
55	0xc02694ed	-2.6028397
56	0xbf92e39c	-1.1475711
57	0xbe80021a	-0.25001603
58	0xbd5ca68f	-0.05386978
59	0xbf0a4659	-0.5401359
60	0x3c9973ea	0.01873203
61	0xbf3fa07d	-0.7485426
62	0x3f44c895	0.76868564
63	0xbfa01324	-1.2505841
64	0x3e13688f	0.14395355
65	0x3e4db46d	0.20088358
66	0x3e9b17cb	0.3029159
67	0x3ee88e2a	0.45420963
68	0xbeb4467b	-0.35210022
69	0xbd277aee	-0.04088872
70	0xc00cb122	-2.1983113
71	0xbf85baa8	-1.0447588
72	0x3d887d61	0.06664539
73	0x3b96d1d2	0.0046026492
74	0xbf50772b	-0.81431836
75	0xbf5c553a	-0.86067545
76	0x3e6ce769	0.23135151
77	0x3d417a59	0.04723582
78	0xbf2072d6	-0.62675226
79	0x3f8c04a6	1.0938919
80	0x40129ef4	2.2909517
81	0xbfa891b9	-1.3169471
82	0xbf93351c	-1.1500583
83	0x3f4a0571	0.7891455
84	0xc0064fde	-2.0986247
85	0xbcca8a72	-0.024724219
86	0xbe6b42d8	-0.22974718
87	0xbea183a3	-0.31545743
88	0xbefc7b8b	-0.49313006
89	0x3f509dc6	0.81490743
90	0x3daeb5db	0.0853078
91	0xbff8c685	-1.9435583
92	0x3f35bf28	0.70994806
93	0x3e8ef563	0.2792159
94	0x3dcae75a	0.09907408
95	0xbf5aca11	-0.8546458
96	0x3c76ad4c	0.015055966
97	0xbf7752ce	-0.96610725
98	0xbd8953a4	-0.06705406
99	0x3eb058e5	0.3444282
100	0x3e24e8ed	0.16104479
101	0x3d114e0e	0.03547483
102	0xbf87b453	-1.0601906
103	0x3faed602	1.365906
104	0xbed47044	-0.41491902
105	0x3efcf320	0.4940424
106	0x3f8a0032	1.078131
107	0x3bbd10dc	0.005769832
108	0x3dd68e5a	0.1047637
109	0x3f6e751a	0.9314743
110	0xbefb1c6a	-0.49045116
111	0xbfae0a36	-1.3596866
112	0xbf5847dd	-0.84484655
113	0x3e2eab7f	0.17057608
114	0x3e10da98	0.14145887
115	0xbfcf2b2c	-1.618505
116	0xbf88d020	-1.0688515
117	0xbeb4a51a	-0.35282212
118	0xbfbd92b7	-1.4810399
119	0x3f87da2d	1.0613457
120	0xbe510676	-0.20412621
121	0x3b08699d	0.0020814904
122	0x3ef3f609	0.47648647
123	0x3fa6380a	1.2985852
124	0xbf3c500d	-0.7355965
125	0xbe590af6	-0.21195588
126	0x3fd3f654	1.6559548
127	0xbf8b438b	-1.0879987
128	0x3e1b3dcd	0.15160294
129	0x3f465b65	0.77483207
130	0xbe90e362	-0.2829848
131	0x3f018b35	0.5060304
132	0x3f515f1d	0.81785756
133	0x3ff91a18	1.9461088
134	0x3ec3919e	0.38197035
135	0x3d4ab015	0.04948433
136	0x3ec2c5f1	0.38041642
137	0xbf7346c7	-0.9502987
138	0xbf8962b1	-1.0733243
139	0x3f8536ce	1.040735
140	0x405df71b	3.4682071
141	0x3f8646bb	1.0490335
142	0x3f0062a5	0.5015052
143	0x3f563a72	0.8368293
144	0xbe5974b2	-0.21235922
145	0xbfd5c251	-1.6699926
146	0xc003aaf2	-2.0573087
147	0x3d899b81	0.06719113
148	0x3f825334	1.0181642
149	0xbfc1d4c1	-1.5143052
150	0xbe92f2c4	-0.2870084
151	0xc00acebc	-2.168868
152	0xbf40b3f2	-0.75274575
153	0x3fbccae5	1.4749418
154	0xbe3c666e	-0.18398449
155	0x402abed8	2.6678982
156	0xbeefddbc	-0.46848857
157	0x3cdd5e59	0.027022528
158	0xbe1a694e	-0.15079233
159	0xbf09f162	-0.53883946
160	0x3fadb6ec	1.3571448
161	0x3eabc1a7	0.33546183
162	0xbfea347a	-1.8297265
163	0x3f657e37	0.89645714
164	0xbefd2066	-0.4943878
165	0x3ff16f55	1.8862101
166	0x3fc20b70	1.515974
167	0x3f4dd1ae	0.8039807
168	0x3e9e3d08	0.30905938
169	0xbfdafed1	-1.7109014
170	0xbec296c1	-0.3800564
171	0x3f28b543	0.65901583
172	0x40027c0f	2.038822
173	0xbd92f22e	-0.07175098
174	0xbfb97127	-1.4487656
175	0xbf96e727	-1.1789292
176	0xbe6fc913	-0.23416547
177	0xbfae3d68	-1.361249
178	0xbfa0f862	-1.25758
179	0xc006c91f	-2.1060255
180	0xbe5db31f	-0.2165036
181	0x3f7b2d0e	0.98115623
182	0xbdb24579	-0.08704657
183	0x3ee96dee	0.45591682
184	0xbe6dcef7	-0.23223482
185	0xbf55b48c	-0.8347862
186	0xbf342bc9	-0.7037931
187	0x3f7cec1e	0.98797786
188	0xbcb0b10a	-0.021568794
189	0xbf95431f	-1.1661109
190	0xbf885893	-1.0652031
191	0x3e9c6cec	0.3055185
192	0xbe36e542	-0.17860892
193	0x3fcafece	1.585901
194	0xbf4ee869	-0.8082338
195	0xbe5a9e33	-0.2134941
196	0xbe5e6c51	-0.21721007
197	0x3f1d40f1	0.6142722
198	0x3f61cfb1	0.88207537
199	0x3dcc1b5a	0.099661544
200	0x3f1c2538	0.6099429
201	0x3e8abb13	0.2709585
202	0xbebc1e7d	-0.3674201
203	0xbfcc0b3f	-1.5940932
204	0x3da98c77	0.08278745
205	0x3efc3918	0.4926231
206	0x3d1621a4	0.036653176
207	0x40173f55	2.3632405
208	0xbe00e24e	-0.12586328
209	0x3fa32f7d	1.2748867
210	0xbe88b179	-0.266979
211	0x3ec6e794	0.38848555
212	0x3e355b0a	0.1771051
213	0xbcb2b966	-0.02181692
214	0xbfa8bd8f	-1.3182849
215	0xbdb722dc	-0.08942196
216	0x3f796f6f	0.9743566
217	0x3f74913c	0.9553411
218	0xbf8937cf	-1.0720156
219	0x3d989717	0.07450693
220	0x3eceea9b	0.40413365
221	0xbece6881	-0.40314105
222	0x3f0da188	0.553246
223	0x3f5ca780	0.86193085
224	0x3f9adf36	1.2099369
225	0xbf190aa7	-0.5978188
226	0x3f7f401d	0.99707204
227	0xbf2de0dc	-0.67921233
228	0x3f8e1778	1.1100912
229	0xbd3c8b37	-0.046031203
230	0xbf64fc7b	-0.89447755
231	0xbf037e6f	-0.513648
232	0xbe9a6719	-0.30156782
233	0x3e45cf7f	0.19317435
234	0x3fc3954c	1.5279937
235	0x3d99a2c7	0.075017504
236	0xbec56431	-0.38553002
237	0xbf67547d	-0.90363294
238	0x3fad9739	1.3561774
239	0x3db20349	0.08692033
240	0x3e4b2169	0.19836964
241	0x3f99e77c	1.2023768
242	0x3f70acda	0.9401375
243	0xbfcbc6e1	-1.5920068
244	0xbf068feb	-0.5256335
245	0x3dec7c9f	0.11547207
246	0xbfacfaf1	-1.3514081
247	0xbf0108a4	-0.5040381
248	0x3f5fc0a8	0.87403345
249	0xbf0460c4	-0.5171015
250	0x3e0f3755	0.13985951
251	0xc00545cb	-2.0823848
252	0x3d887e1b	0.06664678
253	0x3e0d35f6	0.13790116
254	0x3f7ff774	0.9998696
255	0x402601d1	2.5938609

lins.0.0.weight f4 [256]
0	0x3e9cdf2a	0.3063901
1	0x3f39a3bc	0.72515464
2	0x3e9f7519	0.31144026
3	0x3fbe9dbd	1.4891888
4	0x3fcca30c	1.5987258
5	0x3f0c73c3	0.5486414
6	0x3f72436f	0.94634145
7	0x3fb40f46	1.4067161
8	0x3e4d7419	0.20063819
9	0x3f9a636b	1.206159
10	0x3f19b8f1	0.60047823
11	0x3edd0cd2	0.43173844
12	0x3f978b19	1.1839324
13	0x3ede3747	0.43401548
14	0x3ff7b68b	1.9352583
15	0x3f0a924a	0.5412947
16	0x3f1e65a5	0.6187385
17	0x3ebda754	0.37041724
18	0x3fb57310	1.4175739
19	0x3f08da51	0.53458124
20	0x3fa68ce6	1.3011749
21	0x3e80693d	0.2508029
22	0x3f9491eb	1.1607031
23	0x3f65d55f	0.89778703
24	0x3ede272f	0.4338927
25	0x3ee648d5	0.4497744
26	0x3ed97fa7	0.42480204
27	0x3e602ed2	0.2189286
28	0x3f11ffe9	0.5703111
29	0x3f0c7769	0.54869705
30	0x4004762d	2.0697129
31	0x3f8422d3	1.0323128
32	0x40124a2c	2.285777
33	0x3f8a43a4	1.0801892
34	0x3fb3903f	1.4028395
35	0x3ee6839a	0.4502228
36	0x3f03e445	0.51520187
37	0x3f253eee	0.6454915
38	0x3edb162b	0.4279035
39	0x3ea76228	0.32692075
40	0x3f05d059	0.5227104
41	0x3fafc485	1.3731848
42	0x3fcba19e	1.5908697
43	0x3d972e80	0.07381916
44	0x3ee8a73f	0.454401
45	0x3fb841e0	1.4395103
46	0x3f263138	0.6491885
47	0x3f04e21f	0.51907533
48	0x3ff6c819	1.9279815
49	0x405cb9b3	3.4488342
50	0x401e0c12	2.4694867
51	0x3fc40b32	1.5315917
52	0x3fbb6585	1.4640356
53	0x3fc88221	1.5664712
54	0x3e885565	0.2662765
55	0x3e758baa	0.23979059
56	0x3ead6c6a	0.33871776
57	0x3e5c53b3	0.21516304
58	0x3f124e0f	0.5715036
59	0x40062e38	2.096571
60	0x3ef25b05	0.47335067
61	0x3ee55f9f	0.44799516
62	0x3fc4fc65	1.5389525
63	0x3fdd9a32	1.7312682
64	0x3fd719ee	1.6804788
65	0x3eb08dff	0.34483334
66	0x3e9f38b9	0.31097963
67	0x3fbffa88	1.4998331
68	0x3ea57df8	0.3232267
69	0xbdeb0c1d	-0.1147692
70	0x3ecad374	0.3961445
71	0x3eaef35a	0.34170038
72	0x3f016413	0.50543326
73	0x3fda0031	1.7031308
74	0x3e3ac01a	0.18237343
75	0x3e224869	0.15847935
76	0x3e71e9dd	0.23624368
77	0x3fc0528d	1.5025192
78	0x3f8c0582	1.0939181
79	0x3ee287b2	0.44244152
80	0x3ef83650	0.48478937
81	0x3fcb053b	1.5860971
82	0x3e93fde8	0.28904653
83	0x3f1137d8	0.56725836
84	0x3fd22a91	1.641924
85	0x3e59acf7	0.21257387
86	0x3f8c6a84	1.0970006
87	0x3ff4f222	1.9136393
88	0x3ea910ec	0.33020723
89	0x3f9fa5a4	1.2472425
90	0x3efa9355	0.4894053
91	0x3fee8243	1.8633503
92	0x3e88dfa2	0.26733118
93	0x3fc44795	1.5334345
94	0x3e9341fa	0.28761274
95	0x3f072a36	0.52798784
96	0x3e94e3dd	0.29080096
97	0x3f7901ca	0.97268355
98	0x3e6e0ce0	0.23247099
99	0x3faffcff	1.3749083
100	0x4019942a	2.3996682
101	0x3f3bb39c	0.7332094
102	0x3fb5e696	1.4210994
103	0x3ed7d35f	0.4215345
104	0x3ecd9468	0.40152287
105	0x3f928053	1.1445411
106	0x3fc03aec	1.5017982
107	0x3f891514	1.0709558
108	0x3f584d1e	0.8449267
109	0x3eee7d24	0.4657985
110	0x3e81de2b	0.25364813
111	0x3f35b082	0.70972455
112	0x3f1a813d	0.6035345
113	0x3eded0e7	0.43518755
114	0x3fd5c24c	1.669992
115	0x3febf601	1.843445
116	0x3efcdaf2	0.49385792
117	0x3fd4e25b	1.6631578
118	0x3fe1a85e	1.7629507
119	0x3eb23ea9	0.3481343
120	0x3fa645e3	1.2990078
121	0x3fbf45e7	1.4943208
122	0x3f0df0f5	0.55445796
123	0x3eb0393f	0.34418675
124	0x3faeb89f	1.3650092
125	0x3f9053f8	1.1275625
126	0x3ede1c7a	0.433811
127	0x3e6544cc	0.22389525
128	0x3e86684a	0.2625144
129	0x3fa48571	1.2853223
130	0x401d295d	2.4556496
131	0x3dcb99ab	0.09941419
132	0x3fbea787	1.4894875
133	0x3f9a1557	1.2037762
134	0x40410140	3.0157013
135	0x3ec9ff97	0.39452812
136	0x3f061095	0.5236905
137	0x3e486d3e	0.19572923
138	0x3fc3bd29	1.5292102
139	0x3edbfb39	0.42965105
140	0x3fcbd840	1.5925369
141	0x3f95d80b	1.1706556
142	0x3e1645aa	0.14675012
143	0x3facfed2	1.3515265
144	0x3f0ae734	0.5425904
145	0x3f8e8555	1.113444
146	0x3ec0d0ba	0.37659246
147	0x3ef04056	0.46924084
148	0x4007e80f	2.1235387
149	0x3fc6d616	1.5534084
150	0x3efa1dca	0.48850852
151	0x3fcd15d5	1.6022288
152	0x3eee9b25	0.4660274
153	0x3fffaa48	1.9973841
154	0x3f03101f	0.51196474
155	0x3eda58b3	0.42645797
156	0x3fb3b862	1.4040644
157	0x3f965edb	1.1747698
158	0x3f4a7926	0.7909111
159	0x3ebd0ba2	0.36922938
160	0x3e45b1ff	0.19306181
161	0x3f107d56	0.5644125
162	0x3f91ff2f	1.1406001
163	0x3ee98eb0	0.45616674
164	0x3eb5c86e	0.35504478
165	0x3fceabaa	1.6146138
166	0x3fdc5b27	1.7215317
167	0x3efebdee	0.4975428
168	0x3f0bbe66	0.545874
169	0x3ec9261d	0.3928689
170	0x3f71aef7	0.944076
171	0x3fb00733	1.3752197
172	0x3e957faf	0.29198977
173	0x3febeff3	1.8432602
174	0x3ef622f6	0.48073548
175	0x3ff5cb1b	1.9202608
176	0x3ede425e	0.4341001
177	0x3f94346e	1.15785
178	0x3fc1d91c	1.5144382
179	0x3fc4cdb0	1.5375271
180	0x3fbbd79b	1.4675173
181	0x3ea71e51	0.32640317
182	0x3fa60401	1.2969972
183	0x3f0c7cec	0.54878116
184	0x3ef99273	0.48744544
185	0x3ed6a5bf	0.4192333
186	0x3e8cb975	0.27485242
187	0x4029713c	2.6475363
188	0x401a40ae	2.4101977
189	0x3eec7032	0.46179348
190	0x3f01ea9f	0.5074863
191	0x3eccce89	0.40001324
192	0x3eca488d	0.39508477
193	0x3f02806a	0.50977194
194	0x3fb8fadf	1.445156
195	0x3f0ba3d8	0.5454688
196	0x3fc47cc8	1.535058
197	0x3fd4d8ac	1.6628623
198	0x3ec2cbfd	0.38046256
199	0x4062f433	3.5461547
200	0x3e6f5e3e	0.23375794
201	0x40508579	3.2581465
202	0x3e8682f3	0.2627178
203	0x3e9fb27f	0.3119087
204	0x3ec634ec	0.3871225
205	0x3ea034eb	0.31290373
206	0x3fa5977e	1.2936857
207	0x3ed82fe6	0.42224044
208	0x3fefe294	1.8741021
209	0x3e96f45b	0.29483303
210	0x3f2585e9	0.64657456
211	0x3f442b14	0.7662823
212	0x3fd39780	1.6530609
213	0x3d9b38fa	0.07579227
214	0x3f2e51f5	0.68093807
215	0x3e6707ac	0.2256152
216	0x3f0dc39f	0.5537662
217	0x3fe0588c	1.7527022
218	0x3fa96e8d	1.3236862
219	0x40247e26	2.5701995
220	0x3f42236b	0.75835294
221	0x3f039b7a	0.51409113
222	0x3d506fca	0.05088786
223	0x3faec797	1.365466
224	0x3fdcf440	1.7262039
225	0x3e6d13d6	0.23152098
226	0x3ec63396	0.38711232
227	0x3f7d05c1	0.98836905
228	0x3fabd20f	1.342348
229	0x3eb44279	0.35206965
230	0x400704f2	2.1096768
231	0x401dd1b3	2.465924
232	0x3fc9135e	1.5709035
233	0x3f2b867e	0.67002094
234	0x3e3464d5	0.1761659
235	0x3f159f12	0.5844585
236	0x3f7bd3c2	0.9836999
237	0x4034f1d7	2.8272607
238	0x3fbc597a	1.4714806
239	0x3fe6c3e0	1.8028526
240	0x3fae0fc3	1.359856
241	0x3fa1d6e2	1.2643702
242	0x3ee7feb3	0.45311508
243	0x3e5cfcf8	0.21580875
244	0x3fa5a8e0	1.2942162
245	0x3f101668	0.5628419
246	0x3efe2649	0.49638584
247	0x3f3bede1	0.7340985
248	0x3f8fe761	1.1242486
249	0x3f05eee4	0.52317643
250	0x3eb99927	0.36249658
251	0x3e37b5f8	0.1794051
252	0x3fc619c5	1.5476614
253	0x3f3bdf7c	0.73387885
254	0x3f03fcf5	0.51557857
255	0x3fca252f	1.5792598
