models/ogbl-collab_CN_2_1_0_run4_sigvae.pt (torch, 160127 bytes, 6 tensors)

z_embedding.weight f4 [1000, 32]
000000 1c 93 f6 3f 9e 2a c0 3f 99 aa 6b 3f eb e6 06 c0
       1.9263644 1.5013006 0.92057186 -2.107844
000010 48 b5 2b 3f e6 fa 95 bf 1c 34 c1 bd 99 e6 ca bf
       0.6707349 -1.1717193 -0.09433767 -1.5851623
000020 b3 59 38 bf 4a dc d1 3f 06 be b7 be 19 e9 af bf
       -0.7201187 1.6395352 -0.35887164 -1.3743011
000030 38 12 40 bf 49 35 0f bf dd 9d 31 bf 70 9a 4b 3f
       -0.750278 -0.5594068 -0.69381505 0.7953253
000040 a2 23 cb 3f 74 33 ed bd 6f ed e4 be e9 65 bd 3e
       1.5870249 -0.115820795 -0.44712397 0.36991814
000050 96 a1 40 bf 6c b7 84 3f 17 c1 55 3f 72 cc da 3f
       -0.7524656 1.0368476 0.83497757 1.7093642
000060 c2 cf a2 3f 11 29 9f 3f 35 d0 19 3f c2 86 a7 3f
       1.2719653 1.2434407 0.60083324 1.3088
000070 5f f3 4e be 08 51 07 3d bb 9c 87 be f7 ab 4f 3f
       -0.20210026 0.03303626 -0.26486763 0.8112177
000080 93 11 31 c0 db b5 2a c0 73 ab 8e bf 1e 81 22 40
       -2.7666976 -2.6673496 -1.1146072 2.5391307
000090 c7 83 62 3f ed a1 18 be ba a5 d3 3f 2d 85 c8 bf
       0.88482326 -0.1490552 1.6534951 -1.5665642
0000a0 83 4c 0a c0 4e ef 7b 3f 76 8e 0a c0 27 24 88 bf
       -2.16092 0.98412025 -2.1649451 -1.0636033
0000b0 df 12 0e c0 8b 01 5f 40 31 74 18 c0 ea 9b 38 bf
       -2.2199018 3.4844692 -2.3820918 -0.72112906
0000c0 81 c6 94 bf 47 08 fb bf 35 ca a9 be 20 7e fd 3f
       -1.1623079 -1.9611901 -0.33162084 1.9804115
0000d0 6f 12 6e bf 99 a4 f9 3f 6c 27 17 c0 8a d7 87 bf
       -0.9299688 1.9503356 -2.3617811 -1.0612652
0000e0 9c c8 66 c0 34 3d 87 bf 52 d8 01 bf ae fa e9 3f
       -3.6059942 -1.0565553 -0.50720704 1.8279626
0000f0 f9 7e 0b 3f ea 23 2b 40 26 cd 01 c0 6f f7 0f 40
       0.5449062 2.674067 -2.0281463 2.2494771
000100 25 fa b8 3f da 3d 5b 3f f4 f4 0d 40 2d ee 05 3f
       1.4451338 0.85641253 2.2180758 0.5231655
000110 ac 7b b1 3e 41 11 4a be c5 fc 86 bf 5c 95 a3 3f
       0.34664667 -0.19733144 -1.0545889 1.2779956
000120 9c 52 30 be 00 17 06 3f 48 ec 67 3d 7d 43 da 3e
       -0.17219013 0.52378845 0.05662182 0.42629614
000130 88 33 13 3f 08 48 24 bf a2 35 0d c0 a1 34 40 bf
       0.57500505 -0.6417241 -2.2063985 -0.75080305
000140 4d 10 32 3c a3 6f ad be 63 9b ab bf d8 da 15 bf
       0.010868144 -0.33874235 -1.3406795 -0.58537054
000150 a0 43 09 3f ab 4d 06 3f e5 12 92 3f 3c 88 53 3d
       0.5361881 0.5246226 1.1412016 0.051643595
000160 a3 73 3e 3f 3b 92 f6 be e8 54 86 bf 1d 99 1a 3f
       0.743952 -0.4815844 -1.0494661 0.6038988
000170 2a 74 dc bf a9 e8 53 bf 8c d7 aa 3f 76 92 f7 3e
       -1.722295 -0.82776886 1.334703 0.48353928
000180 60 9c 20 c0 46 db f9 3e af da 48 3f 81 ad ea 3c
       -2.5095444 0.48800105 0.78458685 0.028647186
000190 8a 08 24 3f b4 4f 15 3f 0e 91 88 3f 81 7a e6 be
       0.6407553 0.5832474 1.0669267 -0.45015338
0001a0 c2 b6 3d be ce b4 40 3f 6a 3c cf 3e ca bf 36 3e
       -0.18526748 0.75275886 0.4047578 0.17846599
0001b0 38 a2 87 3e 2e f7 a2 3f 49 d1 ab ba f4 71 9b be
       0.2649095 1.2731683 -0.0013108636 -0.30360377
0001c0 ee 7f ba bf 23 95 d1 bd 18 62 19 bf bd 40 f4 3e
       -1.4570291 -0.10233524 -0.59915304 0.4770564
0001d0 c0 e6 39 3f d4 ad ba 3d 8e 33 c7 be 89 25 07 3f
       0.7261772 0.09115186 -0.3890652 0.5279165
0001e0 c1 d6 4f bc cc 9d 76 3e 5a b7 07 3e 46 a5 43 3f
       -0.012685479 0.24083632 0.13253537 0.7642406
0001f0 47 29 8c 3f 30 06 ae 3e ca 4f 38 3f 05 a4 d2 3e
       1.0950097 0.33989096 0.7199675 0.41140762
000200 45 30 f7 3f c1 84 81 3f 2b dc b7 bf 3f 9f 90 bf
       1.9311606 1.0118638 -1.4364065 -1.1298598
000210 a3 4c 0b be 1a 55 d1 3f 17 9d 27 3f 09 75 13 3f
       -0.13603453 1.6354096 0.65474075 0.57600456
000220 ef 1c 92 3f bd 14 98 3c 9f 24 e7 bf 4d e9 6c 3f
       1.141508 0.018564576 -1.8058051 0.9254349
000230 23 2d c0 be 35 3c 84 3f 5b c8 2f bf 38 06 23 3f
       -0.37534437 1.0330874 -0.68665093 0.63681364
000240 28 01 79 bf 7d 5d 75 3f f6 41 cf 3f 95 ad b9 3f
       -0.9726739 0.95845777 1.6192005 1.4506098
000250 7c f9 89 3e cd 6c 57 be f6 98 3b bf 1a 9a d5 3d
       0.26948154 -0.21037598 -0.73280275 0.10429783
000260 95 8f b2 3e 40 b4 77 3f b7 6e ee be ff 69 cd 3f
       0.3487517 0.96759415 -0.46568844 1.6047972
000270 4a ba 1e c0 4b c8 d5 be a1 04 99 bf 50 f5 4f 3f
       -2.4801202 -0.41754374 -1.1954538 0.8123369
000280 54 45 f3 bf f7 0f 6a 3e f3 a5 cb 3c 64 20 b1 be
       -1.9005532 0.22857653 0.024859404 -0.34595025
000290 c0 db 92 3e 7d 18 3b bf 15 04 33 3e e0 05 8c bf
       0.2868328 -0.7308424 0.17482026 -1.0939293
0002a0 97 13 cd bf ba 2b ad 3f 4e f8 a4 3f c7 33 56 3d
       -1.6021603 1.3528969 1.2888277 0.052295472
0002b0 32 ff c5 bf 7d b7 41 3f 72 88 46 3f c2 b2 01 40
       -1.5468504 0.75670606 0.7755195 2.0265355
0002c0 7d b5 12 3d 39 f7 f6 3d fa 3f 4e bf 05 8f 54 be
       0.035817612 0.12058873 -0.8056637 -0.20757683
0002d0 22 94 6e bf c8 a4 cb bf a7 67 91 bf f5 c8 05 bf
       -0.9319478 -1.5909662 -1.1359757 -0.5225976
0002e0 54 ce 04 bf d3 29 c0 bf 9b 9c f6 bf 6f eb 02 3e
       -0.5187733 -1.5012764 -1.9266542 0.12785123
0002f0 d3 ee 82 3f 97 48 0e bf 38 4b 34 3f 6f ba 35 3f
       1.0229133 -0.55579513 0.70427275 0.709876
000300 29 1f e3 3f c4 ea 6b bf 1e 63 76 3f 40 8d ac be
       1.7743884 -0.921551 0.9624499 -0.33701515
000310 55 71 96 bf 42 53 b7 3e 11 21 f5 3e 0b 46 ad 3f
       -1.1753336 0.35805708 0.4787679 1.3537
000320 01 ac 06 3f a1 2b 07 40 57 50 05 bf f4 97 6e bf
       0.5260621 2.112038 -0.52075714 -0.9320061
000330 ef 9a 3d 3e e5 ca 88 3f 85 3c a7 3f 6e 6f eb 3e
       0.18516134 1.0686918 1.3065344 0.45983452
000340 63 8b 50 bf f8 b7 82 bf 9f 66 fd be ce 9d 17 bf
       -0.8146269 -1.0212393 -0.49492356 -0.59225166
000350 00 05 1e 3e 39 ac e1 3e f0 d9 17 be 60 61 14 c0
       0.15431595 0.44076708 -0.1482923 -2.3184433
000360 0b c6 cb be 60 4d 8a 3f 5d f3 e3 bf a2 07 c1 3f
       -0.39799532 1.0804863 -1.7808644 1.5080454
000370 6b 6d 9e 3e 41 14 00 bf fc 7a 84 3f 5b 46 d8 3f
       0.30942854 -0.50030905 1.0350032 1.6896471
000380 1d 9f 93 bb 74 59 d5 3f 40 9d 1d 3e 5f b6 87 bf
       -0.0045050518 1.6667924 0.15392017 -1.060253
000390 b0 99 12 bf b8 25 ab 3d 65 c0 cc 3e 57 9e fe 3f
       -0.5726576 0.08356804 0.39990535 1.9892071
0003a0 30 6e 93 bd cf f5 67 bf 1a 1e 03 c0 07 60 8a bf
       -0.07198751 -0.9060945 -2.0487123 -1.0810555
0003b0 47 5e 90 3c f2 34 a0 3d 4a cb 45 3e b7 c0 d1 3e
       0.01762308 0.078225985 0.1931583 0.40967342
0003c0 7c db 6d bf e4 68 8d 3e bb f3 09 bf 97 d7 ec 3e
       -0.9291303 0.27619088 -0.5388753 0.46258232
0003d0 20 34 5f bf 53 27 de bc a1 dc b4 be aa 5f bb 3f
       -0.8718891 -0.02711836 -0.35324576 1.4638569
0003e0 12 b2 a0 3f 58 07 37 bf 75 9a 5a 3f 64 53 03 3f
       1.2554343 -0.7149558 0.8539193 0.5129912
0003f0 d0 2b 0a 3f f0 c4 10 3f 91 7b 01 3f e4 ca 63 3e
       0.539731 0.565505 0.5057917 0.22245365

gce.weight f4 [32, 32]
000000 d3 6c 09 be ac 5c 82 3e 6d 7a 97 be 39 7e 39 3d
       -0.1342042 0.25461328 -0.2958559 0.04528639
000010 31 67 73 3e 4f 36 44 3e 8c 77 e9 3d 18 b5 95 3e
       0.23769833 0.19161342 0.11399755 0.29239726
000020 91 2f 02 3d ca 7c c2 3e 0a 4c 8b 3e 0c fc 74 3e
       0.031783644 0.37985831 0.2720645 0.23924273
000030 0f a9 ca be ba 4b 2e 3d 22 54 23 3e 98 8c 26 3e
       -0.39582106 0.042552687 0.15950063 0.1626457
000040 73 88 f9 3d 12 61 bc be 56 21 c1 bd 96 5a b3 bd
       0.12184229 -0.3679281 -0.094301865 -0.08757512
000050 ee 56 51 be b1 22 44 3e 8d e4 7f 3e e4 f6 94 3d
       -0.20443317 0.19153859 0.24989529 0.07273653
000060 35 e6 3e be 11 9f ec 3d 16 2b c9 3a 52 de a1 be
       -0.18642505 0.11553777 0.0015347924 -0.3161493
000070 5f 12 27 be 69 ed d3 3d e7 21 a8 3c c7 97 a5 bc
       -0.16315602 0.10348017 0.020523978 -0.020213975
000080 6b d5 73 3e 6c 57 f0 bd c7 4a 97 3d a9 9d 7c be
       0.23811881 -0.117354244 0.073873095 -0.24669518
000090 46 0d ac bd 00 8a c6 3d 3e 50 9c 3e 4a b6 92 3e
       -0.08400969 0.0969429 0.3052997 0.286547
0000a0 4e 82 d0 bb 0b 99 4f be 7b 0c 01 be 6e bb f9 bc
       -0.00636319 -0.20273225 -0.12602417 -0.030484881
0000b0 f7 3d 15 be 8b c2 52 be 1b 00 06 3f 6b 4e 90 3e
       -0.14574419 -0.20582025 0.5234391 0.28184828
0000c0 9a e5 82 be 83 fe 76 be e9 92 87 3d 51 d5 88 3e
       -0.25565797 -0.24120526 0.06619818 0.26725248
0000d0 ab 43 58 3e c1 39 94 be e4 fa a5 3e b9 de 70 3e
       0.21119563 -0.28950313 0.32417977 0.23522462
0000e0 d9 6b 4a 3e 67 f0 05 bc 71 05 38 be 2a 04 0a be
       0.19767703 -0.008174992 -0.17970826 -0.13478151
0000f0 1a c0 50 3e f7 d6 60 3e 7c 7d 86 3e 14 19 f4 bd
       0.20385781 0.21957003 0.26267612 -0.11918846
000100 44 cc 71 3e 26 6c 74 3e 57 6c 41 3e 95 01 b8 be
       0.23613077 0.2386938 0.18888985 -0.35938707
000110 52 e1 c2 be 29 18 b6 3e b8 29 d0 bc a1 23 7d 3d
       -0.3806253 0.35565308 -0.025410518 0.061801556
000120 58 e5 53 3e 89 0d 4b 3e cd 78 3b 3d 8a 52 38 bd
       0.20692956 0.19829382 0.0457695 -0.04500059
000130 1b 07 60 3b d5 a9 42 be 68 26 ec 3e c3 fd 98 3e
       0.0034183923 -0.19010098 0.46123052 0.29881105
000140 0a a7 53 be 79 a5 50 be 22 21 57 be 5a b3 b9 3e
       -0.20669189 -0.20375623 -0.21008733 0.36269647
000150 59 f3 8b be 5e 31 16 bd a5 3a be 3e 4b ac ee 3c
       -0.27334097 -0.036668174 0.37154117 0.02913489
000160 84 40 0a be 10 a9 a7 bc 98 5e 08 3e 23 d0 f3 bd
       -0.13501173 -0.020466357 0.13317335 -0.11904933
000170 87 80 de be c8 c3 02 be 1b c2 4b 3e 3d 47 02 3d
       -0.43457434 -0.12769997 0.19898264 0.03180622
000180 eb 41 c6 be ae 69 e9 3d 1e 69 f9 3c 3c 31 50 3e
       -0.38722166 0.1139711 0.030445632 0.20331281
000190 70 f7 fc 3e 23 a6 7d be 35 43 eb 3d d7 56 0f bd
       0.4940753 -0.24770407 0.11487428 -0.034994926
0001a0 8f 90 ab 3e 3c a5 7f 3e 34 99 12 3e c8 c2 bd be
       0.33508727 0.24965376 0.14316255 -0.3706267
0001b0 ea 6f 3f bd df 94 f9 bc 52 75 d1 be 10 2a 89 3e
       -0.04673759 -0.030466495 -0.4090982 0.26789904
0001c0 07 20 4d 3d 5f 86 bc 3e f6 8b 26 bd e9 16 ac 3d
       0.05007937 0.36821267 -0.04066082 0.08402807
0001d0 49 e3 d0 be 83 20 ba bc e5 a5 3e bc 42 2b 81 be
       -0.40798405 -0.02272058 -0.011636232 -0.25228316
0001e0 23 19 04 3e 65 48 db bd 16 46 d5 3d 08 ce a5 be
       0.12900214 -0.107071675 0.104137585 -0.32383752
0001f0 53 5c a4 bd 7c d5 6f be 29 22 f6 bd 3d 85 88 ba
       -0.08025422 -0.23421282 -0.12018234 -0.0010415685
000200 a0 da 49 3d ee de 62 be 28 b8 3e be 1b f4 a8 3e
       0.049280763 -0.22155353 -0.18624938 0.32998738
000210 bc 7e c9 3e 4d ee 36 bd c5 32 62 be 8f 66 6d 3d
       0.39354503 -0.044660855 -0.2208968 0.057959136
000220 34 a1 34 3e d0 23 ca 3d b2 a2 88 be 85 8c a1 be
       0.17639619 0.09870112 -0.26686627 -0.3155252
000230 05 2e 39 3d 7c 5d 9c bd aa 68 ed bd 89 94 1a 3e
       0.045209903 -0.07635018 -0.11592229 0.15095724
000240 c8 f4 96 3e c7 3e fe 3e 9e 20 4e be 8b e5 31 3e
       0.29483628 0.4965727 -0.2012963 0.1737272
000250 1e ee 72 be 36 fa 86 3e e0 a5 3c be c6 2b 38 bd
       -0.23723647 0.2636277 -0.18422651 -0.04496362
000260 a3 ca 40 3e f4 c3 94 3c fd d9 3e 3d f9 56 70 be
       0.188273 0.018159844 0.04659461 -0.23470677
000270 91 18 96 bd 0d f3 06 be 49 bd bf 3e 8d 73 3d 3e
       -0.073289044 -0.13178654 0.374491 0.1850111
000280 7f 8a 13 3e 0a 26 96 be f2 9f dc bd 12 62 90 3e
       0.14408301 -0.29325897 -0.10772695 0.28199822
000290 df b6 97 3c d1 66 aa be bc 38 79 3d 4b c9 82 3e
       0.018519817 -0.33281568 0.06084512 0.255442
0002a0 78 ef 55 3e 2b e0 92 3e 49 cc 98 bd b7 a5 9b 3e
       0.20892131 0.28686652 -0.07460839 0.30399868
0002b0 3c fd 12 bd dd 96 ab bd d2 ad dc 3e 58 c6 f0 3d
       -0.035886034 -0.08378384 0.43101364 0.11756581
0002c0 1c 5c eb bd 13 bf 77 3e 95 b4 11 be 89 81 8f 3d
       -0.11492178 0.24193983 -0.14229043 0.07007129
0002d0 27 55 60 be 9a 81 c5 bc ac d5 3e bc 53 14 a8 bd
       -0.21907483 -0.02410965 -0.011647623 -0.082070015
0002e0 ce d5 3a 3e 78 0a 59 3d d0 c1 8d bc a5 f6 35 3e
       0.18245623 0.0529885 -0.017304331 0.17769869
0002f0 27 b2 8e be ae b2 1d 3e 3f 10 87 3e c3 36 be bd
       -0.27870294 0.15400192 0.26379582 -0.09287789
000300 6f 2f fb bd 61 94 8a 3d 27 b9 af be 5e 84 ca 3e
       -0.122649066 0.06766582 -0.34320948 0.39554113
000310 eb fb b1 3e ad d0 4f be 54 7a 96 bd 2c 7b e1 be
       0.3476251 -0.20294447 -0.07347551 -0.44039285
000320 11 c4 9c be 7f d9 1e 3e b2 2b 02 be 42 c7 cd 3c
       -0.30618337 0.15512656 -0.12711981 0.025119428
000330 59 fa 64 3e a6 58 1d 3e eb 16 72 bd eb 8c 7f be
       0.22361125 0.15365848 -0.059103888 -0.249561
000340 01 37 00 be de 83 0f 3f 74 10 c5 be 91 77 9b 3e
       -0.12520982 0.5606059 -0.38489115 0.3036466
000350 49 65 b0 3e c9 b6 3a be 41 c5 5c bd 4d 37 97 be
       0.34452274 -0.1823379 -0.053899053 -0.2953438
000360 d8 eb 8b 3e b2 33 65 3d 26 c2 a4 3d 54 54 58 bd
       0.27328372 0.055957504 0.080448434 -0.052814797
000370 6f 95 c0 3e 63 76 b0 3c 70 0e ab 3e 3e 98 72 bb
       0.3761401 0.021540826 0.33409452 -0.0037017013
000380 f0 60 83 3d eb c2 0d 3e c9 b5 24 bd 5f 97 77 3d
       0.06414974 0.13843887 -0.040212426 0.060447093
000390 7b 5b 91 be e8 52 f4 bd c6 44 11 3c 83 27 be be
       -0.28390107 -0.119298756 0.0088664945 -0.3713952
0003a0 67 63 56 3e 15 4b 78 3e 45 31 a1 bd 3a 08 44 3e
       0.20936356 0.24247392 -0.078707255 0.19143763
0003b0 c9 5e dd be 5a ba 9e be 0f ce cf 3e ba d9 08 3e
       -0.43236378 -0.3100155 0.40586898 0.13364306
0003c0 7f 7f 5f 3d bb 5a 22 be 38 82 97 3e 1e ac 17 3e
       0.05456495 -0.15854923 0.29591537 0.14811751
0003d0 ad 6b 02 3d b4 3d 84 3e f5 ac a9 bd 59 7e b8 be
       0.03184097 0.25828326 -0.08284942 -0.36033896
0003e0 c8 54 62 3e 99 b4 37 3e cc 2f 39 bc 5d 05 b9 3d
       0.22102654 0.17939986 -0.0113029 0.09034226
0003f0 89 9a 28 bd ca 34 58 3d 66 c7 cc bd fb 51 3e 3e
       -0.041163 0.05278472 -0.0999897 0.1858596

gc1.weight f4 [160, 32]
000000 48 73 f9 bc 1d b9 85 bd f6 34 ac 3d 97 92 89 bd
       -0.030450478 -0.06529448 0.08408539 -0.06717413
000010 71 da cd bd 07 73 fb 3c 84 04 d5 bc c2 6c 55 be
       -0.1005143 0.030694498 -0.02600313 -0.20842269
000020 dc c3 c8 be 8c c1 02 3e be 37 91 3d a7 4b 28 3b
       -0.3921193 0.12769145 0.0709071 0.0025679858
000030 24 f3 91 bd b0 5c cc bd 00 72 a4 3c b8 b5 27 be
       -0.071264535 -0.09978616 0.02007389 -0.16377914
000040 cf 44 59 be f2 21 9d 3c 29 c4 96 bc 9b df 62 be
       -0.21217655 0.019181225 -0.018404083 -0.22155611
000050 2f ca 3d 3e 51 85 d2 bd 38 31 44 3d 98 6d a2 bd
       0.18534158 -0.10279334 0.0478985 -0.079310596
000060 22 e7 96 3e e9 1d 84 be df 8f e1 3c df 32 90 3d
       0.29473215 -0.2580407 0.027534423 0.07040953
000070 23 ed 5d be 0e 07 13 bd 58 1d 7e be e3 1f 25 bc
       -0.21672492 -0.0358954 -0.24815881 -0.010078403
000080 70 8c 42 3e 36 a0 97 3b 5c 3c 5f be be 77 8a 3d
       0.18998885 0.004627253 -0.21800369 0.0676112
000090 3f b8 c6 3c d5 79 48 3c 71 d7 70 be 5c b1 8a 3e
       0.024257777 0.012236078 -0.23519684 0.2708844
0000a0 b4 2c 29 3f 84 da 4f 3e d5 1b ee 3b a5 cd 80 3c
       0.66083837 0.20298201 0.0072665014 0.015723059
0000b0 54 78 ac bd d0 73 28 3e 28 76 45 bd 09 1a ba bd
       -0.08421388 0.16450429 -0.048208386 -0.09086997
0000c0 e1 21 4e 3e 52 c4 ae bd af 59 a9 bd 31 d5 2b 3e
       0.20130111 -0.08533539 -0.08269059 0.16780545
0000d0 f9 fe af be 17 47 ad 3e ae 33 ca be a6 65 ff 3e
       -0.34374216 0.338433 -0.39492553 0.4988224
0000e0 91 c9 35 3c 81 3d d7 bd 65 74 2f 3d 6f 15 4c 3e
       0.01109542 -0.10509778 0.04283561 0.19930051
0000f0 51 cb 29 be d5 13 6d 3e 1f b5 9d 3e c9 45 43 bf
       -0.16581465 0.23152097 0.30802247 -0.7627836
000100 2c 94 0b 3e 0a 51 22 be 28 09 5c 3c fb 3d eb 3d
       0.13630742 -0.15851226 0.013429917 0.11486431
000110 16 24 a7 3d 0a c9 8b bd d3 25 8b 3e 43 78 80 be
       0.0816118 -0.068254545 0.27177295 -0.25091752
000120 07 b9 ab bc 30 5e 22 be ad f3 d6 bc 44 e5 6b be
       -0.020962251 -0.15856242 -0.02623924 -0.23036677
000130 07 53 a6 3d 94 96 97 bd 2f 16 20 be 40 92 88 bd
       0.08121305 -0.074017674 -0.15633462 -0.0666852
000140 6c 1a 35 bd 7f d9 97 3d ce 37 38 3d b0 c4 16 3e
       -0.04421465 0.07414531 0.044975094 0.14723468
000150 98 6d 49 bd d6 46 07 3e b8 a2 2f be fa 51 90 be
       -0.049176782 0.13210616 -0.17151916 -0.28187543
000160 36 8f 35 3e 01 f5 5a be df 5c be bd 2e 40 18 3d
       0.17730412 -0.21382524 -0.092950575 0.03717058
000170 c8 3c 32 bd d8 64 b4 3d 31 3e 89 bd df 8d c4 3d
       -0.043514997 0.08808297 -0.06701315 0.09597372
000180 84 94 d4 be a0 6b 30 bd 88 94 4d be 39 88 f6 3d
       -0.41519558 -0.04307139 -0.20076191 0.12037701
000190 8e 7c 93 bd b2 79 be 3d a1 f0 6c be fd 73 59 3e
       -0.07201491 0.09300555 -0.23138668 0.21235652
0001a0 43 2a bb 3e 22 76 82 bc 70 8c 04 3c c6 70 f8 bd
       0.3655568 -0.01592547 0.0080901235 -0.12130885
0001b0 ad dd a7 be 10 cb 02 bd e0 f6 51 3d 3b 4b 0b 3d
       -0.32786313 -0.031931937 0.05126083 0.034007292
0001c0 1e 27 98 3d e9 89 a5 bd e1 6f 77 be 27 99 32 be
       0.07429336 -0.08082945 -0.24163772 -0.17441235
0001d0 43 dc c1 bd b7 6a 87 3c d6 4b 58 be ce 0d 40 3e
       -0.0946584 0.016530378 -0.21122679 0.18755266
0001e0 9d d7 f9 bd c9 e4 f4 be d2 5a bb bc 05 63 83 3e
       -0.12199328 -0.478308 -0.022870455 0.25661483
0001f0 86 70 0c be 89 ce e8 3d f8 c5 4d 3e 24 69 de be
       -0.137148 0.113675185 0.2009505 -0.4343959
000200 12 fe 18 3c 0a 96 97 3d 24 57 4c 3e fc b8 79 bc
       0.009337919 0.074016646 0.19955117 -0.015241858
000210 74 ae 00 be ec 88 22 bd 55 d3 e2 3c f1 81 ae 3d
       -0.12566549 -0.03968136 0.027688662 0.08520878
000220 90 24 75 bd f9 dc 1a 3e 82 f1 5e 3e 80 53 ad 3e
       -0.05984932 0.15123357 0.21771815 0.33852768
000230 fe a6 e6 bd c4 ab 2e bd 69 eb 33 bd 5d d4 91 3e
       -0.1126232 -0.042644277 -0.043925676 0.28482333
000240 4b ec c3 3d 53 62 ba 3d 96 e9 c1 be e4 d1 a0 3d
       0.09566554 0.09100785 -0.37873524 0.078525335
000250 46 27 9e 3e 97 4d 77 bd a0 4e 94 bd 3c 8b 20 be
       0.30889338 -0.06037673 -0.07241559 -0.15678114
000260 d8 ab 9f bd 50 e4 ff 3d 16 bf 81 3e fb 9d ed bc
       -0.077964485 0.12494719 0.253411 -0.029005995
000270 2d d5 c3 3d 72 91 24 3e 1f 77 78 be 78 1a fb bd
       0.095621444 0.16071108 -0.24264191 -0.12260908
000280 05 ba 8f 3d cb fe f0 be 1c be 27 bc 05 7e 0c 3d
       0.07017902 -0.47069392 -0.010238197 0.03429987
000290 a1 8f ac 3d 28 a6 43 be 19 f7 fa bd 1e 93 ff 3e
       0.084258325 -0.19106352 -0.122541614 0.4991693
0002a0 99 68 28 3d 09 0b 59 be da 1f b5 3d a1 55 02 bf
       0.041115377 -0.21195616 0.08843966 -0.5091191
0002b0 3c 45 26 bc eb 8b e2 3d 47 cf e8 bd ef 26 23 3e
       -0.010148343 0.110618435 -0.1136766 0.1593282
0002c0 1f 47 8f 3e 57 1b 80 bc 03 31 26 3e df 86 b3 bd
       0.2798395 -0.015638037 0.16229634 -0.08765959
0002d0 a8 ef 76 be a0 0e d7 3d a2 39 06 bd 81 79 8f 3e
       -0.24114859 0.10500836 -0.032769807 0.28022388
0002e0 1d 26 f5 bd 29 29 13 bf d7 90 b0 be e1 86 cf be
       -0.1197016 -0.5748468 -0.34485504 -0.40532592
0002f0 b5 1c fe be dc 7d 51 3c 04 31 6a 3e 54 12 67 be
       -0.49631277 0.012786355 0.2287026 -0.22565585
000300 45 63 df 3c 09 11 50 3d 34 de 03 3e 5b 34 33 bc
       0.027269015 0.050797496 0.12877733 -0.0109377755
000310 98 50 32 3c ff 4f b7 3d b5 ad cc 3c 3b fe cf 3d
       0.010883473 0.08950805 0.024985174 0.101559125
000320 36 9a 91 bd b7 43 4e 3d 57 c6 1a be d8 49 d9 3d
       -0.071094915 0.050357547 -0.15114723 0.10609788
000330 7f 27 7d 3c f4 b5 18 bd 63 4f 2d 3e 10 36 91 3d
       0.015451311 -0.0372829 0.16924815 0.0709039
000340 ae 6f 1f bc 4e 82 1d bd d0 20 18 3e 15 1c 28 bb
       -0.009731216 -0.038454346 0.14856267 -0.0025651504
000350 68 ea eb bc f9 6f 79 bc b4 51 7b bd 89 52 e2 bd
       -0.028798297 -0.01522445 -0.061357215 -0.110508986
000360 74 b0 0a 3d c3 f0 c9 bd ac d8 87 bd 46 6c 9e 3d
       0.033859685 -0.09860375 -0.06633124 0.07735495
000370 43 74 2c be 6b a8 a2 bd 12 da fd bd a7 c7 1b 3d
       -0.16841225 -0.079422794 -0.12395109 0.0380322
000380 6b e0 91 bd 97 e3 1e be c5 c6 88 3e 0f 48 b6 bc
       -0.071228825 -0.15516506 0.2671415 -0.022251157
000390 04 88 d9 3d 16 6d 70 3e e3 6e 41 3e 93 cf b2 bc
       0.10621646 0.23479113 0.18889956 -0.021827495
0003a0 96 f5 f9 bd 7a 88 26 bd 73 5a ff 3c 23 18 e9 3d
       -0.12205045 -0.040657498 0.03117106 0.11381557
0003b0 a3 32 27 be 60 aa 67 3d bb 81 f0 bd 2b 13 a2 3d
       -0.1632791 0.056558967 -0.11743494 0.07913812
0003c0 b1 92 22 be 22 62 41 3d 81 f6 16 bd 98 35 c8 bd
       -0.15876271 0.047212727 -0.03685618 -0.09775847
0003d0 2d 7b a1 bd 11 60 73 bd 27 f9 10 3d 25 6e ea 3d
       -0.07884822 -0.059417788 0.03539386 0.1144679
0003e0 46 7c 0b 3e 79 8a b9 bc 0b b0 ae bd d5 b9 8d 3e
       0.13621625 -0.022649037 -0.08529671 0.2768084
0003f0 23 a5 42 be 41 cf 06 bd ec 10 08 bd 43 b7 92 3b
       -0.19008307 -0.032912496 -0.033219263 0.004477413

gc2.weight f4 [32, 16]
000000 8e 91 12 bf 1d 40 99 3d dc 8b 64 3e 4c 0b b3 3d
       -0.5725335 0.07482932 0.22318977 0.08742389
000010 14 ac 33 3f 53 ca c2 3e 67 10 0c 3f 76 0a 8f be
       0.70184445 0.38044986 0.5471253 -0.2793767
000020 9d c4 7d 3f 33 50 33 bd 04 c0 f4 3e c2 3f b0 bf
       0.99128133 -0.043777656 0.47802746 -1.3769457
000030 7d ea 2c be 86 8a d2 3d 46 32 6a 3e be b1 c4 3e
       -0.16886325 0.102803275 0.2287074 0.38416857
000040 ee 3a 8a 3f cf 8f ca 3e 0f e2 27 bf 8f 91 1b 3a
       1.0799234 0.39562842 -0.65579313 0.00059344707
000050 4c 5b 45 3d f1 75 26 3f 3e 3b 10 3e bf d4 12 bd
       0.04818277 0.65023714 0.14085099 -0.03584742
000060 36 89 71 bf 65 ee 08 bc 9e ab 46 3f 55 8f 84 be
       -0.9434999 -0.008357619 0.7760562 -0.25890604
000070 90 0c 2a 3e fd db 1b 3f 73 ca 94 bf 23 4a fa bc
       0.16606355 0.6088255 -1.1624283 -0.03055293
000080 26 4b b1 3e db f6 89 bd e5 76 84 be 69 d8 12 be
       0.34627646 -0.06736537 -0.2587196 -0.14340366
000090 ab 66 36 be 2d 5c 2f 3d 16 f9 4e 3d 7c 43 89 3d
       -0.17812602 0.042812515 0.050530516 0.06702325
0000a0 66 b8 39 be 08 73 90 bd f9 d6 b5 3e e6 3b 4b 3e
       -0.18136749 -0.070531905 0.35515574 0.19847068
0000b0 06 0d 3c 3e 54 a8 92 be b1 91 af 3e b4 7e bb 3e
       0.18364343 -0.2864405 0.3429084 0.36620104
0000c0 06 11 a8 be 44 be 4b bf 7b 09 49 3e ca db cc be
       -0.32825488 -0.795872 0.19632523 -0.40011436
0000d0 82 26 db 3d cd 65 75 be ec 22 c5 3e 74 3e 67 be
       0.10700704 -0.23964615 0.38503206 -0.22582418
0000e0 06 65 d1 3d c0 5c 8c be ab 13 a4 be 57 cc df 3e
       0.10224347 -0.27414513 -0.32046255 0.43710586
0000f0 c3 dd 9f 3e c1 b1 b9 be 08 83 19 3d 11 53 4d 3e
       0.31223878 -0.36268428 0.037478477 0.20051219
000100 f6 8d 2e 3e 85 fd ba be f2 d3 9a 3d a9 4d 9d 3d
       0.17046341 -0.36521545 0.075599566 0.07680828
000110 19 8e 2d 3e 30 1d fc be 08 e8 02 3e ea fa 8c be
       0.16948737 -0.49241018 0.12783825 -0.27535182
000120 25 21 52 be d0 79 34 3e 22 4b b1 3e 3c c5 11 3e
       -0.20520456 0.17624593 0.34627634 0.14235395
000130 84 30 02 be 90 b3 b6 3e e5 2d 92 be 43 96 dc 3c
       -0.1271382 0.3568387 -0.2855064 0.02692712
000140 12 00 db bf 76 70 4d 3f 50 5c 2a 3f 56 17 04 40
       -1.7109396 0.80249727 0.6654711 2.0639243
000150 88 34 ed 3e 2d 17 65 be 66 92 d7 3e 55 ad 92 3e
       0.4632914 -0.22372122 0.4210388 0.28647867
000160 15 fa 31 be b3 9d 25 3f b6 fc 4b bf fd f2 7d 3e
       -0.17380555 0.64693755 -0.7968248 0.24799724
000170 a2 81 00 3e 50 12 af 3e 3f 57 ca 3d ba 7b be be
       0.12549451 0.3419366 0.09879922 -0.3720377
000180 5c b2 c4 be 70 2e 1b 3f 85 43 9b bd 04 0b cc 3e
       -0.38417327 0.60617733 -0.07581238 0.39852154
000190 e7 35 61 bc de 21 6c 3d 52 32 c5 3e 89 54 4f 3e
       -0.0137457615 0.057649486 0.38514954 0.20247091
0001a0 f9 02 0d bf 65 93 94 bd aa b1 68 3d 8c a9 99 3e
       -0.5508266 -0.07254676 0.05681006 0.30012167
0001b0 fc 15 da 3e dc 5f a8 3d 83 dc a9 3e fc 7d 9a be
       0.42594898 0.08221409 0.3317605 -0.30174243
0001c0 3a e5 7b 3e 5f f3 b5 3e 36 81 d5 3e 62 80 d6 be
       0.24599162 0.3553724 0.41700143 -0.41894823
0001d0 cb a7 66 3b 12 3b be 3e ea a8 fb bb 8d fc f4 bd
       0.0035195227 0.37154442 -0.0076800482 -0.11962233
0001e0 a6 29 d7 3e a3 93 dd 3d 19 ce e8 bd 05 68 11 bf
       0.42023963 0.10819175 -0.11367435 -0.56799346
0001f0 49 0d e1 be 97 dd f5 bd b4 71 a3 be a0 0d 38 3e
       -0.43955448 -0.120051555 -0.31922686 0.17973948
000200 b2 b0 a0 3c 4f da 88 3e f0 ed 90 be 7a 2a 17 3f
       0.019615505 0.26729056 -0.28306532 0.5904919
000210 2a 7c c6 3d 37 42 2c bf bb 35 9b 3d d6 b6 04 3e
       0.09691651 -0.67288536 0.07578608 0.12960371
000220 61 47 d1 be 8a ba 65 bd 4d e0 47 be 18 f5 aa 3e
       -0.4087477 -0.0560861 -0.19519158 0.33390117
000230 f7 18 06 3f aa 01 85 3e 6e 3b 99 bf f5 10 f7 bd
       0.52381843 0.25977832 -1.1971262 -0.12063781
000240 0b e1 8c be 5f 13 2c 3e 10 b6 b6 3e 22 b9 05 bf
       -0.27515444 0.16804264 0.35685778 -0.52235615
000250 10 0a 2f bf 9e 22 c9 be 9e 49 48 3f 25 16 33 3f
       -0.6837473 -0.39284223 0.7823733 0.69955665
000260 ed 5f 53 bf 0b f5 7c 3f 96 fb c6 be 32 f0 0d bf
       -0.82568246 0.98811406 -0.3886382 -0.55444634
000270 c7 07 93 3f 31 6f 92 3e 6d 90 18 bf b2 d6 60 3e
       1.1486748 0.28600457 -0.59595376 0.219569
000280 65 c9 47 be 7d 05 9f 3e f5 9a 9b 3e d1 5d 9a be
       -0.1951042 0.31058875 0.3039166 -0.301497
000290 5f 16 02 be 9e 93 d3 3e 37 73 56 be c1 2d b4 be
       -0.12703846 0.4132356 -0.20942388 -0.35191157
0002a0 dd 31 b2 3e 3e ca 94 be f3 30 a6 3d c0 f4 0f be
       0.34803668 -0.2906055 0.08114805 -0.14058208
0002b0 03 53 c0 be 43 c6 6d be a3 cd 31 3e 5f 54 83 3d
       -0.37563333 -0.23220162 0.173636 0.06412577
0002c0 6b 7c 0f bf 8d 90 5d be e5 72 28 bf e0 d8 b9 3d
       -0.5604922 -0.21637173 -0.65800315 0.09074569
0002d0 4b 04 49 3f ff 9b a3 3e 70 dc 7a bf e0 7e 6d bf
       0.78522176 0.31954953 -0.9799261 -0.9277172
0002e0 22 e9 95 3f 3a 8a 27 bf ac 69 40 3f 51 96 86 3f
       1.1711771 -0.6544529 0.7516124 1.0514623
0002f0 af d9 90 bf ce 42 7f bf 2a c4 81 3e 8f f9 7f 3c
       -1.1316432 -0.9971131 0.25344974 0.015623464
000300 f8 c1 ed 3d e8 23 c8 be ca 3a b7 3f 99 78 19 3b
       0.11609262 -0.39089894 1.4314816 0.002341783
000310 b3 38 37 3f 94 04 7d bd d1 a0 6c 3f 18 c9 8b 3f
       0.7157089 -0.061771944 0.92432886 1.0920744
000320 ed 3c 2b be b1 60 96 3f 44 f1 84 3e 68 57 77 be
       -0.1672246 1.1748258 0.2596532 -0.24154437
000330 97 06 8f 3e 65 14 21 3f 19 3b 98 bf f6 25 6d be
       0.27934715 0.62921745 -1.1893035 -0.23159012
000340 ac 87 15 3f df bb 4e be 74 e5 eb bd 86 1c 1c be
       0.58410144 -0.20188855 -0.11518374 -0.15245256
000350 4f 5a 64 bf ac 8a 17 3f bb 9c 22 bf e4 2e 90 be
       -0.892003 0.5919597 -0.635204 -0.28160775
000360 70 9d 80 3e 70 af 00 bf 0a 00 d6 3d bc c9 0f bf
       0.25120115 -0.50267696 0.10449226 -0.561672
000370 18 0c 11 bf 2d 51 d8 be 19 6a e6 3e 40 4d d6 3e
       -0.5665908 -0.42249432 0.4500282 0.41855812
000380 b9 64 e1 3e 21 d3 5a 40 e3 7f 04 c0 2a 47 0c c0
       0.44022158 3.4191363 -2.0703056 -2.1918435
000390 f1 db 5b 40 54 d5 73 c0 7e cc 0b 3f 9d a8 a3 3f
       3.4352992 -3.8098955 0.54608905 1.2785832
0003a0 48 ae 6d 3f fc 38 0b be 6e 2b ad be 4c 8d 7b bf
       0.9284406 -0.13595957 -0.33822197 -0.98262477
0003b0 6c b5 ae 3d 3f 05 63 3e db 2c cc be b7 6e 80 bf
       0.08530697 0.2216997 -0.39877972 -1.0033787
0003c0 d7 d0 d6 3e 49 b9 93 3e fe f5 95 be 22 3d 16 bf
       0.41956207 0.288523 -0.2928924 -0.5868703
0003d0 89 cc 66 bf 59 5b d9 bc eb 3a e5 3c 3d 8a b1 bd
       -0.90155846 -0.026532816 0.027982196 -0.08668945
0003e0 d6 60 80 3e b7 8b 8e be 02 bc 81 3d 2d 04 cf be
       0.2507388 -0.2784097 0.06334688 -0.40432873
0003f0 e8 00 5e bd f9 14 f1 be 6b 26 1a 3e 67 98 13 3f
       -0.054200083 -0.47086313 0.15053718 0.5765442

gc3.weight f4 [32, 16]
000000 00 52 0e be 0c ba fb bc c4 e0 8e 3e 45 b5 aa bd
       -0.13898468 -0.030728363 0.27905858 -0.08335356
000010 be 5a 4c bd 96 84 d3 3c 98 45 ac bd 3b 6f e9 3e
       -0.049891226 0.025820058 -0.084117115 0.45592675
000020 20 54 29 bf 24 c1 5c be 78 11 2b 3f 53 9f 38 bf
       -0.6614399 -0.21558052 0.6682353 -0.7211811
000030 1c ae 82 3c d9 83 a8 bc 0e 82 cd 3e d0 86 28 be
       0.015952162 -0.020570682 0.40138286 -0.16457677
000040 15 1e bb be 82 9b bb be 08 cd 5a bf 3d a4 e5 be
       -0.36546388 -0.3664208 -0.854691 -0.44851866
000050 20 d6 90 be 35 3f f4 be 1e 1d 44 be c8 83 2e bf
       -0.28288364 -0.47704473 -0.19151732 -0.6816983
000060 0d b8 c9 be af fd 25 bf d7 d0 7a 3e 30 30 e1 be
       -0.39398232 -0.64840215 0.24493729 -0.43982077
000070 49 bb f3 be 7d 46 8b be b9 42 7b 3e e5 72 da be
       -0.47603825 -0.27202216 0.24537171 -0.42665783
000080 5c 94 4a 3d 60 23 65 be 5f ad ac bd cc 32 6a 3d
       0.049457893 -0.22376776 -0.084315054 0.05717735
000090 06 2a c4 be 3b 52 e9 bd 8a 4e ee bd b1 01 01 bf
       -0.3831331 -0.11392637 -0.11636074 -0.50393206
0000a0 32 20 08 be 63 56 25 3e 0b bb 7e be da 03 6e be
       -0.13293532 0.16146235 -0.24876039 -0.23243657
0000b0 3d 9d a9 3d 92 18 9b bd 49 fb d7 be e7 77 aa 3d
       0.08281944 -0.07573046 -0.42183903 0.08323651
0000c0 71 cd 5b 3e b3 a6 6b 3e c0 55 56 3e 89 64 85 bd
       0.21465088 0.2301281 0.20931149 -0.06513316
0000d0 97 44 18 be 57 02 ae 3e 6d f7 a2 be d2 82 50 bd
       -0.14869915 0.3398616 -0.31829396 -0.05090601
0000e0 2c 7b fe 3d 7e 0f fa bc f8 d6 58 3d fd 55 0e 3e
       0.12425837 -0.030524965 0.052939385 0.1389999
0000f0 1b ce 91 be 42 e0 c4 be ab 78 1f 3f 09 2e 1c bc
       -0.28477558 -0.38452345 0.622935 -0.00953246
000100 5b 8e 8c 3d a9 d7 39 bf 3c 04 b3 be 31 54 8d 3c
       0.0686309 -0.72594696 -0.34964168 0.01725206
000110 0f 30 dd 3c d5 e0 d4 be d8 1b 3d 3e 33 fc ab be
       0.027000455 -0.41577783 0.18467653 -0.3359085
000120 cc fb a7 3d 64 d0 5c bd 92 58 6a bf 4c f6 66 be
       0.08202323 -0.053909674 -0.915414 -0.22554892
000130 46 a8 1e be 78 ae 4f 3e 35 86 a1 bf f2 b9 e2 3b
       -0.15493879 0.20281398 -1.2619082 0.006919139
000140 01 38 4f 3e 62 a8 b0 be d6 de 1d 3f 5d bc 93 3e
       0.20236208 -0.34503466 0.61668146 0.28854647
000150 f1 68 ae 3d 71 77 77 be d9 5c 5d bc df ee e9 3e
       0.0851611 -0.24166657 -0.013510906 0.45690057
000160 5e 1b 5e 3e 32 1d 8f 3e 86 87 30 bf 87 05 d3 bd
       0.21690127 0.27951962 -0.6895679 -0.10303789
000170 ae 2a 2b bd 2a 06 a1 3e 6a c9 92 be fe 6f 4b 3e
       -0.04178875 0.31450015 -0.28669292 0.1986694
000180 2b 82 fa be b9 77 4b be 86 7c e2 bc f4 93 92 be
       -0.48927435 -0.1986989 -0.027647268 -0.28628504
000190 9b 60 8a be 1f 9e f9 be 2d 28 07 3e cb ce c3 be
       -0.2702683 -0.4875345 0.1319892 -0.38243708
0001a0 8a 7e 5b bc a4 f5 58 3d c4 a5 1c bf 05 64 75 be
       -0.0133968685 0.052968636 -0.6119044 -0.23963936
0001b0 8b fb 22 bd c5 db 8f be dc 81 75 bf de de e5 bd
       -0.03979067 -0.28097358 -0.95901275 -0.11224149
0001c0 9b 10 a3 be 6e 85 c5 be 63 fb 02 be 98 e6 0e bf
       -0.31848606 -0.3857836 -0.12791209 -0.5582061
0001d0 13 38 19 be 42 03 4a be df bd 58 3e 11 1b 14 bf
       -0.14962797 -0.19727805 0.2116618 -0.578538
0001e0 35 a0 1a bf af f8 52 3e 76 d1 2f bf 15 c9 56 bf
       -0.60400707 0.20602678 -0.6867899 -0.83900577
0001f0 3d ee 62 be ae 98 11 be 75 de 51 3f cb 8e a5 be
       -0.22161193 -0.14218399 0.8198007 -0.32335505
000200 49 1a 9a bf 74 81 ef 3e 01 41 0d c0 6e 02 0c be
       -1.2039272 0.46778452 -2.2070925 -0.13672802
000210 45 0e 71 3e 8f 53 cd 3e 16 50 6c bf ca 5f 41 c0
       0.235406 0.40102813 -0.923097 -3.0214715
000220 dc db 28 bf 1a 4f d4 be 21 6d 23 3f de d3 aa 3d
       -0.6596048 -0.414666 0.6383839 0.08341192
000230 61 ee 63 bf a8 d3 4c bf b4 b8 7e 3e 7a 3f 31 bf
       -0.8903561 -0.8001046 0.24875146 -0.6923748
000240 c6 1c fe 3c 19 74 31 be 81 d2 26 3e 36 a8 6a 3d
       0.03101958 -0.17329444 0.16291238 0.057289325
000250 04 05 cc be 7c 82 db bd 82 72 16 3e 6f 76 20 3e
       -0.39847577 -0.10718247 0.14692119 0.15670179
000260 f8 2b d8 3d 5c ee 2e bd 19 ce 46 be 16 98 63 3d
       0.105552614 -0.042707786 -0.19414558 0.055564962
000270 eb 24 08 3e 6b eb 58 3e 4d 55 8c 3d f7 42 29 3e
       0.13295333 0.21183555 0.06852207 0.16529451
000280 88 b7 8b 3c a8 b8 80 3d 16 42 44 bd 96 cb 87 be
       0.017055288 0.062852204 -0.047914587 -0.2652251
000290 fa 46 96 be 6b 63 12 bf 6e a2 e0 3d d3 41 83 be
       -0.29351026 -0.5718295 0.10968481 -0.25636157
0002a0 3b 93 fb bd 57 57 ba be 7a f7 96 be 3d b6 5c bd
       -0.12283941 -0.3639476 -0.29485685 -0.053884733
0002b0 1f 19 0d 3e a2 c5 5c be ee 8a 3a be 01 14 ae bc
       0.13779114 -0.21559766 -0.1821706 -0.021249773
0002c0 72 8f 3c 3e bc 00 95 3e 56 15 f0 bd 90 d0 29 3d
       0.18414095 0.29102123 -0.117228195 0.041458666
0002d0 98 d2 12 3f 5b 4f b0 3e 65 8a 59 bd 0a 49 9b bd
       0.5735259 0.34435543 -0.0531105 -0.075822905
0002e0 ed 9a d4 3d f1 f3 5f 3e 85 2b 87 3e f9 64 7a 3e
       0.10381112 0.218704 0.2640039 0.2445258
0002f0 14 27 9a bd da 51 cc bd e9 53 13 3f 67 15 9f 3d
       -0.07526985 -0.099765494 0.5754991 0.07767754
000300 36 ba b4 3e 55 11 9c 3e 13 03 cb 3f 05 bb 97 3e
       0.35298318 0.30481973 1.5860313 0.29634872
000310 bc ac 79 3c 57 ad 3a 3f 0f 8d ac 3e 58 2f eb 3f
       0.015238937 0.72920746 0.3370137 1.8373823
000320 45 72 e1 3e 72 eb 7f 3e a6 77 62 bf e5 0a f1 bc
       0.44032493 0.24992159 -0.8846382 -0.02942414
000330 c3 21 a9 3e 46 e8 73 3e 58 82 66 3f 59 e3 f5 3e
       0.3303357 0.23819074 0.9004264 0.48025015
000340 4d 1b a1 be 3c f3 d5 be 7d 5f 9b bc 57 30 ae be
       -0.3146614 -0.41787136 -0.01896643 -0.34021255
000350 a2 90 67 be 41 40 ce be ab fc 8f be be 1c c5 be
       -0.22613767 -0.40283397 -0.28122458 -0.3849849
000360 a8 d2 5f bd e3 eb 71 be 26 1d ca 3e cd a0 be be
       -0.054644257 -0.2362514 0.39475363 -0.37232056
000370 36 69 98 3d 6b d6 84 be ed d2 bf 3e b8 d1 34 be
       0.074419424 -0.25944838 0.3746561 -0.17658126
000380 d6 a2 2c 3d 21 c6 18 be a3 ff 3e 3e e2 4a ac 3e
       0.04214748 -0.1491933 0.18652205 0.3365088
000390 c7 4e 19 3e c1 5e 82 3d 1e 97 29 bc 7c 41 86 be
       0.14971457 0.06365729 -0.010350971 -0.26221836
0003a0 3c a1 56 be a5 93 2c be 96 93 26 be 97 a5 a7 be
       -0.20959944 -0.16853197 -0.16267237 -0.32743523
0003b0 6a 4f 98 3d cb 4d 3b bc 28 b9 5e 3d bd 8d 27 3e
       0.07437022 -0.0114321215 0.054375798 0.16362663
0003c0 7c 59 01 be 92 e1 14 bc 12 47 dd bd d8 7b fd 3a
       -0.12631792 -0.009086983 -0.10804571 0.0019339276
0003d0 bf 40 81 3d 57 95 51 3e 36 f0 48 bd c6 cc 01 be
       0.063111775 0.20467125 -0.049057208 -0.12675771
0003e0 19 c0 66 3e f8 0f 35 bd fc ea 9f bd 2a 77 f9 3d
       0.22534217 -0.044204682 -0.078084916 0.12180932
0003f0 ca 33 da 3d 3b 1f a9 3e 99 1c e5 3e 69 e5 a7 3d
       0.10654409 0.3303164 0.4474838 0.081980534

dc.rk_lgt f4 [1, 16]
000000 b2 6e fa bf e4 c9 89 bf a4 df e8 bf 96 9a ea bf
       -1.9565032 -1.0764737 -1.819325 -1.8328426
000010 62 77 d9 bf 39 e6 28 bf ff e4 62 c0 41 73 97 bf
       -1.6989558 -0.6597629 -3.5452268 -1.1832048
000020 13 22 d9 bf 61 c1 57 c0 00 63 a8 bd 10 7b 03 c0
       -1.6963524 -3.371178 -0.08222008 -2.0543861
000030 cd de 1e c0 94 bc 52 c0 f8 bb 22 3d 8e 8a 2b c0
       -2.4823487 -3.29276 0.039730042 -2.6803317
