models/ogbl-collab_CN_2_1_0_run1_gnn.pt (torch, 668318 bytes, 10 tensors)

convs.0.bias f4 [256]
00000000: 9176 40bd c89c 20bd c21d 58bd 4f16 243d
00000010: c41f 61bd 5ec3 50bd 77df 393c 8a84 0abe
00000020: c8e8 50bd 89f1 42bd 3f0e 803d dfe8 41bd
00000030: f8f0 51bd a9ed 183b df0f 4cbd 068a 433d
00000040: 2625 96bd 70bc 3fbd 1ca6 16bf 5ba5 c5bd
00000050: a4a2 263d abd2 a5bc 39bc 673c 40e3 e9bd
00000060: e33d 2fbd c93b a2bc 7485 49bd 6a9b db3d
00000070: e24a 553d b17b eabc 2cdb d63c f9c9 8bbe
00000080: 986b 2bbe cdeb a5bb 0bf2 793c c1d4 293d
00000090: 16a7 0ebd af25 a33c 2bbe ad3c 2009 25bd
000000a0: 7292 eb3c 4170 ba3e f75c 243b 01d8 033e
000000b0: 7252 5fbd 6dca 9fbd 500d 373d aeb2 2c3d
000000c0: ba71 a53c 4197 b73f b260 fb3c c070 c6bc
000000d0: 1e0a 88bc e420 093c 11de 813c ace3 823d
000000e0: 2d12 8c3d e480 263d cfdc 083c fb78 90bc
000000f0: 4215 1b3d 7206 adbb 50f6 04bf a15e 17bd
00000100: 9f84 733c 2e6a 803e bf8f 5d3d af76 3fbe
00000110: 5950 ce3c b38d 743f 5c99 3abd 59bb 0dbd
00000120: 3115 22bd d029 ecbc 56f6 87bd 89da 513e
00000130: 2006 3d3d cccd 293e 0ad2 2fbf a91b b13b
00000140: 100f 15bd 6b27 fcbc c947 a33d c359 f9bc
00000150: e18f 2fbe a185 513d 8fb4 aa3d 9e0d 6cbb
00000160: 40f2 bc3d 9c72 bfbc a00e d73a b598 92bc
00000170: 86c5 4abd 229d cabc e993 903c d672 19bd
00000180: 8d63 6fbd a0ee e2bd 0f91 cc3d 3a49 f53e
00000190: 0868 43bd 1253 dd3c bc81 93be a9eb 3b3d
000001a0: fc2b 32bd 32b7 a43f c0af 79be 1c9f 193b
000001b0: 8f38 c2be 2271 30bd e11e 973d 573f 0fbd
000001c0: de7a fdbc 1aab b83d 3a90 64bd e0cd 5d3d
000001d0: a4a6 693b a7de 8d3c 3fd1 973d f4de a93c
000001e0: a2bb 423e 48fd 043e 01a3 5d3d 2a14 2e3d
000001f0: 3490 89be b6eb 8abe 3235 4b3d adee 213d
00000200: 3c94 99bc 61be e4be 840d 023d 1731 413d
00000210: 12fa 963c 6f0a 9bbd a630 c6bb aedf 3a3d
00000220: cfec 36bd c3d7 fc3d cf1f ac3d de3b 0abd
00000230: ae65 00bd 24f3 1ebd 3b53 8a3e 248f 2e3d
00000240: 06ff 6cbd 7209 fd3e b8f5 8abd 8889 e9bc
00000250: 24f7 a7bc 477f d3bc 5aa3 883e fded 2fbd
00000260: 4cd1 5fbd e99a 58be 4196 093b 2a2f f53c
00000270: 420e 433d d09d 69bd fe4b efbc 435a 063d
00000280: 192e ae3c 3d82 63bd e4c9 89be 253c 2fbd
00000290: ebb5 68bd c79e ec3b 4cc7 853e 084b 88bc
000002a0: 6446 733b d8e2 b73c fcf6 903c 1116 e2be
000002b0: 4534 33bd 6cf1 4fbc 5abc 8d3d 5866 de3c
000002c0: 04c3 3fbd 7b2d 6fbe 55ec 4c3d 969b 9cbe
000002d0: 30de dc3e 0653 0d3d ba93 1abd d096 54bd
000002e0: 832f 2cbd e92b 0c3d c103 7cb9 28fc 2fbd
000002f0: cfc1 93be 6411 a43c 71b5 8e3c d246 6abd
00000300: e74a 18bd 7b5f 09bd 6a04 46bd 37b8 72bd
00000310: 41c5 dcbd 6fde b1bc 004c 9c3d 2be8 6bbf
00000320: 1ed6 e53c 9978 4ebd 07bc 863d 6145 6ebb
00000330: 0705 3fbd c367 433d 8a14 18bf 9196 3dbd
00000340: 8f6f 0e3d 6aa5 e13d 7407 4e3d eb59 40bd
00000350: c8d5 1c3c e0a9 933d e113 1f3e f8d9 473d
00000360: 118c 73bd 73d6 38bd e221 edbe 36e4 65bd
00000370: 1513 963b fb6c 5abd a25b 1d3e df14 333d
00000380: e621 a1bd 1bcc cebb d2f1 9e3d 7b48 5abd
00000390: 8738 d83c d5a7 5dbb 8bb0 d63d 7b03 54bc
000003a0: f134 283e 1f54 ce3c 9f1a 323d d277 2ebd
000003b0: 5902 8e3f a4ad 65be 664c e23c e729 27bd
000003c0: af4f 18be 2501 5f3d d4a1 073b f4fc 843d
000003d0: 0eda b13d 7343 dbbc dde9 5fbd 24db 2cbd
000003e0: 7fc0 2b3e 690e 013d 908b 0b3d 2c7c 7abd
000003f0: 1f5c 23bc 9f43 693d 6f51 41bd 44be a939
-0.046988074 -0.03921202 -0.052762754 0.040060338 -0.054961935 -0.050967567 0.011344782 -0.13527122
-0.051003247 -0.047593627 0.06252717 -0.047341224 -0.051255196 0.0023335016 -0.049819823 0.04773905
-0.07331304 -0.046810567 -0.5884721 -0.0965068 0.04068245 -0.020242056 0.014143997 -0.114202976
-0.04278363 -0.019803898 -0.049199536 0.10723002 0.052073367 -0.028623434 0.026227556 -0.2730253
-0.16740263 -0.00506351 0.015255461 0.041462664 -0.034827314 0.01991543 0.021208843 -0.040291905
0.028756354 0.36413768 0.0025079825 0.12875368 -0.054521985 -0.078022815 0.04469043 0.04216259
0.02019583 1.4343034 0.030685756 -0.024223685 -0.016606387 0.008369658 0.01585296 0.06391081
0.06839404 0.040650263 0.008353426 -0.017635813 0.03786207 -0.0052803094 -0.51938343 -0.03695548
0.014863162 0.2508101 0.054092165 -0.18697618 0.025184797 0.95528716 -0.04555641 -0.034602497
-0.03957099 -0.028828532 -0.06638782 0.20493521 0.04614842 0.16582412 -0.6867987 0.0054049087
-0.036391318 -0.030780515 0.07972676 -0.03043831 -0.17144729 0.05115283 0.0833522 -0.0036018859
0.09225893 -0.02337008 0.0016407557 -0.017895082 -0.04950478 -0.02473313 0.017648654 -0.03746303
-0.05844455 -0.1108067 0.09988605 0.4790743 -0.047706634 0.02701715 -0.28809917 0.04587904
-0.043498978 1.2868407 -0.2438345 0.0023440784 -0.37933776 -0.04307664 0.073789366 -0.034972515
-0.030942377 0.0901701 -0.055801608 0.054151416 0.0035652304 0.017318083 0.074129574 0.020736195
0.19016889 0.12987244 0.05411053 0.0424997 -0.2686783 -0.27132958 0.049611278 0.03953426
-0.018747441 -0.44676498 0.03175117 0.047165956 0.01842979 -0.075703494 -0.00604828 0.045623474
-0.044659432 0.12345841 0.084045045 -0.0337485 -0.03134697 -0.038806096 0.27016625 0.04261698
-0.057860397 0.4942127 -0.067851484 -0.028507963 -0.020503588 -0.025817527 0.26687127 -0.042951573
-0.05464296 -0.21152844 0.00209941 0.029929716 0.04762102 -0.057035267 -0.02921104 0.032800924
0.021262215 -0.055544127 -0.26911843 -0.042781968 -0.056814115 0.007221076 0.26128614 -0.01663734
0.0037120814 0.022447035 0.017695896 -0.4415746 -0.04375102 -0.012691837 0.06920691 0.02714841
-0.04681684 -0.23357193 0.05003007 -0.30587453 0.43138266 0.034503005 -0.03773854 -0.05190164
-0.0420375 0.034221563 -0.00024033991 -0.042965084 -0.28858802 0.020027824 0.017420502 -0.057196446
-0.037180807 -0.033538323 -0.048344053 -0.059257712 -0.10779811 -0.02171251 0.07631683 -0.92151135
0.0280562 -0.05040798 0.06578832 -0.003635727 -0.046635654 0.047706377 -0.5940634 -0.04628617
0.03477436 0.11017878 0.050300077 -0.046960752 0.009572454 0.072101355 0.15534927 0.048791856
-0.05945975 -0.04512639 -0.46314913 -0.056125842 0.0045799115 -0.053326588 0.15366986 0.043721076
-0.07867794 -0.0063109524 0.07760967 -0.05329178 0.026394142 -0.003382196 0.10482892 -0.012940283
0.16426446 0.025186596 0.04348242 -0.04259474 1.1094466 -0.2242952 0.02762432 -0.040811446
-0.14874147 0.05444445 0.0020695822 0.064935595 0.08684169 -0.02676556 -0.05466639 -0.042201176
0.1677265 0.031507883 0.034068644 -0.061153576 -0.009970694 0.056949254 -0.0471968 0.0003237595

convs.0.lin.weight f4 [256, 128]
00000000: 7de8 0dbd 470d b53c 8574 4ebd 8a6a 75bc
00000010: acb9 8a3d 61e6 153d 2a38 4f3d 0122 e53b
00000020: 20ee d7bd efb7 783d 0f3e 2ebc cb1c 203e
00000030: b4e9 c6bd d399 06be c2d9 9d3d 945e 67bd
00000040: 01ed 953d b6c5 ba3c 1c33 e1bd 525a 753d
00000050: 8e6c c13d df90 a53c 147d 0c3e 3ec6 923d
00000060: 4fc4 6cbd 0f6b c9bc f004 183c f425 2c3e
00000070: ed6b 4f3d 1d4d 3bba 9f6c 3cbd 7a02 c1bd
00000080: 6f78 bb3c 1c52 edbd 1dce e5bd 916b 883d
00000090: ce87 da3d 098b 72bd 0567 833d 2e4a ffbd
000000a0: b5cc 32bb 99e9 bc3d 6a30 c53c 7342 fe3c
000000b0: d620 5abd 745a 2c3d 630c b7bd 1907 60bd
000000c0: 69cf 2cbe 77d1 a7bd d6b0 28bd 98a3 37be
000000d0: d5bf 013e 3bf9 46bd dd05 293e ac8a c6bd
000000e0: b88d d23d f831 103e 8d79 e43c fbf1 613d
000000f0: 207a 413d 812b 1a3e 9242 b8bd 9c3d 013d
00000100: b71e 0d3e 6e27 0ebe 76d9 5cbd 2cb7 00be
00000110: c676 2ebe cfa8 e23d 7805 243e 0531 2f3e
00000120: 39ca 443d c155 6b3d 8445 e1bc 57fe c7bc
00000130: 0ee8 01bd f39e 05be b961 a23d 9bd2 643d
00000140: b9d6 953d c611 773c 1427 37bc fecb 1a3e
00000150: 6429 d9bd b21a 3bbd 8d99 0c3e 8738 dabc
00000160: 0a0f 8a3d 1cbf 0bbe 626b 4b3c 26c2 52bd
00000170: 88d7 eebd 5162 0e3e e1d6 65bd d6c5 4abd
00000180: 4910 b23b 8616 15bd b018 25be c4f0 aa3d
00000190: 58d4 6c3c 9448 3ebd 64c2 f13d a7c7 48bd
000001a0: 5eff 90bd 3c8c ecbd 5da3 103e b449 723d
000001b0: bc8d 723d 0c9d a73c ca32 2d3d 9bab 8c3d
000001c0: 5cbf f8bd ee50 9f3d 3ad6 0ebd 5225 77bc
000001d0: 60b2 093d 4de7 7c3e ea11 8bbd ecd2 8fbc
000001e0: 0f70 e73d 2cfe 28bd e5cf 1bbd f151 31bd
000001f0: 4d49 46bb 69a0 06be 6105 c3bc 8fd7 d53d
00000200: daf8 103d f06c 42bd 5e87 f73d 6cca 1bbe
00000210: 965a 87bc 604b 0e3e b1ce 653d 773b 1b3e
00000220: 677d 323d 37d2 72b9 97b4 f4bb 12cb 483d
00000230: a4a8 d0bd b3b1 2cbc b223 9b3d 8832 18be
00000240: 69fe 2c3d 004c c9bd db1e 64bc ad83 e8bc
00000250: 840f 013e c1c5 453d ae7e 05bd 0283 c5bd
00000260: 57cf 18bc 9eb9 53bd 8e34 e0bb 7be2 213d
00000270: 2f1f 223e b76b 033c dabf c63d 2953 533d
00000280: bf2a 1bbd d32d f1bd 6c3c 18be 6204 c23d
00000290: 89b3 f83d 507a 00be 2862 cbbd 6e97 2b3c
000002a0: f905 06bc fa1c 23be 97f7 c8bc 0268 89bd
000002b0: 1d12 07be 8ecf a8bc 977c 03be 1e7a 40bd
000002c0: 1756 913d 0ceb 8d3d c43b 0cbd 356b a13c
000002d0: d1dd 58bd 37a4 693d 4226 d2bd d54f 62bd
000002e0: 92c8 0f3d 849e 233e c081 2f3e 442b 053e
000002f0: 8584 06bd 904b c1bc 939a 34be a42d 183d
00000300: 652f e53d d8b8 5b3d 9dde f43c 9319 23be
00000310: 3e98 82bd 4811 033e 3959 3a3d 8451 c73b
00000320: e3cc 01bd 4c5a 183d 4416 8d3d 2721 d73d
00000330: 0448 0bbd e9e2 29be 5794 473e 9eee 77bd
00000340: 7771 92bd 6510 89bb cabd fcbd c609 c73d
00000350: 8ef5 1abe bca6 8bbd f568 cdbc 4064 35ba
00000360: 7684 0dbd d3b2 05be d73c 0f3d b8d8 0fbd
00000370: dfbb 3cbe d2ad 15be fa86 203d 1dfd 1ebd
00000380: 4529 77bb cdaf 353c 5f86 1a3d b9ac 97bd
00000390: 3518 abbd 3b8e c93c 6c16 b33d fc94 743d
000003a0: a972 c83b 0fdf 35bc a4a1 41bd ab51 9cbd
000003b0: 2f57 28be e123 15be 0238 2ebd 2aa5 58bd
000003c0: b83f ecbd 43c3 6dbc 8d30 bcba 64c9 34bd
000003d0: de60 03bb f68b f73d 7144 66bc 027f 1a3e
000003e0: 9415 a03d fc8e 9e3d a267 44bd 16e0 24bd
000003f0: 4603 753a 5a77 3abb 0d60 393d ba8f 313e
-0.034645546 0.022101058 -0.05040409 -0.014979014 0.06773695 0.03659666 0.05059067 0.006992579
-0.105434656 0.060722288 -0.010634913 0.15635984 -0.09712544 -0.13144617 0.0770755 -0.05648668
0.073205955 0.022799354 -0.109960765 0.05990059 0.09444533 0.020210681 0.13719589 0.07166718
-0.057804402 -0.024587182 0.009278521 0.16811353 0.050640035 -0.00071449747 -0.046002027 -0.094243005
0.022884576 -0.11587927 -0.112209536 0.06661142 0.10670434 -0.059214626 0.06416134 -0.124653205
-0.002728266 0.09224243 0.024070937 0.031037545 -0.05325397 0.04207845 -0.089379095 -0.05469427
-0.16875996 -0.08194249 -0.04118427 -0.179335 0.12670834 -0.04857753 0.16506143 -0.09694418
0.10280937 0.14081562 0.027889991 0.05516241 0.047235608 0.15055658 -0.08997072 0.031552896
0.13781248 -0.13882229 -0.053918324 -0.12569875 -0.17037496 0.11067354 0.16017711 0.17108543
0.048044417 0.05745483 -0.027498968 -0.02441327 -0.031715445 -0.13048916 0.07928795 0.05586491
0.07316346 0.015079921 -0.011178751 0.1511688 -0.10603598 -0.045679756 0.1373045 -0.026638282
0.0674115 -0.13647121 0.012415739 -0.051454686 -0.11662203 0.13904692 -0.056113128 -0.049505077
0.0054340702 -0.036398433 -0.16122699 0.08346704 0.014454924 -0.046455935 0.11804655 -0.04901853
-0.070799574 -0.11550185 0.14124818 0.05915232 0.0592172 0.020460628 0.042284764 0.06868669
-0.12145874 0.07779108 -0.03487227 -0.015084581 0.033617377 0.24697609 -0.06790526 -0.01755663
0.1130067 -0.041258022 -0.03804006 -0.043291036 -0.0030256093 -0.13147129 -0.023806276 0.10441505
0.035393573 -0.047467172 0.12086366 -0.15213937 -0.016522687 0.13895941 0.05610532 0.15159403
0.043576624 -0.0002315723 -0.007467817 0.049021788 -0.10188416 -0.010540414 0.07575168 -0.14863026
0.042234812 -0.09828949 -0.013923372 -0.0283831 0.12603575 0.048284296 -0.032591514 -0.096441284
-0.009326777 -0.05169069 -0.0068422025 0.03952263 0.15832208 0.008021287 0.097045615 0.05159298
-0.037882563 -0.117763184 -0.14866799 0.09473492 0.121436186 -0.12546659 -0.09930831 0.010473115
-0.008180135 -0.15929022 -0.024532123 -0.06709291 -0.13190503 -0.020606782 -0.12840496 -0.04699146
0.070964985 0.06929597 -0.034236684 0.01970444 -0.052945916 0.057041373 -0.10261203 -0.055251915
0.035103388 0.15978438 0.1713934 0.13004786 -0.032841224 -0.023595601 -0.1763709 0.0371529
0.111906804 0.053643078 0.029891307 -0.15927725 -0.06376694 0.12799561 0.045495246 0.0060827155
-0.031689536 0.03719549 0.068890125 0.1050437 -0.034004226 -0.16590466 0.19490181 -0.060530297
-0.07150548 -0.0041828626 -0.12340887 0.09718661 -0.15132734 -0.068189114 -0.025074461 -0.00069195405
-0.034550153 -0.13056497 0.03497013 -0.03511879 -0.18431042 -0.14617088 0.039191224 -0.038815606
-0.0037713808 0.011089277 0.037725803 -0.07405991 -0.083542265 0.024603954 0.08744511 0.059712395
0.006117184 -0.011100545 -0.047273293 -0.076327644 -0.16439508 -0.14564468 -0.042533882 -0.052891888
-0.11535591 -0.014511886 -0.0014357731 -0.044137374 -0.002004675 0.12087242 -0.014054404 0.15087512
0.07816616 0.07742116 -0.047950394 -0.040252768 0.0009346496 -0.0028452487 0.045257617 0.17339984

convs.1.bias f4 [256]
00000000: 312e 08be c980 20bd 5eb2 adbe cb32 0c3e
00000010: 2203 48bd 95a5 55bd 54d3 49bd 2296 d83b
00000020: f557 59bd e26d 47be 104b 733d 5c7b 62bd
00000030: b5b6 5c3c d95c 363c 885c 17bf eee8 8d3d
00000040: cc23 1ebd 315b 5e3e dedb 42be e791 4ebd
00000050: f3ae 64bd 083e 203d a666 073d 81cd a0bf
00000060: df90 8d3d 3198 11be 5084 50bd 746f 143e
00000070: 2bc4 ac3d 4190 58bd c0ae a4bc 7f10 bc3c
00000080: 710c f63c 5d7c 5fbd ce2a 11bd f745 b73d
00000090: d1e4 53bf 22c4 643e ef51 4dbd 55bd 9cbd
000000a0: 2914 9b3d 3221 013e c142 943d 39b0 b83d
000000b0: 7c81 f4bc c80d 44bd 1d86 763d 43ec bdbe
000000c0: 53d0 483d 981a 973c 55e5 e6bc 8a1a 59bd
000000d0: 8e26 0dbc 161c 0c3d ada4 6cbf d82a 873d
000000e0: 8e6f b13d cebb 463d bee4 a3bd aef6 5c3e
000000f0: 12f0 a4be 9fbf 78be 6a07 75bc 82c6 21bd
00000100: cf3c 07be f93f 56bd 65f7 5a3e 5d39 3a3d
00000110: 251a 16be 7bec 983e 6ad8 5fbd e01f 8cbb
00000120: d4dd 52bd c695 15bf 9c1b b9be ed40 233f
00000130: c446 29bd e58d 27bf b806 bfbc 67ac 58bd
00000140: 4a3d 41bd 5d7a 56bc 0e98 843d c5ca 5cbd
00000150: c3da 9cbe 8889 b53e dc92 a1bd 9fd2 893d
00000160: 08aa 58bd 963d fe3c b646 b4bd be59 88bd
00000170: b567 41bd b983 28be 4947 d4be 0110 b23e
00000180: 7fd4 0cbe 7a9a 58bd 61f6 a5bc ce62 973d
00000190: e6f0 c3bc 015c 0bbd 84b3 b93d 9d11 763d
000001a0: 15c2 cc3c 6efe 873f 87b0 cabc 88f2 1dbd
000001b0: 26e6 5bbe 2c4a b9bd 4aa3 1e3e e761 79bd
000001c0: c425 28bf 2144 8c3d d75a 893d 04bf b03d
000001d0: 030e 183d 2271 10bd b5a8 5f3d b16e a33d
000001e0: a424 233e aea8 d8bd 88bf 3e3d c8f6 733d
000001f0: 6175 48bd 9e2f 0dbc c7cf 243d 37fa 5c3d
00000200: 785b 8ebe e0b1 743d d944 873d b395 65bd
00000210: 891d 593d e87a 69bd 4663 fe3c e586 c73d
00000220: 89ca 28be 3c90 3f3d 8c29 d43c c9a9 45bd
00000230: d3df 4dbd 74c5 6bbd 06c6 8abd f7be b43c
00000240: 730e 50bd 1d34 56bd c9bf 21bd d73a 50be
00000250: 615c 21bd 8864 4bbd 8acc 793f 4d0a 35be
00000260: ff83 15bd d9f2 eebd d238 4c3d 26ae a8bc
00000270: 02ac 52bd 6308 acbd b627 593d 4f60 eabc
00000280: 7c44 89bd e3d3 51bd 5f0d 11bd f6a7 323d
00000290: cad3 63bd 2699 593d 6cfc 47bd 8ad4 c63e
000002a0: 41c0 2a3d 15b6 64bd 8b38 39bd 251f f33c
000002b0: c22a 8939 5a9b 6ebd a803 823d 3c39 923f
000002c0: 891f 1cbf b363 253c d2a4 cf3d 8b2d 6dbd
000002d0: d3da fbbc 39af e93b 0b9a a63d 982d 55bd
000002e0: 7377 943b 7f25 9a3d 111e c2be 404a ff3d
000002f0: b835 953d 1bb9 17bd cc4a 84bc 4cdf 09bd
00000300: 3098 e3be b4d5 d43d 475e 60be dbb2 69be
00000310: 55a1 933b 8460 693e 9988 8e3e b1e9 00be
00000320: ed2d 313d 73de 373b 2bf5 aa3d b2e0 99bc
00000330: 8427 80ba 1b43 763c 56e9 2ebe 91c5 08bd
00000340: ee56 453d c89a 42be 527e 603d cde5 b53d
00000350: 6cfc 8a3a d072 b63d 8d42 4fbe aaa6 c53d
00000360: baa3 55bd b584 dabe 1092 4ebe 6450 58bd
00000370: e05d 4abd 450a 50bd 93aa d43d a358 993d
00000380: 4d2f 033d 5986 4f3d 134c 033b 227b 713f
00000390: 37a6 5abd 1616 6d3c 4739 3d3f e3cd b9bc
000003a0: 324e 713f be7b 79bf 0437 943d 08ac 4abd
000003b0: 1ac5 573e eb79 43bd 556d b23d d338 64bd
000003c0: 7330 cdbc 2d8c d4bd f0c9 d8ba d851 663d
000003d0: 3695 923a 5a23 bcbe 4cb3 58bd 69ce 73bd
000003e0: fff1 5cbd bdc9 6c3d fbf6 7a3d ae2e b6bc
000003f0: 5c7a 6f3e 8737 d4bd 027f 4fbd 614b 523d
-0.1329887 -0.03918532 -0.33925146 0.13691251 -0.048831113 -0.052159864 -0.049273804 0.006609694
-0.053062398 -0.1947551 0.059397757 -0.055293426 0.013471295 0.011130535 -0.59125566 0.069291934
-0.038608357 0.21714474 -0.19029185 -0.050432112 -0.055830907 0.039121658 0.033056878 -1.2562715
0.069123976 -0.14218213 -0.050907433 0.14495641 0.084358536 -0.052871946 -0.020102859 0.022957085
0.03003523 -0.05456196 -0.035441212 0.089488916 -0.8277102 0.22340444 -0.050126966 -0.076533
0.075722046 0.1261032 0.07239295 0.09017987 -0.0298469 -0.047864705 0.060186494 -0.37094316
0.0490268 0.018445298 -0.028185526 -0.053003825 -0.008615149 0.034206472 -0.92438775 0.06599969
0.086638555 0.04851895 -0.080026135 0.21578476 -0.3221441 -0.24291848 -0.014955381 -0.039495952
-0.1320679 -0.052307103 0.21383436 0.045464862 -0.14658411 0.2986792 -0.054649748 -0.0042762607
-0.051481083 -0.5843166 -0.36153877 0.63770944 -0.041327253 -0.6545089 -0.023318633 -0.05289879
-0.04717759 -0.013090697 0.06474315 -0.053904314 -0.30635652 0.3545649 -0.07889339 0.06729626
-0.05289653 0.031035226 -0.088025495 -0.06657742 -0.047218043 -0.16456498 -0.41460636 0.34777835
-0.13752936 -0.052881695 -0.020259084 0.073918924 -0.02391858 -0.03402329 0.09067443 0.06007539
0.02499489 1.0624521 -0.024742378 -0.038561374 -0.21474513 -0.0904735 0.15491977 -0.060884383
-0.65682626 0.06848932 0.067067795 0.08630183 0.037122738 -0.03526414 0.05460425 0.07980097
0.15931946 -0.10579048 0.046569377 0.05956152 -0.048940066 -0.00861731 0.040237214 0.05394956
-0.2780416 0.059739947 0.066049285 -0.056050967 0.053006683 -0.05700198 0.031053197 0.09742526
-0.16483511 0.046768412 0.025898717 -0.048257623 -0.050262284 -0.057561353 -0.06776051 0.022063715
-0.05079503 -0.052295793 -0.03948954 -0.20334946 -0.03939474 -0.04965642 0.97577727 -0.1767971
-0.036502834 -0.11667413 0.049858876 -0.020590853 -0.05143357 -0.08400037 0.053016387 -0.028610377
-0.067025155 -0.05122746 -0.035413142 0.04361721 -0.0556219 0.05312457 -0.048824713 0.3883403
0.041687254 -0.05583771 -0.04521994 0.029677937 0.00026162533 -0.058253624 0.063483536 1.1423717
-0.6098562 0.010094571 0.10138859 -0.05790476 -0.030743992 0.007131484 0.0813485 -0.052045435
0.004530841 0.07526683 -0.37913564 0.12465334 0.07285637 -0.037041765 -0.016148947 -0.033660218
-0.44452047 0.10392323 -0.21910964 -0.22822134 0.0045053163 0.22790724 0.2783859 -0.12589146
0.04325669 0.0028056174 0.08347543 -0.0187839 -0.0009777402 0.015030648 -0.17081198 -0.03339154
0.048178606 -0.19004357 0.05480797 0.08881722 0.0010603792 0.089086175 -0.20240231 0.09650929
-0.052158095 -0.42679372 -0.20172906 -0.05281104 -0.049405932 -0.050791044 0.10384097 0.07487609
0.03202753 0.050665233 0.0020034357 0.9432851 -0.05338117 0.014470598 0.73915523 -0.022681182
0.9425994 -0.9745444 0.07237056 -0.049480468 0.21071282 -0.047723692 0.0871226 -0.055718254
-0.025047516 -0.10378299 -0.0016539674 0.056230396 0.0011183384 -0.3674572 -0.052905366 -0.05952302
-0.053941723 0.05780958 0.061270695 -0.022239055 0.2338652 -0.103621535 -0.050658233 0.05134142

convs.1.lin.weight f4 [256, 256]
00000000: b49c f13b 294f 103e ff68 6c3c f9d9 20bc
00000010: 7055 34bc 6151 063e 889e d1bd e4ef 4fbe
00000020: 02ee 8a3d 8d48 14bd 1752 203b 4b23 043d
00000030: e318 7e3d 1102 1cbe 5c3b ae3d b200 4d3d
00000040: fa96 ae3c adfd 003e 921a 4dbe 8114 4d3c
00000050: 0472 c33d cbee 39be 1dbb 4abd 9db5 c53c
00000060: 1255 bc3d 2cb3 8fbc f175 7b3d f165 15be
00000070: c9c1 9d3d e9bf 563d f5c6 08be 78a2 63bf
00000080: ac78 1cbe e303 903e 56bc 6b3d 3378 d4bd
00000090: 0bba 8e3d 7b85 c63d 7d64 283d e1c8 b23d
000000a0: 8d7a a9bd cc8a 0cbe 34dd e53d b479 013d
000000b0: 652f 9b3d 4e87 e73e 3741 b23d ee76 313b
000000c0: b6c3 8cbc f478 bbbe cde0 003e 0f19 7d3c
000000d0: e4e3 ba3c dc31 dbbd c31a e4bc fb63 69bd
000000e0: 81c6 f3bc fd15 f2bd af93 efbd f25a 723d
000000f0: 02ca d5bc b929 2cbd 7e56 cbbc d4cc 273e
00000100: 76df bb3d 2904 b5be d91c 1abf 619c ed3e
00000110: 639f 63be ae0d 9cbd 024c e33d 4c70 2c3d
00000120: 63e5 0d3c e0af a63d 30e6 603d fa8d 183f
00000130: b67c 8e3b ec9f 693b 6cdf 8f3e a5b5 243c
00000140: 4d20 f7bb 9448 2cbe 1793 7fbd df0b a73c
00000150: 7548 38be bfd7 dabc c659 55bf 9480 e23c
00000160: 75c8 a03e e421 4d3c 7305 be3c e1ab 3c3d
00000170: 847f f63d 76d7 9ebd 6227 b4bd 5869 39bd
00000180: f102 66bd 66ee e9bd 8403 7fbe 7121 663e
00000190: 6e4e 63bd fd2f e2bd a7a0 4cbf 7ef3 303d
000001a0: 318f 203c bd5b 3c3f 0541 943f be69 503d
000001b0: 8d67 afbc 8edd d93d c3fb c7bd e767 74bd
000001c0: 8833 363d 6ffd e6bc 4d2a 47bc cc6e babd
000001d0: 4dc1 213e a132 c8bd eff3 8a3d 7c86 2a3c
000001e0: c375 6e3d faf5 2dbe 3d98 86bc 34b7 1fbe
000001f0: d8ad 97bf 3357 d53f 84d8 b9bd 14e4 983d
00000200: 6098 7f3d 0393 0a3f e893 c0bd e82c 15bd
00000210: d006 d5bd 95ed 3c3d 73b9 24bd cfe2 11bd
00000220: d995 ab3d 8398 abbd d140 3c3c 37a5 123b
00000230: dfc7 0abd c33c c7bd 5941 0bbe d7d2 5f3d
00000240: 359c 8e3d d915 16be 8046 0bbd 1d7c c83d
00000250: 3546 b4bd 8307 87bd fec0 093e 61dd fbbd
00000260: 10a1 cf3d 96ae cc3c 5813 40bd fad3 2a3d
00000270: 03e1 1cbe 5709 adbe 74b0 993d fec5 313d
00000280: d0f1 6f3c f171 f5bc ffc2 35bd 7854 ac3d
00000290: 02c8 843d ceb6 e5bd 6da6 b5bf 6be9 08bd
000002a0: 5953 2fbe 4789 6ebd 49a9 f8bd e06d 0c3f
000002b0: ce14 1f3b a105 90bd 2be1 2e3d d657 debc
000002c0: 7fcb 323d 0577 edbb 4f4c 6ebd 9132 41bd
000002d0: 8375 e7bc 0ddd 59bc af45 84be 8f49 df3d
000002e0: 0d62 973d 3c6c 493d 8ec7 3ebd d811 ddbd
000002f0: 7158 aa3d 2164 293d f739 743c f32a ab3d
00000300: ee1d d7bc 20fd 953d f8de 8f3c b654 483d
00000310: e8e2 0f3e 6a02 213c c8f7 78bd a903 a43f
00000320: 5032 7dbd ed67 c5bb b59b da3c b891 653d
00000330: 63c4 073e 3a11 083d 2427 9b3d 68d1 b23d
00000340: 9fac b43d eab6 2f3c 7e1f 9b3d f621 a13d
00000350: 204e d2bc c3bf d53c 094a fa3d 50ef 5e3d
00000360: 1baf 80bc bd87 35bd ec11 33bf f0f1 d33d
00000370: cd6e 8a3d e3d2 123e 0049 13bd ee09 6fbe
00000380: 9288 2ebe 7dd4 c23d d775 4abd 132a 4f3e
00000390: dca9 8dbb 6579 81bd ff6c 15be f080 b1bc
000003a0: 5fff 063d 250e a93d 9b7c 9a3a 5e4c 8e3c
000003b0: b3ba 3abe 8cbb 2abe 8724 00bd 471c 0f3e
000003c0: ea2b 40be 0b31 a8bd 9704 073d f388 eabc
000003d0: dbae ef3d 215f 293e 1605 77bd fde0 d83d
000003e0: b983 013c dad2 be3d bb53 b9bc 3f2a 80bd
000003f0: 9d67 afbb eb2e 9b3d 935d 3dbd 1517 b4bd
0.007373417 0.14092697 0.01442933 -0.009817594 -0.011006698 0.13116981 -0.102353156 -0.20306355
0.06783678 -0.036202002 0.0024462992 0.03226022 0.062035453 -0.15235163 0.08507416 0.05004949
0.021312226 0.1259677 -0.20029667 0.012517096 0.09543231 -0.18157499 -0.04949485 0.024134452
0.091959134 -0.01754149 0.061391775 -0.14589669 0.07702977 0.052429114 -0.13357146 -0.8891978
-0.15280408 0.28127965 0.057552658 -0.10374489 0.06969079 0.09693428 0.041111458 0.08729721
-0.08275328 -0.13724822 0.11223832 0.031610206 0.07577399 0.45220417 0.08703845 0.0027078944
-0.017183166 -0.36615717 0.12585755 0.015447869 0.022813745 -0.10702869 -0.027844792 -0.056980114
-0.02975774 -0.118206 -0.1169809 0.059168763 -0.026097301 -0.042031977 -0.024821516 0.1638673
0.09173481 -0.35354736 -0.6020027 0.4640837 -0.2222877 -0.07619797 0.11098482 0.042099282
0.008660647 0.08139014 0.054907024 0.5959164 0.004348363 0.00356483 0.28100145 0.010053073
-0.0075416924 -0.16824561 -0.062396135 0.020391403 -0.1799639 -0.026714204 -0.8334011 0.027649201
0.31402937 0.012520287 0.023195958 0.046062354 0.120360404 -0.0775594 -0.08796574 -0.04526648
-0.05615515 -0.11422424 -0.24903685 0.22473694 -0.05549472 -0.11044309 -0.79932636 0.043200962
0.0097997645 0.7357748 1.1582342 0.050882094 -0.021411682 0.10637961 -0.097648166 -0.0596694
0.044482738 -0.028197018 -0.012156081 -0.09103164 0.15796395 -0.09775282 0.06784808 0.01040804
0.058217775 -0.16988364 -0.016430015 -0.1559723 -1.1849928 1.6667236 -0.090745 0.074653774
0.062401175 0.5413057 -0.09403211 -0.03641978 -0.1040169 0.046125013 -0.04021592 -0.035616692
0.083781905 -0.08378699 0.011490063 0.0022376308 -0.03388202 -0.09728386 -0.13599147 0.054644432
0.06963388 -0.14656772 -0.03400278 0.09789298 -0.088024534 -0.065932296 0.13452527 -0.12298084
0.10138142 0.024985593 -0.046893448 0.041706063 -0.1532021 -0.33796188 0.07504359 0.04340171
0.014645055 -0.029961558 -0.044375416 0.08414549 0.06483461 -0.11216508 -1.4191414 -0.03342573
-0.17121638 -0.058236387 -0.121416636 0.54855156 0.0024273875 -0.07032324 0.042695206 -0.027141493
0.0436511 -0.0072468542 -0.058178242 -0.047167365 -0.028254276 -0.0132973315 -0.25834414 0.10902702
0.073917486 0.049175486 -0.04657703 -0.10794419 0.0831765 0.041355256 0.014906398 0.08357801
-0.026259389 0.073236704 0.017562374 0.04890891 0.14051402 0.009827236 -0.060783178 1.2813617
-0.06181556 -0.006024352 0.026685575 0.05604717 0.1325851 0.033219554 0.07575825 0.08731347
0.08821987 0.010724762 0.07574366 0.07867806 -0.025672019 0.026092416 0.12221152 0.054427445
-0.015708497 -0.044318903 -0.6994922 0.1034888 0.06759415 0.1433826 -0.03595829 -0.23343632
-0.17044285 0.09513185 -0.049428787 0.20230894 -0.0043232273 -0.06321982 -0.1459236 -0.021667928
0.032958385 0.08254651 0.0011786403 0.0173704 -0.18235283 -0.16673106 -0.031284835 0.1397563
-0.18766752 -0.08212479 0.03296336 -0.028629756 0.11703273 0.16540195 -0.060307585 0.10589788
0.00790494 0.093175605 -0.022622934 -0.06258058 -0.005352928 0.07577308 -0.046231817 -0.08793465

convs.2.bias f4 [256]
00000000: 7056 7d3d f276 9ebd 6458 55bd a8bd b23d
00000010: fd32 72bd 60d9 7bbd f26e 833e 4437 6bbd
00000020: e487 1fbd 29cb 0ebd a8e4 a73d ba00 5a3d
00000030: b654 4abd eb5d cebc 3d26 603d 9a83 e23d
00000040: 5dba 043d fef9 5a3d 4d84 1ebd 1ad8 63bd
00000050: bb02 50bd 311c 7c3d 0df4 e53c 5785 a3bd
00000060: 7c7c e83d 40e0 17bd 0054 74bd 7f74 cc3d
00000070: f1ac cc3d 0a07 29bd 29c6 303d 0192 8cb9
00000080: 3c68 86bc a63c d43c e1d9 5d3d ca35 943d
00000090: a501 3cbd ac83 ccbc a5b3 5ebd 8095 503d
000000a0: 829f aa3d c769 4c3d 73a2 5d3d 0460 c73d
000000b0: 6e9f 78bd 8341 4fbd 4a19 e13d ca4f c73d
000000c0: 0185 793d bf35 afbc 5f87 083c ef61 83bd
000000d0: c4bb 3e3d 0bb6 9f3d 3934 053d 6c9b 8a3d
000000e0: 69e1 053e 5ed3 0c3d 7437 46bd 6a44 1abd
000000f0: e497 783d a54a 5b3d b8a8 463d 8661 a6bc
00000100: 0b60 1d3d cb87 2dbd 5e6c d43d 6250 a93d
00000110: 58b1 a63c d278 2fbd 2199 9dbc d4f4 8cbc
00000120: 5e68 0ebd 45cf 3bbd 05f3 413d aa14 e33d
00000130: 3bdc dfbc bc67 1dbd d258 063e f05e 0dbd
00000140: adf5 45bd babe 7fbd 3012 973d 4da2 5dbd
00000150: a1d4 9c3c 0fd3 983d 72cc 443d 8a8b 8d3d
00000160: a0d5 44bd 4266 2c3d 7700 aabc 6635 5a3d
00000170: 8218 2cbd 0918 c33a a061 993d 1b23 b03d
00000180: 8462 29bd a01e 6dbd 86e9 103d f0f0 683d
00000190: 4f70 a53d a7be 0d3d caf4 413e 4685 bd3d
000001a0: dc5c 28bd d808 fd3e dd75 fe3b b8e6 f4bb
000001b0: 0f64 04ba 9da1 18bd 720c d43e 4f33 fd3b
000001c0: c1cb 79bc 78dd db3d 8a13 883d a679 e93d
000001d0: 203b 643d 48e5 523d 4f55 c93d 0b5b 8f3b
000001e0: 5d0c c13d 2263 c23c fcc4 ad3d a173 9f3d
000001f0: 9663 c13d 7aee 273d d101 963d 2913 533d
00000200: db2c 653e 81a0 9b3b da06 5a3d 8716 0fbd
00000210: 4e32 923d e0a0 ad3d 1ceb a13c b8f4 e9bc
00000220: ca1f 9b3d 8239 af3c 86f8 e7bb 1f0d 10bd
00000230: fcd3 143d 165b 62bd 85ce 12bd 27f8 323e
00000240: 23c4 50bd 7a36 80bd 0546 14bd 7bfb 073d
00000250: 52ca 6b3d 7e27 6ebd db82 f43f 6ced a7bc
00000260: c905 f33c fe98 483d c3aa 7e3d 8f22 883d
00000270: b9bc 10bc 2c6f 3f3d f08b 483d d2e7 d93d
00000280: 60bd ccbd 9421 20bc ba13 3d3d bc14 233c
00000290: a86d 63bd c1e2 553d 56a3 3fbd b8ad d43d
000002a0: 9cfa 66bc 6b53 febc 827f bbbd 4dd8 793d
000002b0: a912 45bc 3383 77bd 0f2b 023e aae8 0a3e
000002c0: 3733 8b3b c1c2 2bbd f072 713d e0c0 22bd
000002d0: c470 49bd 772a 123d bf31 b73d 2329 5fbd
000002e0: 2615 50bd bca9 123d f70f c2bb 033c f8bc
000002f0: a018 3dbd d4ed 04bd 3592 0bbd 1a3e 07bc
00000300: 7468 2d3e 7150 2cbe 4cae 6e3c 7bc3 cabc
00000310: 5e9b 683d ec2d 90bd a656 c63d 5950 88bd
00000320: 184d fb3d 054b 3abb 723d b83d 1086 f23c
00000330: 678e 293d 92c3 fb3d 1511 77bd c28b 6e3d
00000340: 05f0 7a3d f3b3 5f3d 8ec5 ac3d 71f8 43bd
00000350: 1d7e de3d 8da0 f93d 493f e5bc a39e bd3d
00000360: 84f8 82bd 87b1 8f3d b1a4 e7bc 8148 69bd
00000370: c683 e7bc 64ed 1abd 8a0a c43d 83be 723d
00000380: fc4d 713d f220 debc bf80 c33d 2615 cebc
00000390: c199 483d 74f6 5e3d ef5c a43d 1fbc 1bbd
000003a0: 7364 153e e3f2 b63d 8030 423e 7a1e 12bc
000003b0: 2641 503e 8441 633d d469 ad3d cce2 25bd
000003c0: 0199 2d3d 680f 43bd 0ff4 403d 2c6c 203e
000003d0: 6589 853d c99c 66bd f1cf 323d 0bc4 2bbd
000003e0: f76c 1d3c 7f7d 4e3d 0720 0cbd c70c f2bc
000003f0: 2a1e 183c bf13 c53d 65a8 4fbd 381d 353d
0.06185001 -0.07737531 -0.05208625 0.0872758 -0.059130657 -0.0614866 0.25670582 -0.057425752
-0.038947955 -0.034861717 0.081979096 0.05322335 -0.049397193 -0.025191268 0.054723967 0.11060257
0.032404292 0.053461067 -0.03870039 -0.055626012 -0.050783854 0.061550323 0.028070474 -0.07984417
0.113518685 -0.037079096 -0.05965042 0.09983157 0.099939235 -0.04126648 0.04315773 -0.00026811662
-0.016407125 0.025907826 0.054162864 0.07236822 -0.045900006 -0.02496513 -0.05437054 0.050923824
0.08331205 0.049905565 0.05411 0.097351104 -0.06069892 -0.050599586 0.10991152 0.097320154
0.060917858 -0.021387933 0.008333056 -0.06415164 0.046565786 0.07798394 0.032520507 0.067679256
0.13074268 0.034381263 -0.048392728 -0.0376629 0.06069173 0.053537983 0.048500746 -0.020310175
0.03842167 -0.04236583 0.10372232 0.08267285 0.020348236 -0.042839833 -0.019238057 -0.017206587
-0.0347675 -0.045851965 0.047350902 0.11087926 -0.027326694 -0.038429007 0.1311982 -0.034514368
-0.048329998 -0.06243775 0.07376516 -0.05410986 0.019144358 0.07462131 0.048046537 0.069113806
-0.04805529 0.04208971 -0.020752175 0.05327358 -0.04201556 0.0014884482 0.074893236 0.08600446
-0.041353717 -0.057890534 0.035378955 0.0568704 0.08078062 0.03460565 0.18941036 0.092539355
-0.041104183 0.4942081 0.0077655152 -0.007473793 -0.000505031 -0.0372635 0.41415745 0.0077270637
-0.015246333 0.10735601 0.06644352 0.11400156 0.05572045 0.05148819 0.098307244 0.004374867
0.09426186 0.02372891 0.084848374 0.07785726 0.09442823 0.040998913 0.07324565 0.051531944
0.22380392 0.004749358 0.05322919 -0.034933593 0.07138501 0.0847795 0.01976543 -0.028559074
0.07574423 0.021389727 -0.007079187 -0.035168763 0.036334977 -0.055262648 -0.035841484 0.17477475
-0.0509683 -0.062603906 -0.03619959 0.033198815 0.057565995 -0.05814313 1.9102434 -0.020498954
0.029665845 0.04897403 0.06217457 0.066472165 -0.0088340575 0.04673688 0.04896158 0.10639919
-0.09997058 -0.009773631 0.04616139 0.009953674 -0.0555245 0.052218203 -0.04678663 0.10384697
-0.014097836 -0.031045636 -0.091551796 0.060997296 -0.012028375 -0.060427856 0.12711738 0.13565317
0.0042480486 -0.04193378 0.058947504 -0.03973472 -0.049179807 0.03568503 0.08945035 -0.05448259
-0.05080142 0.035806403 -0.0059223133 -0.030302053 -0.046166062 -0.032453373 -0.03407498 -0.008254552
0.16934377 -0.16827561 0.014567923 -0.024751415 0.056788795 -0.07040009 0.09684496 -0.0665595
0.12270564 -0.0028426063 0.08996095 0.029604942 0.04139557 0.122931615 -0.060319025 0.058238752
0.061264057 0.054614972 0.08436118 -0.047844354 0.10863898 0.12188826 -0.027984278 0.09258773
-0.06395057 0.070162825 -0.028276773 -0.05695391 -0.028261077 -0.03782405 0.09572323 0.059263717
0.058912262 -0.027115319 0.09546041 -0.025156569 0.048974756 0.054434255 0.08025538 -0.038021203
0.145891 0.08933046 0.18963814 -0.008918399 0.20337352 0.055482402 0.08467451 -0.040499493
0.042382244 -0.047622114 0.047107752 0.15666264 0.065203466 -0.056301866 0.04365534 -0.041935008
0.009608499 0.05041265 -0.03421023 -0.029547108 0.009284535 0.09622907 -0.050697703 0.04421732

convs.2.lin.weight f4 [256, 256]
00000000: c914 0c3e d899 a239 af91 0f3e bea3 4bbb
00000010: eaf1 1c3e a7f4 1c3e 6c95 003d 8e0c 7bbd
00000020: e3f8 253d 8eac 1f3d d7ad 803b 8449 373d
00000030: ab0f 81bc dad5 c7bd 89d3 e73c ea95 093d
00000040: 40c9 023e 393f 9abc 553c 8abd 1687 ef3d
00000050: 8076 3c3c 5e53 073e 5e52 9d3d 3bf6 bcbe
00000060: 4eb0 163e 3de6 9bba 0429 123e 3d2e c53d
00000070: 145a 8fbd 9c56 343d 11aa 453d e918 1fbd
00000080: 5040 89bd 2070 023d 3f1e 023e 88b3 b73d
00000090: 9522 973d bdbc c83d 22a1 f43d 66a1 91bc
000000a0: f194 29bd 23cb e0bd 730d fb3d aee0 c3bc
000000b0: 6343 f03d d718 083e 704b ff3d 812c 063e
000000c0: c561 af3d 9547 20bd 49d0 29bd b224 173d
000000d0: 4f03 463d b459 c13d fae3 763e 8711 a6bc
000000e0: 6cab 26bc 92c4 153c ff0e c4bd c5d5 803d
000000f0: 97ea 5dbd c109 3b3d 2624 8bbc 8ac6 c6bb
00000100: 52a0 d83d 5f97 de3d ecde 97bb 880e fc3d
00000110: 6bc9 d43d afb1 6c3d f6d2 7ebc 173b 07bc
00000120: 1952 ba3d b625 e93d 6fcf 11bc 19c5 08be
00000130: 01ec d53d 658a 853b 695b 763c f617 b83d
00000140: 78fe f23d bdf1 55bd 3e00 e33d 7067 003e
00000150: f525 26bd 390e cebc 848b d23d 87da 31bd
00000160: d76a 2a3d 5783 ec3d ce8d 90bd 0b67 34bd
00000170: 42e2 253d 0229 3d3c 62d6 a73d ac86 abbc
00000180: 3a73 8b3d 81b0 2dbd d9a4 4b3d c599 ccbc
00000190: 1125 153e 3432 8f3b fc9e 56bc 4b59 023e
000001a0: 0865 143e f1a3 dfbd 6406 ea3d 2613 6dbc
000001b0: fb5f 0fbd 7bf2 183e 3ce1 27bd 761d cabc
000001c0: 0612 d23c 9d77 fe3d 2ab0 133e a2bd 9b3c
000001d0: 82f8 f13d 73e4 aabd c895 853c eaa8 923d
000001e0: 761b 0c3d 13b0 263e 6746 d43d aeb8 7e3d
000001f0: 5739 2e3e a594 8c3d ecae f53d ca75 9abd
00000200: f476 42bd 2a2e d4bd 0cb0 e33d a7cc 1ebd
00000210: a251 8d3d 6882 3c3d f802 66bd 445c 213c
00000220: ff59 353d d4fc 333d 5817 84bd 9685 f23d
00000230: 24ae a33d b29d 193d 1a53 0c3e 5d14 72bc
00000240: 8aeb a93c 77b6 b53d 5683 d1bb 6fb7 293c
00000250: 384d 703d 58f6 1d3e e352 983c 5668 edb9
00000260: 10a3 fc3b dc1b 033d 3a4a 0a3b 0a36 a33d
00000270: e4f4 7f3b d4cd 0e3e cfb4 343d 93dc 5f3d
00000280: e4bc a63b 8bb3 93bc fdfc 9dbd 1743 dcbb
00000290: 3609 483d aa33 6abd 4268 3cbc 3e61 babd
000002a0: 2bd0 2b3d b0e0 aebd 3049 b03d e444 133e
000002b0: 6190 d73d 2516 cabc 763b ef3c cbde 69bd
000002c0: c356 3bbd 5969 913d 822e 7cbc 64ff 133d
000002d0: 7321 943d 6d3d eb3c 9a47 9c3d 283e 023e
000002e0: a209 29bd 36e2 313d 0ed3 eb3c f9fc 953c
000002f0: 2d06 c4bd 522e 5c3c 2172 253e 2c37 b13d
00000300: 076a 143d 1057 c53d 5832 8a3d c563 0dbb
00000310: 2db5 35bc 8b3c e53d cdab b93c 0bbe 75bd
00000320: 17a9 863d b14f 3d3d a530 7bbc bb34 1a3d
00000330: c259 c43d 9019 af3d 6a55 bfbd 4cb8 d53c
00000340: de24 51bd 202c 163b 6906 573d 9ec8 a1bc
00000350: 94d4 47bd fd5e e1bd dc0f 9d3c 69ec a13b
00000360: b5e8 163e d634 19bd 8e6d 00be 1071 2fbb
00000370: 0681 0d3d 5c57 073e 32df e1bb 5400 283e
00000380: 12a2 2d3d 6435 a4bc b282 07bd 9672 fd3c
00000390: 3317 ce3d 5bf1 833d 8026 0bbe 6791 42bd
000003a0: 95ba c63c dc9b 103e e5c6 973d c155 dc3b
000003b0: e06b 343e 7425 fb3d 50fe 89bb cabb eebc
000003c0: ef3b b73c 6bc8 e93d 8b98 7dbd 441d 67bd
000003d0: fbdb f73c 86ef 143e 640e e7bb ca02 5b3d
000003e0: c40d 9dbc 6e7b 773c 74da 0e3e 18f3 64bd
000003f0: 0d97 1d3d 6e17 bc3d 5418 44ba 47e4 153e
0.13679804 0.0003101367 0.14020418 -0.003107294 0.15326658 0.15327702 0.0313925 -0.06129127
0.04052056 0.03898292 0.0039269733 0.044747844 -0.015754541 -0.09757586 0.02829911 0.033590235
0.12772083 -0.018828975 -0.06749789 0.116956875 0.011502862 0.13215396 0.07681726 -0.3690661
0.14715692 -0.0011894178 0.14273459 0.0962796 -0.06999603 0.04402791 0.04825789 -0.038842116
-0.0670172 0.031845212 0.1270685 0.0896979 0.07379643 0.09801624 0.11944796 -0.017777156
-0.041401807 -0.10976245 0.122584246 -0.023910847 0.11731603 0.13290726 0.124655604 0.13102914
0.0856357 -0.039130766 -0.0414584 0.03690023 0.048343 0.09440938 0.24110404 -0.02027203
-0.010172706 0.009141104 -0.09573173 0.06290773 -0.0541788 0.0456636 -0.01698501 -0.006066148
0.10577454 0.108687155 -0.0046347287 0.12307459 0.1038998 0.05778664 -0.015553227 -0.008253834
0.0909769 0.11384146 -0.008899554 -0.13356437 0.10445405 0.004075336 0.015036442 0.08988945
0.11864942 -0.052232493 0.110840306 0.12539458 -0.040563542 -0.025153266 0.10280517 -0.043421295
0.041605797 0.115484886 -0.07058297 -0.044043582 0.04049898 0.011545422 0.08195187 -0.02093824
0.06809087 -0.042404655 0.049717758 -0.024975667 0.14564921 0.0043699984 -0.013099428 0.12729375
0.14491665 -0.10919941 0.11427 -0.014469897 -0.035003643 0.14936249 -0.040986285 -0.024672251
0.02564336 0.12425158 0.1442267 0.019011322 0.11814977 -0.083443545 0.016306773 0.07161124
0.034205876 0.16278104 0.10364991 0.062187843 0.17014061 0.06864289 0.11996254 -0.07541998
-0.047476724 -0.103603676 0.11117563 -0.03876939 0.06900336 0.046022803 -0.056155175 0.009848658
0.04427528 0.043942288 -0.06449765 0.11841886 0.07992199 0.037503906 0.13703576 -0.014775363
0.020742197 0.08872693 -0.0063938303 0.010358675 0.05866739 0.15426004 0.018594211 -0.000452819
0.0077098683 0.03200899 0.0021101371 0.079692915 0.0039055878 0.13945705 0.044117745 0.054653715
0.0050884355 -0.018029949 -0.07714269 -0.006721865 0.04883691 -0.057178177 -0.011499466 -0.09100579
0.04194657 -0.085389495 0.086077094 0.14381748 0.10525585 -0.024668762 0.029203158 -0.057097238
-0.04573704 0.071001716 -0.015391948 0.03613223 0.072329424 0.028715814 0.076308444 0.12719023
-0.041268952 0.043428622 0.028787162 0.018309103 -0.095714904 0.013438778 0.16156818 0.08653101
0.036233928 0.096357465 0.067478836 -0.002157436 -0.011090559 0.11193188 0.022664929 -0.059995692
0.0657522 0.046218578 -0.015331422 0.037647944 0.095874324 0.085497975 -0.09342463 0.026088856
-0.05106055 0.0022914484 0.052496348 -0.019748982 -0.048786715 -0.11004446 0.019172601 0.0049415124
0.14737208 -0.037403904 -0.12541792 -0.0026770271 0.034546874 0.13216919 -0.006893062 0.16406375
0.04239089 -0.02004499 -0.033083625 0.030938428 0.10063019 0.06442519 -0.13588905 -0.047501948
0.024258891 0.14121956 0.07410983 0.00672409 0.17619276 0.12263003 -0.0042112246 -0.02914228
0.022367446 0.1141518 -0.061913054 -0.056424394 0.030256262 0.14544496 -0.007051276 0.053469457
-0.019171603 0.0151051115 0.13950521 -0.055895895 0.03847413 0.09184156 -0.0007480432 0.14637862

lins.0.0.weight f4 [256]
00000000: ba9a 703f 683b 6e3f 1a9e 703f 6db3 4e3f
00000010: e992 703f ee96 703f a2ef da3f fba5 c63f
00000020: d7a1 703f a076 703f 6e9b 7a3f 6135 713f
00000030: 8697 703f 3397 703f c90a 703f 316a 783f
00000040: e943 763f efb8 6f3f 19eb 0740 282a 563f
00000050: 8a3e 7a3f 20ff 223f 6cfa 6d3f d898 643f
00000060: ade0 703f 9f9d 703f 559c 6e3f a47e d43e
00000070: d26b 733f 3bb3 703f 2bae 5a3f f9e0 0340
00000080: 67c7 9e3f 5d24 cb3f 9904 613f 8d85 3f3f
00000090: 77a1 703f 44fe 563f 4c30 663f 12a6 713f
000000a0: d838 713f cad7 7c3f afdc 793f 57e3 073f
000000b0: 3673 703f ffcf c83f d693 7d3f b4bf 653f
000000c0: 62e9 4c3f b246 1640 2883 703f cd83 943f
000000d0: 81f4 803f a030 473f 2718 673f 109d e93e
000000e0: 10c4 453f 3bab dc3e b918 783f 8f92 7c3f
000000f0: 13b3 383f 5321 423f 65fc c43f c5a6 703f
00000100: 4522 483f f51d 843f 3484 543f 7b2d 1440
00000110: c5a1 3c3f 1d0c ebbd 1789 703f bb90 703f
00000120: 3ae5 713f fa10 7e3f 398c 0f3f 81bb fd3e
00000130: 5d03 d03e 6230 623f 8ab4 1d40 ddfb 4d3f
00000140: e8a1 703f 6379 e23f d305 1c3f 2507 703f
00000150: 7d48 4540 ca50 0e3f 28c3 0a40 e99b 713f
00000160: de4e 563f f56b 733f 4cf7 713f 89b3 733f
00000170: e5a0 703f 7eff 993f 46d9 233f 7731 723f
00000180: 4465 703f 634e 6f3f 8513 463f 5ee6 8f3f
00000190: 1d8e 6a3f 6872 753f ab09 0340 d97c 603f
000001a0: 3bf7 6f3f bb22 0d40 257c eb3f aa83 7c3f
000001b0: 1e4d 583f fb97 703f 1bf0 153f d7be 5e3f
000001c0: 5ec1 713f 0c2b 793f ddc6 983f faff 1a3f
000001d0: 79fa 713f 109e 6f3f 8feb 8e3f 1fe2 1e3f
000001e0: 9e8f 443f 0928 d73f fc28 5e3f 76e0 1c3f
000001f0: d47f cd3f e69c 0f40 bd8f 443f d182 483f
00000200: fa3a 693f e385 2240 98cb 763f 4afe fb3e
00000210: 8023 7d3f e5bc 553f 235f 733f 3467 563f
00000220: 3d9b 703f c201 bf3e 3722 8e3f 815e 793f
00000230: 06a3 873f 2db8 703f eed9 473f d073 6b3f
00000240: e2ea 6f3f 7778 8a3f 82b8 6e3f ab95 703f
00000250: 611a 623f 335c 923f 0a17 ca3f 797d 873f
00000260: ee86 6c3f 7b01 9d3f a5fd 4c3f 59fd 403f
00000270: 9f55 603f 960e c43f 18b5 703f 1d7b 583f
00000280: 4509 233f 64a7 703f 1c0d 0b40 2db8 703f
00000290: c01e 703f fddf 6e3f cfa2 613f d844 703f
000002a0: bce0 753f 86b9 3a3f a5c1 833f fcec 2640
000002b0: 2c5a 703f 48d1 703f 7f10 753f 4c56 713f
000002c0: 1b9b 703f 8b75 923f bf25 8f3f 4351 c23f
000002d0: 1e7c 753f c571 343f b21e 9b3f c3d7 703f
000002e0: 28b7 703f 3140 4f3f cf24 033f 7138 7b3f
000002f0: e63c e03f bb84 5b3f 05a5 703f b070 6f3f
00000300: 819f 703f 4434 713f 42d3 6f3f 3f82 6f3f
00000310: e46c 1e40 1b13 9a3f 5c98 293f 00a3 fe3f
00000320: 6484 503f 0090 703f ee7e 1a3f 88d5 193f
00000330: a60e 703f ccb9 3c3f d391 1e40 eeb1 703f
00000340: fe5d 7c3f 8726 253f 075b 773f e6ab 703f
00000350: 16bf 783f 73ac 253f 93c1 413f 8338 513f
00000360: 5fef 6f3f cff3 703f 2b7d 1140 2a65 703f
00000370: 7bb5 703f 5c85 703f ebe1 bb3d 9674 6e3f
00000380: 328e d63f b772 783f cabb 3c3f 8798 9e3f
00000390: f5e4 763f c55a 483f e7d7 503f 900b 6d3f
000003a0: 1cb2 263f ecb4 643f 174c 1c3f 0a95 703f
000003b0: c543 dd3f f108 d03f 67b1 4b3f 26eb 743f
000003c0: 92b3 f13f aa59 533f 7c26 513f e538 bc3e
000003d0: 6912 a33f 56c3 703f 2e06 703f fe3c 723f
000003e0: 2d97 9c3f 2e3c 6f3f d215 553f 2cdb 6b3f
000003f0: 2164 0440 f475 813f c2a1 703f a892 bc3f
0.93986094 0.93059397 0.93991244 0.8074253 0.9397417 0.939803 1.710438 1.5519403
0.9399695 0.9393101 0.97893417 0.94222075 0.93981206 0.9398071 0.93766457 0.97037035
0.9619737 0.9364156 2.1237242 0.83658075 0.9775168 0.6367054 0.9296024 0.8929572
0.9409283 0.9399051 0.93207294 0.4150287 0.95086396 0.94023484 0.8542201 2.0606062
1.2404603 1.5870472 0.8789764 0.7481316 0.93996376 0.8398173 0.89917445 0.9439403
0.9422736 0.9876677 0.9760236 0.5308127 0.939258 1.5688475 0.99053705 0.8974564
0.80043614 2.348065 0.9395013 1.1602722 1.0074617 0.7780857 0.9027123 0.45627642
0.7725229 0.43099388 0.96912724 0.9866113 0.72148246 0.758321 1.5389525 0.9400447
0.7817729 1.0321642 0.83014226 2.315276 0.7368434 -0.1147692 0.9395918 0.9397084
0.94490397 0.99244654 0.5607334 0.49557117 0.40627566 0.88355076 2.4641442 0.8046244
0.9399705 1.7693294 0.6094639 0.937609 3.0825493 0.55592024 2.1681614 0.94378525
0.8371409 0.95086604 0.9451797 0.95195824 0.93995506 1.2031095 0.6400341 0.9460673
0.9390452 0.93478984 0.77373534 1.1242177 0.916231 0.95877695 2.047465 0.876905
0.9373662 2.2052448 1.8397261 0.98638403 0.8449267 0.93981904 0.58569497 0.8700995
0.9443568 0.9733131 1.1935688 0.6054684 0.94522816 0.9360056 1.1165637 0.62063783
0.7678164 1.6809093 0.8678129 0.6128 1.6054635 2.2439513 0.7678183 0.7832461
0.91105616 2.5394218 0.9640441 0.49217445 0.98882294 0.83491355 0.9506704 0.83751225
0.93986875 0.3730603 1.1104192 0.97409827 1.0596626 0.9403103 0.7806691 0.9197359
0.9371778 1.0818013 0.93250287 0.93978375 0.883215 1.1434387 1.5788281 1.0585166
0.92393386 1.2266077 0.8007453 0.7538658 0.8763065 1.5316951 0.9402633 0.84562856
0.6368602 0.9400542 2.1726751 0.9403103 0.9379692 0.9331053 0.8813905 0.9385505
0.9604604 0.72939336 1.0293471 2.6082144 0.9388759 0.9406934 0.95728296 0.94272304
0.9398667 1.1442121 1.1183394 1.5181049 0.9589251 0.704861 1.2118742 0.94079226
0.94029474 0.80957323 0.5122804 0.98133 1.7518585 0.85749406 0.940018 0.9353132
0.93993384 0.94220376 0.9368173 0.93558115 2.4753962 1.203708 0.66248107 1.9893494
0.8145201 0.93969727 0.6034993 0.6009145 0.9377235 0.73721004 2.4776504 0.940215
0.9858092 0.64511913 0.9662327 0.94012296 0.97166574 0.6471626 0.75685996 0.81726855
0.93724626 0.9412202 2.2732646 0.93904364 0.9402692 0.9395349 0.0917395 0.93146646
1.6762145 0.9705004 0.73724043 1.2390298 0.9644311 0.78263503 0.8157944 0.9259577
0.65115523 0.89338565 0.61053604 0.93977416 1.7286307 1.6252729 0.7956757 0.9567131
1.8882926 0.8255869 0.8169935 0.36762157 1.2739993 0.9404806 0.9375943 0.94624317
1.2233635 0.934512 0.8323642 0.92131305 2.0686114 1.0114121 0.9399682 1.4732256

lins.0.0.bias f4 [256]
00000000: 0ce1 76bd 4340 a4bd 4762 76bd b103 b2be
00000010: 120a 79bd 9868 77bd f1b9 09be 5a07 dcbb
00000020: 298c 76bd 9c7e 7ebd f8fd 7aba ac83 4ebd
00000030: 99f6 76bd 30b6 77bd 8eb2 88bd f08a 85bc
00000040: 1759 e6bd 305f 86bd 2d37 ab3d 775a 80be
00000050: 94ba 4fbe 2682 78be 71b3 31be 8d50 26be
00000060: 21d4 5fbd b68d 76bd 5850 a8bd 22f3 93be
00000070: d7cf 0abd a055 73bd 83ba 2dbe 5c9f 1cbe
00000080: a6d8 523c 8dee e6bd 8a7f 1dbe 5c8f 1ebe
00000090: 5c24 76bd 2834 37be 44ac 1abe afc2 48bd
000000a0: 8ada 5cbd 320e 09be 58c0 bcbc 9f8b cfbe
000000b0: 52dd 7ebd 28cc 26be fdcf 66bc 1565 e7bc
000000c0: e579 1dbe 32e0 c4bd 73b7 81bd cab6 88be
000000d0: 0b97 18be 6b33 49be 482e debd 6c09 bebe
000000e0: c421 b7bd 920d a9be a4ce 0fbe 4083 d9bd
000000f0: 66a1 6ebe 192f 9ebe d499 5ebd 6ecc 74bd
00000100: c687 5bbe e2ac 82be eead debe 708b 623e
00000110: 41e4 6cbe a14f 51bf 94b2 7abd 01d6 78bd
00000120: 57be 22bd 56ca b2bb fc52 a8be f906 29bf
00000130: 0452 a3be a917 2dbe 51b3 383e 4bbf 27be
00000140: 4bf0 74bd da6f 2cbd 95fa 50be e8a7 8bbd
00000150: 3c5d 12bd f76d 04be 5100 103e 93c0 56bd
00000160: 518b 683c 6589 dcbd fc7d c4bd ed4a 17be
00000170: c1dd 75bd 9d24 27be b41d 8fbe 28c5 05bd
00000180: 40e1 82bd cca9 d9be e624 b1be e7fd a7bd
00000190: 7ff9 32be c883 3ebd a37a d9bc 7634 07bd
000001a0: 07bb 8bbd d210 523d 63d0 21be 3abb 0cbe
000001b0: c948 71be a169 77bd 053c 84be 3121 51be
000001c0: 35dc 2bbd 5bc6 1c3c 6e5b adbd 393a 79be
000001d0: 44ac 49bd f5e2 01be 4336 47be 687d 67be
000001e0: 2c1b 81be 1cf2 88bd cf14 10bd 99f2 3abe
000001f0: 9f78 e5bd 4545 51bc 9143 37be 72db c0bd
00000200: 4a5d 18be a1f3 c33d 7988 61bd 5279 6ebe
00000210: 7705 01be bc19 38be 87bf 30bd 6574 a3bd
00000220: 71b2 76bd d817 d1be 79c9 12bd 1184 1cbe
00000230: 52db 83bd 2edd 74bd c658 96be f7be 9dbd
00000240: da91 88bd a46c 15be 5e3c 9abd bfee 77bd
00000250: 49ad 44be 8a5d 14bd 4d54 863e e9e5 80be
00000260: 9f3e acbd 923d 37bc 41e1 1fbe cba3 fcbd
00000270: 612f 5fbe 01ff edbd cdaa 71bd 78ec 97bd
00000280: 7926 3dbe 00a0 74bd a32d 333e 3ddf 71bd
00000290: 793c 8bbd bbe7 a2bd d21d b5be ec6b 81bd
000002a0: 2f21 23bd 20da 95be 0537 17be 1db4 e03c
000002b0: 3d2d 83bd dac1 72bd 5d3b 4e3b 44a1 3ebe
000002c0: a601 77bd 5fa7 84be a65a e2bd f266 cdbd
000002d0: 06c9 02be e600 dcbd 7df0 eebd 71cc 6dbd
000002e0: f2b5 70bd 08f0 28be 7ab6 afbe 5024 d4bd
000002f0: 9526 403e 484a e2bd 6ead 79bd 362b 94bd
00000300: ac1a 76bd fb60 60bd fdf1 96bd 15b5 94bd
00000310: 7547 4c3d 8421 80bd 6114 7dbe a073 053e
00000320: 73e5 46be f20d 7abd f67c 56be 2364 72be
00000330: e63e 90bd 1cfc c6be 1eb6 fc3c 0451 70bd
00000340: 42e8 14bd 2eb6 eebe db07 8bbb 52b6 73bd
00000350: 426d 16bd c05d 08be bf50 d1be 746a 8abd
00000360: fb74 8dbd 3d72 65bd 46fa 833d 4d99 81bd
00000370: c457 72bd 422d 7bbd 0316 8bbe db4d eabd
00000380: 3388 89bd 065c a3bd dfb4 28be e19e 50be
00000390: 0cad a4bd e860 3cbe da30 93be 4ec0 d9bd
000003a0: 906f 92be b995 cbbd c879 69be a1e1 77bd
000003b0: 21bd bd3c e147 29be 78b1 8dbe 7724 0ebe
000003c0: 0c2b 0bbd 7e5d 0fbe d8ef 2cbe 4f8a 8fbe
000003d0: 95d4 9dbe 5ad9 6fbd dde3 8bbd 363c 1dbd
000003e0: a97b 8bbd 1197 bdbd adc4 00be 9d49 9fbd
000003f0: d8fd 9a3b df30 2dbc 11e4 75bd 4bc0 1fbd
-0.060273215 -0.080200695 -0.06015232 -0.3476844 -0.06080062 -0.060402483 -0.13449837 -0.0067147436
-0.06019226 -0.062132463 -0.00095745875 -0.05041854 -0.060293768 -0.060476482 -0.066746816 -0.016301602
-0.11247461 -0.06561124 0.08360133 -0.2506902 -0.20286018 -0.24268398 -0.17353608 -0.16241665
-0.05464566 -0.06019374 -0.08218449 -0.28896433 -0.033889618 -0.05940783 -0.1696568 -0.15295166
0.012869036 -0.11275969 -0.15380684 -0.15484375 -0.06009327 -0.1789099 -0.15104777 -0.04901379
-0.053919353 -0.13384321 -0.023040935 -0.4053621 -0.062222786 -0.16288817 -0.014087674 -0.028246442
-0.1537853 -0.09613074 -0.06333818 -0.26701957 -0.14901368 -0.1964852 -0.10848671 -0.37116563
-0.08941987 -0.33018166 -0.14043671 -0.10620737 -0.23303756 -0.30895308 -0.05434592 -0.05976527
-0.21438512 -0.25522524 -0.43492073 0.22123504 -0.23133947 -0.8176213 -0.06120546 -0.060750965
-0.039732303 -0.005456249 -0.32875812 -0.66026264 -0.3189851 -0.16903557 0.18037154 -0.16381566
-0.059799474 -0.042098857 -0.2040809 -0.06819135 -0.035733446 -0.12932573 0.1406262 -0.052429747
0.014193372 -0.107683934 -0.09594342 -0.14774676 -0.060025934 -0.1632256 -0.2795235 -0.032658726
-0.06390619 -0.42512357 -0.34598464 -0.08202725 -0.17477988 -0.046512395 -0.026547736 -0.033009015
-0.06822782 0.051285572 -0.1580215 -0.13743296 -0.23562922 -0.06040347 -0.2582704 -0.20422818
-0.041958053 0.009568776 -0.084647045 -0.24338616 -0.04923655 -0.12684233 -0.19454293 -0.22606432
-0.25216043 -0.06686804 -0.035176095 -0.18256606 -0.11204647 -0.012772863 -0.17896868 -0.09416856
-0.14879337 0.09567953 -0.05506179 -0.23288468 -0.12599741 -0.17978567 -0.043151405 -0.07981185
-0.06022877 -0.40838504 -0.03583667 -0.15284754 -0.064383164 -0.059781246 -0.29364604 -0.07702439
-0.06668444 -0.14592224 -0.075310454 -0.06053042 -0.19206728 -0.03622202 0.2623619 -0.25175408
-0.084103815 -0.011184113 -0.15613271 -0.123359285 -0.21795417 -0.11620904 -0.05900078 -0.0741815
-0.18471707 -0.0597229 0.17497878 -0.059050787 -0.067986436 -0.07954355 -0.35374314 -0.063194126
-0.03982657 -0.2926798 -0.14767082 0.027429635 -0.06405113 -0.059266903 0.0031468489 -0.18616205
-0.060304306 -0.25908944 -0.11052446 -0.10029401 -0.12771997 -0.10742359 -0.11666963 -0.0580563
-0.058767267 -0.16497815 -0.34318906 -0.103584886 0.18764718 -0.11049324 -0.06095641 -0.07234804
-0.06008403 -0.054779988 -0.07370374 -0.07261101 0.049872834 -0.062563926 -0.24714805 0.13032389
-0.19423465 -0.061048456 -0.20946106 -0.23671012 -0.07043247 -0.3886422 0.030848559 -0.058671013
-0.03635431 -0.46623367 -0.00424288 -0.059500046 -0.03672529 -0.13317013 -0.40881917 -0.067585856
-0.06907078 -0.05601715 0.0644422 -0.06328068 -0.05916573 -0.061322458 -0.2716523 -0.11440631
-0.06715431 -0.079765365 -0.16475247 -0.20373107 -0.080408186 -0.18396342 -0.28748208 -0.10632382
-0.2860074 -0.09940667 -0.22800362 -0.06051791 0.023161473 -0.16531326 -0.2767446 -0.13881098
-0.0339766 -0.14000508 -0.16888368 -0.2803521 -0.3082625 -0.058556892 -0.06830571 -0.0383875
-0.06810696 -0.09257329 -0.12575026 -0.077777125 0.0047299676 -0.010570734 -0.060031954 -0.039001744
