models/ogbl-collab_CN_2_1_0_run10_sigvae.pt (torch, 160135 bytes, 6 tensors)

z_embedding.weight f4 [1000, 32]
00000000: 1f93 f63f b52a c03f 60aa 6b3f 26e7 06c0
00000010: fbb4 2b3f 22fb 95bf 523c c1bd 52e6 cabf
00000020: db57 38bf e2db d13f a0bc b7be f0e8 afbf
00000030: 1512 40bf ba35 0fbf e89b 31bf 3d9a 4b3f
00000040: d823 cb3f 8a32 edbd b4e8 e4be 7c62 bd3e
00000050: 86a2 40bf 35b7 843f 8ec1 553f 8acc da3f
00000060: a9cf a23f b129 9f3f 7cd0 193f 9486 a73f
00000070: c8f1 4ebe c84a 073d 6a9b 87be f6ab 4f3f
00000080: 9b11 31c0 d9b5 2ac0 52ab 8ebf 3381 2240
00000090: df82 623f 9ca0 18be 7da5 d33f 1785 c8bf
000000a0: 2b4c 0ac0 f4ee 7b3f 0b8e 0ac0 0c24 88bf
000000b0: 5a12 0ec0 0902 5f40 ec73 18c0 fa9b 38bf
000000c0: c5c5 94bf 8606 fbbf 91c9 a9be 867d fd3f
000000d0: 1711 6ebf 09a5 f93f 7027 17c0 2ad7 87bf
000000e0: a8c8 66c0 263e 87bf 1cda 01bf 7efa e93f
000000f0: 127f 0b3f 6224 2b40 e8cc 01c0 6ff7 0f40
00000100: 25fa b83f da3d 5b3f f4f4 0d40 2dee 053f
00000110: ac7b b13e 4111 4abe c5fc 86bf 5c95 a33f
00000120: 9c52 30be 0017 063f 48ec 673d 7d43 da3e
00000130: 8833 133f 0848 24bf a235 0dc0 a134 40bf
00000140: 4d10 323c a36f adbe 639b abbf d8da 15bf
00000150: a043 093f ab4d 063f e512 923f 3c88 533d
00000160: a373 3e3f 3b92 f6be e854 86bf 1d99 1a3f
00000170: 2a74 dcbf a9e8 53bf 8cd7 aa3f 7692 f73e
00000180: 609c 20c0 46db f93e afda 483f 81ad ea3c
00000190: 8a08 243f b44f 153f 0e91 883f 817a e6be
000001a0: c2b6 3dbe ceb4 403f 6a3c cf3e cabf 363e
000001b0: 38a2 873e 2ef7 a23f 49d1 abba f471 9bbe
000001c0: ee7f babf 2395 d1bd 1862 19bf bd40 f43e
000001d0: c0e6 393f d4ad ba3d 8e33 c7be 8925 073f
000001e0: c1d6 4fbc cc9d 763e 5ab7 073e 46a5 433f
000001f0: 4729 8c3f 3006 ae3e ca4f 383f 05a4 d23e
00000200: 4530 f73f c184 813f 2bdc b7bf 3f9f 90bf
00000210: a34c 0bbe 1a55 d13f 179d 273f 0975 133f
00000220: ef1c 923f bd14 983c 9f24 e7bf 4de9 6c3f
00000230: 232d c0be 353c 843f 5bc8 2fbf 3806 233f
00000240: 2801 79bf 7d5d 753f f641 cf3f 95ad b93f
00000250: 7cf9 893e cd6c 57be f698 3bbf 1a9a d53d
00000260: 958f b23e 40b4 773f b76e eebe ff69 cd3f
00000270: 4aba 1ec0 4bc8 d5be a104 99bf 50f5 4f3f
00000280: 5445 f3bf f70f 6a3e f3a5 cb3c 6420 b1be
00000290: c0db 923e 7d18 3bbf 1504 333e e005 8cbf
000002a0: 9713 cdbf ba2b ad3f 4ef8 a43f c733 563d
000002b0: 32ff c5bf 7db7 413f 7288 463f c2b2 0140
000002c0: 7db5 123d 39f7 f63d fa3f 4ebf 058f 54be
000002d0: 2294 6ebf c8a4 cbbf a767 91bf f5c8 05bf
000002e0: 54ce 04bf d329 c0bf 9b9c f6bf 6feb 023e
000002f0: d3ee 823f 9748 0ebf 384b 343f 6fba 353f
00000300: 291f e33f c4ea 6bbf 1e63 763f 408d acbe
00000310: 5571 96bf 4253 b73e 1121 f53e 0b46 ad3f
00000320: 01ac 063f a12b 0740 5750 05bf f497 6ebf
00000330: ef9a 3d3e e5ca 883f 853c a73f 6e6f eb3e
00000340: 638b 50bf f8b7 82bf 9f66 fdbe ce9d 17bf
00000350: 0005 1e3e 39ac e13e f0d9 17be 6061 14c0
00000360: 0bc6 cbbe 604d 8a3f 5df3 e3bf a207 c13f
00000370: 6b6d 9e3e 4114 00bf fc7a 843f 5b46 d83f
00000380: 1d9f 93bb 7459 d53f 409d 1d3e 5fb6 87bf
00000390: b099 12bf b825 ab3d 65c0 cc3e 579e fe3f
000003a0: 306e 93bd cff5 67bf 1a1e 03c0 0760 8abf
000003b0: 475e 903c f234 a03d 4acb 453e b7c0 d13e
000003c0: 7cdb 6dbf e468 8d3e bbf3 09bf 97d7 ec3e
000003d0: 2034 5fbf 5327 debc a1dc b4be aa5f bb3f
000003e0: 12b2 a03f 5807 37bf 759a 5a3f 6453 033f
000003f0: d02b 0a3f f0c4 103f 917b 013f e4ca 633e
1.9263648 1.5013033 0.92056847 -2.1078582 0.6707303 -1.1717265 -0.09435333 -1.5851538
-0.72009057 1.6395228 -0.35886097 -1.3742962 -0.7502759 -0.55941355 -0.6937852 0.79532224
1.5870314 -0.11581905 -0.44708788 0.369892 -0.7524799 1.036841 0.83498466 1.709367
1.2719623 1.2434598 0.60083747 1.3087945 -0.2020942 0.0330303 -0.2648576 0.81121767
-2.7666996 -2.667349 -1.1146033 2.5391357 0.88480943 -0.14905018 1.6534878 -1.5665616
-2.160899 0.9841149 -2.1649196 -1.0636001 -2.21987 3.4844992 -2.3820753 -0.72113
-1.1622854 -1.9611366 -0.33161595 1.9803932 -0.9299483 1.950349 -2.361782 -1.0612538
-3.605997 -1.0565841 -0.50723433 1.8279569 0.5449077 2.6740956 -2.0281315 2.2494771
1.4451338 0.85641253 2.2180758 0.5231655 0.34664667 -0.19733144 -1.0545889 1.2779956
-0.17219013 0.52378845 0.05662182 0.42629614 0.57500505 -0.6417241 -2.2063985 -0.75080305
0.010868144 -0.33874235 -1.3406795 -0.58537054 0.5361881 0.5246226 1.1412016 0.051643595
0.743952 -0.4815844 -1.0494661 0.6038988 -1.722295 -0.82776886 1.334703 0.48353928
-2.5095444 0.48800105 0.78458685 0.028647186 0.6407553 0.5832474 1.0669267 -0.45015338
-0.18526748 0.75275886 0.4047578 0.17846599 0.2649095 1.2731683 -0.0013108636 -0.30360377
-1.4570291 -0.10233524 -0.59915304 0.4770564 0.7261772 0.09115186 -0.3890652 0.5279165
-0.012685479 0.24083632 0.13253537 0.7642406 1.0950097 0.33989096 0.7199675 0.41140762
1.9311606 1.0118638 -1.4364065 -1.1298598 -0.13603453 1.6354096 0.65474075 0.57600456
1.141508 0.018564576 -1.8058051 0.9254349 -0.37534437 1.0330874 -0.68665093 0.63681364
-0.9726739 0.95845777 1.6192005 1.4506098 0.26948154 -0.21037598 -0.73280275 0.10429783
0.3487517 0.96759415 -0.46568844 1.6047972 -2.4801202 -0.41754374 -1.1954538 0.8123369
-1.9005532 0.22857653 0.024859404 -0.34595025 0.2868328 -0.7308424 0.17482026 -1.0939293
-1.6021603 1.3528969 1.2888277 0.052295472 -1.5468504 0.75670606 0.7755195 2.0265355
0.035817612 0.12058873 -0.8056637 -0.20757683 -0.9319478 -1.5909662 -1.1359757 -0.5225976
-0.5187733 -1.5012764 -1.9266542 0.12785123 1.0229133 -0.55579513 0.70427275 0.709876
1.7743884 -0.921551 0.9624499 -0.33701515 -1.1753336 0.35805708 0.4787679 1.3537
0.5260621 2.112038 -0.52075714 -0.9320061 0.18516134 1.0686918 1.3065344 0.45983452
-0.8146269 -1.0212393 -0.49492356 -0.59225166 0.15431595 0.44076708 -0.1482923 -2.3184433
-0.39799532 1.0804863 -1.7808644 1.5080454 0.30942854 -0.50030905 1.0350032 1.6896471
-0.0045050518 1.6667924 0.15392017 -1.060253 -0.5726576 0.08356804 0.39990535 1.9892071
-0.07198751 -0.9060945 -2.0487123 -1.0810555 0.01762308 0.078225985 0.1931583 0.40967342
-0.9291303 0.27619088 -0.5388753 0.46258232 -0.8718891 -0.02711836 -0.35324576 1.4638569
1.2554343 -0.7149558 0.8539193 0.5129912 0.539731 0.565505 0.5057917 0.22245365

gce.weight f4 [32, 32]
00000000: 7668 09be 4e5d 823e f876 97be 1f76 393d
00000010: 616d 733e 5c3b 443e 837d e93d d2b2 953e
00000020: c41b 023d 9c80 c23e e749 8b3e 76fb 743e
00000030: c7a6 cabe 0a59 2e3d 7d54 233e 6b86 263e
00000040: 1d7a f93d 7b5d bcbe 1c15 c1bd 085f b3bd
00000050: d456 51be f61f 443e 5dec 7f3e 6dff 943d
00000060: aaec 3ebe 33a0 ec3d 086d c93a ebdb a1be
00000070: 7b0c 27be d8e4 d33d 391f a83c f965 a5bc
00000080: 6cd9 733e ee53 f0bd 5053 973d 8b9f 7cbe
00000090: 5203 acbd cc93 c63d b551 9c3e 10b4 923e
000000a0: 512f d1bb 0390 4fbe a510 01be 2a14 fabc
000000b0: 1c3a 15be b7c1 52be deff 053f 7c4b 903e
000000c0: 15e9 82be daf7 76be 729e 873d 2dd4 883e
000000d0: 3343 583e 513b 94be a8fe a53e cbe2 703e
000000e0: 6662 4a3e 95e9 05bc bc04 38be 79ff 09be
000000f0: cdc5 503e 5fd3 603e 247d 863e ec0c f4bd
00000100: 34d0 713e 0c6e 743e 2a7b 413e 7c02 b8be
00000110: 94de c2be da1a b63e 6817 d0bc 6a13 7d3d
00000120: 9ee0 533e b815 4b3e a967 3b3d 1168 38bd
00000130: 9a3a 613b 9ea4 42be bc26 ec3e aefa 983e
00000140: 42ae 53be 6b9e 50be 1d1b 57be 3fb2 b93e
00000150: 45f3 8bbe e53c 16bd 523e be3e 3bcd ee3c
00000160: 5a49 0abe 699b a7bc 8c5f 083e 81c6 f3bd
00000170: a27d debe e8c7 02be afc1 4b3e 405f 023d
00000180: 073f c6be e76c e93d 60ae f93c f22f 503e
00000190: f6f9 fc3e 11a1 7dbe ac48 eb3d 3d62 0fbd
000001a0: 3e8e ab3e eaac 7f3e d294 123e 98c3 bdbe
000001b0: 5560 3fbd 7f38 f9bc c274 d1be 0427 893e
000001c0: ce03 4d3d 9888 bc3e 9174 26bd a412 ac3d
000001d0: 1ee3 d0be 1c38 babc ba2a 3ebc 4629 81be
000001e0: c616 043e 5048 dbbd b747 d53d b8cb a5be
000001f0: 7e50 a4bd 7ed9 6fbe fd22 f6bd 026b 85ba
00000200: 53ee 493d e5dc 62be f4be 3ebe 1df3 a83e
00000210: 6281 c93e 3ed8 36bd 8d2f 62be 015a 6d3d
00000220: f09c 343e b333 ca3d 96a4 88be 748e a1be
00000230: 6941 393d 4076 9cbd 4267 edbd 4c8e 1a3e
00000240: 30f1 963e aa40 fe3e 1d1a 4ebe f2e2 313e
00000250: e6ee 72be d2f8 863e 439e 3cbe 1f1b 38bd
00000260: e0c6 403e 6cca 943c 0bdc 3e3d 3752 70be
00000270: 940c 96bd 46f7 06be eabc bf3e a87a 3d3e
00000280: 6a8f 133e 7c25 96be 5fb8 dcbd 5361 903e
00000290: 09d8 973c 0864 aabe 2a48 793d 5bc7 823e
000002a0: f3eb 553e 90e4 923e 2ed5 98bd eca2 9b3e
000002b0: 03eb 12bd 557d abbd bcad dc3e 38b9 f03d
000002c0: 326b ebbd 83c4 773e 75ae 11be 657c 8f3d
000002d0: 9055 60be 3297 c5bc 0b5a 3ebc 400b a8bd
000002e0: 37d1 3a3e b00e 593d eebd 8dbc 8afb 353e
000002f0: 14af 8ebe 3aae 1d3e 0410 873e db28 bebd
00000300: 5123 fbbd a998 8a3d d6c1 afbe f583 ca3e
00000310: 9ffd b13e 91cb 4fbe 6e74 96bd 597c e1be
00000320: 6fc6 9cbe aae1 1e3e 702f 02be dba3 cd3c
00000330: ecfe 643e dc61 1d3e a214 72bd 5c93 7fbe
00000340: 1b3e 00be 4f84 0f3f 710d c5be 6276 9b3e
00000350: 6465 b03e 07b9 3abe 2ca8 5cbd 5c35 97be
00000360: d7e9 8b3e 7c38 653d 2fc4 a43d 2041 58bd
00000370: 5298 c03e e454 b03c dc0d ab3e fff4 70bb
00000380: d46b 833d 81c4 0d3e 12b2 24bd a989 773d
00000390: de58 91be 5148 f4bd 3e6a 113c 3829 bebe
000003a0: 0060 563e 0354 783e fa38 a1bd b500 443e
000003b0: 635c ddbe 3ab8 9ebe 40ce cf3e a6d3 083e
000003c0: 0f62 5f3d 8a54 22be 5d85 973e c7a9 173e
000003d0: e76b 023d 503c 843e f79c a9bd 327c b8be
000003e0: c24c 623e e1b5 373e a624 39bc 890e b93d
000003f0: 5684 28bd b923 583d c1c8 ccbd 5758 3e3e
-0.13418755 0.2546181 -0.29582953 0.045278665 0.23772193 0.19163269 0.114008926 0.29237992
0.03176476 0.37988746 0.2720482 0.2392405 -0.39580366 0.042565383 0.15950198 0.16262214
0.121814944 -0.3679007 -0.094278544 -0.0875836 -0.20443279 0.19152817 0.24992509 0.07275281
-0.18644968 0.11553993 0.0015367577 -0.31613097 -0.16313355 0.10346383 0.0205227 -0.020190226
0.23813409 -0.11734758 0.073889375 -0.24670236 -0.08399071 0.09696159 0.30531088 0.28653002
-0.0063838144 -0.2026978 -0.12604006 -0.030527193 -0.14572948 -0.20581709 0.5234355 0.2818259
-0.25568452 -0.24117985 0.06622018 0.26724377 0.21119384 -0.28951505 0.3242085 0.23524015
0.19764099 -0.008173366 -0.17970556 -0.13476361 0.20387955 0.21955632 0.2626735 -0.11916527
0.2361458 0.23870105 0.1889464 -0.35939395 -0.3806044 0.3556736 -0.025401786 0.061786093
0.20691153 0.19832504 0.045753155 -0.04502112 0.0034367205 -0.19008109 0.46123302 0.29878753
-0.20671943 -0.20372932 -0.21006437 0.36268803 -0.27334037 -0.036679167 0.37156922 0.029150596
-0.13504544 -0.020459848 0.13317698 -0.11903096 -0.43455225 -0.1277157 0.19898103 0.03182912
-0.3871996 0.113977246 0.030478656 0.2033079 0.49409455 -0.24768473 0.114884704 -0.035005797
0.3350696 0.24968305 0.14314583 -0.3706329 -0.04672273 -0.030422447 -0.40909392 0.2678758
0.050052457 0.36822963 -0.04063851 0.08401993 -0.40798277 -0.022731833 -0.0116068665 -0.25226802
0.12899312 -0.10707152 0.10414069 -0.32381988 -0.08023165 -0.2342281 -0.12018392 -0.0010178986
0.04929955 -0.22154577 -0.1862753 0.3299798 0.39356524 -0.04463982 -0.22088452 0.057947163
0.17637992 0.09873142 -0.2668807 -0.31553996 0.045228396 -0.07639742 -0.115919605 0.15093344
0.29480886 0.4965871 -0.20127149 0.17371729 -0.23723945 0.2636171 -0.18419747 -0.04494774
0.18825865 0.018162929 0.046596568 -0.23468862 -0.07326618 -0.13180265 0.37448817 0.18503821
0.14410177 -0.29325473 -0.107773535 0.28199252 0.01853563 -0.33279443 0.060859837 0.2554272
0.20890789 0.28690004 -0.07462536 0.30397737 -0.035868656 -0.083735146 0.431013 0.11754078
-0.11495055 0.24196057 -0.14226706 0.07006148 -0.2190764 -0.024119947 -0.011618148 -0.08205271
0.18243872 0.052992523 -0.01730248 0.17771736 -0.2786795 0.15398493 0.26379406 -0.09285136
-0.122625954 0.06767399 -0.34327573 0.395538 0.3476381 -0.20292498 -0.07346426 -0.44040182
-0.30620143 0.15515772 -0.12713408 0.025102546 0.2236287 0.15369362 -0.05910171 -0.24958557
-0.12523691 0.5606126 -0.38486817 0.30363756 0.34452355 -0.18234645 -0.05387132 -0.29532897
0.27326843 0.05596207 0.080452316 -0.052796483 0.3761621 0.021524854 0.3340901 -0.0036767123
0.06417051 0.13844492 -0.040208884 0.060434017 -0.28388113 -0.11927856 0.008875428 -0.37140822
0.20935059 0.24250798 -0.078721955 0.19140895 -0.43234548 -0.3099993 0.40587044 0.13361987
0.054536875 -0.15852562 0.29593936 0.14810859 0.031841185 0.25827265 -0.08281892 -0.36032254
0.22099593 0.17940475 -0.011300242 0.090359755 -0.04114183 0.052768443 -0.09999228 0.18588386

gc1.weight f4 [160, 32]
00000000: 8559 f9bc c7b8 85bd 6c38 ac3d 6a96 89bd
00000010: 98d7 cdbd c468 fb3c b80e d5bc 3768 55be
00000020: b7c0 c8be 3ebc 023e d53b 913d c45f 283b
00000030: f402 92bd e154 ccbd 0072 a43c 75ae 27be
00000040: 2b3e 59be f221 9d3c 1e8c 96bc dcdc 62be
00000050: 7dca 3d3e c187 d2bd 9841 443d 0e6d a2bd
00000060: 0fe7 963e a220 84be dd8c e13c 3327 903d
00000070: e5e8 5dbe 2cfd 12bd ac1b 7ebe 8221 25bc
00000080: bd8d 423e 465a 973b 8b3b 5fbe 236a 8a3d
00000090: 19db c63c c7e6 473c 69d6 70be 29b1 8a3e
000000a0: b52e 293f 77dd 4f3e 9ff5 ed3b 6308 813c
000000b0: 5e72 acbd 4171 283e 2876 45bd 531b babd
000000c0: 2721 4e3e 52c4 aebd ec49 a9bd 1ed3 2b3e
000000d0: 28fe afbe 4f45 ad3e 8236 cabe 9d68 ff3e
000000e0: 11d8 353c c742 d7bd f967 2f3d 3917 4c3e
000000f0: 9dc5 29be bd14 6d3e 8fb5 9d3e c945 43bf
00000100: 9f94 0b3e f250 22be 6b02 5c3c 9140 eb3d
00000110: 791f a73d 9ac5 8bbd 3d24 8b3e 0277 80be
00000120: 7bdf abbc f35f 22be 50ed d6bc fae4 6bbe
00000130: dc49 a63d d790 97bd 2f16 20be 2d82 88bd
00000140: fafe 34bd 7fd9 973d b32b 383d aec7 163e
00000150: f671 49bd 564b 073e 97a0 2fbe 2555 90be
00000160: 608d 353e e3f5 5abe 8c59 bebd 8d2a 183d
00000170: b141 32bd 6964 b43d 4040 89bd 728c c43d
00000180: 9496 d4be c060 30bd 0490 4dbe 1a82 f63d
00000190: 6074 93bd 9475 be3d 2cea 6cbe 7c77 593e
000001a0: 182a bb3e a47f 82bc cb93 043c ce81 f8bd
000001b0: bdde a7be a0c7 02bd e0f6 513d a13d 0b3d
000001c0: a929 983d e989 a5bd 796d 77be d7a4 32be
000001d0: d9d7 c1bd b681 873c 104b 58be 540f 403e
000001e0: 27ce f9bd 89e3 f4be 7d7b bbbc 7c67 833e
000001f0: 906b 0cbe 63d8 e83d 18cb 4d3e 5567 debe
00000200: 5b2b 193c 4396 973d af58 4c3e 4fdb 79bc
00000210: 45ab 00be db92 22bd 42e7 e23c 467f ae3d
00000220: 8203 75bd 81e1 1a3e 82f0 5e3e 8052 ad3e
00000230: bca2 e6bd d1b1 2ebd 69eb 33bd 40d4 913e
00000240: 08ec c33d 5362 ba3d 7ae7 c1be 48cf a03d
00000250: f327 9e3e f74b 77bd 0f5b 94bd fd84 20be
00000260: eba8 9fbd 26db ff3d 2dbf 813e 838b edbc
00000270: dde2 c33d 1c93 243e f575 78be 0c1a fbbd
00000280: fab5 8f3d 43fe f0be 83b6 27bc f575 0c3d
00000290: 0a93 ac3d bda5 43be a2f3 fabd 4595 ff3e
000002a0: 0e5e 283d 750b 59be da24 b53d ae54 02bf
000002b0: 8333 26bc 2e8e e23d 47cf e8bd ec22 233e
000002c0: be47 8f3e 571b 80bc 3139 263e 128c b3bd
000002d0: f4f0 76be 2315 d73d 9c19 06bd e178 8f3e
000002e0: 7424 f5bd b129 13bf 0e91 b0be 6888 cfbe
000002f0: 9d1c febe 0792 513c 2033 6a3e cb0a 67be
00000300: ac4f df3c be13 503d 46e0 033e 192e 33bc
00000310: a862 323c b256 b73d 94af cc3c 8006 d03d
00000320: bd97 91bd b93c 4e3d 17c3 1abe 2348 d93d
00000330: f5b1 7c3c 1ea5 18bd 634f 2d3e b144 913d
00000340: 9106 1fbc 4e82 1dbd f822 183e a643 28bb
00000350: 0bdf ebbc 3354 79bc 763b 7bbd db52 e2bd
00000360: 03b6 0a3d d6ec c9bd 15d9 87bd cc69 9e3d
00000370: 3879 2cbe cfa3 a2bd c0d5 fdbd a9d2 1b3d
00000380: ade0 91bd 76e3 1ebe fbc5 883e 3132 b6bc
00000390: 3f81 d93d 0770 703e 5d6c 413e dcbd b2bc
000003a0: 4007 fabd f38f 26bd 575a ff3c 4914 e93d
000003b0: 7331 27be dcaf 673d bb81 f0bd e51d a23d
000003c0: dc90 22be 2262 413d b519 17bd 0533 c8bd
000003d0: 957c a1bd a05c 73bd 83f4 103d 2663 ea3d
000003e0: 807a 0b3e 9f56 b9bc 57ad aebd 7db9 8d3e
000003f0: 69aa 42be 94d5 06bd 0b15 08bd b01d 923b
-0.030438194 -0.06529384 0.08409199 -0.06718142 -0.10050887 0.030689605 -0.026007995 -0.20840536
-0.3920953 0.12767121 0.0709149 0.0025691846 -0.071294695 -0.09977127 0.02007389 -0.16375144
-0.21215121 0.019181225 -0.01837736 -0.22154564 0.18534274 -0.10279799 0.047914118 -0.07930957
0.2947316 -0.25806147 0.02753299 0.07038727 -0.21670873 -0.035885975 -0.24815243 -0.01007879
0.18999381 0.0046189157 -0.21800058 0.06758525 0.024274396 0.012201018 -0.23519291 0.27088287
0.66086894 0.20299326 0.0072619463 0.01575107 -0.08420251 0.16449453 -0.048208386 -0.09087243
0.20129834 -0.08533539 -0.082660526 0.16779754 -0.34373593 0.3384194 -0.3949471 0.498845
0.0110988775 -0.10510784 0.042823765 0.19930734 -0.1657929 0.23152442 0.3080258 -0.7627836
0.13630913 -0.1585119 0.013428311 0.114869244 0.081603 -0.06824799 0.27176085 -0.25090796
-0.020980587 -0.15856914 -0.026236206 -0.23036566 0.08119556 -0.07400673 -0.15633462 -0.06665454
-0.044188477 0.07414531 0.04496355 0.1472461 -0.049180947 0.13212332 -0.17151104 -0.2818996
0.17729712 -0.21382861 -0.092944235 0.037149955 -0.04351968 0.08808214 -0.06701708 0.095971
-0.41521132 -0.043061018 -0.20074469 0.12036534 -0.07199931 0.0929977 -0.23136204 0.21236986
0.36555552 -0.015930004 0.008091877 -0.12134133 -0.32787123 -0.03192866 0.05126083 0.03399432
0.07429821 -0.08082945 -0.24162854 -0.17445694 -0.09464998 0.016541343 -0.21122384 0.18755847
-0.121975236 -0.47829846 -0.022886032 0.2566489 -0.13712907 0.113693975 0.20097005 -0.4343821
0.009348716 0.07401707 0.19955705 -0.015250041 -0.12565334 -0.039690834 0.027698163 0.08520369
-0.0598178 0.15125085 0.21771434 0.33852005 -0.11261508 -0.042650048 -0.043925676 0.28482246
0.09566504 0.09100785 -0.37871915 0.07852036 0.30889854 -0.06037518 -0.072439305 -0.15675731
-0.077958904 0.12492971 0.25341168 -0.028997188 0.09564755 0.16071743 -0.24263747 -0.122608274
0.07017131 -0.47068986 -0.010236385 0.03429218 0.08426483 -0.19106193 -0.122535005 0.4991857
0.041105323 -0.21195777 0.088449195 -0.5091046 -0.010144117 0.11062275 -0.1136766 0.1593129
0.27984422 -0.015638037 0.16232754 -0.08766951 -0.24115354 0.105020784 -0.032739267 0.2802191
-0.119698435 -0.5748549 -0.34485668 -0.40533757 -0.49631205 0.012791163 0.22871065 -0.22562711
0.02725967 0.050800078 0.12878522 -0.0109362835 0.010887779 0.08952083 0.024986066 0.1015749
-0.0710902 0.05035088 -0.15113483 0.10609462 0.015423288 -0.037266843 0.16924815 0.0709318
-0.009706155 -0.038454346 0.1485709 -0.0025675087 -0.028792879 -0.015217829 -0.061336003 -0.1105096
0.033864986 -0.09859626 -0.06633202 0.07735023 -0.16843116 -0.079414 -0.12394285 0.038042698
-0.07122932 -0.15516457 0.26713547 -0.02224073 0.10620355 0.23480235 0.18888994 -0.021819048
-0.12208414 -0.040664624 0.031171007 0.11380822 -0.16327457 0.056564197 -0.11743494 0.07915858
-0.15875572 0.047212727 -0.03688975 -0.09775356 -0.0788509 -0.059414506 0.035389435 0.11444692
0.13620949 -0.022624312 -0.08529156 0.2768058 -0.19010319 -0.032918528 -0.033223193 0.0044591054

gc2.weight f4 [32, 16]
00000000: 858f 12bf 7742 993d 2d91 643e 7803 b33d
00000010: 36ab 333f 42c6 c23e a00d 0c3f 0d0e 8fbe
00000020: a1c3 7d3f 4b48 33bd 98c2 f43e ae3f b0bf
00000030: 81e7 2cbe 09a1 d23d eb37 6a3e 37af c43e
00000040: 063c 8a3f db91 ca3e 33e0 27bf 73ed 103a
00000050: 6c54 453d ae74 263f 7d3c 103e cbec 12bd
00000060: ef8a 71bf 96fb 08bc daab 463f 2495 84be
00000070: 3112 2a3e 8cde 1b3f 28c9 94bf fede f9bc
00000080: 974c b13e 46fc 89bd e873 84be 72d8 12be
00000090: 7062 36be 5b4a 2f3d 12e8 4e3d c63c 893d
000000a0: 03be 39be bd6b 90bd 0fd5 b53e 4e3b 4b3e
000000b0: 6112 3c3e 18a4 92be 2d94 af3e 007d bb3e
000000c0: 3f12 a8be 42be 4bbf 430f 493e 0cde ccbe
000000d0: 3a2a db3d 1b6c 75be 311e c53e 4744 67be
000000e0: 8d58 d13d f75a 8cbe ea14 a4be 3bcc df3e
000000f0: 70e0 9f3e 3fad b9be c473 193d b553 4d3e
00000100: 748a 2e3e f6fc babe 82e0 9a3d 4858 9d3d
00000110: d894 2d3e ba20 fcbe ace9 023e dff8 8cbe
00000120: d721 52be ae7b 343e 724a b13e ffc7 113e
00000130: 7e2d 02be b9b7 b63e 3a2d 92be 1463 dc3c
00000140: bc00 dbbf 0c70 4d3f 9f5d 2a3f 1717 0440
00000150: 9a36 ed3e b11a 65be 6590 d73e 5baa 923e
00000160: cf00 32be b09d 253f 7dfc 4bbf 95ed 7d3e
00000170: f786 003e 3916 af3e c462 ca3d 5d79 bebe
00000180: 07b4 c4be 1d2e 1b3f 4d37 9bbd e10d cc3e
00000190: 78d5 60bc ca07 6c3d a432 c53e ff59 4f3e
000001a0: 6202 0dbf 1890 94bd b8b2 683d 44ab 993e
000001b0: e116 da3e bc6a a83d 94dd a93e 7380 9abe
000001c0: cfe4 7b3e 88f5 b53e bf83 d53e a77e d6be
000001d0: 70e0 673b 9238 be3e 4ca8 fabb 13f6 f4bd
000001e0: 9325 d73e b88c dd3d 18cf e8bd f366 11bf
000001f0: 0809 e1be 20ca f5bd 8972 a3be f507 383e
00000200: b882 a03c 86da 883e fee8 90be f429 173f
00000210: d073 c63d b241 2cbf 9643 9b3d 08bd 043e
00000220: 5347 d1be 659e 65bd 06e1 47be bff2 aa3e
00000230: 211a 063f ce08 853e 5b3b 99bf e521 f7bd
00000240: 98dc 8cbe f90d 2c3e a9b9 b63e cebb 05bf
00000250: 590a 2fbf 9125 c9be 7f46 483f a314 333f
00000260: d061 53bf 0ef5 7c3f bcfd c6be b8f2 0dbf
00000270: 8b08 933f 0174 923e d98d 18bf 75dd 603e
00000280: a7c7 47be c804 9f3e 379e 9b3e bb5c 9abe
00000290: 4c12 02be 9d91 d33e ce75 56be 8e2e b4be
000002a0: 292f b23e 93c7 94be d02a a63d d3f5 0fbe
000002b0: 7a50 c0be a0bb 6dbe a5d1 313e 2545 833d
000002c0: 167a 0fbf 8396 5dbe e670 28bf d5c5 b93d
000002d0: 1d03 493f 5299 a33e 16db 7abf 7e80 6dbf
000002e0: 52e8 953f 968a 27bf cf68 403f d894 863f
000002f0: fbd8 90bf 4f40 7fbf 4ec9 813e a163 803c
00000300: e0bd ed3d 4421 c8be de3a b73f 5a10 1a3b
00000310: 7a39 373f f419 7dbd 9ea0 6c3f 77c9 8b3f
00000320: 173d 2bbe 2661 963f 86f3 843e 4b55 77be
00000330: 7308 8f3e 4914 213f d83a 98bf 2526 6dbe
00000340: d986 153f 6fbc 4ebe aed8 ebbd 9d22 1cbe
00000350: cf59 64bf 9989 173f 739d 22bf 9431 90be
00000360: f199 803e f8ad 00bf c4f2 d53d 74c9 0fbf
00000370: a60a 11bf 554b d8be da67 e63e 494b d63e
00000380: 7964 e13e 13d3 5a40 c47f 04c0 f546 0cc0
00000390: a2db 5b40 3ad5 73c0 23cc 0b3f b5a8 a33f
000003a0: 3ead 6d3f 2b31 0bbe bc2b adbe b68c 7bbf
000003b0: a6bc ae3d 690b 633e 322b ccbe 226f 80bf
000003c0: 1cd2 d63e fbb7 933e 73f2 95be 7e3c 16bf
000003d0: 9dcb 66bf 8b7b d9bc 1331 e53c f390 b1bd
000003e0: 725d 803e c788 8ebe 4db3 813d da04 cfbe
000003f0: 3de5 5dbd 920f f1be b529 1a3e 4296 133f
-0.57250243 0.0748338 0.22321005 0.08740896 0.7018312 0.38041884 0.5470829 -0.27940407
0.9912663 -0.043770116 0.47804713 -1.3769433 -0.16885187 0.10284621 0.22872894 0.38414928
1.0799568 0.39564404 -0.65576476 0.0005528547 0.048176214 0.6502179 0.14085574 -0.035870355
-0.9435262 -0.008360764 0.77605975 -0.25895035 0.16608502 0.60886455 -1.1623888 -0.030501839
0.34628746 -0.067375705 -0.2586968 -0.1434038 -0.17810988 0.04279552 0.05051429 0.06701045
-0.1813889 -0.070517994 0.35514113 0.19846842 0.18366386 -0.2864082 0.34292737 0.36618805
-0.3282642 -0.79587185 0.19634728 -0.40013158 0.107014135 -0.2396702 0.38499597 -0.2258464
0.10221968 -0.2741315 -0.32047206 0.43710503 0.3122592 -0.3626499 0.03746392 0.20051463
0.17045003 -0.3652112 0.07562353 0.07682854 0.1695131 -0.49243718 0.12784451 -0.27533624
-0.20520721 0.17625305 0.3462711 0.14236449 -0.12712666 0.35687044 -0.2855013 0.026902713
-1.7109599 0.80249095 0.66549104 2.0639093 0.4633072 -0.22373463 0.42102352 0.28645596
-0.17383121 0.6469374 -0.7968214 0.24797662 0.12551485 0.34196642 0.09882119 -0.37201968
-0.384186 0.6061724 -0.07578907 0.3985434 -0.01372277 0.057624616 0.38515198 0.20249175
-0.5508176 -0.07254046 0.056811064 0.30013478 0.4259558 0.08223483 0.33176863 -0.30176124
0.24599002 0.35538888 0.41702077 -0.41893503 0.0035381578 0.37152535 -0.007649457 -0.119609974
0.42020854 0.108178556 -0.11367625 -0.56797713 -0.43952203 -0.12001443 -0.3192332 0.17971785
0.019593582 0.2672922 -0.2830276 0.5904839 0.09690058 -0.67287743 0.0758125 0.12962735
-0.4087473 -0.05605926 -0.19519433 0.33388326 0.5238362 0.2598328 -1.1971239 -0.12067012
-0.2751205 0.16802205 0.35688522 -0.5223969 -0.68375164 -0.39286473 0.7823257 0.69953364
-0.82571125 0.98811424 -0.3886546 -0.55448484 1.1486982 0.2860413 -0.5959144 0.21959479
-0.19509755 0.31058335 0.30394146 -0.30148873 -0.12702292 0.41322032 -0.20943376 -0.35191768
0.34801605 -0.29058513 0.081136346 -0.14058618 -0.375614 -0.23216105 0.1736513 0.06409673
-0.56045663 -0.21639447 -0.6579727 0.090709366 0.78520375 0.31952912 -0.9799055 -0.9277419
1.1711524 -0.6544584 0.75159925 1.0514174 -1.1316217 -0.997075 0.25348896 0.015672507
0.116084814 -0.3908788 1.431484 0.0023508281 0.7157208 -0.06179233 0.9243258 1.0920857
-0.16722523 1.1748397 0.25967044 -0.2415363 0.27936134 0.6292158 -1.1892958 -0.23159082
0.58408886 -0.20189069 -0.11515938 -0.15247579 -0.8919954 0.5919433 -0.635215 -0.28162825
0.25117448 -0.50265455 0.104466945 -0.5616677 -0.56656873 -0.42244974 0.45001107 0.41854313
0.44021967 3.419133 -2.0702982 -2.1918309 3.4352803 -3.8098893 0.5460836 1.278586
0.9284247 -0.13592975 -0.3382243 -0.9826158 0.085320756 0.22172321 -0.39876705 -1.0033915
0.41957176 0.28851303 -0.29286537 -0.58686054 -0.9015444 -0.026548168 0.027977502 -0.08670225
0.25071293 -0.27838728 0.06333027 -0.4043339 -0.054173697 -0.47082192 0.15054972 0.5765115

gc3.weight f4 [32, 16]
00000000: 6850 0ebe 2e94 fbbc 98e2 8e3e f6aa aabd
00000010: 6450 4cbd 22a5 d33c 004d acbd 7a71 e93e
00000020: 7653 29bf 16c2 5cbe da12 2b3f 919e 38bf
00000030: 1dbf 823c 5cb0 a8bc 0e84 cd3e 0a86 28be
00000040: e41c bbbe 7799 bbbe eccb 5abf 3fa2 e5be
00000050: c5d4 90be 5d3d f4be d61f 44be c182 2ebf
00000060: ecb6 c9be f4fd 25bf b9d5 7a3e f12e e1be
00000070: b1b9 f3be 7548 8bbe a544 7b3e da72 dabe
00000080: 9f96 4a3d 5d22 65be bdab acbd 6336 6a3d
00000090: b829 c4be 6950 e9bd 354e eebd 8301 01bf
000000a0: 781f 08be 4156 253e dbb9 7ebe 5303 6ebe
000000b0: ed9d a93d a618 9bbd 00fb d7be 4978 aa3d
000000c0: 2dcf 5b3e c8a9 6b3e 7958 563e 0a5f 85bd
000000d0: 8e42 18be b803 ae3e 9cf8 a2be a776 50bd
000000e0: de7e fe3d 690f fabc 39e5 583d c457 0e3e
000000f0: 32cd 91be 29e1 c4be 1e79 1f3f 5926 1cbc
00000100: 5d8f 8c3d 7fd7 39bf fe03 b3be f757 8d3c
00000110: 2933 dd3c 9ae0 d4be 8d1c 3d3e effb abbe
00000120: f4fc a73d becd 5cbd 6358 6abf c7f5 66be
00000130: 0ba8 1ebe 70af 4f3e f685 a1bf 2bca e23b
00000140: 6d39 4f3e 38a7 b0be 68df 1d3f 83bd 933e
00000150: 056c ae3d 4775 77be 1269 5dbc f9ef e93e
00000160: db1c 5e3e 481d 8f3e e186 30bf cf02 d3bd
00000170: d625 2bbd 1206 a13e 9fc8 92be 7270 4b3e
00000180: 0a82 fabe 9877 4bbe 5b7b e2bc e293 92be
00000190: 9b60 8abe 0b9e f9be 2d29 073e bace c3be
000001a0: 8679 5bbc 03f8 583d 7fa5 1cbf c663 75be
000001b0: 2bfb 22bd 39db 8fbe 9381 75bf 37de e5bd
000001c0: c70e a3be 9683 c5be c5f7 02be c6e5 0ebf
000001d0: 4634 19be 77ff 49be 8ebf 583e 301a 14bf
000001e0: 5b9f 1abf 79fa 523e 8ad0 2fbf 33c8 56bf
000001f0: f1ea 62be 0996 11be 56df 513f 4f8d a5be
00000200: 001a 9abf d682 ef3e d840 0dc0 6bff 0bbe
00000210: 3011 713e fe54 cd3e 3c4f 6cbf a15f 41c0
00000220: f0da 28bf d04c d4be 096e 233f 78d9 aa3d
00000230: a5ed 63bf 8bd2 4cbf 92bb 7e3e b33e 31bf
00000240: 612c fe3c 7c70 31be ded5 263e 38b5 6a3d
00000250: d703 ccbe 0f7c dbbd ba6f 163e e179 203e
00000260: 3b30 d83d efec 2ebd 0aca 46be 42a0 633d
00000270: 4227 083e 2ee9 583e 4e59 8c3d 2f43 293e
00000280: 76c4 8b3c 99bc 803d 873a 44bd acca 87be
00000290: 4046 96be 2963 12bf 92a6 e03d e940 83be
000002a0: c78f fbbd 9556 babe 6cf6 96be 96af 5cbd
000002b0: a11a 0d3e 45c4 5cbe 5a89 3abe 4608 aebc
000002c0: 9b91 3c3e 1a03 953e 470b f0bd 1ce3 293d
000002d0: 54d3 123f 6251 b03e 138a 59bd b03f 9bbd
000002e0: 19a0 d43d 79ee 5f3e 5d2e 873e 8a67 7a3e
000002f0: 941f 9abd 7f5e ccbd 5954 133f 9412 9f3d
00000300: 30b9 b43e 7910 9c3e e302 cb3f 1cba 973e
00000310: db8f 793c c9ac 3a3f 828b ac3e 202f eb3f
00000320: 6b71 e13e 51e7 7f3e 3978 62bf 0919 f1bc
00000330: 6420 a93e 99e4 733e c881 663f 1ae2 f53e
00000340: 8f1a a1be 3ff2 d5be 894f 9bbc 4d2f aebe
00000350: 0c8f 67be 453f cebe 94fc 8fbe b41b c5be
00000360: 80cc 5fbd e4eb 71be 521e ca3e e99f bebe
00000370: bb6b 983d 80d6 84be 94d3 bf3e d6d0 34be
00000380: d6a2 2c3d 21c6 18be a3ff 3e3e e24a ac3e
00000390: c74e 193e c15e 823d 1e97 29bc 7c41 86be
000003a0: 3ca1 56be a593 2cbe 9693 26be 97a5 a7be
000003b0: 6a4f 983d cb4d 3bbc 28b9 5e3d bd8d 273e
000003c0: 8f57 01be ecbb 14bc 7842 ddbd 7ca2 fe3a
000003d0: 8f44 813d 8597 513e 67e3 48bd 63ca 01be
000003e0: 24c2 663e 2f06 35bd d0e5 9fbd 0f7b f93d
000003f0: bd37 da3d 3520 a93e 7d1d e53e 10e9 a73d
-0.1389786 -0.030710306 0.27907252 -0.083333895 -0.049881354 0.025835577 -0.08413124 0.45594388
-0.66142976 -0.21558413 0.6682564 -0.72116953 0.01596027 -0.020591907 0.40139812 -0.16457382
-0.3654548 -0.36640522 -0.8546741 -0.44850346 -0.2828733 -0.47703066 -0.1915277 -0.68168265
-0.3939737 -0.64840627 0.24495591 -0.43981126 -0.4760261 -0.27203718 0.24537905 -0.4266575
0.04946005 -0.2237639 -0.08431194 0.057180773 -0.3831308 -0.1139229 -0.116360106 -0.5039293
-0.13293254 0.16146185 -0.24875586 -0.23243456 0.08282075 -0.07573061 -0.42183685 0.08323724
0.2146575 0.23013985 0.20932187 -0.06512268 -0.14869139 0.33987212 -0.318303 -0.050894406
0.12426542 -0.030524926 0.05295298 0.13900667 -0.28476864 -0.38453034 0.62294185 -0.009530627
0.06863282 -0.72594446 -0.34963983 0.017253859 0.027001934 -0.41577607 0.18467923 -0.33590648
0.08202544 -0.05390715 -0.9154112 -0.22554694 -0.15493791 0.20281768 -1.2619007 0.006921073
0.2023675 -0.34502578 0.61669016 0.28855523 0.08516697 -0.24165832 -0.01351382 0.45690897
0.21690695 0.27952027 -0.6895581 -0.1030327 -0.04178413 0.31449944 -0.28668687 0.19867113
-0.48927337 -0.1986984 -0.027646711 -0.2862845 -0.2702683 -0.4875339 0.13199301 -0.38243657
-0.013395673 0.052970897 -0.61190027 -0.23963842 -0.039790314 -0.2809694 -0.9590084 -0.11224025
-0.31847212 -0.38576955 -0.12789829 -0.55819356 -0.14961347 -0.19726358 0.21166822 -0.5785246
-0.6039941 0.2060336 -0.6867758 -0.8389923 -0.22159936 -0.1421739 0.8198141 -0.32334372
-1.2039185 0.46779507 -2.2070827 -0.13671653 0.23541713 0.40103906 -0.923084 -3.0214617
-0.6595907 -0.41464853 0.63839775 0.0834226 -0.8903449 -0.80008763 0.2487624 -0.69236296
0.03102702 -0.17328066 0.16292521 0.05730173 -0.3984668 -0.10717022 0.14691058 0.15671493
0.10556074 -0.042706426 -0.1941301 0.055572756 0.13296226 0.21182701 0.06852971 0.16529535
0.017061453 0.06285972 -0.04790738 -0.26521814 -0.29350471 -0.57182556 0.10969271 -0.2563546
-0.12283283 -0.36394182 -0.2948488 -0.05387839 0.1377969 -0.21559246 -0.18216458 -0.02124418
0.18414919 0.2910393 -0.11720901 0.041476354 0.5735371 0.3443709 -0.053110193 -0.07580507
0.10382099 0.21868314 0.2640256 0.2445356 -0.07525554 -0.09978961 0.5755058 0.07767215
0.35297537 0.30481318 1.5860256 0.29634178 0.015232052 0.729199 0.33700186 1.8373756
0.44031844 0.24990584 -0.88464695 -0.029430883 0.33032525 0.23817672 0.9004178 0.48024064
-0.31465575 -0.41786382 -0.018958824 -0.34020463 -0.22613162 -0.40282646 -0.2812239 -0.38497698
-0.054638386 -0.23625141 0.39476258 -0.37231377 0.07442423 -0.259449 0.3746611 -0.1765779
0.04214748 -0.1491933 0.18652205 0.3365088 0.14971457 0.06365729 -0.010350971 -0.26221836
-0.20959944 -0.16853197 -0.16267237 -0.32743523 0.07437022 -0.0114321215 0.054375798 0.16362663
-0.12631057 -0.009078007 -0.108036935 0.0019427086 0.06311905 0.20467956 -0.049044993 -0.1267486
0.22534996 -0.04419535 -0.07807505 0.12181675 0.106551625 0.33032385 0.4474906 0.0819875

dc.rk_lgt f4 [1, 16]
00000000: 5770 fabf 0fcb 89bf b4e2 e8bf 339a eabf
00000010: f777 d9bf 21e8 28bf d0e5 62c0 eb75 97bf
00000020: 7121 d9bf 4ec2 57c0 ef76 a8bd 3a7b 03c0
00000030: 30df 1ec0 72bd 52c0 daa5 223d 058b 2bc0
-1.9565533 -1.0765094 -1.8194184 -1.8328308 -1.6989735 -0.659792 -3.5452766 -1.1832861
-1.696333 -3.3712344 -0.0822581 -2.0543962 -2.4823723 -3.2928128 0.03970895 -2.68036
