models/ogbl-collab_CN_2_1_0_run3_gnn.pt (torch, 668318 bytes, 10 tensors)

convs.0.bias f4 [256]
000000 7a 98 59 3f 8f 74 a1 3e 47 b8 0e 3f a8 24 75 bc
       0.84998286 0.3153424 0.55749935 -0.014962353
000010 4e 9e 8a bd 86 f9 1f 3f 5c dd 50 be 36 af 26 bf
       -0.067684755 0.6249012 -0.20396942 -0.651111
000020 aa d4 73 3f 07 86 f6 bd d2 5b b1 3e cd 41 19 3f
       0.95246375 -0.120372824 0.34640366 0.5986603
000030 71 a6 72 be 44 30 7b 3f 9f ae cc bd 7e f9 30 3e
       -0.23696305 0.9812052 -0.09994244 0.17282674
000040 59 11 7e be cf 79 27 3f f1 dc 27 bf 26 86 9b be
       -0.24811305 0.6542024 -0.65571505 -0.30375785
000050 8f 06 ab be f5 58 b7 3f 64 ef 3d 3e ac cf da bf
       -0.3340344 1.4324023 0.18548352 -1.7094626
000060 ef 12 40 3d d7 c7 7a 3f 9e b5 ec 3e 11 b2 dd 3f
       0.046893056 0.9796118 0.46232313 1.7319967
000070 1e 3a cb 3e 23 44 81 3e 92 4d 3e bc bd f5 0b bf
       0.39692777 0.25247297 -0.011615174 -0.5467184
000080 3f 39 c3 bf 15 a8 69 bf b7 af 23 3e 70 4b c3 3e
       -1.5251845 -0.912721 0.15984999 0.38143492
000090 da 7e f0 3e cb 3f b2 3e 80 54 37 3f c1 8f d7 3e
       0.4697178 0.34814295 0.7161331 0.42101863
0000a0 c9 2a 9c 3e c7 0c 16 3f 41 ec 3a be 84 84 ec 3f
       0.30501392 0.58613247 -0.18254186 1.847794
0000b0 87 9a 46 3f f1 a2 1c bf 89 41 28 3d ad 98 09 3e
       0.7757954 -0.6118613 0.041078124 0.13437147
0000c0 07 1f 58 bd 29 6c 20 40 a4 16 64 3c d9 63 d2 be
       -0.052763965 2.5066016 0.013921414 -0.41091803
0000d0 fd 74 b3 be 49 11 90 3e 66 c5 91 3f 38 c4 e0 3f
       -0.35050192 0.28138188 1.1388366 1.7559881
0000e0 1a 29 b0 3f 89 c1 d0 3f a0 78 6f 3f b7 0e e8 3d
       1.3762543 1.6309062 0.93543434 0.11330932
0000f0 cd 2e 37 3f 1a 71 24 3f c6 cd 90 c0 e1 df 64 be
       0.7155579 0.6423508 -4.525119 -0.22351028
000100 c5 d4 41 3e 1c 57 98 3f 2b cd dd be f2 6b b9 be
       0.18928821 1.1901584 -0.43320593 -0.36215168
000110 17 7c fb 3e b7 8a 66 40 b8 ca 1f 3f f6 6d e9 3e
       0.4911811 3.6022165 0.624187 0.45591706
000120 75 b9 09 3f db 85 92 bc 24 d7 b8 3f e7 9b 14 40
       0.5379861 -0.017886093 1.4440656 2.3220155
000130 5f 04 cb 3f 8f 61 75 3f 0f ab 95 bf 71 24 0f 3f
       1.5860709 0.9585199 -1.1692828 0.5591498
000140 c3 6a 93 3e 69 e3 27 be 17 ff c0 3f ec d4 39 3e
       0.2879239 -0.16395344 1.5077847 0.1814763
000150 0a 1b 81 bc 23 d4 8d 3f c0 14 a5 be 21 ec d9 be
       -0.015759964 1.1080364 -0.32242393 -0.42562965
000160 04 4c 14 3f c1 a1 a9 3d d6 80 bb 3e 9e b9 fa bb
       0.5792849 0.08282805 0.36621732 -0.007651522
000170 f3 7c 5e 3f 25 f4 91 bd fc 72 a1 3f 18 74 c0 3e
       0.8690941 -0.07126645 1.2613215 0.37588573
000180 d1 b8 54 3f aa b2 48 c0 1c d9 ee 3f f2 66 6f 3f
       0.8309451 -3.1359048 1.8660007 0.9351646
000190 c8 b5 3a be 33 5c 5c 3e 41 62 84 bf a1 a1 b8 3e
       -0.18233407 0.21519546 -1.0342485 0.36060813
0001a0 10 ea b7 3e 1c e7 d2 3f 4d ec 30 bf 1a 74 a5 be
       0.35920763 1.6476779 -0.69110566 -0.3231514
0001b0 4f a3 9b c0 e6 74 7e 3f 20 91 b9 3f 3e 1f 83 be
       -4.863685 0.9939712 1.4497414 -0.25609773
0001c0 8c 22 b2 3e a4 73 f3 3e e9 94 19 be 3b ab 8a 3e
       0.34791982 0.47549164 -0.14998211 0.27083763
0001d0 57 98 6e 3f 16 db 4f 3d 09 dd 05 3f cb ac 9e 3f
       0.932012 0.050746046 0.522904 1.2396482
0001e0 35 e4 5f 3e be 9f 7b be 63 e2 7d 3e ab 4f 60 3f
       0.21864398 -0.24572656 0.24793391 0.87621564
0001f0 f4 1c 3a bf 24 80 43 bf b8 be 3b 3f da ff 35 3f
       -0.7270043 -0.763674 0.7333789 0.71093524
000200 19 e8 ab 3d 67 df 24 bf 45 3d 0c bf 3f 03 bd 3f
       0.083938785 -0.64403385 -0.5478099 1.4766616
000210 44 a8 9c be ce b2 ca 3d 06 6f 1e be da 55 47 3e
       -0.30597126 0.098973855 -0.1547204 0.19466344
000220 34 8e 90 3e bd 69 ff 3f a6 6e 28 be c1 38 27 3f
       0.28233492 1.9954144 -0.16448459 0.65320975
000230 d3 86 b2 3c 18 b4 b9 bd 97 de 06 40 0b 41 41 3e
       0.021792805 -0.09067553 2.1073358 0.18872468
000240 a7 82 4d 3f 01 9a da 3e 71 b1 46 3f a7 23 5d 3e
       0.80277485 0.4269562 0.77614504 0.21595632
000250 60 6a d6 3d c4 45 44 3c 24 3c 75 3f 3a 12 fb be
       0.10469508 0.011979524 0.9579489 -0.49037343
000260 97 ca 14 3f f7 c0 d5 be ef aa 15 3d da d0 04 3f
       0.5812163 -0.41748783 0.036539968 0.5188118
000270 30 60 9a be 3d 1d bf bf 19 d4 6f bc 3b cc dc 3e
       -0.3015151 -1.4930798 -0.01463797 0.43124565
000280 1c e2 99 3f ee 05 42 3f 5d a1 07 bf a6 f6 42 3f
       1.2022128 0.757903 -0.52980596 0.76157606
000290 58 a3 61 3f 4e be b1 3a cb d0 ba 3e 11 0f d6 3d
       0.8813987 0.0013560744 0.3648742 0.104520924
0002a0 7b a3 41 3f fe 74 e5 3e ef 76 0f bd ed 66 40 bf
       0.75640076 0.4481582 -0.035025533 -0.7515705
0002b0 72 2d 1c 3f 7e 3b 9e be 32 6f ab 3e ee 8d 15 3d
       0.61006844 -0.30904764 0.33483273 0.036512308
0002c0 ff 63 47 3f 39 06 7d c0 42 1a 80 bd 8d 41 86 c0
       0.77886957 -3.9535048 -0.06255008 -4.195502
0002d0 5b 0b cc 3f 64 13 96 3f da 6b be be 3d 5d bb 3e
       1.5940965 1.1724668 -0.3719166 0.36594573
0002e0 b5 ca 0e 3f 38 a1 24 3f 5a bc b5 3f b8 39 91 be
       0.55778056 0.643085 1.4198105 -0.28364348
0002f0 c9 34 96 bf 1e cd 37 be e7 95 d4 3e 52 3f 5f 3f
       -1.1734859 -0.1794934 0.41520616 0.87205994
000300 f6 6f 30 3e 90 6b 21 3f 96 b2 92 be 2c 24 da bc
       0.1723021 0.6305475 -0.28651875 -0.026628576
000310 06 7a 90 bd ed a9 9e be d2 b2 15 3f b2 9a 13 c0
       -0.07054524 -0.30989018 0.58475983 -2.3063169
000320 ea 31 88 3f 0d fa b7 be df 8b a7 3f e1 49 b3 3f
       1.0640233 -0.3593296 1.308956 1.4006921
000330 72 81 cc 3e 5c ca d6 3f 68 e5 3b bf f6 c7 56 be
       0.3994251 1.6780505 -0.7339692 -0.20974717
000340 73 fe 0b bc a8 df f6 3f 5e 42 91 3e 00 4c 0e bd
       -0.008544552 1.9287004 0.28370947 -0.034740448
000350 63 fc 16 bf 13 d4 93 3f eb d1 0d bd f8 d4 82 3f
       -0.5897886 1.1549095 -0.03462402 1.0221243
000360 7a 89 15 3f c6 d6 d2 be 63 54 08 bf b0 dd d1 bd
       0.584129 -0.41179484 -0.53253764 -0.10247362
000370 9d df 6d bf ee a9 5d 3f e6 85 0d 40 ce a4 29 3e
       -0.9291933 0.8658742 2.2112975 0.16566774
000380 40 cc b9 bd c7 bd a6 3f 21 e6 6c 3f bd 97 3d be
       -0.09072161 1.3026665 0.9253865 -0.18514915
000390 e5 14 ba bc 69 cd 6a 3f 81 14 45 be 63 e8 65 be
       -0.022715041 0.9171968 -0.19246103 -0.2245193
0003a0 8a 1f 0f 3f 2c 74 3b 3e b7 64 89 3f 97 a3 fd 3e
       0.559075 0.18306035 1.0733861 0.49538872
0003b0 52 5e 1f 40 15 0e 4b bf 94 7c 7e 3e eb 0b 6d be
       2.4901319 -0.7931836 0.2485221 -0.23149078
0003c0 17 77 3d bf 2b 77 11 3f 84 b6 49 3f 4c 5c ce 3f
       -0.7400984 0.5682246 0.7879412 1.6121917
0003d0 4f 2e d2 be 5a eb b1 3e 03 6c 28 3f 84 e7 80 3e
       -0.41050956 0.34749871 0.6578981 0.25176632
0003e0 4a 34 42 3f 0c 9a 0c 3f 20 71 a2 3f 79 6c 64 3f
       0.75861037 0.54922557 1.2690773 0.89228016
0003f0 69 45 42 3b 30 ff 70 3e 2e 96 da 3e 96 fb b7 3c
       0.0029643422 0.23534846 0.42692703 0.022458833

convs.0.lin.weight f4 [256, 128]
000000 dd 66 07 be 37 c4 98 3e bf e7 a8 bd eb 2b e2 bd
       -0.13222833 0.298372 -0.08247327 -0.11043533
000010 aa 79 07 3e 54 bf 30 be 5b d8 74 bc fa 0a 23 be
       0.13230005 -0.17260486 -0.014944161 -0.15922156
000020 46 f6 1e 3e af 67 1c be a1 a1 af 3e ab c7 4d bc
       0.15523633 -0.15273927 0.34303 -0.012559812
000030 92 f2 3b 3c a0 3b 56 be cc a9 a7 bc 34 e7 9b bd
       0.0114714075 -0.20921183 -0.020466708 -0.07612458
000040 ae 36 98 be a6 b5 37 3e 54 ca a6 bd fc b9 10 be
       -0.29729217 0.17940387 -0.0814406 -0.14133447
000050 98 4c 9f bd cf 70 23 3e ea 3c bd 3d dc 7f 24 3e
       -0.07778281 0.15961002 0.09240134 0.160644
000060 52 c2 a6 bc 61 b0 04 3e 68 6b 2c 3e 04 08 85 3d
       -0.020356331 0.12957908 0.16837847 0.064956695
000070 0d d3 8f 3d ca 0b 69 3e b6 a1 76 be c7 3f b6 3d
       0.070226766 0.22758403 -0.24085125 0.08898883
000080 07 b6 35 be 91 44 18 3e 8e 16 43 be bf ef c9 bd
       -0.17745219 0.14869906 -0.19051573 -0.09860181
000090 1b 3f 13 be d7 69 83 be 51 9f ff 3e 63 d5 d6 bc
       -0.14379542 -0.25666687 0.49926236 -0.026224798
0000a0 73 e8 ba 3c 70 3d 8f be 92 cf 0d 3e ce 2b b6 3e
       0.022815919 -0.2797656 0.13848713 0.35580295
0000b0 d0 74 c7 3b ed e3 b9 3d bf 51 d2 3d c3 82 16 bf
       0.006086923 0.090766765 0.10269498 -0.58793277
0000c0 70 d4 9f bd b4 45 1e bd ec b9 4b 3e a9 bf a6 3b
       -0.07804191 -0.038640693 0.19895142 0.0050887656
0000d0 50 02 e8 3d fc 00 3c be 0d 85 bc bd 4c 67 4e 3e
       0.11328566 -0.1835975 -0.09205065 0.20156592
0000e0 55 c7 ea bd 24 53 1f be 7f 67 f5 3e 0f 53 85 be
       -0.11463801 -0.1555906 0.47930524 -0.2603993
0000f0 2a 90 28 3e 2f e6 90 3e 57 04 0b 3e 84 ca ad bd
       0.16461244 0.28300616 0.13575874 -0.084858924
000100 7c 4b ed bc 9b bb aa bd 5b 62 7e be 0a f4 05 be
       -0.028966658 -0.08336564 -0.24842207 -0.13081375
000110 7f 9b 59 bd 0d 9e 58 bc 62 a2 52 3d 14 4a 5a 3e
       -0.05312681 -0.013221276 0.05142439 0.21317321
000120 1c 16 b5 3d 95 aa ca bc 15 b5 10 be 44 35 6e be
       0.08842108 -0.024739543 -0.14131577 -0.23262507
000130 39 90 fa 3d f2 e6 88 3d f3 7a b5 be 55 b3 60 bb
       0.122345395 0.06684674 -0.35445365 -0.0034286578
000140 4a 0f 1f be d3 fa 43 3e 9d 05 e4 3d 1f 90 0c bd
       -0.15533176 0.1913865 0.11133883 -0.034317132
000150 4d 17 08 be ed f6 69 bd 52 ff f4 bb a8 4e 1b 3e
       -0.13290139 -0.057120252 -0.0074767256 0.15166724
000160 7d 62 a4 3e d4 55 3b be b5 d1 13 3e f3 45 cb be
       0.3210639 -0.1829446 0.14435466 -0.39701805
000170 7b 29 b6 3d 18 44 0c be c8 e4 f8 be c9 ce 92 be
       0.088946305 -0.1369785 -0.48612046 -0.2867339
000180 1a 3d ad be 84 7d f0 3d 39 8f 6d 3c f9 f2 15 be
       -0.3383568 0.1174269 0.014499479 -0.14643468
000190 8e 8e 65 be b0 7a b1 3d f6 68 17 be ea a8 1c be
       -0.22417662 0.08665979 -0.14786133 -0.1529881
0001a0 51 7a ca 3d b2 1d a3 bd c1 9e 39 bd 97 b4 cd 3e
       0.09886611 -0.07964648 -0.045317415 0.40176842
0001b0 83 ca b9 3e f2 4b e7 3d f5 4d fc 3c fb a5 82 be
       0.36287317 0.11293782 0.030798892 -0.25517258
0001c0 e1 1a 49 3d fb 8a 09 3e 13 c9 72 3e a2 57 4d 3e
       0.0490979 0.13431923 0.23709516 0.2005296
0001d0 4b 6c ac 3d 54 50 80 3e 55 38 b5 be fb 4c c9 3d
       0.08419093 0.25061285 -0.3539454 0.09829136
0001e0 6e e9 55 bd fa 21 73 be 0b c8 26 3e 66 d4 57 bd
       -0.05222457 -0.2374343 0.16287248 -0.052692793
0001f0 9a 0f 82 3e 04 27 50 bd 10 ef b9 bd 65 59 56 3e
       0.25402528 -0.05081846 -0.09078801 0.20932539
000200 c8 47 4b 3d 9a 95 2c 3e 52 74 08 3e b8 fa bd be
       0.049629003 0.16853943 0.13325623 -0.37105346
000210 05 4f 29 be c2 a1 10 bc ee 23 b6 3a ae 11 0d bd
       -0.1653405 -0.008827629 0.0013896206 -0.03444069
000220 af 62 4f 3e bd 4d 9b 3b 6e d3 0e 3e 1c d9 25 bc
       0.20252489 0.0047394917 0.13947842 -0.010122564
000230 82 81 28 be 38 72 5c be 8d 27 91 3d da 4c 11 be
       -0.16455653 -0.21527946 0.07087622 -0.14189473
000240 2a fb f9 3c 49 0d 45 bd b9 8b f2 bd c5 7a cf bc
       0.030515272 -0.048108373 -0.11843056 -0.025327096
000250 74 09 98 bc 1d c2 32 3e 92 15 e4 3c 5a 90 92 be
       -0.018559195 0.17456861 0.027842317 -0.28625757
000260 48 9e 5f 3d f4 76 0a 3d 6e 49 92 3d 5a 8a 96 bd
       0.05459431 0.03380485 0.07142912 -0.07350607
000270 23 5c ea 3e 6b 2c d0 3d 70 bb b2 3d 8d 1d 54 bd
       0.4577342 0.10164722 0.08727157 -0.051785994
000280 a2 dd 9a be 63 6d fe 3d f4 8c b7 be 22 29 70 3d
       -0.30247217 0.124232076 -0.35849726 0.058632977
000290 20 03 8c bd 83 3b 03 bf 5c 45 8a 3d d4 2b 6a 3d
       -0.068365335 -0.5126268 0.067515105 0.057170704
0002a0 d8 55 95 bd 12 fa 11 bf 45 2c 05 bc 2e 21 01 bd
       -0.07291764 -0.570222 -0.00812823 -0.031525783
0002b0 b9 e6 66 be ed 12 78 bd 13 73 9a 3d 5f 68 1a bf
       -0.22548951 -0.060564924 0.0754148 -0.6031551
0002c0 0a dd 9e 3d 43 4c 84 3d ab dd 25 3e c2 e1 60 3d
       0.077570036 0.06459858 0.16197841 0.0549028
0002d0 43 10 dd 3c 4e f2 39 bc 77 75 9f be 0e 1b 84 3c
       0.026985293 -0.011349274 -0.31144306 0.016126182
0002e0 d4 76 9d bd 98 c0 84 bc 11 08 0e 3f 61 63 0c bf
       -0.0768868 -0.016205117 0.5548106 -0.5483914
0002f0 44 2a ab 3c f5 85 0f 3f 8b 55 2e be 06 72 14 bb
       0.020894177 0.5606378 -0.1702482 -0.002265097
000300 05 14 3c 3d 99 95 48 bc 5d 43 9e bd 58 37 4d be
       0.04591753 -0.012242698 -0.07727692 -0.20040643
000310 51 07 51 bd 00 8c 12 3d 0b 99 57 3d ed 4f 23 3c
       -0.051032368 0.035778046 0.052636188 0.009967786
000320 7d 23 f0 bd cd a1 15 3d 2a 15 0b be 63 fb 88 3c
       -0.11725519 0.03653126 -0.13582292 0.016721433
000330 9a c7 d3 3b 6e fc 38 be 14 39 5b be 7d da 87 bd
       0.0064630033 -0.18065044 -0.21408492 -0.0663347
000340 3c 6f 17 be 20 79 5a be 08 ef 83 bd df d0 5d bd
       -0.14788526 -0.21335268 -0.06442076 -0.054154273
000350 6d 4c b7 be 02 fd 29 be 49 89 bf bd e2 6e 33 3a
       -0.35800496 -0.16600421 -0.09352357 0.0006844831
000360 1b 40 23 3d cd a1 93 be 31 c0 4a bc 8b 02 d9 be
       0.039856058 -0.28834382 -0.012374924 -0.42384753
000370 78 1f 20 be e0 85 2c bf 83 aa 1a bc 74 05 aa be
       -0.15637004 -0.6739178 -0.009440067 -0.33207285
000380 6a 6f af be 09 2f 62 bd ba 79 9d 3d 4c c3 53 be
       -0.3426469 -0.055220637 0.07689233 -0.20679969
000390 7c 68 27 be ad 52 0c 3e 56 8a de bd 18 af 42 3d
       -0.16348451 0.13703413 -0.10866229 0.047530264
0003a0 4c 1b 9e 3c df ef 46 be 8b d6 e9 bd df e8 1b 3e
       0.019300126 -0.19427441 -0.11417874 0.15225552
0003b0 cd b0 ff bd 16 1c 59 be 0b bb 8c 3d 55 b1 97 be
       -0.12484894 -0.2120212 0.06871613 -0.2962748
0003c0 ab dd 9b 3b 61 3a 76 3d 93 62 22 3e 4f 08 75 3d
       0.0047566495 0.06011427 0.15857916 0.059822377
0003d0 4d f9 20 3d 65 29 93 3d ab 09 89 be ac 1f c2 3e
       0.03930025 0.0718563 -0.2676519 0.3791479
0003e0 72 25 ad 3d e6 01 49 bd 0a 24 d2 3d 6b 25 ad be
       0.08454408 -0.049074076 0.1026078 -0.3381761
0003f0 29 a3 33 3e 93 b1 13 bc 4b dd e4 3d 62 95 ea 3e
       0.1754271 -0.009014505 0.11175021 0.45817095

convs.1.bias f4 [256]
000000 04 ab c6 bf 87 00 36 3e bf 70 8e bf 3a e1 78 be
       -1.552094 0.17773639 -1.1128157 -0.24304667
000010 40 b9 13 be 8c ab 3b be 97 f2 d7 3d 7a 4f 03 3e
       -0.14426136 -0.18327159 0.10544317 0.12823287
000020 7b e5 41 3e c3 ac ce 3f fb f6 4f 3e 11 e5 f0 ba
       0.18935196 1.6146473 0.2030906 -0.0018378814
000030 d1 6e 8f 3e 9a a4 a4 bd 2b a1 d2 3e fb c6 03 40
       0.28014234 -0.08039208 0.41138586 2.0590198
000040 67 0a 2e 3f 0b d8 65 3f 76 90 80 bf 07 67 3c 3f
       0.6798462 0.8978278 -1.0044086 0.7359471
000050 fd c7 0d 3c 6d ef 0c bd ff 4d a4 3d a5 06 45 c0
       0.008653638 -0.03440802 0.08022689 -3.0785306
000060 8a 32 33 be 9d 07 2b bf 9a f6 6d be 69 77 7c 3f
       -0.17499748 -0.6680849 -0.23238602 0.98619705
000070 a3 88 74 3e f6 10 e4 bb 28 34 52 be 45 b3 a8 be
       0.23880248 -0.0069600297 -0.20527709 -0.32949272
000080 18 7b 95 be 43 2d 4d be 54 55 bd 3e 10 a1 6e 3f
       -0.29195476 -0.20036797 0.36979163 0.9321451
000090 5f 99 80 bd 9a 3a 0e 40 85 d4 6d 3d 02 b1 ae bf
       -0.06279253 2.2223268 0.058064003 -1.3647768
0000a0 80 1a 91 ba 44 60 14 40 07 2e 98 3f 78 dc ba 3e
       -0.001107052 2.3183756 1.1889046 0.3649633
0000b0 85 f7 02 bf e5 fe 2c 3f 69 39 2b 3e c5 d6 7f 3f
       -0.51158935 0.6757644 0.16721119 0.9993709
0000c0 22 59 f8 bd 73 2f d2 3f a1 fa eb 3f 71 46 85 3d
       -0.12126376 1.642073 1.8435861 0.06507576
0000d0 b3 88 c3 be 71 49 d4 be 08 ee e6 bf 3e 33 22 3f
       -0.3819023 -0.4146228 -1.8041391 0.6335944
0000e0 1a d9 84 3e f5 6f 95 be 14 6d 83 be a4 19 e7 3f
       0.25946885 -0.2918698 -0.25669158 1.80547
0000f0 32 3a 50 3f 9e a5 8b bf 58 53 15 bf 06 6b 48 3f
       0.813388 -1.0909917 -0.583303 0.78288305
000100 a8 e7 53 bf 1b 71 33 3d e3 60 88 3e ca d3 c0 be
       -0.82775354 0.043809038 0.2663642 -0.37661582
000110 8c a5 11 bf 23 bf 42 3c c3 d5 07 bd 30 61 a2 bd
       -0.5689323 0.011886391 -0.033162843 -0.07928693
000120 c9 9e a6 bd 88 63 7c 3d 47 cd 11 bf ab 6b 02 40
       -0.081357546 0.061618358 -0.56953853 2.0378215
000130 19 80 75 be 1c 25 0f bf 62 1b ba 3f 7b 37 b6 be
       -0.23974647 -0.55916 1.4539607 -0.35589203
000140 d1 d9 a8 3e 11 6c 38 3e f4 88 37 3e 2f 13 e0 3e
       0.3297868 0.18009974 0.17923337 0.43764636
000150 f3 c2 00 c0 85 f2 10 40 dc a7 48 be 91 32 5a 3c
       -2.0118988 2.2648022 -0.19595283 0.01331772
000160 3d 91 93 3d 56 35 c9 bc 76 f0 eb be 36 dc 0a 40
       0.072054364 -0.024561565 -0.46081895 2.1696906
000170 8d e7 ea be 3a 7d fd bf 53 2c 3d 3f f1 4a 9c 3f
       -0.45879784 -1.9803841 0.7389576 1.221037
000180 b8 2b e2 3f b3 af 95 3e 99 a8 dc 3e 7b 19 85 bf
       1.7669592 0.2923561 0.4309738 -1.0398401
000190 34 db d1 3f 4f 36 be 3e 81 1f e4 be 3e b1 e6 3b
       1.639502 0.3715081 -0.44555286 0.007040172
0001a0 fd 11 fa bd 17 09 55 40 cc 83 37 be e0 df e4 3e
       -0.12210462 3.3286798 -0.1792137 0.44702053
0001b0 63 ad 27 bf 80 c0 b9 be 0c 47 57 be 3f 89 a4 3e
       -0.6549894 -0.36279678 -0.21023196 0.3213596
0001c0 cd b9 fe bf 9a b0 fe bd 85 af 87 be 3d aa c8 3b
       -1.9900452 -0.12436028 -0.26501098 0.0061238096
0001d0 2c 4a 6a bd 52 c3 45 bd b0 36 96 be a2 bd 06 3f
       -0.057199642 -0.048281975 -0.29338598 0.52633107
0001e0 a7 bf 69 3f e1 3c 52 be b4 3f 8e 3e 5d ed d8 3a
       0.91308063 -0.20531036 0.27782977 0.0016550232
0001f0 9b a5 d9 3d 43 d7 01 bf 45 cb d4 be b7 5e e8 bc
       0.1062729 -0.5071909 -0.41561332 -0.028365476
000200 88 bb 40 bf 13 03 18 3e 98 00 f9 3e 21 9e d1 be
       -0.7528615 0.14844923 0.48633265 -0.40940955
000210 1c 85 4b 3e 58 e1 69 bf 17 6c b9 bd 1d df c2 3f
       0.19874996 -0.9135947 -0.090538196 1.5224339
000220 8e 2e 32 bf 26 af 06 bf d4 0e 13 bf b9 7d 9e 3e
       -0.69602287 -0.52611005 -0.574445 0.30955294
000230 84 f3 e4 bd 51 cf 71 be cc 6d 5d be 79 ff 52 3e
       -0.111792594 -0.23614241 -0.21623915 0.20605268
000240 0a 88 98 3e 31 80 33 bd 33 71 d8 3e b5 c5 83 bf
       0.2979129 -0.043823425 0.42273864 -1.029471
000250 b5 7f aa be d0 18 ad be 8e c8 24 40 5d 5b d6 3f
       -0.33300558 -0.33807993 2.574741 1.6746632
000260 95 59 c1 be f3 6f 54 be 94 6f 00 be c9 c9 54 bf
       -0.37763658 -0.2074583 -0.12542564 -0.831204
000270 55 d4 59 3d 7c b7 ad be 76 5b 9c bd 53 a0 49 bf
       0.05318101 -0.3392905 -0.07634632 -0.7876026
000280 c3 da 15 bf 41 70 33 3f 03 a9 4d bd 87 e6 7b 3d
       -0.5853693 0.7009316 -0.05021001 0.061499145
000290 78 fc 03 3e b9 7b c4 3b 4c fa 87 3d dd bf 87 3d
       0.12889278 0.005996194 0.06639537 0.06628392
0002a0 16 b9 d4 3d 15 09 b4 3e 36 e3 cb bd 5f 24 7b bd
       0.10386865 0.3516318 -0.099554464 -0.061313983
0002b0 96 1a 2d 3e c3 70 32 3c 97 08 b9 3b b2 cc c6 3f
       0.16904673 0.010891142 0.005646776 1.5531218
0002c0 01 e4 60 bf 45 b1 4f be d3 c1 99 3b 6b 34 e7 bd
       -0.87847906 -0.20282467 0.004692295 -0.11289295
0002d0 97 66 96 3b c0 50 d5 3b 48 6d ee 3e c6 18 83 be
       0.0045898664 0.0065098703 0.4656775 -0.25604838
0002e0 cb 92 b4 3f 5d 74 15 3f b6 0b 8a bf 86 63 03 40
       1.4107298 0.5838068 -1.0784824 2.0529494
0002f0 e8 e0 34 bd 93 76 30 3f 17 57 d0 3e ae ed 14 bf
       -0.0441598 0.6893093 0.40691444 -0.5817517
000300 01 21 e6 3e a4 61 69 be c7 4b b1 3f 4e a8 be 3f
       0.44947055 -0.22791153 1.385125 1.4895113
000310 cd ec 91 3e 0c 0d 1b 40 4a f4 5b 3f 91 66 04 3e
       0.28500977 2.4226713 0.8591963 0.12929751
000320 67 85 a0 bd af 3d f4 3f 02 7a a5 be ff 8b 7b bc
       -0.078379445 1.9081324 -0.32319647 -0.015353202
000330 6d fb 53 3f d4 4e 92 3f e5 eb a8 3d ae 5d 93 3f
       0.8280552 1.1430306 0.08248118 1.1512964
000340 9a 43 38 3f 54 23 56 bf ac ac 6b 39 df ab df 3f
       0.7197815 -0.83647656 0.00022475672 1.7474326
000350 17 dc 0a bf a2 a8 cd bd af b7 e3 bf 47 3a 1c bf
       -0.5424208 -0.1004193 -1.7790431 -0.61026424
000360 74 c7 00 3e 89 b7 92 3f 81 bc 19 3e 48 69 2c be
       0.12576085 1.146226 0.15013315 -0.16837037
000370 14 5a 31 3e af b8 f9 3d cc 86 18 bf 09 00 f9 bb
       0.17319518 0.12193429 -0.59580684 -0.007598881
000380 be 5a ee be fe 6c 93 be 8a bb 17 3f 58 02 ba 3f
       -0.46553606 -0.28794092 0.59270537 1.4531965
000390 e6 10 43 bf 78 2a 57 3f be 04 82 3f 7d be 54 3f
       -0.7619766 0.8404918 1.0157697 0.8310316
0003a0 a3 4b 0f 40 b9 7b 11 bf 63 41 1a 3e 41 ab 8c 3e
       2.2389915 -0.5682941 0.15064006 0.27474406
0003b0 cf a5 eb 3f d6 c2 50 3f d4 cd 06 3e b4 a0 6b 3e
       1.8409976 0.81547296 0.13164455 0.23010522
0003c0 88 6c b8 be 5a e5 15 3e 2b 45 0a 3f c5 ed c5 be
       -0.36020303 0.14638272 0.5401179 -0.38657966
0003d0 ee f8 cd 3f d7 6a 46 bf c9 b8 74 be d5 85 26 be
       1.6091592 -0.77506775 -0.23898615 -0.1626199
0003e0 c1 d0 80 be 16 3c 13 3f 86 4a af 3e 1a 75 00 bd
       -0.25159267 0.5751356 0.34236544 -0.031361677
0003f0 ba 19 31 bf c1 e2 84 3f dd 9d 9a 3d 59 58 b0 be
       -0.6917988 1.03817 0.07549641 -0.34442404

convs.1.lin.weight f4 [256, 256]
000000 b9 d6 9f be 7f 74 67 3d b6 60 7d be c1 69 0b be
       -0.31218508 0.056507584 -0.24743924 -0.1361456
000010 ee 49 03 bd aa cc 1e 3e a6 e4 38 3e 23 b0 f2 3e
       -0.032052927 0.1550776 0.18055972 0.47400007
000020 ce 43 80 bd c1 c9 c6 bd 62 58 7d bd aa 07 1f 3d
       -0.06262933 -0.0970645 -0.061851867 0.03882567
000030 81 0f 28 bd 6b fb ee be 77 4a 9b bd 34 b7 10 bd
       -0.04103041 -0.46676192 -0.075825624 -0.035330966
000040 27 26 82 be e1 eb 37 3d 4f 45 80 3f 4b 66 9a bd
       -0.25419733 0.044902686 1.0021151 -0.07539042
000050 56 39 dd be d1 62 08 be 4b 01 ae be 37 93 c5 3c
       -0.43207806 -0.13318945 -0.3398536 0.02411805
000060 d5 d7 9c 3e 69 18 8f bd 83 47 36 3e af f1 2f be
       0.30633417 -0.06987078 0.17800717 -0.17182039
000070 9f 98 93 3d 3b 0c d2 3e 06 e9 78 bf 12 12 9c bf
       0.072068445 0.41024956 -0.97230566 -1.2193015
000080 5b 08 9b 3d ee 88 de 3e 44 2c 3f be f4 b8 5e be
       0.07569953 0.43463844 -0.1866923 -0.21750242
000090 5b 17 51 3e 3d 73 d0 bc e7 57 38 3e 91 16 c0 3e
       0.20419066 -0.025445575 0.18002282 0.37517217
0000a0 e9 2a ff be 5f fc 6b 3e 86 c4 05 bf c1 57 90 3e
       -0.49837425 0.2304549 -0.52252996 0.2819195
0000b0 6a f6 1e be f0 2c 5a 3f 65 d8 ca 3e 91 a3 d4 bd
       -0.15523687 0.8522482 0.3961822 -0.1038276
0000c0 3b d2 f9 be a2 6f 91 3f be b7 ad bf a5 98 b0 3e
       -0.48793206 1.1362193 -1.3571699 0.3449146
0000d0 07 b4 a1 3f fd 0f e3 3e 6d fa fe bd ca e2 aa bd
       1.2633065 0.44348136 -0.12450109 -0.08344038
0000e0 22 8a 81 bd b9 48 da bd 2c ad 23 be 2d 52 e6 ba
       -0.06325175 -0.10658402 -0.15984029 -0.0017572098
0000f0 72 0d ce bd 9d a2 51 be 7e 56 cb bc a1 ea 8e 3e
       -0.10061158 -0.20472188 -0.024821516 0.27913383
000100 3d 92 57 3e ac 58 fe bd 46 2d 20 3f 33 02 72 3f
       0.21051879 -0.124192566 0.6256908 0.94534606
000110 78 a8 4e 3d ae 0d 9c bd 8e 63 08 3e 00 05 2e 3e
       0.050453633 -0.07619797 0.13319227 0.16994095
000120 1e 16 1d 3e 42 97 96 be 3c 72 06 3d 6a 29 1d 3f
       0.15340468 -0.29412276 0.032823786 0.6139132
000130 fe 0e d1 39 b1 bc db 3e bf ca 99 3d 81 b8 bb 3d
       0.00039874756 0.42917398 0.07509374 0.09166051
000140 42 d2 d7 3c 85 fe 18 be 47 63 78 be 1c 2f 85 bc
       0.026345376 -0.14940841 -0.24256621 -0.016257815
000150 a7 37 35 bf a9 ad 4c be 13 62 41 bf 83 cf 58 bf
       -0.70788044 -0.19988121 -0.75540274 -0.8469164
000160 28 10 a7 3e aa 42 67 bd d8 16 45 be ef a3 ac 3e
       0.32629514 -0.05646006 -0.19246995 0.3371882
000170 a4 72 ea 3d 76 f1 a8 be 33 8a 4d be ca 29 de 3e
       0.11447647 -0.3299672 -0.2007225 0.43391258
000180 39 93 7f bd 26 94 79 bd 36 0e 78 be ff 90 53 3f
       -0.06239626 -0.0609323 -0.24224171 0.8264312
000190 2f c2 e9 3e e8 04 57 be 26 68 5f 3f 7b 64 c9 bd
       0.45655963 -0.20997965 0.8726829 -0.09833618
0001a0 bc 72 81 bb b6 c4 92 3f 7f 18 af 3f 39 5a fd 3f
       -0.003950445 1.1466281 1.3679351 1.9793159
0001b0 8d 67 af bc 71 10 25 3e ca 08 5a be d8 8e 31 be
       -0.021411682 0.16119553 -0.21292415 -0.17339647
0001c0 cf 35 0a 3d d4 0f d7 bd b0 e2 00 bf ab 4b b0 3e
       0.033742722 -0.10501066 -0.503459 0.3443273
0001d0 ee 54 ce 3d 5f 52 57 bd 3f 45 9e 3e fa 41 c3 3d
       0.10074793 -0.05256879 0.30912206 0.095340684
0001e0 c9 fb f1 bb 41 a7 98 3f c5 a1 1f be 3e 30 c2 be
       -0.0073847515 1.1926042 -0.15589054 -0.3792743
0001f0 35 1b 96 be d9 0e f6 3f 42 fb f1 3d f6 5f 7c 3c
       -0.29317632 1.9223281 0.11815502 0.015403738
000200 b8 0a aa bc 08 db 86 3e 7e ba c7 bc 5b b0 9e 3c
       -0.020757064 0.26338983 -0.024380919 0.019371202
000210 5a 5c 70 bf 26 46 e0 be 0a 2f 3f bf 7c 93 1e be
       -0.9389092 -0.4380352 -0.7468115 -0.15485948
000220 03 d1 ca 3d 98 97 a1 bd 68 5a 07 bf 77 c9 12 be
       0.09903147 -0.07890242 -0.52872324 -0.14334665
000230 bc c6 97 3e 34 1e 4f 3e 7f d9 61 be 44 b8 84 3e
       0.2964381 0.20226365 -0.22055624 0.25921834
000240 51 fe b4 3e 41 34 b1 be 71 92 18 bd 75 07 ea bc
       0.35350278 -0.3461018 -0.037249032 -0.028568009
000250 11 7d df be e8 ed 75 bf 9a db 3e 3e 24 07 96 3e
       -0.43650106 -0.9606614 0.18638459 0.29302323
000260 85 90 7d 3e d8 4b b3 3d 4b b1 e6 bc f5 d5 c1 be
       0.24762161 0.087547004 -0.028160712 -0.3785855
000270 e2 28 4e 3b f8 6f 84 be b3 c0 18 3d f9 35 be 3c
       0.0031457474 -0.25866675 0.037293147 0.023219096
000280 cc 3a 6d bc f6 4f 15 be 73 f8 1e 3f 25 d2 dd bd
       -0.01447935 -0.14581284 0.62097853 -0.108310975
000290 fe 13 89 3d b5 be e0 3e 29 bf 49 bf f2 a4 d5 3d
       0.06693266 0.43895498 -0.7880731 0.104318514
0002a0 b1 56 e6 bd 30 7c 81 3e ff 39 b5 be d6 e6 3a 3e
       -0.11247004 0.2529006 -0.3539581 0.1825212
0002b0 1e 04 d7 3d a3 16 2b bf b2 e7 fe bd 7d 24 c8 be
       0.10498832 -0.66831416 -0.12446536 -0.39090338
0002c0 ff 81 a4 bc 8c 22 73 3a e1 a0 c3 bc 20 bf e0 bd
       -0.020081518 0.0009274862 -0.023880424 -0.10973954
0002d0 c8 1c 28 3f 0b e3 fb bc 01 73 a0 3f 57 cb 83 3e
       0.65668917 -0.030747911 1.2535096 0.25741073
0002e0 ea d8 46 be 08 36 88 bd d2 bd b9 bd f1 1c cf 3e
       -0.19418684 -0.06650931 -0.090694085 0.40451768
0002f0 f6 12 20 3f 8a e7 18 bd 9e b7 64 bd 10 22 46 3d
       0.6252893 -0.037330188 -0.055839173 0.04837233
000300 9a d6 d1 bc 57 9b 49 3e 57 76 84 be 9c fd 3c bd
       -0.025615025 0.19688164 -0.25871536 -0.0461403
000310 f3 d0 37 3f ae 45 88 bd a0 cd e5 bd 47 fd 73 3f
       0.71803206 -0.06653915 -0.112208605 0.95308346
000320 f2 e7 56 be c3 1a bb 3f 91 87 e1 bc 02 20 55 3d
       -0.20986918 1.4617542 -0.027530463 0.05203248
000330 f5 ed cb 3e 49 14 93 bd 35 00 d5 3e 9a 20 cb 3e
       0.39829984 -0.071816035 0.4160172 0.3967331
000340 35 42 3a 3e 65 2d 83 3d ff 64 e5 bc 28 e7 05 3f
       0.18189318 0.06405143 -0.02800226 0.5230584
000350 52 e8 08 3f 64 18 11 3e 25 02 e1 be 14 be 39 bd
       0.5347949 0.1416946 -0.4394695 -0.04534729
000360 c9 1d 5c 3a b6 bc 20 be d6 00 cb bf 50 fe f1 3f
       0.00083967723 -0.15696988 -1.585963 1.8905735
000370 be 7f 14 3f e0 26 2d 3e 6b 5e 13 bd 75 9c 18 40
       0.5800742 0.16909361 -0.035978716 2.3845494
000380 c4 eb 92 bf 0c 1c 9d 3d 0f 3e 26 be ac d4 17 3f
       -1.14782 0.07671365 -0.16234611 0.59308887
000390 77 93 3c be 81 0d 2b be 04 56 57 bf 09 4e 26 3f
       -0.18415628 -0.1670437 -0.84115624 0.6496282
0003a0 5a 51 39 3f 47 02 89 bb b6 6e 5e bd 4c f4 f1 bd
       0.7238976 -0.0041811797 -0.0543048 -0.11814174
0003b0 96 0c 6c 3f 1f 18 01 3f e7 e3 0e bf 12 d9 73 be
       0.92206705 0.5042743 -0.558165 -0.23813275
0003c0 90 96 88 3f 82 16 e5 be ab 1d 3a bd c2 19 c0 bc
       1.0670948 -0.44743735 -0.04543845 -0.023449782
0003d0 d1 92 9b 3e 66 28 59 3e 00 c9 76 be 32 bb 63 3e
       0.3038545 0.21206817 -0.24100113 0.22239378
0003e0 05 f0 36 bd c9 da 13 3d 84 10 30 be 69 9c 93 bd
       -0.044662494 0.03609732 -0.171938 -0.07207567
0003f0 cc 82 2e 3d fb a6 25 bc 3b 91 8b 3f e1 cf c9 3b
       0.042605206 -0.010110612 1.0903696 0.0061588143

convs.2.bias f4 [256]
000000 4c da df 3e 19 67 d0 3c 57 76 8a be 14 98 1e be
       0.43721235 0.025439786 -0.2704341 -0.154877
000010 52 6d 17 3e 29 26 98 3e 9c 07 39 3e 02 7e 89 3d
       0.14787796 0.29716614 0.18069309 0.06713487
000020 9c fe 36 bc 4e 16 97 3e 37 f9 c2 3d f5 78 19 3d
       -0.011169102 0.29509205 0.0952019 0.03746887
000030 f9 7c 8c 3e 83 71 19 bf 7f 86 b6 3f c5 c8 60 3f
       0.27439097 -0.5993883 1.4259795 0.8780635
000040 32 c1 49 be 3d 55 35 3f 89 18 1c 3e 7c 07 99 bc
       -0.19702604 0.7083319 0.15243734 -0.018680327
000050 e5 53 f9 3e e8 f3 6c bc 8b 8a 60 3e 47 4e 6b 3f
       0.4869682 -0.014462449 0.2192785 0.91916317
000060 1e 90 af bd f8 8c 26 3e 1a 42 aa 3e b1 b2 2b be
       -0.0857241 0.16264713 0.33253556 -0.16767384
000070 65 da 7b 3e 21 52 a7 3e 2c 1c 34 3e 97 70 01 bf
       0.2459503 0.32679847 0.17588872 -0.50562423
000080 e3 2b 00 be ac 28 2a be 10 b9 17 3e fe 05 d8 3c
       -0.12516741 -0.16617078 0.1481669 0.026370045
000090 6c 3a e0 3d b6 a0 d6 3e 07 f3 ab bc 96 f4 17 3f
       0.10948643 0.41919488 -0.020989908 0.59357584
0000a0 aa 62 82 be 2c 1b e3 3d c6 e6 4c bd 84 51 3a 3f
       -0.254659 0.11089167 -0.05002477 0.7278063
0000b0 c9 c0 0b 3d f3 0a c1 3d 61 f9 f4 3c 86 8d fc 3e
       0.0341194 0.094259165 0.02990407 0.49326724
0000c0 dd 5f 60 bd fd e6 31 be 6b c7 0b 3f ef 1c fb be
       -0.054778922 -0.17373271 0.5460116 -0.49045512
0000d0 86 18 79 be c5 55 ab be c3 d0 e3 3e f2 a4 f9 3d
       -0.24325761 -0.33463874 0.4449521 0.12189664
0000e0 4e 74 73 be 70 36 92 3c 34 35 90 3d 86 52 25 3e
       -0.23774835 0.017848223 0.07041398 0.16144761
0000f0 9e e1 69 bd 0b 7a 22 40 51 29 30 3f e7 eb 48 3e
       -0.05709993 2.538699 0.68813044 0.1962124
000100 3f a4 4d bd 99 73 95 3e 1f 21 99 bd 65 3b 59 3e
       -0.050205465 0.29189757 -0.074770205 0.21214063
000110 ce 44 4c 3d 1f 83 04 3e 4d 28 0d 3e 77 0f 70 bf
       0.049870305 0.12940644 0.13784905 -0.937736
000120 01 0f ab 3e 84 5a 6e 3c f8 87 61 be d7 f7 81 3e
       0.33409885 0.014547948 -0.22024524 0.253844
000130 8d 4a 96 3d 49 6a b7 be ca 0f 30 40 c4 2f 98 3c
       0.07338438 -0.35823277 2.7509637 0.018577464
000140 71 50 81 3d 0d 39 1c be 43 9a c3 bd a2 b7 59 3d
       0.06314171 -0.15256138 -0.095509075 0.05315364
000150 50 7e a0 3e e4 73 b1 3d 9e 3b af 3f 58 14 86 3e
       0.3134637 0.086646825 1.3690069 0.26187396
000160 c6 e5 23 3d 26 07 c8 3d 81 fc 61 3f 2c 46 76 3d
       0.04001405 0.097669885 0.88275915 0.060125515
000170 97 5d 47 3d 6c a6 21 bd 3e de 9b 3e 8b 37 1c 3e
       0.04867324 -0.039465353 0.30442995 0.15255563
000180 6c 6c 13 3f 72 e9 89 3e ea 73 46 be a9 e6 e9 3e
       0.57587314 0.26935917 -0.19380155 0.45683792
000190 1d 0f 36 3f 3f e8 c7 3d cc 71 1d be 80 5c 77 3e
       0.7111681 0.09761094 -0.15375441 0.2415638
0001a0 60 bd 6c 3b 36 79 a4 3f 22 b0 1f 3e 37 28 93 3e
       0.0036123618 1.2849491 0.15594533 0.2874162
0001b0 b5 45 ad be 6b cf 86 3e a2 a3 cb 3f 2e 6d 95 3e
       -0.33842245 0.26330122 1.5909312 0.2918486
0001c0 a5 20 2f be 6e 54 4f bd 3a 6b 70 3d 72 95 e4 be
       -0.17102297 -0.050617628 0.05869601 -0.44645268
0001d0 8b 0f 46 3e b3 2e c9 3d 7b 27 5a 3e 4d 8a 05 bf
       0.19341867 0.0982336 0.21304123 -0.52164155
0001e0 61 d7 4b be 49 cd ca 3e be 07 38 bd a2 37 5d bd
       -0.1990638 0.39609745 -0.04492926 -0.054008134
0001f0 55 03 b7 3d a3 61 9b 3e 14 23 d9 bc 58 e3 0e 3e
       0.089361824 0.30347928 -0.026505984 0.13953912
000200 13 cf 84 3d 90 2a 32 40 be 8c 68 bd be 8b e2 3e
       0.06484809 2.7838478 -0.056774847 0.4424724
000210 25 9a cb 3e ef 68 00 be cf b0 12 bd a6 c2 4f 3f
       0.3976604 -0.12540029 -0.03581315 0.81156385
000220 e9 b5 b8 3e 20 3f 23 3e 8d 1b cd be d7 65 b0 be
       0.36076286 0.15942049 -0.40060082 -0.34452698
000230 96 40 e7 3e 69 6a 37 3e 77 8c 40 bf fb 75 13 3f
       0.45166463 0.17911686 -0.7521433 0.576019
000240 52 47 4a be 64 6c 41 3e cf 97 4b 3e 82 f8 8a 3d
       -0.19753769 0.18889004 0.19882129 0.0678568
000250 29 c2 30 3e 94 87 ad bd bc d4 53 40 fa 01 e2 be
       0.17261566 -0.08473125 3.3098593 -0.44142133
000260 d6 e0 9e be 05 6e 1b 3e 0e 08 d2 bd 1f 2e 8d 3d
       -0.3103091 0.15178688 -0.102554426 0.068935625
000270 6b 91 ac 3d 31 89 9b 3d d7 9e 5a be 8d dc 21 be
       0.08426174 0.075945266 -0.21349655 -0.1580679
000280 c2 e5 99 be 2f df ef 3e 71 3a fb 3e 9e 7a ae 3d
       -0.30058104 0.46849963 0.49068025 0.08519481
000290 08 5b 7e be 52 29 5b bd 20 c3 89 bd 06 f0 97 3e
       -0.24839413 -0.053506203 -0.0672667 0.2967531
0002a0 46 7d 72 be 5d b0 a2 be 0a 2d 4a be 2a 79 6a 3f
       -0.236806 -0.3177518 -0.19743744 0.9159113
0002b0 01 b0 10 3f 54 a0 d7 3e dc f2 60 be 14 58 d3 3e
       0.5651856 0.42114508 -0.21967643 0.41278136
0002c0 97 5b 08 3f 94 4a ea 3d 51 ee a4 3e ab 04 26 3e
       0.53264755 0.11440006 0.3221307 0.16212718
0002d0 b0 00 8a 3e 45 d0 48 3f dd e2 bd be cb 5f 90 bd
       0.2695365 0.78442794 -0.37087145 -0.07049521
0002e0 44 cb 24 be 20 11 51 3f fc d3 17 bd 67 47 98 bd
       -0.16093165 0.81666756 -0.0370674 -0.07435494
0002f0 8c c9 d8 3f 6a b3 d4 3d e6 5a 08 bb 73 75 90 3e
       1.6936507 0.10385783 -0.0020806133 0.28214607
000300 52 0d 91 3f 7a 6a 9c bd 7e db c7 3c 0c 1e 52 bd
       1.133219 -0.07637496 0.024396654 -0.051298186
000310 d8 6b 0c 3f 9f f0 15 be ce 7e 31 be 86 b9 ac 3c
       0.54852057 -0.14642571 -0.17333528 0.021084558
000320 36 5b 65 3b ef 68 df 3e 96 6b 9d be 07 7f f3 3b
       0.0034996993 0.43634745 -0.30746144 0.0074309143
000330 57 8e f2 3e 25 56 c7 3e 3b ed bc 3f fa e7 03 bf
       0.47374222 0.3893291 1.4759897 -0.51525843
000340 7f c7 27 3d 39 95 49 3f 2e 2c 24 be 9f 9d 0e 3d
       0.04096174 0.7874332 -0.16032478 0.034818288
000350 31 d5 aa bd 4e 93 a1 3e 9a 2d 72 be 7d 25 b0 3d
       -0.08341444 0.31557697 -0.23650208 0.086009
000360 e7 67 fb 3d a3 a3 7e bd 07 cd 3d bf bf 0b 57 bd
       0.12275677 -0.062167775 -0.7414097 -0.052501436
000370 d4 c5 f2 bc fd 04 b0 3c 8e 1b c6 be 38 aa 44 3e
       -0.029635347 0.021486754 -0.38692898 0.19205558
000380 e9 a4 52 3f 2f 25 b2 bd a2 bb 12 be cf ef 8a 3f
       0.8228288 -0.086984985 -0.14329389 1.0854434
000390 17 69 99 bd de 49 e8 3c 5d 0f 6d 40 85 98 d8 be
       -0.074907474 0.028355535 3.7040627 -0.42303863
0003a0 85 3a 5f 3d 34 89 a4 3e 85 3e 1d be c8 1c 7b 3e
       0.054499168 0.32135928 -0.1535588 0.24522698
0003b0 91 a4 d0 3e 8d d0 b7 3d 11 3e c9 bd 28 77 b0 3d
       0.40750554 0.08975325 -0.09826291 0.08616477
0003c0 7e 78 0e 3f ab c2 72 be 74 b2 02 3d 03 9c 1a 3f
       0.55652606 -0.23707072 0.031908467 0.60394305
0003d0 1a 9c 09 3f 78 9e ab 3e ad 32 81 3e aa 5a 01 3c
       0.5375382 0.3351934 0.25233975 0.007895151
0003e0 4b 23 ff 3d 33 de 13 3e c3 3e 8f 3d 39 a1 18 bd
       0.124579035 0.14440231 0.06994393 -0.03726313
0003f0 f6 4d 10 3e 41 51 69 bd 3c c7 92 3a b0 0a 3e 3f
       0.1409224 -0.056962255 0.0011198292 0.7423506

convs.2.lin.weight f4 [256, 256]
000000 c0 81 04 3f f0 e4 20 3f f0 84 d1 3e 45 07 b3 bd
       0.5176048 0.6284933 0.40921736 -0.08741621
000010 34 8b 84 3f bf dc 6e bd 7b 42 90 be 4a 3c f5 bc
       1.0354981 -0.05831599 -0.2817572 -0.029935975
000020 cf 9c d1 3f e1 e7 21 bd 7a c4 e4 bd 41 5b 91 be
       1.6375979 -0.039527778 -0.111702874 -0.28389934
000030 1b 40 dd 3e 93 7b 34 be 0d 30 03 bf c5 92 a2 3d
       0.4321297 -0.17625265 -0.51245195 0.0793815
000040 bf ae 00 3f 74 31 56 3d 58 46 fa 3d 94 4a 34 3e
       0.5026664 0.052293256 0.12220448 0.17606574
000050 21 4f 25 be 56 2a 03 bd 2c e2 72 3f 47 6a 9a be
       -0.16143467 -0.032022797 0.9487636 -0.30159208
000060 f3 c7 2e 3f 77 6a 58 bd dd 15 c6 be e2 8d 3b bf
       0.6827385 -0.052835908 -0.38688555 -0.7326337
000070 82 7b 0b 3e a5 85 6c 3e f7 89 c1 3e 14 2e de 3d
       0.13621333 0.23097856 0.3780057 0.108486325
000080 06 16 0d bf 52 28 21 3f be fb a8 3e 3d 6b 08 bf
       -0.5511173 0.6295215 0.33004564 -0.5328863
000090 83 b1 55 3e a1 0f 12 3e dd bf dc 3e 3f b3 64 3e
       0.20868497 0.14263774 0.4311513 0.22334002
0000a0 c6 f2 57 bf 47 ed 0b 3e 40 5a 18 be 36 b8 be 3e
       -0.8435482 0.13664733 -0.14878178 0.37249917
0000b0 2d 91 c4 bc ac 86 1a 3f 7f 9a 10 bf af ef 2f 3e
       -0.023995006 0.6036174 -0.5648574 0.17181276
0000c0 02 39 7b 3f 09 ef 53 3f 6c d7 99 3e bc 0e 1e bf
       0.9813386 0.82786614 0.30047166 -0.6174123
0000d0 31 98 8a be 63 77 0b bf 31 17 af 3d d4 97 ae bf
       -0.27069238 -0.54479045 0.08549345 -1.3640084
0000e0 e1 f7 9d be 31 0c 0a bd 34 69 ea 3d b4 0d 89 be
       -0.3085318 -0.033703033 0.11445847 -0.26768267
0000f0 ea 73 99 3c 7f bc 1c be e4 23 33 3e 8b 1d 41 3e
       0.01873203 -0.1530628 0.1749416 0.18858926
000100 2a 8a 1c be af 8c 1a 3f 52 c8 0b 3d dd e2 d8 3e
       -0.1528708 0.60370916 0.034126587 0.42360583
000110 bf 0f 6d 3e ae 85 05 bd fd 44 3d be 72 9e 49 bf
       0.23150538 -0.03259819 -0.18483348 -0.78757393
000120 3f 93 e0 be 35 41 bd be 83 5f 91 3d 67 b6 29 bf
       -0.4386234 -0.36963812 0.070982955 -0.6629395
000130 a9 22 dc 3e c5 03 a2 3d eb fb e2 3d aa 11 f9 3e
       0.42995194 0.07910875 0.11083206 0.4864629
000140 0b 1c a5 3f 8b c6 16 bf 68 10 da bd cd ba 3e 3f
       1.2899183 -0.588967 -0.106476605 0.74503785
000150 83 08 e8 be 96 a6 59 bf 74 ae 50 be 82 5b 00 bf
       -0.45318994 -0.85019815 -0.20379049 -0.5013963
000160 58 d1 8b bc 05 8a cb 3e c5 0b 1c 3e ce 49 95 bf
       -0.017067596 0.39753738 0.15238865 -1.1663148
000170 4e cf 08 3f fc 8f 23 bf 5a e7 ca 3d ac d0 f5 bd
       0.5344132 -0.6389158 0.09907408 -0.120026916
000180 ac 1d 3c 3d c8 4a 8e be ca 7c 25 bf 6d 95 dd be
       0.045926735 -0.2779143 -0.6464354 -0.43278065
000190 f8 f0 03 3f 0b b4 aa 3d da 4d cb be b9 f2 70 3e
       0.51539564 0.08335122 -0.39707834 0.23530091
0001a0 56 63 8d bc 78 f6 bc bd bf 6c ee 3e 4e 9d 74 3e
       -0.017259281 -0.09226698 0.46567342 0.23888132
0001b0 bb 9e 19 3e 34 9e 18 3f 44 58 2e 3e 49 b9 35 bf
       0.15001957 0.596164 0.17025858 -0.7098585
0001c0 25 05 24 be 22 f7 03 bf 4e ae 3b bd c9 30 06 bf
       -0.16017587 -0.5154897 -0.045820527 -0.5241819
0001d0 cb 1c 5b 3d 9f e6 9e be 50 9c da be 94 2c 3c be
       0.053494256 -0.31035325 -0.42697382 -0.1837638
0001e0 04 84 15 3e 56 c1 de 3d 26 a4 51 3e cb fe c5 3d
       0.14601141 0.1087672 0.20472774 0.096677385
0001f0 1d 9b a3 be ab b3 83 bd a8 cc 5f 3f aa 73 99 bd
       -0.3195428 -0.06430753 0.87421656 -0.07492764
000200 9b f3 6b bd ff 43 28 3e 37 79 3d bc ae 4a 85 3f
       -0.057605367 0.16432188 -0.011564544 1.0413415
000210 0b 83 13 3f df c9 5d 3f 5a f4 f0 3e 20 19 79 3d
       0.5762183 0.86636156 0.47061425 0.060814977
000220 03 cd 1e 3f 7b ca 16 3e 66 ad 7c 3d 68 4e 35 3f
       0.62031573 0.14725678 0.061688803 0.70822763
000230 97 58 b6 3f b2 e6 55 3f 5d b9 87 3e a1 f5 6d bd
       1.4245785 0.8355514 0.26508608 -0.058095578
000240 36 d7 8d 3e 13 92 f2 be d4 e0 31 3e 89 51 97 bc
       0.27703255 -0.4737707 0.17370921 -0.018471496
000250 7d 5c 1c 3e 85 5f 3c bf 6e 71 35 bd 22 44 c0 bf
       0.15269656 -0.7358325 -0.044297628 -1.5020792
000260 1a db 86 3e c8 99 a7 3e 2a 89 43 be 25 5d 32 3f
       0.26339036 0.32734513 -0.19095293 0.6967338
000270 ba a6 27 bf f8 82 81 3d ff 0d b5 3e 3c 5b c9 be
       -0.6548878 0.063238084 0.3536224 -0.3932742
000280 7f a5 28 3f d6 84 d5 3c c9 f3 11 bf cc dc 1f 3f
       0.65877527 0.026064318 -0.5701261 0.62446284
000290 57 27 5e bf 24 03 4f 3e d7 e1 2c bd 15 2d 92 3e
       -0.8677878 0.20216042 -0.042207565 0.2855002
0002a0 c7 27 f4 3d 04 8f 62 bf 9c 6c 01 be c7 8a 0f 3f
       0.119216494 -0.88499475 -0.12639087 0.5607113
0002b0 3c 1f 22 3f f5 6e 6b 3e 17 86 ec be 3c eb d4 be
       0.6332891 0.22991545 -0.46196052 -0.4158572
0002c0 dc 44 16 be 57 20 13 bf 34 3d ef bd 96 71 cd be
       -0.14674705 -0.5747122 -0.116815954 -0.40125722
0002d0 0b 5c 4d bd 19 c8 dd 3c 9b 71 1b 3e 8d aa ff 3e
       -0.050136607 0.027072953 0.15180056 0.49934807
0002e0 77 22 86 be f1 23 78 3d 42 d3 be 3d 6f f5 2b 3f
       -0.2619817 0.06058115 0.09317638 0.67171377
0002f0 d3 f2 57 3c 5b c3 32 bf 8d af a5 3e 2b 61 17 3e
       0.013180452 -0.6982934 0.32360497 0.1478316
000300 11 1b 3c be 3e ba 83 3e 8f cc 67 bf 25 67 a0 be
       -0.183697 0.2572803 -0.90546507 -0.31328693
000310 2c 91 9e be 1c 3d 05 3f 00 88 9c 3e 05 50 a7 be
       -0.30970132 0.5204637 0.3057251 -0.32678238
000320 80 9f db be e4 f6 8c 3e 70 4f 85 be 0f cc 2b be
       -0.42895126 0.27532113 -0.26037169 -0.16777061
000330 77 6c a9 3d ea 20 00 3f 84 84 e1 bd 47 aa 15 40
       0.08272641 0.5005022 -0.110116035 2.338518
000340 71 16 40 be 6d a8 a8 3e e6 1c e8 3d e6 69 ee bc
       -0.1875856 0.32941 0.11333637 -0.02910323
000350 f4 aa b4 bd 2a e0 ba 3e f3 88 7b bf 1a 69 d8 3d
       -0.08821669 0.3649915 -0.9825584 0.105669215
000360 f8 98 c0 3e 0b f7 c4 3e 2c cd f5 be 37 b0 0d be
       0.37616706 0.3846973 -0.48008096 -0.13836752
000370 37 2c 85 3e c3 a1 b9 bd b7 66 ac 3e 85 2e 46 3f
       0.26010296 -0.09064057 0.33672115 0.77414733
000380 cc 2c 0d 3f 64 3f ab be ca 63 ce be f1 86 5d be
       0.5514648 -0.334468 -0.40310508 -0.21633507
000390 b5 02 d5 3e ae 18 06 3e bd 57 ad be 21 6d b3 3d
       0.41603628 0.13095352 -0.33856001 0.08761049
0003a0 47 e4 b7 bc f1 b9 45 3e de 3b 60 3f 16 9b f6 3d
       -0.022447718 0.19309212 0.8759135 0.12041299
0003b0 3b 91 59 3e 04 11 1a bf 36 9d 93 3e ec 4f f8 bd
       0.21246807 -0.60182214 0.2883088 -0.12124619
0003c0 19 a1 8f 3e 5e 79 3e 3f ff 7b a0 be f9 04 14 bf
       0.28052595 0.7440394 -0.31344602 -0.5782009
0003d0 d0 ea aa be 4c 77 05 3d 68 39 98 be f2 ce e2 3c
       -0.33382273 0.032584473 -0.29731297 0.02768657
0003e0 fe 4c ae 3e 03 da db be 8d b2 55 3d 08 af 8b bf
       0.34043115 -0.42939767 0.052172232 -1.091279
0003f0 a2 88 64 be b7 32 0d 3e 4c a1 bf 3e 66 a9 32 3f
       -0.22317746 0.13788877 0.37427747 0.6978973

lins.0.0.weight f4 [256]
000000 7d a5 08 3f 6e e4 57 3f 19 75 9f 3e 59 40 93 3f
       0.53377515 0.8433293 0.31144026 1.1504012
000010 f5 b5 9a 3f 7e 72 2a 3f d7 dd 91 3f 0a a0 c7 3f
       1.2086779 0.6658095 1.1395825 1.5595715
000020 a1 33 f6 3e 05 50 a4 3f a8 ea 35 3f 36 dc 26 3f
       0.48086265 1.283692 0.7106118 0.65179765
000030 39 ac a9 3f 24 a0 0c 3f 89 ae 30 3f ff c3 41 3f
       1.3255683 0.54931855 0.6901632 0.7568969
000040 33 dd 2a 3f 78 a7 23 3f fb 0b c0 3f 7e f2 39 3f
       0.66743773 0.6392741 1.5003656 0.7263564
000050 23 2b a2 3f 3d 69 80 3e a1 db 4d 3f 5f d5 65 3f
       1.2669414 0.2508029 0.8041325 0.89778703
000060 1a c8 32 3f d5 48 e6 3e b1 c8 36 3f d2 2e 60 3e
       0.6983658 0.4497744 0.7139998 0.2189286
000070 df d8 0c 3f 6e f2 4d 3f 8a 12 c6 3f db a3 9d 3f
       0.5501842 0.80448043 1.5474408 1.231563
000080 2b f1 22 40 df 45 8a 3f 20 ce 89 3f 4e 9d 0b 3f
       2.5459697 1.0802573 1.0766029 0.545369
000090 77 2a 24 3f c6 14 23 3f 2b 16 db 3e 8d 68 1f 3f
       0.64127296 0.6370357 0.4279035 0.62268907
0000a0 62 9f 05 3f fa e6 be 3f be cb a1 3f 80 2e 97 3d
       0.52196324 1.4914238 1.2640302 0.07381916
0000b0 d3 6a 03 3f 33 99 c3 3f 8e b9 52 3f 1f e2 04 3f
       0.51334876 1.5281128 0.82314384 0.51907533
0000c0 af f7 52 3f b8 1e 59 40 f1 6d 98 3f b2 51 e3 3f
       0.82409185 3.3925 1.1908551 1.7759306
0000d0 64 70 93 3f 61 9f b6 3f 8c 86 ff 3e aa 8b 75 3e
       1.1518674 1.4267389 0.4990734 0.23979059
0000e0 6a 6c ad 3e b3 53 5c 3e 73 e7 16 3f 8e 44 d6 3f
       0.33871776 0.21516304 0.58946913 1.6739671
0000f0 22 5d f2 3e 32 b0 e8 3e 65 fc c4 3f 5f 4e 5b 3f
       0.4733668 0.45446926 1.5389525 0.8566646
000100 c4 5f 8d 3f 17 a9 b0 3e 8f 1c 6f 3f e5 09 ea 3f
       1.104485 0.34504005 0.9340295 1.828427
000110 e4 86 a5 3e 1d 0c eb bd 77 49 2a 3f 59 ce 26 3f
       0.32329476 -0.1147692 0.6651835 0.6515861
000120 61 23 0e 3f 00 92 81 3f 1a c0 3a 3e 69 48 22 3e
       0.55522734 1.0122681 0.18237343 0.15847935
000130 dd e9 71 3e 6f 04 c7 3f d1 54 e0 3f bb f6 09 3f
       0.23624368 1.5548228 1.7525884 0.53892106
000140 f0 e4 3d 3f a8 b9 f4 3f a5 2b 92 3e d8 37 11 3f
       0.74177456 1.9119158 0.28548923 0.56725836
000150 54 2b 1a 40 f7 ac 59 3e d7 b1 a0 3f ef ed 9f 3f
       2.4088945 0.21257387 1.2554272 1.2494487
000160 20 e4 c7 3e 47 eb 71 3f d0 b0 3a 3f 4f cf 98 3f
       0.39041233 0.9449963 0.72926044 1.1938266
000170 a2 df 88 3e a5 ff d4 3f fa 41 93 3e 69 96 09 3f
       0.26733118 1.6640517 0.28761274 0.5374513
000180 60 76 12 3f ca 01 79 3f e0 0c 6e 3e 3d 2b c5 3f
       0.57211876 0.97268355 0.23247099 1.540382
000190 a8 32 70 3f d8 94 4f 3f bb f3 ca 3f 5f d3 d7 3e
       0.93827295 0.8108649 1.5855631 0.4215345
0001a0 0c d5 1c 3f b6 b1 fe 3f 54 00 c5 3f 5d e2 57 3f
       0.61262584 1.9897983 1.5390725 0.8432978
0001b0 1e 4d 58 3f 24 7d ee 3e 2b de 81 3e 84 26 3c 3f
       0.8449267 0.4657985 0.25364813 0.7349627
0001c0 3d 81 1a 3f 9f 35 16 3f d9 38 f1 3f d2 d8 86 3f
       0.6035345 0.5867557 1.8845474 1.0534918
0001d0 0c d4 fc 3e 82 88 54 3f 10 e2 9f 3f 08 57 be 3e
       0.4938053 0.83020794 1.2490864 0.37175775
0001e0 87 4a 8c 3f e3 d8 b4 3f 7c 40 17 3f 3f 39 b0 3e
       1.0960244 1.4128689 0.5908277 0.34418675
0001f0 4d 6a db 3f e4 72 c0 3f 7a 1c de 3e ea 70 ec 3e
       1.7141815 1.5035062 0.433811 0.46179897
000200 fb 4c 3d 3f f2 f2 c1 3f 78 fc aa 3f ab 99 cb 3d
       0.7394559 1.5152266 1.3358297 0.09941419
000210 e2 00 f2 3f 90 d4 82 3f 12 80 18 40 1c 4e 1c 3f
       1.890652 1.0221119 2.3828168 0.61056685
000220 74 8e 1b 3f 3e 6d 48 3e 67 72 cb 3f 14 6e 20 3f
       0.6076424 0.19572923 1.5894288 0.62667966
000230 9c 88 f1 3f d9 8d 4b 3f aa 45 16 3e 99 56 91 3f
       1.8869815 0.7951332 0.14675012 1.1354553
000240 ac 9a 0b 3f 80 48 8f 3f a8 e6 04 3f a9 62 45 3f
       0.54532886 1.1194 0.51914454 0.7710367
000250 8b dd be 3f 35 a2 ff 3f 14 e8 80 3f cd 9e d2 3f
       1.491136 1.9971377 1.0070825 1.6454712
000260 c4 9e ee 3e 43 65 ea 3f 98 8b 44 3f 88 9e fb 3e
       0.46605504 1.8312153 0.76775503 0.49144387
000270 9d 95 24 3f 34 62 d7 3f 37 af 84 3f ea 90 bd 3e
       0.6429079 1.6826844 1.0365971 0.37024623
000280 ff b1 45 3e a1 59 18 3f d2 72 bd 3f 8b b1 ed 3e
       0.19306181 0.5951176 1.4800665 0.46424517
000290 6e c8 b5 3e 2b 97 a7 3f 81 66 94 3f ee bd fe 3e
       0.35504478 1.3093008 1.1593782 0.4975428
0002a0 b0 20 1b 3f 69 8a 19 3f c1 75 98 3f 51 e5 fd 3f
       0.6059675 0.5997682 1.1910936 1.9835607
0002b0 96 4a 08 3f d4 29 b9 3f 75 4d 1d 3f 97 f9 c1 3f
       0.5323881 1.446589 0.61446315 1.5154294
0002c0 9f 85 0a 3f 6e 34 94 3f a0 a1 ef 3f 9b 03 c5 3f
       0.5411014 1.15785 1.8721199 1.5391725
0002d0 11 f0 a9 3f a3 3c ae 3e a1 ab c6 3f 9f f8 36 3f
       1.3276387 0.34030637 1.5521127 0.71473116
0002e0 38 29 28 3f f2 1d f8 3e 75 b9 8c 3e 5b 4b da 3f
       0.65687895 0.48460346 0.27485242 1.7054247
0002f0 6a 60 04 40 25 14 32 3f 9f ea 01 3f f4 80 13 3f
       2.0683846 0.6956199 0.5074863 0.5761864
000300 59 b0 19 3f c6 f6 23 3f 17 46 2a 3f 9d 24 4a 3f
       0.6003471 0.6404842 0.665132 0.7896212
000310 10 d8 f7 3f ce b9 0f 40 2b 86 cd 3e 84 ac 3d 40
       1.9362812 2.2457156 0.40141425 2.9636545
000320 3e 5e 6f 3e 4a d0 12 40 f3 82 86 3e 7f b2 9f 3e
       0.23375794 2.293963 0.2627178 0.3119087
000330 ec 34 c6 3e b9 4c b2 3e 9a 06 cb 3f a5 5d 31 3f
       0.3871225 0.3482416 1.586139 0.69283515
000340 19 83 be 3f 5b f4 96 3e a3 c4 3a 3f 82 79 4e 3f
       1.4883758 0.29483303 0.72956294 0.80654156
000350 f8 38 6e 3f fa 38 9b 3d 0f 56 70 3f 3e ba c2 3e
       0.9305568 0.07579227 0.93881315 0.38032717
000360 7b 8d 1f 3f 49 8a a2 3f df b8 e2 3f bb c2 1c 40
       0.6232526 1.2698451 1.7712668 2.4493854
000370 c9 08 42 3f b1 d6 08 3f ca 6f 50 3d f2 6c be 3f
       0.75794655 0.53452593 0.05088786 1.4876997
000380 84 28 ff 3f d6 13 6d 3e b7 0e f0 3e e9 a6 9d 3f
       1.9934239 0.23152098 0.46886227 1.2316562
000390 77 ef 6d 3f 79 42 b4 3e 64 1a 04 40 7a ec 88 3f
       0.9294352 0.35206965 2.0641108 1.0697167
0003a0 53 33 f8 3f bc f8 35 3f b9 0f a8 3e a7 52 27 3f
       1.9390663 0.71082664 0.32824495 0.6536049
0003b0 e1 eb 04 40 5a a6 1b 40 83 80 bd 3f dd 84 93 3f
       2.076897 2.4320283 1.4804844 1.1524922
0003c0 94 2d da 3f 4f fd 86 3f 0b d7 05 3f f8 fc 5c 3e
       1.7045159 1.0546054 0.52281255 0.21580875
0003d0 96 ca af 3f 68 16 10 3f 49 26 fe 3e 05 e7 52 3f
       1.3733699 0.5628419 0.49638584 0.8238376
0003e0 9f 73 b4 3f 78 48 11 3f 27 99 b9 3e 0a e9 d8 3e
       1.4097785 0.56751204 0.36249658 0.42365295
0003f0 83 e1 fd 3f 6f 64 40 3f fc 0e 4c 3f 2e 94 03 40
       1.9834446 0.7515325 0.79710364 2.0559192
