models/ogbl-collab_CN_2_1_0_run9_gnn.pt (torch, 668318 bytes, 10 tensors)

convs.0.bias f4 [256]
00000000: 398f a040 3942 f63f 246e 7540 a172 9fbf
00000010: 3475 01c0 8f16 8240 5c7c 92be 0a07 43bf
00000020: 63f7 b740 1068 59bf 5940 2c40 f422 8640
00000030: 8f56 b8bf a0d4 b840 7f1c ccbf 7548 d13f
00000040: 3eb7 d0bf bc0a 8d40 6793 56bf 8a72 ddbf
00000050: 6c15 4dbf 9197 f340 537e 01bf 40fc 3bc1
00000060: 2c47 573f 91f2 bc40 25f5 4240 91fc 0741
00000070: eed5 4940 7d24 f03f 0840 bbbf 3a1d dfbe
00000080: 2145 52c0 5fe5 e3c0 f114 2c3e a46a 4540
00000090: f6c8 5b40 beef 3540 6e00 9a40 3304 4640
000000a0: 80a4 1940 8bae b53e e46c 4fc0 0fcc 0e41
000000b0: bcc0 a040 da4e 1ebf af19 023f 176f bc3f
000000c0: f4e4 4dc0 cb96 b440 3b25 90bf e5f8 03bf
000000d0: 56a9 92c0 49b6 adbd 3e96 cf40 9144 0941
000000e0: caf3 ea40 c758 0541 646c 6e40 2f54 893e
000000f0: f516 9640 2b3a 8e40 4a12 82c1 aea4 30bf
00000100: 9e24 d73d 5a59 d540 6cfa 86c0 ee99 2abf
00000110: 2a5a 5140 23c2 4941 122a 1740 2030 5440
00000120: f36a 4640 979f 62c0 1e61 f640 cd6a 2241
00000130: a60a 0141 0da6 943f f134 dbbf b0fc 8140
00000140: 172f 1740 8f04 11be a6c8 fa40 2d97 df3f
00000150: 143d 44bd c0af cb40 bdef 97bf fdb9 acc0
00000160: 8f6e 6e40 ab3d 853e 5ff6 2f40 5d75 07be
00000170: 68a1 ac40 75e1 74be 2cee e040 9d96 0340
00000180: 7d18 a640 982b 75c1 b1eb 0e41 bb2d 323f
00000190: b2b1 3cbf fc1f 0240 2e00 adbf e148 3840
000001a0: b911 3940 0aa7 fc3f 695d 53bf 3929 9bbf
000001b0: ce49 85c1 a4c8 bd40 833c f440 04b3 80bf
000001c0: 03a0 0040 c31e 5940 2372 9cbe af98 9bbe
000001d0: 487b b840 7717 8fbf b8cc 863f d71d de40
000001e0: 0f02 963e 670b 9ebe 9f8d 0e40 7a47 af40
000001f0: 4d8a 68bf 88ae a1bf 997b 9440 4557 9640
00000200: 8fe7 323f c216 13bf 6387 dac0 46fc f740
00000210: aa3b 3ebf f252 09c0 4a70 6dbe d79d f63f
00000220: 9009 1340 3407 1541 8005 32be 7865 8840
00000230: 9df9 90bd 26be 05c0 4a26 1941 4409 26bf
00000240: d3bb 9640 37ba a23d bdf3 9e40 1aba d73f
00000250: e769 86bf c8bf bdbd c646 3d40 1b49 50bf
00000260: 27df 7e40 3102 8ac0 b90b 86bf 40fb 6b40
00000270: fd93 a9c0 435f 17c1 f6d3 d23d 5f45 5b40
00000280: 17ea d540 36bf 9d40 8ad0 abbf 6f87 9c40
00000290: 2d9b af40 0831 15c0 3038 7abe be8d 893f
000002a0: 0e71 9d40 d975 3640 c3af 52be 6155 81bf
000002b0: 81ae 6840 3925 31c0 aa84 973f ef83 f13e
000002c0: d5a1 9f40 4a26 81c1 c25e f4bc 200b 81c1
000002d0: f8ac cb3f fffd d640 a8b3 1bbf 3e6b 1840
000002e0: a4a6 7340 ea59 6740 8cc9 f440 5cd7 5ac0
000002f0: f9b1 04c0 663f 98bf 6524 3a40 c413 9a40
00000300: ed39 ba3f de10 8840 b5e5 08c0 8d98 0d3e
00000310: 903e 8dbd 235e 32bd 82b5 7d40 f1c3 b3c0
00000320: 8d1c c840 a2a8 02c0 a3e6 e840 2d72 f040
00000330: 1403 1b40 3425 0441 17d8 5ebf b8ca 99bf
00000340: c417 3fc0 d3dc 1141 e49c 1d40 85e3 77bf
00000350: 9929 6fc0 fe67 d240 cbf1 29c0 ed5f c240
00000360: c9ac 8440 dffc 40c0 a960 0dbf b8f7 58be
00000370: 60f0 e7c0 332f ac40 b7b5 1d41 df4d 573d
00000380: 4933 ccbe c61f e340 513c b440 95f2 41be
00000390: 28e6 cebf 9699 b540 1c72 833e 72b1 12c0
000003a0: f2c8 d93e 2500 f13f 88c2 c540 bfc7 5540
000003b0: ba1d 5340 f88c 6ebf 291f a33d 2689 01c0
000003c0: 59cb a0bf da38 b4be 22ce a040 d0cc 0241
000003d0: 8c16 f1be 5d81 2e40 f5ce 8c40 9d06 0d40
000003e0: c314 1b3f 7da1 7a40 9a2e e240 231b af40
000003f0: e206 eabe 1951 0b40 40ba 4d40 0b35 d53d
5.017483 1.923896 3.8348475 -1.2456857 -2.0227785 4.0652537 -0.28610504 -0.76182616
5.7489486 -0.8492441 2.6914275 4.1917667 -1.4401416 5.775955 -1.5946196 1.6350237
-1.6305921 4.4075603 -0.8381867 -1.730058 -0.8011081 7.6122518 -0.5058338 -11.749084
0.84092975 5.90461 3.0462124 8.499162 3.1536822 1.8761135 -1.4628916 -0.43576986
-3.2854693 -7.1217494 0.16804864 3.0846338 3.4341407 2.8427577 4.8125525 3.0940063
2.4006653 0.35484728 -3.2410212 8.924819 5.023527 -0.6183907 0.5082044 1.4721402
-3.2170992 5.6434073 -1.1261362 -0.5155166 -4.583171 -0.08482034 6.48709 8.57924
7.3422594 8.334174 3.7253656 0.2682204 4.6903024 4.4446006 -16.25893 -0.6900128
0.10505031 6.667157 -4.218069 -0.6664113 3.2711282 12.609897 2.3619428 3.3154373
3.1002777 -3.5409906 7.699355 10.151074 8.0651 1.1613175 -1.7125531 4.0620956
2.3622491 -0.14161895 7.836993 1.746801 -0.04790981 6.365204 -1.1870037 -5.3977036
3.725498 0.2602361 2.7494123 -0.13228364 5.394703 -0.2391413 7.0290737 2.0560677
5.1904893 -15.323143 8.932542 0.6960103 -0.7370864 2.0332022 -1.351568 2.8794482
2.8917067 1.9738476 -0.8256441 -1.2121955 -16.661037 5.9307423 7.6323867 -1.0054631
2.0097663 3.3925025 -0.3055583 -0.30389926 5.765049 -1.1179036 1.0531225 6.9411426
0.29298446 -0.30868074 2.2273939 5.477475 -0.9083603 -1.2631388 4.6400876 4.698153
0.6988458 -0.574566 -6.8290267 7.749545 -0.7430979 -2.1456876 -0.23187366 1.9266919
2.2974586 9.314259 -0.1738491 4.2623863 -0.0707886 -2.0897307 9.571848 -0.6485789
4.7104278 0.07945674 4.967253 1.6853669 -1.0501069 -0.09265095 2.9574447 -0.8136155
3.9823701 -4.3127675 -1.0472327 3.68721 -5.299315 -9.460757 0.102943346 3.426109
6.6848254 4.929591 -1.3423016 4.8915324 5.4876924 -2.3311176 -0.24435496 1.0746381
4.9200506 2.8509429 -0.2057486 -1.010418 3.6356509 -2.767897 1.1837361 0.4717097
4.988505 -16.143696 -0.02983034 -16.130432 1.5912161 6.7185054 -0.6082101 2.3815455
3.807046 3.614863 7.649603 -3.4193945 -2.0733626 -1.1894348 2.9084713 4.814913
1.4548928 4.252059 -2.1390202 0.13827725 -0.068966985 -0.043546807 3.9642034 -5.6176686
6.253485 -2.0415425 7.278154 7.5139375 2.4220629 8.259083 -0.87048477 -1.201499
-2.9858255 9.116412 2.4627008 -0.9683154 -3.736914 6.5751944 -2.6553829 6.0742097
4.146092 -3.015434 -0.55225617 -0.21188247 -7.2480927 5.3807616 9.856864 0.052564498
-0.39882877 7.0976286 5.632363 -0.18940194 -1.6163988 5.6749983 0.25672996 -2.2920804
0.42536122 1.8828169 6.1799965 3.3403165 3.2986894 -0.9318385 0.07964928 -2.0239959
-1.2562057 -0.35199624 5.0251627 8.175003 -0.47087514 2.7266457 4.4002633 2.2035286
0.60578555 3.9161065 7.0681887 5.4720626 -0.45708376 2.1768248 3.2144928 0.10410508

convs.0.lin.weight f4 [256, 128]
00000000: 6575 98bc 2f29 6c3f 84cf dabd ce6d 693e
00000010: b749 0cbe de3b 9fbe af58 60bd 3027 17bd
00000020: 301f 503f fe30 51bf 4101 093f 34a3 7abd
00000030: f9cb 0abd 40bf ffbc 8c63 8abb 575d 8d3e
00000040: 81eb 143f e10b b83e 61ca d33c d4fd c2be
00000050: 5303 283e 29c4 2d3e b723 84bd 7299 ff3e
00000060: d192 7a3d 0261 df3d 1ca7 3dbc b0ee 0cbe
00000070: d161 9abe 63fb 743d 02db 0abf c419 0b3f
00000080: 5a55 babe 8b1d a23e c965 7bbe 7c0a 71be
00000090: 5b47 483c f0a5 5dbe ba4b 373f 72c1 3c3e
000000a0: 94a3 b53d bcbe 7b3c 4db7 f93e 3b79 9abe
000000b0: 3375 883d 71a6 db3e 2ba9 e33d b2e1 2abf
000000c0: ed80 0fbe 9f64 413f fe2c d13e 9c69 c5bc
000000d0: 67a0 24bf 71ca 62bf bd16 5abe 9593 cc3d
000000e0: c097 3a3d 55f7 b4be 6d28 eb3e b007 39be
000000f0: a630 cb3d 1243 0f3f c979 733c 78d8 c6be
00000100: 2fa6 953e 161c eb3c b7e4 28be 9a7a 5abc
00000110: a29a b03d 1196 4ebd 2b45 433e e997 b03d
00000120: 37b3 9bbe 2104 66be 252c c83d d5e4 8ebe
00000130: 4f76 973e 38f0 113e 96c6 e2bd 4805 11bd
00000140: 6bc3 73be 5fe9 073f c4ee 473e 3673 d13d
00000150: 5332 5b3e a10a ccbd 0f1b dfbd 8a5b 5a3f
00000160: 88ec 483f 65d5 5cbe 228b bd3e c5e2 bb3d
00000170: 4342 dd3e e213 debe 39a1 b8be 761b a0be
00000180: f58d aebd 0918 5abe c4d5 c83d c1bc 63be
00000190: 5d12 e3be ab13 133e 7232 99be cc4b 2bbe
000001a0: cddb 9b3e d79f 26bd f36b 4bbd 1a00 323f
000001b0: 44c5 043f 505f 253e c47b 84bd 2f5a f7be
000001c0: b433 153e 80d1 b93d e8f0 e73d bd13 e03e
000001d0: b9fd d83d c8d2 3c3f d088 78be 27dd 56be
000001e0: 3874 a4be bc95 69be 6811 433e 5328 59be
000001f0: ee2c 143e 3998 63be a888 4a3e 570c 2d3e
00000200: 4474 043e 2f5c 343f 17c0 a83c a49d 3ebf
00000210: 300f 09bf 27c0 8bbe d112 57bd cbb4 05be
00000220: f8aa 5d3f 3bb9 8fbe cef7 cf3e 3e2e d1bd
00000230: 12ad 1f3e 873c 17be d09c 8bbc 1e1a 5cbe
00000240: 1a94 dc3e 38d7 3b3e 6588 5e3e d1cb a6be
00000250: 992a 8cbc 2085 d73e 345c 31be 58bd 0d3e
00000260: d6d2 acbd 4d84 f03d 1be2 a03e f35a aabe
00000270: 4247 d33e ddf2 9f3e 4e62 a4be f467 1c3e
00000280: f34c 59bf 3e62 9b3e c57a 943d 9c6d dfbd
00000290: 8d4a 37be 0c2d cabe 2908 e53d 9594 b23e
000002a0: f421 4d3e c762 e0be 2d42 bd3e 9d23 8bbe
000002b0: df4d 8abd fd94 a33e ea6f 6c3e cbc2 4dbf
000002c0: d9c6 5b3e 657e 803f 0f50 233e d775 d83d
000002d0: a0ac a6be b78a dfbe e042 0bbf bfdb 043f
000002e0: 0205 1cbf f923 87bd bbc7 0c3f 1c93 a2be
000002f0: 66b6 de3d a2e5 7b3f 7423 abbe 6c86 e3be
00000300: 9146 373e 74db f83d 7f19 29be d714 893e
00000310: 4df1 833e b3b6 d83d d24e af3d c0aa e5be
00000320: 0f19 333d 1009 9abe c15b 6cbd 7490 d2bd
00000330: 9e6c 643e c649 a2bc 225a 4abf d3dd fcbe
00000340: 0693 99be 905b b2bd 710b 963d f06c a0bd
00000350: 5a02 9dbe 69aa 013d 014c 58be e195 193f
00000360: ff9c 113f 7778 ee3d cd10 913e 1217 d4be
00000370: b3ee 2f3e 6083 50bf 5ef0 283e 86e6 453d
00000380: 0662 d9be 2078 9ebe 5cf1 8d3e c58d 1ebf
00000390: 421d 2cbf 368c c63e 5986 d6be 7d38 a5bd
000003a0: 1871 6b3e 11d6 663d 2c5f b9be d9fb 443f
000003b0: 5cfd ac3e 8806 babd c24e 97bd fea8 4dbf
000003c0: 2813 f23d 17e9 e03e cb5e a03e 021a 0d3f
000003d0: 8cb6 833e 0f2f 743f 72c6 07be 4b45 273f
000003e0: a7f0 7dbd 1048 0bbe d4c7 7d3e 2dc5 14bf
000003f0: b557 3f3e 949d 0bbd efa6 af3e e5f2 223f
-0.018610666 0.9225034 -0.10684112 0.22795793 -0.13699995 -0.31100363 -0.054772075 -0.036902606
0.8129759 -0.8171538 0.5351754 -0.0611908 -0.03388593 -0.031219125 -0.0042232927 0.27610275
0.5817185 0.35946563 0.025853338 -0.3808428 0.16407518 0.1696936 -0.064521246 0.49921757
0.06117517 0.10907175 -0.0115754865 -0.13762927 -0.30152753 0.059810054 -0.5424043 0.5433619
-0.36393243 0.31663164 -0.24550547 -0.23539156 0.012224044 -0.21645331 0.71599925 0.18433169
0.08869091 0.015365299 0.4877266 -0.30170617 0.06662979 0.42900422 0.111162506 -0.66750634
-0.14014025 0.7554416 0.4085464 -0.02409821 -0.64307255 -0.8859015 -0.21297736 0.099890865
0.045554876 -0.3534495 0.4592928 -0.18069339 0.09921388 0.55961716 0.014860579 -0.38837028
0.2922835 0.028699916 -0.16493498 -0.013334895 0.08623244 -0.050436083 0.19069354 0.086227246
-0.30410168 -0.22462513 0.09774045 -0.2790896 0.2958245 0.14251792 -0.110730335 -0.035405427
-0.23805015 0.5309047 0.19524676 0.10227053 0.21405916 -0.09962965 -0.10893833 0.8529593
0.7848592 -0.21565779 0.37020212 0.09174112 0.43214616 -0.43374544 -0.36060503 -0.3127095
-0.0852317 -0.21298231 0.098063976 -0.22239973 -0.44349948 0.14362971 -0.299213 -0.16728133
0.30441132 -0.04067978 -0.049663495 0.69531405 0.51863503 0.1614964 -0.06468919 -0.48310992
0.14570504 0.09073162 0.11325246 0.4376506 0.10595269 0.73759127 -0.2427094 -0.209828
-0.32119918 -0.22811025 0.19049609 -0.21206789 0.14470264 -0.22226037 0.19778693 0.16899239
0.12934977 0.7045316 0.020599408 -0.7445929 -0.535388 -0.27295038 -0.05250818 -0.13057248
0.86589 -0.28071007 0.40618747 -0.10213898 0.15593365 -0.14769183 -0.017042547 -0.21494338
0.43081743 0.18343818 0.21731718 -0.32577375 -0.017110156 0.42093754 -0.17320329 0.1384176
-0.08438651 0.11743984 0.31422505 -0.33272514 0.41265303 0.31239977 -0.3210625 0.1527403
-0.8488304 0.3034839 0.07249979 -0.10909578 -0.17899533 -0.39487493 0.11183197 0.34878984
0.20032483 -0.4382536 0.3696455 -0.27175608 -0.06753134 0.31949607 0.23089567 -0.80375355
0.21462573 1.0038573 0.15948509 0.10569351 -0.32553577 -0.4366052 -0.5439892 0.51897806
-0.6094514 -0.06598658 0.54992265 -0.3175286 0.108746335 0.98397267 -0.33425486 -0.44438493
0.17898013 0.12151232 -0.16513632 0.26773712 0.25770035 0.10581722 0.08559956 -0.44856834
0.04372507 -0.3008504 -0.05770469 -0.102814585 0.22307059 -0.019810569 -0.7904378 -0.49387988
-0.29994982 -0.087088704 0.07326401 -0.07833278 -0.30665857 0.031656656 -0.21122743 0.5999432
0.5688018 0.116440706 0.2833313 -0.4142385 0.171809 -0.8145046 0.16497943 0.048315547
-0.42457598 -0.30951023 0.27723205 -0.61935073 -0.67232144 0.38778847 -0.41899374 -0.08067415
0.2299236 0.056356493 -0.36205423 0.7694679 0.33787048 -0.09083277 -0.07388069 -0.80335987
0.1182006 0.43927833 0.3132232 0.5511781 0.2572521 0.95384306 -0.13259295 0.6534011
-0.061997082 -0.13601708 0.2478326 -0.58113366 0.18685801 -0.034085825 0.34307048 0.6365188

convs.1.bias f4 [256]
00000000: eee6 3bc0 4abb 553f ac4f 07c0 d9ae 9cbf
00000010: 2059 21bf 083a 2dbf 7441 0ebd 9969 dd3e
00000020: 5e15 2ebe 383b db40 1a49 6d3f 0bfc 21be
00000030: 55d1 2b3f fcab 2cbb fcbc 9940 7600 f640
00000040: c9a9 ac40 9988 bc3f 5907 9fbf 8a9f af40
00000050: ea55 72be 7754 49bd ba83 7fbd 3f5f adc0
00000060: 2a12 1bbf 1975 70bf f857 bcbe c0ab b13f
00000070: f39c 5e3e f8be 90be 27ce 9abd b03a 3fbe
00000080: 7b78 f2be cc51 3b3e 8620 2b3f 7c0f bf40
00000090: f8d8 8840 47e4 0341 9ca5 73be 0e2b f6bf
000000a0: e137 a6be 59da 0041 dfe9 ca40 3bcb 253f
000000b0: 2b19 143f bc56 b040 c444 ed3e 33ea b640
000000c0: e3d2 49bd ad3c e840 59c8 eb40 fea1 49bf
000000d0: 44e8 74bf dad1 9ebe 5e1e 04c0 a761 053e
000000e0: b327 14bd 1bf9 fcbe fe1f babe 5e6f 4040
000000f0: c28a a940 91f6 3dc0 e33f 5bbf 4b2d b540
00000100: abf8 53bf c435 953e b167 0d3e ce74 1ebf
00000110: 73b8 5dbf eeac bb3c ba21 16bf 0339 a23e
00000120: 0854 e2bd d64d 8440 fca4 5cbf b90e 8240
00000130: a643 59be fe4e 56bf a90b db40 c5de 8c3e
00000140: 9264 843f 279d 913f 9828 983d ef6d 9940
00000150: e51a 57c0 02ec 9440 b29c 4c3f 38f6 0ebc
00000160: 6c4a b33e 5289 6d3e 84a9 a8bf 553b f440
00000170: 9cfd 94bf 3e8a 8ac0 f887 a640 8f85 eebd
00000180: 99a2 de40 57c5 e33e fa06 1340 9714 43c0
00000190: 7d67 d940 9d02 9a40 0755 b93d 9758 a0be
000001a0: 2883 a23d 9368 a240 b302 02be 6ae1 b5bd
000001b0: 4c31 4fbf 31d4 abbd b0fd 14bf 9e6c 323f
000001c0: a832 cabf b2c1 1dbf daef 633e 6074 dcbd
000001d0: 3a33 a33d 9c10 da3e 3317 65be a919 2c3f
000001e0: d779 8e3f f0ac 0a3f b7da 5abc 9bcd 3bbf
000001f0: acf5 313f 25b8 5bbf 3829 0bbf 01d4 463f
00000200: aab9 11bf d4f8 e43e 50c2 b33f b7b6 33bf
00000210: 7a2d 283f 3995 18bf 1584 29bd c999 dc40
00000220: 8dda 40bf 8ee8 e4be 7ae5 24bf c0aa afbe
00000230: 19f3 b7bc 5350 07bf bbfc 87be ac7d cfbd
00000240: 27d7 5a3d 62c0 0f3f abd0 163f 61c5 b4bf
00000250: 233e c6be a6b1 e13e 8e55 8340 58ce e140
00000260: 4584 39bf 198f 23bf 6661 f53d 9242 8cbf
00000270: 1efb 26bf 14a3 83bd 847b 79bf 9dea 2bbf
00000280: bdf7 37bf dd4a 1840 02e9 91be 9e6c 9b3e
00000290: 31d7 f6bd adde a0bd d5ef 183c 1837 16bf
000002a0: 9f64 ddbd 0bef ff3e aeb4 a0bb 468f b1be
000002b0: 29e6 0e3e 63f5 243d 29b1 1a3f 0b94 4440
000002c0: 0c93 35bf 4b26 d33e a547 7e3f 5ee2 1dbf
000002d0: d33c e83e 6771 1640 a2c6 8a3f 538f a7be
000002e0: bad7 d640 ee84 903e a640 e7bf 4b55 f740
000002f0: 048f 6abc 8f9a ad40 ea9a 54bd 990b 97bf
00000300: 4400 9140 a64d 6fbe b62e cf40 03c7 d340
00000310: 4369 6d3f 451e 0441 429b 9e3f b3ff 8840
00000320: 4490 0abf 658e ed40 9824 18bf 0685 223f
00000330: aa2b b740 9e2f c740 cdde 343f 19cc bb3e
00000340: f256 b340 3991 04bf 119f 2d3d e44e 5f40
00000350: 4418 63bf ca2f 2cbd b268 6cc0 bb34 8cbe
00000360: 62c5 8c3f 23cd c340 f21d c93e d4cc e8be
00000370: 38ba 2cbf 17ea 7a3e ac6d 9bbf 9281 3a40
00000380: bdbb 58be 6aab 6e3e af5c 2d3f 9e2c 2440
00000390: 8e6b a6bf f9b9 ba40 cff2 ff3f b4c4 1f40
000003a0: f77a fd3f cd8e 4340 0b3d 053f 4d5d d93e
000003b0: d0e0 f640 9f6a b940 963a 003f ba0e c7be
000003c0: 62f5 efbe aa4c 593e 141c ac3f c5c6 ddbe
000003d0: 7bb0 e340 53af 93bf 7e3f bbbd c8ca e93d
000003e0: 8a91 7ebf 6256 d23f cc4e 9940 633e edbd
000003f0: b996 45bf 0c2c c040 483c 80be 80dc debe
-2.9359698 0.83488905 -2.1142378 -1.2240859 -0.6302662 -0.67666674 -0.03473039 0.43244627
-0.17000338 6.850979 0.9268967 -0.15818803 0.6711629 -0.0026347628 4.8043194 7.6875563
5.3957257 1.4729186 -1.2424117 5.488225 -0.23665586 -0.049152818 -0.062381484 -5.4178767
-0.6057459 -0.93928677 -0.36785865 1.3880539 0.21739559 -0.28270698 -0.07558852 -0.18674731
-0.47357544 0.18292922 0.668465 5.97064 4.2764854 8.243232 -0.23793644 -1.9231889
-0.32464507 8.053308 6.3410487 0.6476323 0.57850903 5.5105877 0.46341527 5.716089
-0.049273383 7.2574067 7.3682065 -0.78762805 -0.9566691 -0.3101948 -2.0643535 0.13025533
-0.036170673 -0.49408802 -0.36352533 3.0067973 5.298188 -2.9681742 -0.8564436 5.661779
-0.8280131 0.29142582 0.13809086 -0.6189698 -0.8660957 0.022909608 -0.5864521 0.3168412
-0.11051184 4.1345015 -0.86189246 4.064297 -0.21217212 -0.8371428 6.8451734 0.2751371
1.0343192 1.1376084 0.07429618 4.7946696 -3.3610165 4.6538095 0.799266 -0.008725695
0.35017717 0.23196915 -1.3176732 7.6322427 -1.1639895 -4.3293753 5.2040977 -0.11646568
6.9573483 0.44486496 2.2973008 -3.0481317 6.793883 4.812819 0.09049421 -0.3131759
0.07935172 5.0752654 -0.12696342 -0.08880885 -0.80934596 -0.08390082 -0.58199596 0.69696987
-1.5796709 -0.6162368 0.22259465 -0.10764384 0.07968755 0.42590797 -0.22372131 0.67226654
1.1130933 0.5417013 -0.01335781 -0.73360604 0.6951549 -0.8582786 -0.5435977 0.7766724
-0.56923926 0.4472109 1.4043674 -0.70200676 0.6569439 -0.59602696 -0.04138573 6.8937726
-0.7533348 -0.44708675 -0.64412653 -0.3430996 -0.022454785 -0.5285694 -0.26560006 -0.10131392
0.05342784 0.5615293 0.5891215 -1.4122735 -0.38719282 0.44080848 4.1041937 7.0564384
-0.7246745 -0.63890225 0.11981468 -1.0957816 -0.65226924 -0.06427589 -0.97454095 -0.67154866
-0.71862394 2.3795693 -0.28498083 0.30356306 -0.12052763 -0.07854972 0.009334524 -0.58677816
-0.108102076 0.49987063 -0.004904351 -0.3467962 0.13954987 0.04027308 0.60426575 3.0715358
-0.709275 0.41240153 0.9932807 -0.61673534 0.45358905 2.3506715 1.0841868 -0.32726535
6.713834 0.28226417 -1.8066604 7.7291617 -0.014316324 5.425117 -0.05190555 -1.1800414
4.5312824 -0.23369464 6.474452 6.6180434 0.9273874 8.25739 1.2391131 4.2812133
-0.5412638 7.423632 -0.5943084 0.6348423 5.72408 6.2245626 0.70652467 0.36679152
5.6043634 -0.5178409 0.042388026 3.48919 -0.887089 -0.042037763 -3.69389 -0.2738398
1.0997736 6.118791 0.3928066 -0.4546877 -0.6747165 0.2450336 -1.2142844 2.9141583
-0.21165366 0.23307577 0.6771955 2.5652232 -1.3001573 5.8352017 1.9995974 2.4963808
1.9803151 3.0555909 0.5204627 0.42453995 7.714943 5.7942653 0.50089395 -0.38878423
-0.468669 0.21220651 1.3446069 -0.43315712 7.115293 -1.153788 -0.091429695 0.114156306
-0.99440825 1.6432612 4.7908688 -0.11584165 -0.7718311 6.005377 -0.2504599 -0.43527603

convs.1.lin.weight f4 [256, 256]
00000000: 6adf 0ebf ba6c 953e b660 7dbe 75b3 eb3f
00000010: 01f9 973f 26cc 3a3e 6da5 84bb 6ad6 143f
00000020: 5d20 8abd df57 67bd d285 abbd c325 363d
00000030: 0cd2 03be ba6e b5be 13f4 8e3f 212e e8bd
00000040: ba2e 82be 7f3f 393d acee ef3f f154 9fbd
00000050: dd6f f3bf d162 08be 4db8 3ebc ed07 9e3b
00000060: fede 943e 6918 8fbd 5df6 c93e aff1 2fbe
00000070: d849 993d 4e24 d53e cdb7 0dc0 2427 9fbf
00000080: f0cc 683f 3207 df3e a18e 79c0 85bd 5ebe
00000090: 0a08 363e 4a16 b6bc e757 383e 59f9 a23e
000000a0: d72a ffbe 85f6 133f cc45 013f c157 903e
000000b0: 75f6 1ebe 2018 b23f 9a7e ab3e 91a3 d4bd
000000c0: 2ca5 bd3f 76fa 4740 e642 cebf 029b b03f
000000d0: d0b8 eebc ede1 a53d e537 a7bd cae2 aabd
000000e0: 228a 81bd b948 dabd 48be 5dbf c767 79bf
000000f0: 720d cebd addb 51be dedd b5bc 54a1 1140
00000100: e0bd 5cbf b058 febd d538 2d3f 0da5 923f
00000110: a990 4e3d ae0d 9cbd 7e72 193f 1020 353e
00000120: 5c06 1c3e cf7f a63f 3c72 063d 6a29 1d3f
00000130: fe0e d139 741a 7ebe 87ea 8bbe afb2 bb3d
00000140: 170b c6bd d763 6ebe 0863 78be 1c2f 85bc
00000150: f4ad 13c0 a9ad 4cbe 5eb1 003e 8595 74be
00000160: 961d 773e 775d 84bf f861 64be 1359 1c3f
00000170: a472 ea3d c395 45bf 338a 4dbe 3d80 e43e
00000180: b096 adbd 3b9a 79bd 360e 78be 54e3 1140
00000190: ddd7 023f 0db9 55be cc86 c43f 7b64 c9bd
000001a0: 5b93 b0bb b84e 863f e454 f53f c805 a6bf
000001b0: a99b b6bc 7110 253e ca08 5abe 5f65 31be
000001c0: ca35 0a3d 48ff 6abd d98b 0340 a26c 873f
000001d0: ee54 ce3d 4e8a ebbf 78be fabf f93c c33d
000001e0: 23d6 4c3f 258d e43f 7c86 18be 3e30 c2be
000001f0: cbe8 b73d 9a29 6f40 42fb f13d eead 843c
00000200: 5f86 483b 57e1 453e 622f 093f 5bb0 9e3c
00000210: 8a9f 73be e2a0 90be bdb8 3e3f 8382 21be
00000220: 99a2 ca3d 9897 a1bd 2ca3 d5be a8a1 77bc
00000230: 03f8 263f cb7f 8e3f 7fd9 61be 3792 1540
00000240: e71b 763e 4a4b cdbd abc4 15bd 1f0a 0fbd
00000250: 7265 4240 5e17 8bbf ea98 01be e06e 9a3f
00000260: 508e 7d3e e0c3 033e 7ff6 85be df99 c0be
00000270: 3db7 1b3f 9f3d 193f 4797 3d3d fc2f be3c
00000280: cc3a 6dbc 0353 15be 7260 1240 70d1 ddbd
00000290: fe13 893d f363 ad3f 61cd a2bd f2a4 d53d
000002a0: 9560 e6bd 6cc6 853e 3203 bdbe 2ce0 d83f
000002b0: 4452 853e 5bb4 96bd 05f6 da3d 05c9 87bf
000002c0: f2d3 a3bc e6d2 5f3b 7d21 13be a6bd 553e
000002d0: c9ee 353f 53e4 fbbc c921 c53f b528 903e
000002e0: 85ef a5bd 88a3 2d3e d2bd b9bd b049 0c3f
000002f0: ddb6 da3f 4377 17bd 9eb7 64bd 1424 363e
00000300: f305 0c3e 8cbd 4d3e f9da 493f 70ba 5fbd
00000310: 7caa e5be 38a6 9a3f 3ccf e5bd 2040 f13f
00000320: f2e7 56be 425a bd3f 9187 e1bc 0220 553d
00000330: f5ed cb3e 781f 93bd c85a 7ebf c00e cb3e
00000340: 2d96 933f 652d 833d 20f1 e3bc 23b8 9b3e
00000350: 87cf d73e 6418 113e c996 2abf 951b 3bbd
00000360: 1865 d73a 529d 6040 c40f 25c0 1622 2240
00000370: 4393 143f 2127 2d3e 6b5e 13bd 86e4 1c40
00000380: bfd9 3dc0 0c1c 9d3d 288b 26be 1022 5c3f
00000390: 3f59 033f 810d 2bbe 7000 10bf d19a f33f
000003a0: 7eaa 1b3f 70c0 ceba b86e 5c3d 22e6 a2be
000003b0: 28da 0b40 cee4 623e 8bfd 05c0 87de a7be
000003c0: 335b 5d3f f393 cbbe cb63 39bd c219 c0bc
000003d0: 8f84 4c3f 6628 593e 00c9 76be 3736 633e
000003e0: daa2 0cbf 769c 133d 8410 30be 7212 d93c
000003f0: 60a8 3cbf adfb 22bc 4c49 8a3f 66c6 77bf
-0.5580965 0.29184514 -0.24743924 1.8414141 1.1872865 0.18241939 -0.0040480406 0.5813967
-0.06744454 -0.056480285 -0.083751336 0.044469606 -0.12873095 -0.3543604 1.1168236 -0.113369234
-0.25426275 0.04522657 1.8744712 -0.07779873 -1.9018513 -0.13318945 -0.01164062 0.004822722
0.2907638 -0.06987078 0.39445773 -0.17182039 0.07484788 0.4162926 -2.2143433 -1.243382
0.9093771 0.43560177 -3.8993304 -0.21751983 0.17776504 -0.022227425 0.18002282 0.31830862
-0.49837372 0.57798034 0.50497127 0.2819195 -0.15523703 1.3913612 0.33495027 -0.1038276
1.4816031 3.124662 -1.6114166 1.3797305 -0.02914086 0.080997325 -0.08164958 -0.08344038
-0.06325175 -0.10658402 -0.8661847 -0.97423977 -0.10061158 -0.20493956 -0.022200521 2.2754717
-0.86227226 -0.124192595 0.67664844 1.145662 0.050430927 -0.07619797 0.59940326 0.17688012
0.15236801 1.3007754 0.032823786 0.6139132 0.00039874756 -0.24814779 -0.27327368 0.091649406
-0.09670084 -0.23280273 -0.24256527 -0.016257815 -2.3074923 -0.19988121 0.1256766 -0.23885162
0.2413238 -1.0341023 -0.22302997 0.61073416 0.11447647 -0.77181643 -0.2007225 0.44629088
-0.08476007 -0.0609381 -0.24224171 2.2795 0.5111063 -0.20871373 1.5353637 -0.09833618
-0.00538866 1.0492773 1.9166532 -1.2970514 -0.022291021 0.16119553 -0.21292415 -0.17323826
0.033742703 -0.05737236 2.0554106 1.0580027 0.10074793 -1.8401582 -1.9589376 0.09533114
0.80014247 1.7855574 -0.14895052 -0.3792743 0.089799486 3.7369142 0.11815502 0.016196217
0.003059767 0.19324242 0.53587925 0.019371202 -0.23791328 -0.28247744 0.7450064 -0.15772443
0.09894294 -0.07890242 -0.41726053 -0.015114225 0.65222186 1.1132749 -0.22055624 2.3370492
0.24034081 -0.10024126 -0.03656451 -0.03492176 3.0374417 -1.0866506 -0.12655988 1.2065086
0.24761319 0.12867689 -0.26164624 -0.37617394 0.60826474 0.5985965 0.046286847 0.02321624
-0.01447935 -0.14582448 2.2871366 -0.10830963 0.06693266 1.3546127 -0.07949329 0.104318514
-0.1124889 0.26127946 -0.369165 1.6943412 0.26039326 -0.07358619 0.10691456 -1.0608221
-0.019998524 0.0034152805 -0.14368244 0.20873126 0.7106748 -0.030748522 1.5400935 0.28156057
-0.08102325 0.16956913 -0.090694085 0.5479994 1.7087055 -0.03697897 -0.055839173 0.177872
0.13674144 0.20091838 0.7884975 -0.05462116 -0.44856632 1.2081976 -0.112211674 1.8847694
-0.20986918 1.479317 -0.027530463 0.05203248 0.39829984 -0.071837366 -0.9935727 0.3965969
1.1530205 0.06405143 -0.027824938 0.30413923 0.42150518 0.1416946 -0.6663633 -0.0456806
0.0016433327 3.509602 -2.5790873 2.5333304 0.58037204 0.16909458 -0.035978716 2.451448
-2.9664152 0.07671365 -0.16264021 0.85989475 0.51308054 -0.1670437 -0.5625067 1.9031621
0.60807025 -0.0015773904 0.053816527 -0.31816202 2.1851902 0.22157595 -2.0936 -0.32786962
0.86467284 -0.39761314 -0.045261186 -0.023449782 0.7988977 0.21206817 -0.24100113 0.2218865
-0.5493599 0.036037885 -0.171938 0.026498053 -0.7369442 -0.0099476995 1.0803618 -0.96787107

convs.2.bias f4 [256]
00000000: ec78 273f 5c47 f53e af5f cebf f21b 92bf
00000010: 913a 363f 11f9 e33f fe5c 2f3f 2f8d a6be
00000020: a525 d8bb dcaf 393f 294d 4fbe 371c 3e3d
00000030: b25b db3f 3260 a3bf 9cd5 af40 28c7 1440
00000040: a4b6 14c0 364d 2140 7fbe 8d3e 793b f8bf
00000050: 2708 0940 00e0 d83e 886a 963d 5722 6140
00000060: 9fa4 f2bf 846e b0bf 21c9 0c3f 2bfb 2abf
00000070: 5f6c fa3e 578d 813e e60b 0640 2ec2 43bf
00000080: d238 75bf b2fc febe 5cfd 363f 6aaf 41bf
00000090: 1907 0540 572c bd3f 496d d1bd b946 893f
000000a0: 7919 5ebf b10c 9e3e 451a f23e 589f 1740
000000b0: 02bb 67bf d82d 413f f259 ecbf 0d14 d93f
000000c0: 83e2 8f3f 8334 683d 1964 793f 8c11 01bf
000000d0: 655d a2bf beb9 e2bf c808 ca3f caa8 8cbf
000000e0: 9668 8fbc a3bf ef3e e2f5 a0bf 30d5 023f
000000f0: 4ac5 41bf 1d8e df40 dda0 e03f 98a0 6e3f
00000100: b31a d1be 6146 543f 22df 073f 4279 4f3f
00000110: a64c e43c 2b08 c33e fa31 da3f 5a84 64c0
00000120: 7cce 813f b4ea 1cbf 77c5 86bf fe4c 0440
00000130: 273f 26be 4e50 2abf 50cf d540 3b17 d7be
00000140: 5c0d 97bf b4bd 8c3c f0ed 0f3d 2cfb d93f
00000150: 9792 fc3f 9e81 26bf 9a08 3040 5baf 7d3f
00000160: e4d5 b4bf 97f9 123f eeb7 703f 9efa 2f3f
00000170: 0abe 3cbf 3f8d aebf 7146 253f e80c 2f3c
00000180: 2ad1 df3f 5d21 ad3f 4a21 11bf 69d0 953f
00000190: c471 c63f 5ca4 48be 7be3 50bf 4667 a83f
000001a0: 1a5c ba3e 2cfe 4040 e5af da3e 009a a53f
000001b0: 1175 abbf 7516 493c 2e5d c340 ddb0 3f3f
000001c0: e743 833d fc2a ea3e 1421 283f 3adf 1ebf
000001d0: 0c78 cfbe 4a06 a23f 1212 b53f e8e1 12c0
000001e0: 1983 033f 8b54 8bbe 3542 86bf f959 c1bd
000001f0: 0948 623f e3ac 073f 9a1b 6abf d95f 433f
00000200: a261 103e f93a b440 014d d0be 435a 173e
00000210: c849 9b3f 4bf4 cc3e 441d 85bf 1d4a 2140
00000220: 3f0d 713f b5c3 503e 5ee7 753e 0433 0ec0
00000230: 57d0 1440 09db 7fbe da34 01c0 4456 a93f
00000240: 2ba9 993e 75e3 003d c389 993e fef6 3a3f
00000250: 2530 41be 8ace 97bf e22f 2d41 3c82 b0bf
00000260: 191c bebf 0bd1 6a3f 7437 98bf 7f8d 49bf
00000270: 0c9d bd3f 0fab 273e 65e6 5fbf 9078 da3e
00000280: e09f b5be 6a26 463f 6a54 4e40 97af 083f
00000290: d67d 5ebf cf3a 2bbe 9106 18bf 49af 60be
000002a0: 7c28 d9bd fc2c 0cc0 a571 503e 7808 2340
000002b0: 139c b03f cbde 1f3f c4eb d13c 58f2 6b40
000002c0: d659 283f f101 af3f b0b1 cc3f b964 693f
000002d0: a7ba 633f 2bae 0d40 30ca d2bf 31ac 2ebf
000002e0: b88f bcbd 458b 2c40 01e6 1f3e 1451 c3be
000002f0: f0e8 8e40 0021 2e3b a37c 1c3f dca4 c93e
00000300: 53e5 2840 94eb 91bd cd91 acbe b756 bebc
00000310: ad22 de3e b145 fbbe 2fd1 e1bf c170 b4bf
00000320: d1db 623f 4efd ae3f 995a d8bf 6c2f 3d3f
00000330: 0430 1d40 73c0 763f c6ab 6c40 9ebe acbf
00000340: a672 633e f1b4 2540 c898 3c3c 49b9 9a3e
00000350: 34ae 4bbe 0cb4 f03e 28eb 7dbf ef1e 0a3e
00000360: 599b ccbe 32b2 00c0 fee2 18c0 0028 ae3e
00000370: 388b 02be 07f1 bfbf afc1 25c0 0cfd 753f
00000380: c617 3b40 85ac 073f c5c0 9dbf a9f6 5940
00000390: 22ca c4bc 99d0 123f 52f3 d040 7188 f5bf
000003a0: 4bb2 b6be 731b 1540 c355 c7bf 8eb2 6e3c
000003b0: deff bb3f fdee b93d f195 2f3e ddc1 183f
000003c0: 42ed 123f a32c 12c0 cc8b d1be fcfd a93f
000003d0: 890e e13f f314 e03e 77e0 013f 449f f03e
000003e0: 3e99 b43f 5843 143f 267a 373f 7af8 403f
000003f0: 6ed0 aa3e 3de4 5cbe ca5d 48be 5297 853f
0.6541889 0.47906005 -1.612295 -1.1414778 0.71183115 1.7810384 0.6850127 -0.3252959
-0.0065962845 0.72533965 -0.20244278 0.046413627 1.7137358 -1.2763731 5.4948254 2.3246555
-2.3236475 2.5203376 0.276844 -1.939315 2.1411226 0.42358398 0.07344538 3.517721
-1.8956488 -1.3783727 0.549944 -0.667895 0.48910806 0.25303146 2.0944762 -0.7646817
-0.95789826 -0.49802166 0.71480346 -0.75658286 2.0785582 1.4779156 -0.102259226 1.0724708
-0.8675762 0.30869058 0.47285667 2.3691006 -0.90519726 0.75460577 -1.8464949 1.6959244
1.1241001 0.056690704 0.9741836 -0.504174 -1.2684752 -1.7712934 1.578393 -1.098901
-0.017505925 0.46825895 -1.2575037 0.5110655 -0.75691664 6.986098 1.7549092 0.93213797
-0.40840682 0.8291989 0.5307485 0.810444 0.02786858 0.3809217 1.7046502 -3.570578
1.0141139 -0.6129563 -1.0529011 2.0671992 -0.16235028 -0.66528785 6.6815567 -0.4200991
-1.1800952 0.017180301 0.035139024 1.7029777 1.9732236 -0.6504153 2.750525 0.99095696
-1.4127774 0.57412094 0.94030654 0.68741786 -0.73727477 -1.3636855 0.6456061 0.010684229
1.7485707 1.3525807 -0.5669142 1.1704227 1.5503469 -0.19593948 -0.8159711 1.3156517
0.36398393 3.0155134 0.42712322 1.2937622 -1.3395101 0.012273421 6.1051245 0.74879247
0.06409436 0.4573592 0.65675473 -0.62059367 -0.40521276 1.2658169 1.414614 -2.2950382
0.51371914 -0.2721294 -1.0488955 -0.09440989 0.88391167 0.5299818 -0.91448367 0.76318127
0.14099744 5.632199 -0.4068375 0.14780526 1.2131891 0.4003013 -1.0399556 2.5201485
0.94160837 0.20387156 0.24014041 -2.2218637 2.325216 -0.24985899 -2.0188508 1.3229451
0.30011877 0.03146692 0.29987916 0.7303313 -0.18866022 -1.1859906 10.82419 -1.3789744
-1.4852325 0.91725224 -1.1891923 -0.7873153 1.4813552 0.16373847 -0.8746093 0.42670107
-0.35473537 0.77402365 3.2239022 0.5339293 -0.8691076 -0.16721652 -0.5938502 -0.21941866
-0.10603425 -2.1902456 0.20355852 2.547392 1.379763 0.6244933 0.025625117 3.6866665
0.6576208 1.3672467 1.5991726 0.91169316 0.88956684 2.2137554 -1.6467953 -0.68231493
-0.092071 2.6960003 0.15615083 -0.38147795 4.4659348 0.0026569963 0.6112768 0.3938359
2.6389968 -0.07125011 -0.33704987 -0.023234708 0.4338583 -0.49076608 -1.7641963 -1.409691
0.88616663 1.3671052 -1.6902648 0.73900485 2.4560556 0.96387404 3.6979842 -1.3495672
0.22211704 2.5891688 0.011511035 0.30219486 -0.19890672 0.47012365 -0.99186945 0.13488363
-0.3996227 -2.0108762 -2.3888545 0.34014893 -0.1274842 -1.4995431 -2.5899465 0.96089244
2.923326 0.5299762 -1.2324454 3.40568 -0.024022166 0.57349545 6.529702 -1.9182264
-0.35682902 2.3298004 -1.5573047 0.014568938 1.468746 0.090787865 0.17147042 0.5967081
0.57393277 -2.2839744 -0.4092697 1.3280635 1.7582561 0.43765983 0.5073313 0.4699651
1.4109266 0.5791526 0.7167076 0.75379145 0.33362144 -0.21571441 -0.19567028 1.0436804

convs.2.lin.weight f4 [256, 256]
00000000: 2b47 1140 0426 7d3f 814a b1bf 4417 d73e
00000010: 9783 0640 4289 5ebf 4c46 73be e776 933f
00000020: 331d 7640 b72b 01be d8ae 0bbf 7f4a 993f
00000030: 4428 4340 547c 223f a256 c2bf 3de1 843d
00000040: ee42 383f fae6 573f 798e 9b3d 82cc 003f
00000050: bced b7bf c12d 033e 3849 b1bf 271c 81bc
00000060: 5413 0b40 b479 07c0 efb7 ef3e e886 113f
00000070: bef7 debe 65e8 d13e a532 803f 8fda 1f3f
00000080: 7ff5 69bf b444 b23f b625 c93e 87a9 1dbf
00000090: c319 543e 9f31 103e 1977 c73c 5c23 f53f
000000a0: 5845 3ac0 1465 ca3e a75b 02bc 7ec1 6d3f
000000b0: dcf3 fd3e 5ca3 bc3f 6966 8abe afef 2f3e
000000c0: 3890 a63f b9c9 b33f 0468 b7bf 9b1f 5f3f
000000d0: 3ca2 c03f 2bf0 19c0 c6c0 663f cb5f 42c0
000000e0: 3f8e 0bc0 f6e9 2bbf 1552 ca3e e42c b7bf
000000f0: ea73 993c 93db 0dc0 55af 4f3f b996 103f
00000100: b674 d4ba a72c 613f d731 443f 7b39 8f3f
00000110: 2328 a3bf 5fe3 303f 8ad1 7bbf 9382 fdbf
00000120: ac66 5cbf b990 1ebd 76ef ffbf a708 f0bf
00000130: 8cb0 d73e e232 a7bf 274e 8ebf cffe 0f40
00000140: 0f6f 4f40 5329 edbf 5c0c e03d 7105 4a3f
00000150: d23f 56c0 6d15 a3bf 7d8b 3b3f 9375 f0be
00000160: 0ecb 89bf 999d 01bf 2e04 103e e398 33bf
00000170: 1014 8b3f 5036 da3c 5ae7 ca3d e3a7 1cbf
00000180: 4cad 763c 5811 92bf 6849 a33f 7f03 883f
00000190: b51d 633f 1026 113d 6c59 62bf a3fb b63f
000001a0: bb99 12bd 3c22 113f 5c71 c83f e25c 8f3e
000001b0: 5774 35bc 5849 f73f 67c3 abbf b362 03c0
000001c0: 7f93 55bf 55e8 c33f 988d bf3e fdc3 57c0
000001d0: 4750 aebf beed 86bf 2ff2 0cc0 08f0 1d40
000001e0: 81c2 84be 6019 913f 354e 523f 2a64 3c40
000001f0: 4e93 dabf 0bf7 f23d 4450 a93f 7679 00c0
00000200: 4407 ef3f e5f0 b53f 03e7 1cbf 3770 11bf
00000210: e9bc a13f af53 6a40 b7ab 6ebe 15b0 4a3d
00000220: 05d8 29be bfe4 6fc0 0497 23c0 fe6a f13f
00000230: 8d4d 8e40 ba52 7c3f 9a40 513e a392 953f
00000240: 37b4 8f3e 52f2 1dc0 c769 01c0 cb97 233f
00000250: 719a 8abe 5b1a 49bf ac21 26bf 7117 27c0
00000260: 784f 11c0 dda0 9d3f 1983 84bf 7f8d 5740
00000270: 953c 2ebf dc80 fe3d a9ac 2e3f d6e6 79bf
00000280: e0d9 0f40 5817 7f3e 96b1 57c0 48f2 253f
00000290: a962 fbbf f077 1440 e8ca e03f 0586 ca3f
000002a0: 94d4 2ebf 8ab6 40c0 81f6 47be dd08 dc3f
000002b0: 08d5 1b40 6d99 ff3e 70dd 36c0 82cb 9dbf
000002c0: 1401 35bf ddb2 fabf 0722 a6bf b597 abbf
000002d0: 107b 22be 4154 783f d31f 0b3f 1520 1bbe
000002e0: fece 6dbe 1f04 b1be 71fc 31bf 35bb e73f
000002f0: 2217 163f 1f43 95bf d05a cdbf e588 1d3f
00000300: 42e5 36be b2ad 0540 f9e9 f7be 339e 5abe
00000310: 3f29 e7be da5e 81be 939c 423f ab13 213e
00000320: d025 b23f b915 e83c 4ef9 75bd 1417 43c0
00000330: 778c a93d 1839 fc3e 755e 3f3f 72ba 2640
00000340: f193 df3f 3a29 0e40 543e cfbe 294e 193f
00000350: e1c2 f63f f6d5 01bf f125 bcbf c22f aa3f
00000360: 7b8a b43f 3d3e a83f 4e3c 5cbf 0c71 8dbe
00000370: e1b2 e5be cb84 12bf 7342 c53f 2382 a23f
00000380: d67d f23f 5fa5 c73e 2ef1 773f 849d b6bf
00000390: 55ce 7d3f 378b 3cbd 3bde dbbf 812e 91bf
000003a0: 04fa 57be 2a1e 463e 9c59 f43f 43c7 0a3f
000003b0: 629b 663e e85c 37bf 3f6f a43f 0d8c 1b40
000003c0: a42a 81be 1f0e f93f a649 c93f 8afe 9cbf
000003d0: 0bce 3abf ef08 ed3e 4310 06c0 65ef c1bf
000003e0: e119 d73f 6280 dc3f 5537 0f3e b183 f6bf
000003f0: 8b1d 493f 7431 0e3e 2da7 063f 91ed 4940
2.2699687 0.9888613 -1.3850862 0.42009938 2.1017816 -0.8692819 -0.23757285 1.1520661
3.8455322 -0.12614332 -0.54563665 1.1975859 3.0493326 0.6347096 -1.5182688 0.06488273
0.71977127 0.8433682 0.07595534 0.50312054 -1.4369426 0.12810422 -1.385047 -0.015760494
2.1730547 -2.1168032 0.46820018 0.56846476 -0.43548387 0.40997615 1.0015455 0.6244287
-0.9139022 1.3927217 0.39286584 -0.61586803 0.20712952 0.14081429 0.024348782 1.9151416
-2.9104824 0.3953024 -0.007956422 0.9287337 0.49600112 1.4737353 -0.27031258 0.17181276
1.3012762 1.4045936 -1.4328618 0.871576 1.504951 -2.4052837 0.901379 -3.0370967
-2.180557 -0.6715387 0.3951575 -1.4310575 0.01873203 -2.2165267 0.8112691 0.56479985
-0.0016209099 0.8795876 0.7663855 1.1189417 -1.2746624 0.6909694 -0.98366606 -1.9805473
-0.86094165 -0.038712237 -1.9994953 -1.875264 0.42126882 -1.3062403 -1.11176 2.2499273
3.2411535 -1.8528236 0.10939857 0.7891455 -3.3476453 -1.2740914 0.7325972 -0.46964702
-1.0765092 -0.506311 0.14064094 -0.7015516 1.0865498 0.026637226 0.09907408 -0.61193675
0.015055966 -1.1411543 1.2756777 1.0626067 0.88717204 0.03543669 -0.88417697 1.4295543
-0.03579114 0.5669286 1.5659595 0.2800055 -0.011075101 1.9319258 -1.3419007 -2.0528991
-0.83428186 1.5305277 0.37412715 -3.3713372 -1.3618249 -1.0541303 -2.2022817 2.4677753
-0.25929645 1.1335869 0.82150584 2.9436135 -1.7076204 0.11863526 1.322762 -2.0074134
1.8674092 1.421414 -0.61289996 -0.5681185 1.2635776 3.6613576 -0.23307692 0.04948433
-0.16586311 -3.7483366 -2.5560923 1.8860776 4.4469666 0.9856373 0.204348 1.1685375
0.2806718 -2.467915 -2.0220811 0.6390349 -0.27070954 -0.7855584 -0.6489513 -2.6108057
-2.2704754 1.2314717 -1.0352508 3.3680112 -0.6806119 0.12426922 0.6823221 -0.9761785
2.247673 0.24911249 -3.370214 0.64822817 -1.9639484 2.3198204 1.7561922 1.582215
-0.6829312 -3.0111413 -0.19527628 1.7190205 2.4348774 0.49921742 -2.8572655 -1.2327731
-0.7070477 -1.9585835 -1.2979134 -1.3405672 -0.15867257 0.9700356 0.54345435 -0.15148957
-0.23223493 -0.34573457 -0.6952582 1.8104006 0.5862905 -1.1661109 -1.6043339 0.6153701
-0.17860892 2.0887265 -0.48420694 -0.2134941 -0.45148656 -0.25267678 0.76020163 0.15730159
1.391779 0.02833067 -0.06005221 -3.0482836 0.08278745 0.4926231 0.74753505 2.6051297
1.7467023 2.2212663 -0.4047724 0.5988489 1.9278222 -0.50717103 -1.4699079 1.3295825
1.4104761 1.3143994 -0.8602952 -0.2762531 -0.44863036 -0.57233876 1.5410904 1.2695965
1.8944652 0.38993356 0.96852386 -1.426682 0.9914296 -0.046031203 -1.7177194 -1.1342317
-0.21091467 0.19347444 1.9089847 0.542103 0.22520211 -0.7162614 1.284645 2.430423
-0.25227845 1.9457434 1.5725601 -1.2265179 -0.72970647 0.46295878 -2.0947425 -1.5151182
1.6804773 1.7226679 0.13985951 -1.9258939 0.78560704 0.13886052 0.5259884 3.155125

lins.0.0.weight f4 [256]
00000000: 2adf 9c3e bca3 393f 1975 9f3e 3fd3 f43f
00000010: b809 ac3f c373 0c3f 1b91 563f 2e20 9b3f
00000020: 1974 4d3e 7b33 403f f1b8 193f d20c dd3e
00000030: 8e0b 463f 4737 de3e f954 1340 4a92 0a3f
00000040: e0ed 0d3f 54a7 bd3e a8de ac3f 51da 083f
00000050: 79ce 973f 3d69 803e e595 0940 67f7 1c3f
00000060: 2f27 de3e 303f e73e a77f d93e d22e 603e
00000070: e81c 103f af5e d23e eaef 1740 3a44 793f
00000080: b14d 2740 37a9 4c3f 88b6 c23f 9a83 e63e
00000090: ac7e 013f 7382 193f 2b16 db3e 2862 a73e
000000a0: 6dcd 053f d50b d03f 282c 1d40 802e 973d
000000b0: d8d8 d83e 6e0f 9d3f aaa2 ec3e 1fe2 043f
000000c0: 4583 1240 a6bf 1340 8290 2f40 fc86 de3f
000000d0: f0f5 633f c2ca bc3f 6555 883e aa8b 753e
000000e0: 6a6c ad3e b353 5c3e 9b30 103f 2135 f73f
000000f0: 055b f23e a33d d03e 818c 873f ea4a 0d40
00000100: 87d0 fc3f 4a07 af3e b938 9f3e 6dfe 9d3f
00000110: f87d a53e 1d0c ebbd 74d3 ca3e 5af3 ae3e
00000120: 1364 013f 258c 953f 1ac0 3a3e 6948 223e
00000130: dde9 713e bb8e c43f 0acc 813f b287 e23e
00000140: 5036 f83e 2e4c c93f e8fd 933e d837 113f
00000150: 7b81 b63f f7ac 593e 736f 883f e7f6 dc3f
00000160: 207d a93e 3b64 d83f 5593 fa3e d9f1 0840
00000170: a2df 883e 7f0f bf3f fa41 933e dfe5 a93e
00000180: dde3 943e 1e23 6a3f e00c 6e3e 1033 c03f
00000190: 5742 3940 6abb 1c3f 6259 b03f 5fd3 d73e
000001a0: 6894 cd3e 9b61 4b3f d6d2 aa3f 23f5 863f
000001b0: 3945 213f 247d ee3e 2bde 813e dced 133f
000001c0: f982 1a3f e7d0 de3e 3aaf d33f b4d4 0040
000001d0: f2da fc3e 54aa 0f40 5f1c d03f a93e b23e
000001e0: 0031 9d3f c349 a13f 40a8 ee3e 3f39 b03e
000001f0: 3ca1 b73f 3099 923f 011c de3e cc44 653e
00000200: 4a68 863e f794 8d3f 85b8 1b40 ab99 cb3d
00000210: f0e1 c73f a5c6 b73f f2b0 2c40 97ff c93e
00000220: da01 063f 3e6d 483e 9031 b03f 39fb db3e
00000230: bc41 c33f f3c3 9b3f aa45 163e 75fd ce3f
00000240: 07a1 863e 9f8f b83f bad0 c03e 5640 f03e
00000250: 9bc5 0c40 6a0b bc3f 3686 d13e eb9a c43f
00000260: 1288 ec3e ee83 5c3f d1da e73e 24e2 9f3e
00000270: dbcf ca3f 16ec 823f 4367 413f 057a b73e
00000280: ffb1 453e 72c7 0b3f 4ad0 9f3f 81a6 e73e
00000290: 6ec8 b53e 5e38 0740 d0da 0a40 eebd fe3e
000002a0: 8b6b 0b3f 1d26 c93e cef1 853f 30f8 a93f
000002b0: af7f 953e 6180 0740 c12e ad3e 786f ee3f
000002c0: 5e42 de3e c40f 733f fd9a b73f 39a3 993f
000002d0: 155d bd3f 3159 a63e 6ab2 cb3f ec7c 0c3f
000002e0: 20d7 fa3e bfa5 d63e 75b9 8c3e ce3b 8240
000002f0: 4dac 2540 dd59 cb3e 9fea 013f 89ce cc3e
00000300: 8d48 ca3e 6a80 023f 803f 4d40 d8a3 0b3f
00000310: 661b ce3f 110c b73f 1436 c03e a98b 8040
00000320: 3e5e 6f3e 3738 9140 f382 863e 7fb2 9f3e
00000330: ec34 c63e eb34 a03e da5a 9a3f e62f d83e
00000340: 8f85 c23f 5bf4 963e bc80 163f 1fef de3e
00000350: 9391 c03f fa38 9b3d f58a 163f ac07 673e
00000360: b5d0 0d3f 4fa7 3840 d713 a83f 659f 0240
00000370: 2731 c13e 097c 033f ca6f 503d 1373 bd3f
00000380: 3788 b63f d613 6d3e 9633 c63e aa28 5b3f
00000390: 3f93 0140 7942 b43e 21de 0c40 5272 3240
000003a0: 1997 b13f 2a7a 113f d564 343e fc23 0d3f
000003b0: 878b 2e3f 8f7d 3040 f7b2 aa3f c29f f33f
000003c0: fb26 ce3f 83df f33f b3fe e73e f8fc 5c3e
000003d0: 9a75 953f 6816 103f 4926 fe3e 7ae9 0d3f
000003e0: 5bf9 a93f ed5d 053f 2799 b93e f8b5 373e
000003f0: d817 be3f 61a0 103f f5fc 033f ca96 c43f
0.3063901 0.72515464 0.31144026 1.9126967 1.3440466 0.5486414 0.83815163 1.2119195
0.20063819 0.7507855 0.60047823 0.43173844 0.7736138 0.43401548 2.3020613 0.5412947
0.55441093 0.37041724 1.3505449 0.53458124 1.1859885 0.2508029 2.1497738 0.61315006
0.4338927 0.45165396 0.42480204 0.2189286 0.5629411 0.41087863 2.3740182 0.9736973
2.614117 0.799457 1.5211954 0.4502228 0.5058391 0.59964675 0.4279035 0.32692075
0.5226658 1.6253611 2.45582 0.07381916 0.4235294 1.2270334 0.46217853 0.51907533
2.289262 2.3085723 2.743195 1.7384944 0.89047146 1.4749377 0.2662765 0.23979059
0.33871776 0.21516304 0.56324166 1.9313089 0.47335067 0.40672025 1.0589753 2.2076974
1.9751137 0.3418525 0.31097963 1.234327 0.3232267 -0.1147692 0.3961445 0.34170038
0.50543326 1.1683394 0.18237343 0.15847935 0.23624368 1.5356058 1.0140393 0.44244152
0.48478937 1.5726373 0.28904653 0.56725836 1.4258264 0.21257387 1.0659012 1.7262849
0.33103275 1.6905588 0.4894053 2.1397612 0.26733118 1.4926604 0.28761274 0.3318319
0.29080096 0.91459835 0.23247099 1.5015583 2.894674 0.6122347 1.3777277 0.4215345
0.40152287 0.7944581 1.3345592 1.054356 0.6299625 0.4657985 0.25364813 0.5778482
0.603561 0.43518755 1.653785 2.0129824 0.49385792 2.244771 1.6258658 0.3481343
1.2280579 1.2600635 0.4661274 0.34418675 1.434608 1.1452999 0.4338074 0.22389525
0.2625144 1.1061085 2.4331372 0.09941419 1.5615826 1.4357497 2.6983 0.39452812
0.52346575 0.19572923 1.3765125 0.42965105 1.5254436 1.2169174 0.14675012 1.6171099
0.2629473 1.441883 0.37659246 0.46924084 2.1995609 1.4690983 0.40922707 1.5359777
0.46197563 0.8613881 0.4528413 0.3122722 1.5844682 1.0228298 0.7554819 0.3583528
0.19306181 0.54601204 1.248544 0.4524422 0.35504478 2.1128154 2.1696053 0.4975428
0.5446097 0.3928689 1.0464418 1.3278866 0.29198977 2.1172106 0.33824733 1.8627768
0.4341001 0.9494593 1.4344174 1.2002937 1.4794031 0.32489923 1.5913823 0.54878116
0.48992252 0.4192333 0.27485242 4.0698004 2.5886414 0.39716998 0.5074863 0.40001324
0.39508477 0.50977194 3.2070007 0.5454688 1.6102111 1.4300557 0.37541258 4.0170484
0.23375794 4.538112 0.2627178 0.3119087 0.3871225 0.31290373 1.2058976 0.42224044
1.5197009 0.29483303 0.58790183 0.4354181 1.5044426 0.07579227 0.5880578 0.2256152
0.55396587 2.8852117 1.3131055 2.0409787 0.37732813 0.5136114 0.05088786 1.4800743
1.426032 0.23152098 0.38711232 0.85608923 2.0246122 0.35206965 2.2010577 2.7882276
1.3874236 0.5682703 0.1761659 0.5513303 0.6818165 2.7576635 1.3335866 1.9033129
1.6105646 1.9052585 0.45311508 0.21580875 1.1676514 0.5628419 0.49638584 0.5543438
1.3279222 0.52096444 0.36249658 0.1794051 1.4851027 0.5649472 0.51557857 1.5358517

lins.0.0.bias f4 [256]
00000000: dea0 2abf 1188 21bf 5c7a fabe 50e8 07bf
00000010: 793a a4bf d10f 07bf 1b2e 993e c814 c33e
00000020: 8d6e 55bf a802 64bf de11 01bf c129 2abf
00000030: 43e4 58bf 362a 2abf cf40 13bf 75e2 0dbf
00000040: d7d7 27bf 7d1a 2abf cf24 ea3e 4ce5 43bf
00000050: dc9e b23d 3ea7 31bf cec2 9bbf 4ba0 31bf
00000060: b7d1 17bf e46b 03bf 015e 2abf 190e ebbe
00000070: 18a5 19bf 11ae 1abf db50 adbf 270a 923e
00000080: a8f0 1ebd 76b8 87bf 68ed cc3d f3dc f1be
00000090: 6c42 d5be 9e77 0abf dd78 1cbf 46f6 36bf
000000a0: 86a6 3cbf d53a 803e e0b5 84be cbbc 6cbf
000000b0: 6686 fbbe 9f49 b53e 7d65 22bf f76c fcbe
000000c0: c6f4 50bf cf3f dc3f 4f78 8bbe c62e 503e
000000d0: e4db 28bf c05e 2a3e f2f1 6abf 3727 16bf
000000e0: 8c5e 0cbf 1ece 12bf 4c6c 57bf eeef de3e
000000f0: deb4 23bf f7f0 40bf 398c 33bf 9da0 bbbc
00000100: 1c10 f8bd d6c7 51bf 3ba3 4fbf 8cde ca3e
00000110: a9a5 36bf a14f 51bf e775 1ebf 4fa0 1dbf
00000120: 627f 03bf ed60 92bf 8756 2dbf d49e 61bf
00000130: 5e5b f0be 10f4 8b3e bc66 e03e f3b9 10bf
00000140: 601d 22bf 5b03 e13e 8fd2 ffbe 80e6 0bbf
00000150: 5f41 d23e 6be3 d1be 7716 ac3e edc9 f7be
00000160: 958e 0dbf 17a4 7a3e 12a1 1dbf 1614 e1bd
00000170: 1942 fdbe 6965 9a3e 353d 3ebf 1ec5 1ebf
00000180: f7d5 49bf 0357 2cbf ba03 33bf 2000 b03e
00000190: 9e51 abbe 3922 19bf 2d8b d93e 2e95 f3be
000001a0: 8abe 1dbf 8ba9 803e aad6 b23e a2d8 563e
000001b0: 930d 08bf d1ad 0abf 9c42 18bf 9260 2abf
000001c0: 9b07 e7be e219 0bbf 6d46 d83e cdab 09bf
000001d0: ab75 27bf 8f62 20bf 4349 a03e 11be 11bf
000001e0: ab50 163e a914 c03e 2178 01bf e25c e4be
000001f0: 1313 cc3e 9793 ae3e 1a53 12bf a13c 27bf
00000200: 67f5 35bf d400 c83e 1ce0 cabe ebdd 1cbf
00000210: fba7 853e 32eb 52bf 90c6 1c3d 46e5 11bf
00000220: 70fd e7be f93e 0cbf 591a b33e 436b 5cbf
00000230: 4360 db3e f736 2cbe c9f3 53bf b928 1fbf
00000240: 4319 54bf a58c a53e 0f8c 1dbf c193 1fbf
00000250: 666a 21bf 1f7d d73e ad4a af3e ca25 933e
00000260: 2caf 11bf 7dc2 99bf f91f 32bf ed79 20bf
00000270: 4dba c8be 72c5 8e3f b923 29bf d7f2 dfbe
00000280: 0fe6 28bf 6871 0bbf 106a 963e c333 e6be
00000290: 44e4 e4be 6d73 5cbe 1be9 3fbf bba8 febe
000002a0: 1334 16bf 3698 74bf de57 863e c6e9 b63e
000002b0: 2f52 11bf 2909 28be 4ab4 14bf 1e32 a23e
000002c0: 7727 1dbf 4f18 10bf 8d8e c83e 1ce2 38bf
000002d0: 88a3 5e3e d36b ddbe e497 e23e 4179 31bf
000002e0: b880 dabe cc6e 16bf 3cc4 14bf 224d 32bf
000002f0: 35e1 f63e f224 33bf 35ff 23bf a83f 2bbf
00000300: 1f42 f5be c87f 0ebf 24a5 22be 54be 15bf
00000310: 43d4 073f 9f27 c33e 0ace 16bf 1e97 b1bf
00000320: 498e 50bf 1e8f 7dbf f47e 1abf 43d2 03bf
00000330: 4d61 cfbe 7620 5dbf 7134 f73e 4c7c 1abf
00000340: 41dd 44bf f199 50bf ea27 02bf 9f7e 38bf
00000350: b93b 623e 9d6d 3ebf 84d5 6bbf 147b 18bf
00000360: 7150 10bf 6600 03be b07b f13e 5e19 c73d
00000370: 50d5 51bf 598b 0cbf f01d 93be 6163 ab3e
00000380: 1d55 f33e ef89 52bf 8581 0abf a7a2 af3e
00000390: d592 79be 7bbd 23bf a346 153e a9c8 b2bf
000003a0: 2c07 913e 6932 0cbf 9bc6 3dbf 1a64 fabe
000003b0: c89f 8b3e c190 853e 29ee 2d3e e040 813d
000003c0: 2bc4 8a3e a426 85bf 35ef 14bf 878b dabe
000003d0: 1c61 a33e 9dde 0ebf e66f 16bf e9b5 24bf
000003e0: 7c5c 4c3e 9aae f5be 2ebf 22bf 6f67 1bbf
000003f0: 9e8e bb3e b6c3 2cbf 407f 3cbf ac08 d83e
-0.66651714 -0.63098246 -0.48921478 -0.53088856 -1.2830344 -0.5275851 0.29917988 0.38101792
-0.8337181 -0.89066553 -0.5041789 -0.6646996 -0.847233 -0.6647066 -0.57520765 -0.5542367
-0.6556372 -0.6644667 0.45731208 -0.76521754 0.08721706 -0.69395816 -1.2168825 -0.6938521
-0.59304374 -0.51336503 -0.6654969 -0.45909193 -0.6001754 -0.60421854 -1.35403 0.2852337
-0.038803726 -1.0603168 0.10006219 -0.47238883 -0.41652238 -0.5408877 -0.6112192 -0.71469533
-0.73691595 0.25044885 -0.2592001 -0.92475575 -0.49125975 0.3540773 -0.6343611 -0.49301884
-0.81623495 1.7206973 -0.27240226 0.20330343 -0.65960526 0.16637707 -0.9177543 -0.5865359
-0.5483177 -0.5734576 -0.8414962 0.43542427 -0.63947856 -0.75367683 -0.7013584 -0.022903735
-0.121124476 -0.8194555 -0.81108445 0.39622915 -0.7134653 -0.8176213 -0.61898655 -0.61572737
-0.51366246 -1.1435829 -0.67710155 -0.8813298 -0.46944708 0.27334642 0.4382838 -0.56533736
-0.6332607 0.43947873 -0.4996533 -0.5464859 0.410655 -0.4099382 0.3361089 -0.48396245
-0.5529569 0.24476658 -0.615739 -0.10990159 -0.4946449 0.30155495 -0.74312145 -0.62019527
-0.7884211 -0.6732027 -0.6992756 0.34375095 -0.33460706 -0.59817845 0.42488995 -0.47574753
-0.61618865 0.2512935 0.349294 0.20981076 -0.5314571 -0.5417147 -0.5947664 -0.66553605
-0.4512299 -0.5433637 0.4224123 -0.5377777 -0.6541392 -0.6265039 0.31305894 -0.56930643
0.1467921 0.37515762 -0.5057393 -0.44602114 0.39858302 0.34096977 -0.5715805 -0.6532689
-0.7107758 0.39063132 -0.39624107 -0.6127612 0.2610472 -0.8239013 0.0382753 -0.5699047
-0.45310545 -0.5478359 0.3498104 -0.8610117 0.4284688 -0.16817842 -0.8279386 -0.6217151
-0.82851046 0.32333866 -0.6154184 -0.6233483 -0.63052976 0.42087647 0.3423666 0.28739768
-0.56907916 -1.2012478 -0.69580036 -0.62686044 -0.39204636 1.1154006 -0.66070133 -0.4373996
-0.6597604 -0.5446992 0.29377794 -0.44961366 -0.44705403 -0.21528406 -0.74965066 -0.49738106
-0.5867321 -0.95544755 0.26238912 0.3572523 -0.5676603 -0.16409744 -0.580876 0.3167886
-0.61388344 -0.5628709 0.39171258 -0.72220016 0.2174207 -0.43246326 0.44256508 -0.69325644
-0.4267633 -0.5876281 -0.5811193 -0.69648945 0.48218694 -0.6997825 -0.6406129 -0.66894007
-0.4790201 -0.5566373 -0.15883309 -0.5849354 0.5305826 0.38116166 -0.5890814 -1.3874242
-0.8146711 -0.99046504 -0.60349965 -0.5149271 -0.40503922 -0.86377656 0.48282197 -0.6034591
-0.76900107 -0.81484896 -0.50842154 -0.7206821 0.22093095 -0.74386007 -0.92122674 -0.595628
-0.56372744 -0.1279312 0.4716468 0.09721635 -0.81966114 -0.5490013 -0.28733778 0.33474258
0.47525874 -0.8224172 -0.5410388 0.3430378 -0.24372418 -0.63961 0.14577727 -1.3967487
0.28325784 -0.5476442 -0.7413117 -0.48904496 0.2727034 0.26087 0.16985382 0.06311202
0.2710279 -1.0402417 -0.581775 -0.42684576 0.31910026 -0.5580843 -0.58764493 -0.6434007
0.19957155 -0.47984773 -0.6357297 -0.607047 0.36632246 -0.6748613 -0.7363167 0.42194116
