models/ogbl-collab_CN_2_1_0_run5_sigvae.pt (torch, 160127 bytes, 6 tensors)

z_embedding.weight f4 [1000, 32]
0	0x3ff69326	1.9263656
1	0x3fc02a77	1.5012959
2	0x3f6baac1	0.92057425
3	0xc006e719	-2.107855
4	0x3f2bb4b8	0.6707263
5	0xbf95fb3f	-1.1717299
6	0xbdc13b48	-0.09435135
7	0xbfcae658	-1.5851545
8	0xbf385741	-0.7200814
9	0x3fd1dbb7	1.6395177
10	0xbeb7bfa5	-0.358884
11	0xbfafe8f1	-1.3742963
12	0xbf40136d	-0.7502964
13	0xbf0f35ad	-0.5594128
14	0xbf319bc9	-0.69378334
15	0x3f4b9a07	0.795319
16	0x3fcb2410	1.587038
17	0xbded3df9	-0.11584086
18	0xbee4e858	-0.44708514
19	0x3ebd6375	0.36989942
20	0xbf40a298	-0.752481
21	0x3f84b727	1.0368394
22	0x3f55c188	0.8349843
23	0x3fdacc5d	1.7093617
24	0x3fa2cfe7	1.2719697
25	0x3f9f29a6	1.2434585
26	0x3f19d050	0.60083485
27	0x3fa7862f	1.3087825
28	0xbe4ef45d	-0.20210405
29	0x3d075d49	0.033047948
30	0xbe879b0d	-0.26485482
31	0x3f4fac17	0.81121963
32	0xc031118c	-2.766696
33	0xc02ab5d8	-2.6673489
34	0xbf8eab66	-1.1146057
35	0x402280f8	2.5391216
36	0x3f628373	0.88481826
37	0xbe18a4cb	-0.14906614
38	0x3fd3a58a	1.6534894
39	0xbfc88573	-1.5665725
40	0xc00a4c7e	-2.1609187
41	0x3f7beec9	0.9841123
42	0xc00a8e76	-2.1649451
43	0xbf882448	-1.0636072
44	0xc00e1341	-2.2199252
45	0x405f022a	3.484507
46	0xc018742d	-2.3820908
47	0xbf389c02	-0.7211305
48	0xbf94c5e5	-1.1622893
49	0xbffb06f4	-1.9611497
50	0xbea9cce2	-0.33164126
51	0x3ffd7d9d	1.9803959
52	0xbf6e1193	-0.92995566
53	0x3ff9a4f7	1.9503468
54	0xc0172750	-2.3617744
55	0xbf87d73c	-1.0612559
56	0xc066c89c	-3.6059942
57	0xbf873e1b	-1.0565828
58	0xbf01d921	-0.5072194
59	0x3fe9fa32	1.8279479
60	0x3f0b7ef9	0.5449062
61	0x402b2446	2.674089
62	0xc001cd0d	-2.0281403
63	0x400ff770	2.2494774
64	0x3fb8fa25	1.4451338
65	0x3f5b3dda	0.85641253
66	0x400df4f4	2.2180758
67	0x3f05ee2d	0.5231655
68	0x3eb17bac	0.34664667
69	0xbe4a1141	-0.19733144
70	0xbf86fcc5	-1.0545889
71	0x3fa3955c	1.2779956
72	0xbe30529c	-0.17219013
73	0x3f061700	0.52378845
74	0x3d67ec48	0.05662182
75	0x3eda437d	0.42629614
76	0x3f133388	0.57500505
77	0xbf244808	-0.6417241
78	0xc00d35a2	-2.2063985
79	0xbf4034a1	-0.75080305
80	0x3c32104d	0.010868144
81	0xbead6fa3	-0.33874235
82	0xbfab9b63	-1.3406795
83	0xbf15dad8	-0.58537054
84	0x3f0943a0	0.5361881
85	0x3f064dab	0.5246226
86	0x3f9212e5	1.1412016
87	0x3d53883c	0.051643595
88	0x3f3e73a3	0.743952
89	0xbef6923b	-0.4815844
90	0xbf8654e8	-1.0494661
91	0x3f1a991d	0.6038988
92	0xbfdc742a	-1.722295
93	0xbf53e8a9	-0.82776886
94	0x3faad78c	1.334703
95	0x3ef79276	0.48353928
96	0xc0209c60	-2.5095444
97	0x3ef9db46	0.48800105
98	0x3f48daaf	0.78458685
99	0x3ceaad81	0.028647186
100	0x3f24088a	0.6407553
101	0x3f154fb4	0.5832474
102	0x3f88910e	1.0669267
103	0xbee67a81	-0.45015338
104	0xbe3db6c2	-0.18526748
105	0x3f40b4ce	0.75275886
106	0x3ecf3c6a	0.4047578
107	0x3e36bfca	0.17846599
108	0x3e87a238	0.2649095
109	0x3fa2f72e	1.2731683
110	0xbaabd149	-0.0013108636
111	0xbe9b71f4	-0.30360377
112	0xbfba7fee	-1.4570291
113	0xbdd19523	-0.10233524
114	0xbf196218	-0.59915304
115	0x3ef440bd	0.4770564
116	0x3f39e6c0	0.7261772
117	0x3dbaadd4	0.09115186
118	0xbec7338e	-0.3890652
119	0x3f072589	0.5279165
120	0xbc4fd6c1	-0.012685479
121	0x3e769dcc	0.24083632
122	0x3e07b75a	0.13253537
123	0x3f43a546	0.7642406
124	0x3f8c2947	1.0950097
125	0x3eae0630	0.33989096
126	0x3f384fca	0.7199675
127	0x3ed2a405	0.41140762
128	0x3ff73045	1.9311606
129	0x3f8184c1	1.0118638
130	0xbfb7dc2b	-1.4364065
131	0xbf909f3f	-1.1298598
132	0xbe0b4ca3	-0.13603453
133	0x3fd1551a	1.6354096
134	0x3f279d17	0.65474075
135	0x3f137509	0.57600456
136	0x3f921cef	1.141508
137	0x3c9814bd	0.018564576
138	0xbfe7249f	-1.8058051
139	0x3f6ce94d	0.9254349
140	0xbec02d23	-0.37534437
141	0x3f843c35	1.0330874
142	0xbf2fc85b	-0.68665093
143	0x3f230638	0.63681364
144	0xbf790128	-0.9726739
145	0x3f755d7d	0.95845777
146	0x3fcf41f6	1.6192005
147	0x3fb9ad95	1.4506098
148	0x3e89f97c	0.26948154
149	0xbe576ccd	-0.21037598
150	0xbf3b98f6	-0.73280275
151	0x3dd59a1a	0.10429783
152	0x3eb28f95	0.3487517
153	0x3f77b440	0.96759415
154	0xbeee6eb7	-0.46568844
155	0x3fcd69ff	1.6047972
156	0xc01eba4a	-2.4801202
157	0xbed5c84b	-0.41754374
158	0xbf9904a1	-1.1954538
159	0x3f4ff550	0.8123369
160	0xbff34554	-1.9005532
161	0x3e6a0ff7	0.22857653
162	0x3ccba5f3	0.024859404
163	0xbeb12064	-0.34595025
164	0x3e92dbc0	0.2868328
165	0xbf3b187d	-0.7308424
166	0x3e330415	0.17482026
167	0xbf8c05e0	-1.0939293
168	0xbfcd1397	-1.6021603
169	0x3fad2bba	1.3528969
170	0x3fa4f84e	1.2888277
171	0x3d5633c7	0.052295472
172	0xbfc5ff32	-1.5468504
173	0x3f41b77d	0.75670606
174	0x3f468872	0.7755195
175	0x4001b2c2	2.0265355
176	0x3d12b57d	0.035817612
177	0x3df6f739	0.12058873
178	0xbf4e3ffa	-0.8056637
179	0xbe548f05	-0.20757683
180	0xbf6e9422	-0.9319478
181	0xbfcba4c8	-1.5909662
182	0xbf9167a7	-1.1359757
183	0xbf05c8f5	-0.5225976
184	0xbf04ce54	-0.5187733
185	0xbfc029d3	-1.5012764
186	0xbff69c9b	-1.9266542
187	0x3e02eb6f	0.12785123
188	0x3f82eed3	1.0229133
189	0xbf0e4897	-0.55579513
190	0x3f344b38	0.70427275
191	0x3f35ba6f	0.709876
192	0x3fe31f29	1.7743884
193	0xbf6beac4	-0.921551
194	0x3f76631e	0.9624499
195	0xbeac8d40	-0.33701515
196	0xbf967155	-1.1753336
197	0x3eb75342	0.35805708
198	0x3ef52111	0.4787679
199	0x3fad460b	1.3537
200	0x3f06ac01	0.5260621
201	0x40072ba1	2.112038
202	0xbf055057	-0.52075714
203	0xbf6e97f4	-0.9320061
204	0x3e3d9aef	0.18516134
205	0x3f88cae5	1.0686918
206	0x3fa73c85	1.3065344
207	0x3eeb6f6e	0.45983452
208	0xbf508b63	-0.8146269
209	0xbf82b7f8	-1.0212393
210	0xbefd669f	-0.49492356
211	0xbf179dce	-0.59225166
212	0x3e1e0500	0.15431595
213	0x3ee1ac39	0.44076708
214	0xbe17d9f0	-0.1482923
215	0xc0146160	-2.3184433
216	0xbecbc60b	-0.39799532
217	0x3f8a4d60	1.0804863
218	0xbfe3f35d	-1.7808644
219	0x3fc107a2	1.5080454
220	0x3e9e6d6b	0.30942854
221	0xbf001441	-0.50030905
222	0x3f847afc	1.0350032
223	0x3fd8465b	1.6896471
224	0xbb939f1d	-0.0045050518
225	0x3fd55974	1.6667924
226	0x3e1d9d40	0.15392017
227	0xbf87b65f	-1.060253
228	0xbf1299b0	-0.5726576
229	0x3dab25b8	0.08356804
230	0x3eccc065	0.39990535
231	0x3ffe9e57	1.9892071
232	0xbd936e30	-0.07198751
233	0xbf67f5cf	-0.9060945
234	0xc0031e1a	-2.0487123
235	0xbf8a6007	-1.0810555
236	0x3c905e47	0.01762308
237	0x3da034f2	0.078225985
238	0x3e45cb4a	0.1931583
239	0x3ed1c0b7	0.40967342
240	0xbf6ddb7c	-0.9291303
241	0x3e8d68e4	0.27619088
242	0xbf09f3bb	-0.5388753
243	0x3eecd797	0.46258232
244	0xbf5f3420	-0.8718891
245	0xbcde2753	-0.02711836
246	0xbeb4dca1	-0.35324576
247	0x3fbb5faa	1.4638569
248	0x3fa0b212	1.2554343
249	0xbf370758	-0.7149558
250	0x3f5a9a75	0.8539193
251	0x3f035364	0.5129912
252	0x3f0a2bd0	0.539731
253	0x3f10c4f0	0.565505
254	0x3f017b91	0.5057917
255	0x3e63cae4	0.22245365

gce.weight f4 [32, 32]
0	0xbe096a98	-0.13419569
1	0x3e825cbe	0.25461382
2	0xbe9775c9	-0.2958205
3	0x3d397129	0.045273934
4	0x3e7365ac	0.23769253
5	0x3e4440f2	0.191654
6	0x3de985c5	0.11402468
7	0x3e95b348	0.29238343
8	0x3d0231a7	0.031785633
9	0x3ec27eee	0.37987465
10	0x3e8b49af	0.27204654
11	0x3e74ff5c	0.23925537
12	0xbecaa4dd	-0.39578906
13	0x3d2e5378	0.04256007
14	0x3e235761	0.15951301
15	0x3e2686b8	0.16262329
16	0x3df96fb7	0.12179511
17	0xbebc5b87	-0.3678858
18	0xbdc10c79	-0.09426207
19	0xbdb36562	-0.087595716
20	0xbe515790	-0.20443559
21	0x3e441bb1	0.19151188
22	0x3e7fea00	0.24991608
23	0x3d94f166	0.072726056
24	0xbe3ee6c5	-0.18642719
25	0x3decadb4	0.11556569
26	0x3ac9d557	0.0015398663
27	0xbea1dabf	-0.31612203
28	0xbe270b1f	-0.16312836
29	0x3dd3dcab	0.103448234
30	0x3ca81c98	0.020521447
31	0xbca55d4c	-0.020186089
32	0x3e73d806	0.23812875
33	0xbdf057d7	-0.11735504
34	0x3d974207	0.073856406
35	0xbe7ca199	-0.2467102
36	0xbdac140e	-0.08402263
37	0x3dc69fbc	0.09698436
38	0x3e9c53e6	0.3053276
39	0x3e92b4f6	0.28653687
40	0xbbd07a31	-0.0063622226
41	0xbe4f9389	-0.20271124
42	0xbe011171	-0.1260431
43	0xbcf9cada	-0.030492235
44	0xbe153546	-0.14571103
45	0xbe52d771	-0.20589997
46	0x3f0600b6	0.52344835
47	0x3e904b50	0.2818246
48	0xbe82ec38	-0.25570846
49	0xbe76f389	-0.24116339
50	0x3d87a7cd	0.06623802
51	0x3e88d2b9	0.2672327
52	0x3e5842c2	0.21119216
53	0xbe943de4	-0.2895347
54	0x3ea5fdcd	0.32420197
55	0x3e70dbd8	0.23521364
56	0x3e4a6843	0.19766335
57	0xbc058b93	-0.008150953
58	0xbe3803f4	-0.17970258
59	0xbe09fd3c	-0.13475507
60	0x3e50c7a6	0.2038866
61	0x3e60ce57	0.21953712
62	0x3e867d43	0.26267442
63	0xbdf408e6	-0.1191576
64	0x3e71ce23	0.23613791
65	0x3e746c77	0.23869501
66	0x3e41710b	0.18890779
67	0xbeb802fc	-0.35939777
68	0xbec2e2ba	-0.38063604
69	0x3eb61dd0	0.3556962
70	0xbccff2bd	-0.025384301
71	0x3d7d1612	0.061788626
72	0x3e53e61e	0.20693251
73	0x3e4b1280	0.19831276
74	0x3d3b636c	0.045749113
75	0xbd386426	-0.045017384
76	0x3b623cf7	0.00345212
77	0xbe42b94d	-0.19015999
78	0x3eec2812	0.4612432
79	0x3e98fa9e	0.29878706
80	0xbe53b448	-0.2067424
81	0xbe509936	-0.20370945
82	0xbe571661	-0.2100463
83	0x3eb9b085	0.36267486
84	0xbe8bf373	-0.27334175
85	0xbd165177	-0.036698785
86	0x3ebe3cf8	0.3715589
87	0x3cee961c	0.029124312
88	0xbe0a42b0	-0.13502002
89	0xbca76c72	-0.020437453
90	0x3e086040	0.13317966
91	0xbdf3c179	-0.11902136
92	0xbede7cb6	-0.43454522
93	0xbe02ccba	-0.1277341
94	0x3e4bc1d0	0.19898152
95	0x3d02647f	0.03183412
96	0xbec640e6	-0.3872139
97	0x3de96a59	0.11397237
98	0x3cf9b652	0.030482445
99	0x3e502fce	0.20330736
100	0x3efcf5c9	0.4940627
101	0xbe7d9b92	-0.24766377
102	0x3deb50a5	0.11489991
103	0xbd0f5c8d	-0.035000373
104	0x3eab906e	0.3350863
105	0x3e7fa93e	0.24966905
106	0x3e129483	0.14314465
107	0xbebdc3b0	-0.3706336
108	0xbd3f4c11	-0.046703402
109	0xbcf9a73f	-0.030475257
110	0xbed1740b	-0.40908846
111	0x3e89271c	0.2678765
112	0x3d4ced7d	0.050031174
113	0x3ebc893a	0.36823446
114	0xbd266106	-0.040619873
115	0x3dac0ade	0.0840051
116	0xbed0e3ac	-0.407987
117	0xbcba5a01	-0.022747995
118	0xbc3e41e3	-0.011612388
119	0xbe812cb8	-0.2522943
120	0x3e0419bb	0.1290044
121	0xbddb3af1	-0.107046016
122	0x3dd54939	0.10414357
123	0xbea5ca8e	-0.323811
124	0xbda44cce	-0.08022462
125	0xbe6fddf7	-0.23424517
126	0xbdf62395	-0.120185055
127	0xba844227	-0.0010090516
128	0x3d49e1ff	0.049287792
129	0xbe62de6d	-0.22155161
130	0xbe3ec4f7	-0.18629824
131	0x3ea8f416	0.32998723
132	0x3ec97d2e	0.39353317
133	0xbd36c15d	-0.044618
134	0xbe622b90	-0.2208693
135	0x3d6d5da1	0.05795062
136	0x3e34a13b	0.1763963
137	0x3dca2eaf	0.098721854
138	0xbe88a50a	-0.26688415
139	0xbea18f03	-0.31554422
140	0x3d39523c	0.04524444
141	0xbd9c6dbe	-0.07638119
142	0xbded5ffa	-0.11590572
143	0x3e1a8e37	0.15093313
144	0x3e96ee46	0.29478663
145	0x3efe4106	0.49658984
146	0xbe4e15b7	-0.20125471
147	0x3e31df9c	0.17370456
148	0xbe72ef04	-0.2372399
149	0x3e86f726	0.26360434
150	0xbe3ca011	-0.18420435
151	0xbd38371f	-0.044974443
152	0x3e40ca91	0.18827273
153	0x3c94fded	0.018187487
154	0x3d3ede38	0.046598643
155	0xbe704fc2	-0.23467925
156	0xbd960896	-0.073258564
157	0xbe06fc1c	-0.1318211
158	0x3ebfbd1b	0.37448964
159	0x3e3d7d71	0.18504883
160	0x3e138cb2	0.1440914
161	0xbe96261f	-0.2932596
162	0xbddc9de4	-0.10772303
163	0x3e9060b7	0.28198788
164	0x3c979d11	0.018507512
165	0xbeaa6127	-0.33277246
166	0x3d7959a9	0.060876522
167	0x3e82c796	0.25542897
168	0x3e55f04e	0.2089245
169	0x3e92e2e8	0.2868874
170	0xbd98d791	-0.07462991
171	0x3e9ba63b	0.3040026
172	0xbd12d95b	-0.035851818
173	0xbdab995e	-0.08378862
174	0x3edcaf77	0.4310262
175	0x3df0b8e5	0.11754016
176	0xbdeb7799	-0.11497421
177	0x3e77c794	0.24197227
178	0xbe11a9b7	-0.14224897
179	0x3d8f759b	0.07004853
180	0xbe6056a1	-0.21908046
181	0xbcc5bb65	-0.024137208
182	0xbc3e69eb	-0.0116219325
183	0xbda818da	-0.08207865
184	0x3e3ad591	0.18245532
185	0x3d5927f2	0.05301661
186	0xbc8db831	-0.017299743
187	0x3e35fe08	0.17772686
188	0xbe8eae0e	-0.27867168
189	0x3e1da95f	0.15396641
190	0x3e871007	0.26379415
191	0xbdbe2100	-0.09283638
192	0xbdfb2ab4	-0.12264004
193	0x3d8a93bb	0.067664586
194	0xbeafbaca	-0.34322196
195	0x3eca859a	0.39555055
196	0x3eb1fa27	0.34761164
197	0xbe4fc5c3	-0.20290284
198	0xbd966ac2	-0.07344581
199	0xbee17c00	-0.44039917
200	0xbe9cc470	-0.3061862
201	0x3e1ede6b	0.15514533
202	0xbe023037	-0.12713705
203	0x3ccdcc40	0.025121808
204	0x3e650352	0.22364548
205	0x3e1d5939	0.15366067
206	0xbd720143	-0.059083235
207	0xbe7f9396	-0.24958643
208	0xbe004456	-0.12526068
209	0x3f0f83da	0.56060565
210	0xbec50af4	-0.3848492
211	0x3e9b74ab	0.30362448
212	0x3eb064c8	0.3445189
213	0xbe3abcd9	-0.18236102
214	0xbd5cabee	-0.053874902
215	0xbe9738d4	-0.29535544
216	0x3e8bec07	0.27328512
217	0x3d6551da	0.055986263
218	0x3da4c5c6	0.08045535
219	0xbd5836de	-0.0527867
220	0x3ec09922	0.3761683
221	0x3cb02e27	0.021506382
222	0x3eab0e09	0.33409145
223	0xbb6fe360	-0.0036604032
224	0x3d8365b0	0.0641588
225	0x3e0dc2f5	0.13843901
226	0xbd24ae71	-0.040205423
227	0x3d77823b	0.06042693
228	0xbe915caf	-0.28391024
229	0xbdf43dea	-0.11925872
230	0x3c11b9e1	0.008894415
231	0xbebe28e9	-0.37140587
232	0x3e5664ca	0.20936885
233	0x3e785065	0.24249418
234	0xbda13ae6	-0.07872562
235	0x3e440408	0.19142163
236	0xbedd5aa1	-0.43233207
237	0xbe9ebaa8	-0.31001782
238	0x3ecfcfa8	0.40588117
239	0x3e08d353	0.13361864
240	0x3d5f4c0f	0.054515895
241	0xbe2250c5	-0.15851124
242	0x3e97877b	0.2959555
243	0x3e17a6b3	0.14809684
244	0x3d026748	0.031836778
245	0x3e8439f3	0.25825462
246	0xbda99f2c	-0.08282313
247	0xbeb87f86	-0.36034793
248	0x3e625397	0.221022
249	0x3e37bade	0.17942378
250	0xbc39184e	-0.011297299
251	0x3db91395	0.09036938
252	0xbd287d2f	-0.04113501
253	0x3d5812f4	0.05275245
254	0xbdccc85a	-0.099991515
255	0x3e3e5aba	0.18589297

gc1.weight f4 [160, 32]
0	0xbcf94d59	-0.03043239
1	0xbd85bb3c	-0.06529853
2	0x3dac3e60	0.084103346
3	0xbd8995cc	-0.067180246
4	0xbdcdd108	-0.10049635
5	0x3cfb7d9c	0.030699544
6	0xbcd4fce9	-0.025999503
7	0xbe5565fc	-0.20839685
8	0xbec8bf94	-0.39208663
9	0x3e02c0e3	0.12768893
10	0x3d91423e	0.07092713
11	0x3b281486	0.0025646999
12	0xbd9208e4	-0.07130602
13	0xbdcc4fb8	-0.09976143
14	0x3ca47200	0.02007389
15	0xbe27af80	-0.16375542
16	0xbe5938c0	-0.21213055
17	0x3c9d21f2	0.019181225
18	0xbc96807f	-0.018371819
19	0xbe62ddc9	-0.22154917
20	0x3e3dcd51	0.18535353
21	0xbdd28b41	-0.10280467
22	0x3d4443a6	0.047916077
23	0xbda265b5	-0.07929555
24	0x3e96e8a2	0.2947436
25	0xbe841cf1	-0.2580333
26	0x3ce182b8	0.027528152
27	0x3d902af0	0.0703944
28	0xbe5de805	-0.2167054
29	0xbd12f110	-0.035874426
30	0xbe7e1913	-0.24814253
31	0xbc250e7f	-0.010074257
32	0x3e428a5b	0.18998091
33	0x3b978372	0.004623824
34	0xbe5f3d0d	-0.21800633
35	0x3d8a70d7	0.06759804
36	0x3cc6c84c	0.02426543
37	0x3c4839ad	0.012220782
38	0xbe70d53b	-0.23518841
39	0x3e8ab103	0.27088174
40	0x3f292e50	0.6608629
41	0x3e4fdbea	0.20298734
42	0x3bedf926	0.007262367
43	0x3c80f596	0.015742105
44	0xbdac6e2d	-0.08419452
45	0x3e287098	0.16449201
46	0xbd457628	-0.048208386
47	0xbdba178f	-0.09086525
48	0x3e4e1d8c	0.20128459
49	0xbdaec452	-0.08533539
50	0xbda95430	-0.082680106
51	0x3e2bcc62	0.16777185
52	0xbeafff12	-0.3437429
53	0x3ead4551	0.33841947
54	0xbeca3389	-0.39492443
55	0x3eff67ef	0.49883983
56	0x3c35d04e	0.011097027
57	0xbdd740ae	-0.105103835
58	0x3d2f6aa4	0.04282631
59	0x3e4c1c2b	0.1993262
60	0xbe29cda9	-0.1658236
61	0x3e6d1345	0.23151882
62	0x3e9db580	0.30802536
63	0xbf434557	-0.7627768
64	0x3e0b9c80	0.13633919
65	0xbe2253b5	-0.15852244
66	0x3c5c1945	0.013433759
67	0x3deb4199	0.11487121
68	0x3da724b9	0.08161301
69	0xbd8bc489	-0.068245955
70	0x3e8b24de	0.27176565
71	0xbe807634	-0.25090182
72	0xbcabd98f	-0.020977763
73	0xbe226228	-0.15857756
74	0xbcd6daa0	-0.026227295
75	0xbe6be1f0	-0.23035407
76	0x3da646d1	0.08118976
77	0xbd978e2f	-0.07400166
78	0xbe20162f	-0.15633462
79	0xbd8884b9	-0.0666594
80	0xbd34e820	-0.044166684
81	0x3d97d97f	0.07414531
82	0x3d3836ce	0.04497414
83	0x3e16c756	0.14724478
84	0xbd4969e7	-0.049173262
85	0x3e074c66	0.13212737
86	0xbe2fa1b0	-0.17151523
87	0xbe905311	-0.28188375
88	0x3e358fd6	0.1773065
89	0xbe5af729	-0.21383347
90	0xbdbe5a91	-0.09294618
91	0x3d183595	0.037160475
92	0xbd324104	-0.043519035
93	0x3db4690f	0.08809101
94	0xbd893c9e	-0.06701015
95	0x3dc48b32	0.09596862
96	0xbed49860	-0.41522503
97	0xbd306360	-0.04306352
98	0xbe4d918f	-0.20075057
99	0x3df6859e	0.12037204
100	0xbd93771c	-0.07200453
101	0x3dbe849d	0.09302638
102	0xbe6cec1e	-0.23136947
103	0x3e59751a	0.21236077
104	0x3ebb2a8d	0.365559
105	0xbc82789a	-0.015926648
106	0x3c049ea7	0.008094466
107	0xbdf87338	-0.12131351
108	0xbea7dce7	-0.32785723
109	0xbd02c9a2	-0.031930573
110	0x3d51f6e0	0.05126083
111	0x3d0b36cc	0.033987805
112	0x3d982575	0.07429019
113	0xbda589e9	-0.08082945
114	0xbe776d78	-0.24162853
115	0xbe329d36	-0.17442784
116	0xbdc1da04	-0.09465411
117	0x3c87bc36	0.016569238
118	0xbe584b1f	-0.21122406
119	0x3e400fda	0.18756047
120	0xbdf9ce67	-0.12197571
121	0xbef4e315	-0.478295
122	0xbcbb69c7	-0.022877587
123	0x3e83654f	0.2566323
124	0xbe0c6af5	-0.13712676
125	0x3de8d8a5	0.11369447
126	0x3e4dc8f9	0.20096196
127	0xbede66e7	-0.43437883
128	0x3c18fc14	0.009337444
129	0x3d9790db	0.07400676
130	0x3e4c5609	0.19954695
131	0xbc79908d	-0.0152322175
132	0xbe00ad9b	-0.12566225
133	0xbd229b7d	-0.039699066
134	0x3ce2d7bb	0.027690759
135	0x3dae7d42	0.08519985
136	0xbd750800	-0.059822083
137	0x3e1adddd	0.15123697
138	0x3e5eeefa	0.2177085
139	0x3ead550d	0.3385395
140	0xbde69ea4	-0.11260727
141	0xbd2ebbb0	-0.04265946
142	0xbd33eb69	-0.043925676
143	0x3e91d5d1	0.2848344
144	0x3dc3de51	0.09563888
145	0x3dba6253	0.09100785
146	0xbec1e745	-0.37871757
147	0x3da0d2ba	0.07852693
148	0x3e9e271d	0.30889216
149	0xbd77702c	-0.06040971
150	0xbd9451e3	-0.07242181
151	0xbe20871a	-0.15676537
152	0xbd9fad71	-0.07796753
153	0x3dffdd16	0.12493341
154	0x3e81bf3d	0.25341216
155	0xbced83cd	-0.028993512
156	0x3dc3dd12	0.0956365
157	0x3e248f3e	0.16070268
158	0xbe7877ca	-0.24264446
159	0xbdfb1986	-0.122607276
160	0x3d8fb5a5	0.07017068
161	0xbef1000a	-0.47070342
162	0xbc27c1d5	-0.010239084
163	0x3d0c7c07	0.03429797
164	0x3dac9183	0.08426192
165	0xbe43a6f7	-0.19106661
166	0xbdfaf8bd	-0.12254474
167	0x3eff95e7	0.49919054
168	0x3d28642d	0.04111116
169	0xbe5907c6	-0.21194372
170	0x3db52475	0.08844844
171	0xbf0254e4	-0.5091078
172	0xbc26384c	-0.010145258
173	0x3de29050	0.11062682
174	0xbde8cf47	-0.1136766
175	0x3e2325de	0.15932414
176	0x3e8f49cd	0.27985993
177	0xbc801b57	-0.015638037
178	0x3e263603	0.16231541
179	0xbdb388d4	-0.08766332
180	0xbe76f092	-0.24115208
181	0x3dd71663	0.10502317
182	0xbd061bc3	-0.03274132
183	0x3e8f7778	0.28020835
184	0xbdf527b8	-0.119704664
185	0xbf13283f	-0.57483286
186	0xbeb090a6	-0.34485358
187	0xbecf889a	-0.40533906
188	0xbefe1cd5	-0.49631372
189	0x3c5170e5	0.012783264
190	0x3e6a319c	0.22870487
191	0xbe670c36	-0.22563252
192	0x3cdf54e5	0.02726216
193	0x3d500fb0	0.05079621
194	0x3e03e17b	0.12878983
195	0xbc33455a	-0.010941828
196	0x3c3273c3	0.010891858
197	0x3db75610	0.08951962
198	0x3cccafdb	0.024986198
199	0x3dd00685	0.101574935
200	0xbd919a0f	-0.071094625
201	0x3d4e3fce	0.050353818
202	0xbe1ac2c9	-0.15113367
203	0x3dd94a42	0.10609867
204	0x3c7c98a4	0.015417252
205	0xbd18a07e	-0.037262432
206	0x3e2d4f63	0.16924815
207	0x3d91435a	0.070929244
208	0xbc1ebabd	-0.009688077
209	0xbd1d824e	-0.038454346
210	0x3e1823ca	0.14857402
211	0xbb27e4d6	-0.0025618575
212	0xbcebd879	-0.028789746
213	0xbc794d0c	-0.015216123
214	0xbd7b44ea	-0.06134502
215	0xbde2524c	-0.11050853
216	0x3d0ab871	0.033867303
217	0xbdc9f31f	-0.09860825
218	0xbd87d8b2	-0.06633128
219	0x3d9e6822	0.077347055
220	0xbe2c72b3	-0.1684063
221	0xbda2a0d1	-0.079408295
222	0xbdfdd55b	-0.1239421
223	0x3d1bcdf4	0.03803821
224	0xbd91e604	-0.0712395
225	0xbe1ee57e	-0.15517232
226	0x3e88c692	0.26713997
227	0xbcb63cd2	-0.022245798
228	0x3dd985d2	0.10621227
229	0x3e707035	0.23480304
230	0x3e416c5d	0.18888994
231	0xbcb2c433	-0.02182207
232	0xbdfa0119	-0.122072406
233	0xbd2686fd	-0.04065608
234	0x3cff5e47	0.031172885
235	0x3de91c63	0.113823675
236	0xbe2733b9	-0.16328324
237	0x3d67af27	0.056563523
238	0xbdf081bb	-0.11743494
239	0x3da213ca	0.07913931
240	0xbe228c85	-0.15873916
241	0x3d416222	0.047212727
242	0xbd170861	-0.036873225
243	0xbdc82e3c	-0.097744435
244	0xbda17b77	-0.07884877
245	0xbd734ae3	-0.05939759
246	0x3d10f563	0.03539027
247	0x3dea6963	0.11445882
248	0x3e0b7b9b	0.1362137
249	0xbcb984f2	-0.022646401
250	0xbdaead95	-0.08529202
251	0x3e8db88f	0.2767987
252	0xbe42a5c7	-0.19008552
253	0xbd06cee7	-0.03291216
254	0xbd0813d4	-0.033222035
255	0x3b9238e4	0.0044623483

gc2.weight f4 [32, 16]
0	0xbf129093	-0.5725185
1	0x3d9936c9	0.074811526
2	0x3e6491b6	0.2232121
3	0x3db301b3	0.087405585
4	0x3f33abcb	0.7018401
5	0x3ec2c962	0.38044268
6	0x3f0c0f0f	0.5471048
7	0xbe8f0ccf	-0.2793946
8	0x3f7dc4b2	0.9912826
9	0xbd335035	-0.043777663
10	0x3ef4beea	0.47801906
11	0xbfb03f45	-1.3769308
12	0xbe2ce7b1	-0.16885258
13	0x3dd2980b	0.10282906
14	0x3e6a3a8a	0.22873893
15	0x3ec4b13d	0.38416472
16	0x3f8a3c32	1.079962
17	0x3eca91e8	0.39564443
18	0xbf27e109	-0.6557775
19	0x3a11eb6d	0.0005566392
20	0x3d454bb6	0.048167907
21	0x3f267525	0.650225
22	0x3e103ce3	0.14085726
23	0xbd12e077	-0.035858598
24	0xbf718a05	-0.94351226
25	0xbc08e29d	-0.00835481
26	0x3f46abc6	0.77605855
27	0xbe8494f4	-0.25894892
28	0x3e2a0fb5	0.16607554
29	0x3f1bdddc	0.60885406
30	0xbf94c950	-1.1623936
31	0xbcf9e000	-0.03050232
32	0x3eb1495f	0.3462629
33	0xbd89fc9e	-0.06737636
34	0xbe84736f	-0.2586932
35	0xbe12dae2	-0.1434131
36	0xbe366614	-0.17812377
37	0x3d2f5790	0.042808115
38	0x3d4eee6b	0.05052034
39	0x3d894229	0.06702072
40	0xbe39b923	-0.1813703
41	0xbd906d34	-0.07052079
42	0x3eb5d5b9	0.3551462
43	0x3e4b3ba1	0.19846965
44	0x3e3c1074	0.18365651
45	0xbe92a604	-0.28642285
46	0x3eaf939f	0.34292313
47	0x3ebb7e77	0.36619923
48	0xbea80ef4	-0.32823908
49	0xbf4bbee5	-0.79588157
50	0x3e490f1c	0.1963467
51	0xbeccdfd0	-0.40014505
52	0x3ddb23de	0.107002005
53	0xbe75673c	-0.23965162
54	0x3ec5209c	0.3850144
55	0xbe67405c	-0.22583145
56	0x3dd164a9	0.102242775
57	0xbe8c5bf9	-0.2741392
58	0xbea413b2	-0.32046276
59	0x3edfcde3	0.43711767
60	0x3e9fde95	0.31224504
61	0xbeb9af4a	-0.36266547
62	0x3d196b98	0.037456125
63	0x3e4d550f	0.20051979
64	0x3e2e83ea	0.17042509
65	0xbebafd5c	-0.36521423
66	0x3d9ae80b	0.0756379
67	0x3d9d5b48	0.07683426
68	0x3e2d9216	0.16950259
69	0xbefc1df4	-0.49241602
70	0x3e02e989	0.12784399
71	0xbe8cf819	-0.27533033
72	0xbe521d59	-0.20519008
73	0x3e3478b3	0.17624168
74	0x3eb14a30	0.34626913
75	0x3e11c5d0	0.14235616
76	0xbe022c94	-0.12712318
77	0x3eb6b568	0.35685277
78	0xbe922c58	-0.28549457
79	0x3cdc4337	0.02688752
80	0xbfdaff76	-1.710921
81	0x3f4d6f1e	0.80247676
82	0x3f2a5da2	0.6654912
83	0x40041714	2.0639086
84	0x3eed34ce	0.4632935
85	0xbe6517dd	-0.22372384
86	0x3ed79143	0.42103013
87	0x3e92abf7	0.28646824
88	0xbe31fa6c	-0.17380685
89	0x3f259c68	0.6469178
90	0xbf4bfcec	-0.79682803
91	0x3e7df471	0.24800278
92	0x3e008481	0.12550546
93	0x3eaf13da	0.34194833
94	0x3dca5c48	0.098808825
95	0xbebe78be	-0.37201494
96	0xbec4b6eb	-0.38420805
97	0x3f1b2e0e	0.6061715
98	0xbd9b2d5f	-0.07577013
99	0x3ecc0ebf	0.39855
100	0xbc610b7d	-0.013735649
101	0x3d6c1f0b	0.057646792
102	0x3ec5327f	0.38515088
103	0x3e4f58e9	0.2024876
104	0xbf0d01cc	-0.55080867
105	0xbd9496af	-0.07255303
106	0x3d68b09e	0.05680906
107	0x3e99aa1f	0.30012605
108	0x3eda1691	0.42595342
109	0x3da86318	0.08222026
110	0x3ea9de41	0.3317738
111	0xbe9a7f82	-0.30175406
112	0x3e7bdf22	0.24596837
113	0x3eb5f3e7	0.35537645
114	0x3ed58359	0.41701773
115	0xbed67eba	-0.4189356
116	0x3b670f55	0.0035256941
117	0x3ebe3960	0.3715315
118	0xbbfad7b9	-0.0076551107
119	0xbdf4f55c	-0.11960861
120	0x3ed72909	0.42023495
121	0x3ddd896a	0.10817225
122	0xbde8d5e6	-0.11368923
123	0xbf1167b6	-0.56798875
124	0xbee10b77	-0.4395406
125	0xbdf5d428	-0.12003356
126	0xbea3705b	-0.31921658
127	0x3e380840	0.17971897
128	0x3ca06152	0.019577656
129	0x3e88dabb	0.26729378
130	0xbe90e90f	-0.2830281
131	0x3f172ba7	0.59050983
132	0x3dc665a4	0.09687355
133	0xbf2c4001	-0.6728516
134	0x3d9b4b55	0.07582728
135	0x3e04bc27	0.129624
136	0xbed1455a	-0.40873224
137	0xbd6596f9	-0.056052182
138	0xbe47e34d	-0.19520302
139	0x3eaaf1df	0.33387658
140	0x3f061baf	0.5238599
141	0x3e850900	0.2598343
142	0xbf993b51	-1.1971227
143	0xbdf72ea5	-0.120694436
144	0xbe8cdc1e	-0.27511686
145	0x3e2c0c2d	0.1680152
146	0x3eb6b800	0.35687256
147	0xbf05bbac	-0.5223949
148	0xbf2f0ac9	-0.6837583
149	0xbec923f7	-0.39285251
150	0x3f4847bc	0.7823446
151	0x3f331550	0.69954395
152	0xbf5360c6	-0.8256954
153	0x3f7cf520	0.9881153
154	0xbec6fadf	-0.38863274
155	0xbf0df2e4	-0.55448747
156	0x3f930821	1.1486856
157	0x3e927279	0.2860296
158	0xbf188de4	-0.5959151
159	0x3e60dc2c	0.21958989
160	0xbe47cfde	-0.19512889
161	0x3e9f0453	0.31057987
162	0x3e9b9f04	0.30394757
163	0xbe9a5c49	-0.30148533
164	0xbe0215e4	-0.12703663
165	0x3ed39337	0.41323254
166	0xbe5673c0	-0.20942593
167	0xbeb42dcf	-0.351912
168	0x3eb2318a	0.3480342
169	0xbe94c7c1	-0.2905865
170	0x3da62ae1	0.08113647
171	0xbe0ff4a8	-0.14058173
172	0xbec0513b	-0.37561974
173	0xbe6dbfcf	-0.232177
174	0x3e31d0d8	0.17364824
175	0x3d8342ae	0.064092025
176	0xbf0f7a33	-0.56045836
177	0xbe5d954f	-0.21638988
178	0xbf2871c3	-0.65798587
179	0x3db9c979	0.09071631
180	0x3f490337	0.7852053
181	0x3ea39a59	0.31953695
182	0xbf7ada9d	-0.9798983
183	0xbf6d7fda	-0.9277321
184	0x3f95e897	1.1711606
185	0xbf278a53	-0.6544544
186	0x3f4068a7	0.75159687
187	0x3f869520	1.0514259
188	0xbf90d91b	-1.1316255
189	0xbf7f411b	-0.9970872
190	0x3e81c85c	0.25348175
191	0x3c80553e	0.015665647
192	0x3dedba55	0.11607806
193	0xbec82102	-0.39087683
194	0x3fb73a4a	1.4314663
195	0x3b1a3813	0.0023531958
196	0x3f3738a3	0.71570796
197	0xbd7d0aca	-0.061777867
198	0x3f6c9f4a	0.92430556
199	0x3f8bc9c8	1.0920954
200	0xbe2b3f3b	-0.1672334
201	0x3f966119	1.1748382
202	0x3e84f2d5	0.25966516
203	0xbe775693	-0.24154119
204	0x3e8f0b4b	0.27938303
205	0x3f211537	0.62922996
206	0xbf983abb	-1.1892923
207	0xbe6d25e5	-0.23158987
208	0x3f158814	0.58410764
209	0xbe4ebf35	-0.20190127
210	0xbdebdac2	-0.11516334
211	0xbe1c25ac	-0.15248746
212	0xbf645acb	-0.8920104
213	0x3f178a2f	0.59195226
214	0xbf229ce0	-0.6352062
215	0xbe902f91	-0.2816129
216	0x3e809c32	0.25119168
217	0xbf00adab	-0.50264996
218	0x3dd5f888	0.10447794
219	0xbf0fc8d1	-0.56165797
220	0xbf110b2f	-0.5665769
221	0xbed84dd5	-0.4224688
222	0x3ee66768	0.45000768
223	0x3ed64ba4	0.41854584
224	0x3ee16240	0.4402027
225	0x405ad329	3.4191382
226	0xc0047fc1	-2.0702975
227	0xc00c470c	-2.1918364
228	0x405bdbb0	3.4352837
229	0xc073d591	-3.80991
230	0x3f0bccbe	0.54609287
231	0x3fa3a8f7	1.2785939
232	0x3f6dade4	0.9284346
233	0xbe0b311b	-0.13592951
234	0xbead2c95	-0.33823076
235	0xbf7b8d1f	-0.9826221
236	0x3daebf58	0.0853259
237	0x3e6307d0	0.22170949
238	0xbecc2b05	-0.3987657
239	0xbf806e72	-1.0033705
240	0x3ed6ce0c	0.41954076
241	0x3e93b7c5	0.28851143
242	0xbe95f258	-0.29286456
243	0xbf163c93	-0.5868618
244	0xbf66cc6c	-0.90155673
245	0xbcd96b77	-0.026540501
246	0x3ce54d44	0.027990945
247	0xbdb18c29	-0.086693116
248	0x3e80602d	0.25073376
249	0xbe8e87d0	-0.27837992
250	0x3d81b2ec	0.06332955
251	0xbecf03e3	-0.40432653
252	0xbd5def5d	-0.054183353
253	0xbef1116d	-0.47083607
254	0x3e1a295e	0.15054843
255	0x3f1395b5	0.5765031

gc3.weight f4 [32, 16]
0	0xbe0e52b1	-0.13898732
1	0xbcfbbb20	-0.030728877
2	0x3e8ee04b	0.27905497
3	0xbdaab35b	-0.083349906
4	0xbd4c602e	-0.04989641
5	0x3cd37dd8	0.025816843
6	0xbdac4c8c	-0.08413038
7	0x3ee96f97	0.4559295
8	0xbf295452	-0.6614429
9	0xbe5cc1ee	-0.21558353
10	0x3f2b119c	0.66823745
11	0xbf389ff7	-0.72119087
12	0x3c82b002	0.015953068
13	0xbca89fbf	-0.020583985
14	0x3ecd822f	0.40138385
15	0xbe2887b8	-0.16458023
16	0xbebb1d87	-0.36545965
17	0xbebb9af6	-0.36641663
18	0xbf5accc1	-0.8546868
19	0xbee5a37a	-0.44851285
20	0xbe90d5d5	-0.2828814
21	0xbef43ee6	-0.47704238
22	0xbe441da9	-0.1915194
23	0xbf2e834e	-0.68169105
24	0xbec9b7a2	-0.39397913
25	0xbf25fe5e	-0.6484126
26	0x3e7ad293	0.2449439
27	0xbee1304c	-0.4398216
28	0xbef3ba94	-0.47603285
29	0xbe8b47a1	-0.27203086
30	0x3e7b4283	0.24537091
31	0xbeda7309	-0.4266589
32	0x3d4a97be	0.04946112
33	0xbe6522b7	-0.22376524
34	0xbdacac0a	-0.08431251
35	0x3d6a365b	0.057180744
36	0xbec429d7	-0.3831317
37	0xbde95132	-0.1139244
38	0xbdee4d00	-0.1163578
39	0xbf010179	-0.5039287
40	0xbe081f4e	-0.13293192
41	0x3e255769	0.16146626
42	0xbe7eba43	-0.2487574
43	0xbe6e0364	-0.23243481
44	0x3da99ef8	0.08282274
45	0xbd9b15f2	-0.07572545
46	0xbed7fb01	-0.42183688
47	0x3daa78d8	0.0832383
48	0x3e5bcdd2	0.21465233
49	0x3e6ba732	0.23012999
50	0x3e5655da	0.20931187
51	0xbd856342	-0.065130726
52	0xbe18448f	-0.14869903
53	0x3eae0260	0.33986187
54	0xbea2f8b1	-0.3183036
55	0xbd507f2d	-0.050902534
56	0x3dfe7bd2	0.124259606
57	0xbcfa1547	-0.030527724
58	0x3d58da79	0.052942727
59	0x3e0e559e	0.13899848
60	0xbe91cdf2	-0.28477436
61	0xbec4e08c	-0.38452566
62	0x3f1f78b0	0.6229353
63	0xbc1c39a8	-0.009535231
64	0x3d8c9109	0.06863601
65	0xbf39d762	-0.72594273
66	0xbeb3039b	-0.34963688
67	0x3c8d5e06	0.017256748
68	0x3cdd38f7	0.027004702
69	0xbed4e047	-0.4157736
70	0x3e3d1d5a	0.18468228
71	0xbeabfba3	-0.3359042
72	0x3da7fe61	0.08202816
73	0xbd5cc938	-0.053902835
74	0xbf6a5843	-0.91540927
75	0xbe66f51a	-0.22554436
76	0xbe1ea711	-0.15493418
77	0x3e4fb02e	0.20282051
78	0xbfa18621	-1.2619058
79	0x3be2e24f	0.0069239507
80	0x3e4f3895	0.20236428
81	0xbeb0a802	-0.3450318
82	0x3f1ddef6	0.61668336
83	0x3e93bcc7	0.28854963
84	0x3dae69af	0.08516251
85	0xbe777701	-0.2416649
86	0xbc5d7e60	-0.0135189
87	0x3ee9ef5c	0.4569043
88	0x3e5e1be9	0.21690334
89	0x3e8f1c35	0.27951208
90	0xbf308746	-0.6895641
91	0xbdd30584	-0.103037864
92	0xbd2b289b	-0.04178677
93	0x3ea105d9	0.31449774
94	0xbe92c91b	-0.28669056
95	0x3e4b6f84	0.19866759
96	0xbefa81b8	-0.48927093
97	0xbe4b772f	-0.19869684
98	0xbce276b7	-0.027644498
99	0xbe929386	-0.28628176
100	0xbe8a6043	-0.27026567
101	0xbef99dc0	-0.48753166
102	0x3e0729e1	0.1319957
103	0xbec3ce6b	-0.38243422
104	0xbc5b71b0	-0.013393804
105	0x3d58fc16	0.052974783
106	0xbf1ca573	-0.61189955
107	0xbe756337	-0.23963629
108	0xbd22f826	-0.039787434
109	0xbe8fdafb	-0.28096756
110	0xbf758189	-0.9590078
111	0xbde5dcee	-0.112237796
112	0xbea30ebd	-0.31847182
113	0xbec583a1	-0.38576987
114	0xbe02f7c1	-0.12789823
115	0xbf0ee5d0	-0.55819416
116	0xbe193486	-0.14961442
117	0xbe49ffb2	-0.19726446
118	0x3e58c116	0.21167406
119	0xbf141a39	-0.5785251
120	0xbf1a9f6f	-0.60399526
121	0x3e52fc3f	0.20604037
122	0xbf2fd099	-0.6867767
123	0xbf56c846	-0.83899343
124	0xbe62ea83	-0.22159772
125	0xbe119434	-0.14216691
126	0x3f51df68	0.81981516
127	0xbea58d1f	-0.3233423
128	0xbf9a1a1a	-1.2039216
129	0x3eef827d	0.46779242
130	0xc00d40e4	-2.2070856
131	0xbe0c004e	-0.13671991
132	0x3e711039	0.23541345
133	0x3ecd5496	0.40103596
134	0xbf6c4f91	-0.9230891
135	0xc0415fad	-3.0214646
136	0xbf28db53	-0.6595966
137	0xbed44d74	-0.41465342
138	0x3f236dae	0.6383923
139	0x3daad799	0.08341903
140	0xbf63ede0	-0.89034843
141	0xbf4cd2c7	-0.8000912
142	0x3e7eba9c	0.24875873
143	0xbf313efc	-0.6923673
144	0x3cfe23fe	0.031023022
145	0xbe317319	-0.17329063
146	0x3e26d33b	0.16291516
147	0x3d6aad50	0.05729419
148	0xbecc04c9	-0.398474
149	0xbddb8158	-0.1071803
150	0x3e16700a	0.14691177
151	0x3e2077ea	0.15670744
152	0x3dd82dc6	0.105556056
153	0xbd2ef26a	-0.042711653
154	0xbe46cca6	-0.19414005
155	0x3d639786	0.055564426
156	0x3e0825eb	0.13295715
157	0x3e58ea9e	0.2118325
158	0x3d8c55a7	0.068522744
159	0x3e294285	0.16529281
160	0x3c8bc536	0.017061811
161	0x3d80bba5	0.0628579
162	0xbd443bfe	-0.047908776
163	0xbe87caa3	-0.26521787
164	0xbe964645	-0.29350486
165	0xbf12631f	-0.57182497
166	0x3de0a708	0.10969359
167	0xbe83410f	-0.25635573
168	0xbdfb8fdb	-0.12283298
169	0xbeba5623	-0.36393842
170	0xbe96f6bd	-0.2948512
171	0xbd5cb07b	-0.053879242
172	0x3e0d1b01	0.13779832
173	0xbe5cc345	-0.21558864
174	0xbe3a8963	-0.18216471
175	0xbcae07d0	-0.02124396
176	0x3e3c9117	0.18414722
177	0x3e950183	0.29102716
178	0xbdf011d0	-0.117221475
179	0x3d29da7a	0.04146812
180	0x3f12d2b4	0.5735276
181	0x3eb04fd4	0.34435904
182	0xbd596bd2	-0.05308134
183	0xbd9b43be	-0.0758128
184	0x3dd49e47	0.103817515
185	0x3e5fef10	0.21868539
186	0x3e872cbd	0.2640132
187	0x3e7a64b1	0.24452473
188	0xbd9a228d	-0.07526121
189	0xbdcc5dad	-0.09978805
190	0x3f1353bf	0.5754966
191	0x3d9f1603	0.0776787
192	0x3eb4b9c4	0.35297978
193	0x3e9c10f9	0.304817
194	0x3fcb02f0	1.5860271
195	0x3e97ba9d	0.29634562
196	0x3c799fa8	0.015235819
197	0x3f3aad11	0.7292033
198	0x3eac8c34	0.33700716
199	0x3feb2f2e	1.8373773
200	0x3ee171e4	0.44032204
201	0x3e7fe94a	0.24991336
202	0xbf6277ec	-0.88464236
203	0xbcf111b6	-0.02942739
204	0x3ea92123	0.33033094
205	0x3e73e73c	0.23818678
206	0x3f668216	0.90042245
207	0x3ef5e282	0.48024374
208	0xbea11aaa	-0.31465656
209	0xbed5f2d0	-0.41786814
210	0xbc9b5709	-0.0189624
211	0xbeae2fa0	-0.3402071
212	0xbe678fc6	-0.22613439
213	0xbece4007	-0.40283224
214	0xbe8ffc4c	-0.28122175
215	0xbec51c27	-0.3849804
216	0xbd5fcdc7	-0.054639604
217	0xbe71eaa3	-0.23624663
218	0x3eca1da5	0.39475742
219	0xbebea056	-0.37231702
220	0x3d986bea	0.07442458
221	0xbe84d599	-0.25944212
222	0x3ebfd360	0.37465954
223	0xbe34d0e2	-0.17657807
224	0x3d2ca2d6	0.04214748
225	0xbe18c621	-0.1491933
226	0x3e3effa3	0.18652205
227	0x3eac4ae2	0.3365088
228	0x3e194ec7	0.14971457
229	0x3d825ec1	0.06365729
230	0xbc29971e	-0.010350971
231	0xbe86417c	-0.26221836
232	0xbe56a13c	-0.20959944
233	0xbe2c93a5	-0.16853197
234	0xbe269396	-0.16267237
235	0xbea7a597	-0.32743523
236	0x3d984f6a	0.07437022
237	0xbc3b4dcb	-0.0114321215
238	0x3d5eb928	0.054375798
239	0x3e278dbd	0.16362663
240	0xbe0157d6	-0.12631163
241	0xbc14c967	-0.009081221
242	0xbddd4401	-0.10803986
243	0x3afe5fc3	0.0019407201
244	0x3d814370	0.06311691
245	0x3e51968c	0.20467585
246	0xbd48e3dd	-0.049045432
247	0xbe01cb27	-0.12675153
248	0x3e66c1d2	0.22534874
249	0xbd3504b1	-0.044193927
250	0xbd9fe7c9	-0.078078814
251	0x3df979f1	0.121814616
252	0x3dda37ba	0.1065516
253	0x3ea92094	0.33032668
254	0x3ee51d4c	0.44748914
255	0x3da7e893	0.08198657

dc.rk_lgt f4 [1, 16]
0	0xbffa7051	-1.9565526
1	0xbf89cb0e	-1.0765092
2	0xbfe8e02e	-1.8193414
3	0xbfea9aed	-1.832853
4	0xbfd97769	-1.6989566
5	0xbf28e889	-0.6597982
6	0xc062e572	-3.5452542
7	0xbf9774d6	-1.183253
8	0xbfd92234	-1.6963563
9	0xc057c1bb	-3.3711994
10	0xbda8721b	-0.08224889
11	0xc0037b8a	-2.0544152
12	0xc01edf32	-2.4823728
13	0xc052bd5a	-3.292807
14	0x3d22b6a2	0.039724953
15	0xc02b8b1c	-2.6803656
