models/ogbl-collab_CN_2_1_0_run3_sigvae.pt (torch, 160127 bytes, 6 tensors)

z_embedding.weight f4 [1000, 32]
1.9263656 1.5013195 0.9205705 -2.1078424 0.6707245 -1.1717048 -0.094357975 -1.5851517
-0.7201021 1.6395484 -0.35884702 -1.3742983 -0.75025433 -0.5594135 -0.69380105 0.79533285
1.5870174 -0.11580823 -0.44711196 0.36988604 -0.75249404 1.0368319 0.8349847 1.7093818
1.2719681 1.2434455 0.60083586 1.3088013 -0.20208342 0.033019874 -0.26486614 0.81121063
-2.7666976 -2.667349 -1.1146117 2.539139 0.88484097 -0.14905195 1.6534882 -1.5665635
-2.1609151 0.98413265 -2.164957 -1.0636005 -2.2198393 3.4845002 -2.3820796 -0.7211263
-1.1623057 -1.9611615 -0.3316011 1.980389 -0.9299607 1.9503332 -2.3617845 -1.0612539
-3.6059942 -1.0565931 -0.50722545 1.8279607 0.54491425 2.674067 -2.0281339 2.2494774
1.4451338 0.85641253 2.2180758 0.5231655 0.34664667 -0.19733144 -1.0545889 1.2779956
-0.17219013 0.52378845 0.05662182 0.42629614 0.57500505 -0.6417241 -2.2063985 -0.75080305
0.010868144 -0.33874235 -1.3406795 -0.58537054 0.5361881 0.5246226 1.1412016 0.051643595
0.743952 -0.4815844 -1.0494661 0.6038988 -1.722295 -0.82776886 1.334703 0.48353928
-2.5095444 0.48800105 0.78458685 0.028647186 0.6407553 0.5832474 1.0669267 -0.45015338
-0.18526748 0.75275886 0.4047578 0.17846599 0.2649095 1.2731683 -0.0013108636 -0.30360377
-1.4570291 -0.10233524 -0.59915304 0.4770564 0.7261772 0.09115186 -0.3890652 0.5279165
-0.012685479 0.24083632 0.13253537 0.7642406 1.0950097 0.33989096 0.7199675 0.41140762
1.9311606 1.0118638 -1.4364065 -1.1298598 -0.13603453 1.6354096 0.65474075 0.57600456
1.141508 0.018564576 -1.8058051 0.9254349 -0.37534437 1.0330874 -0.68665093 0.63681364
-0.9726739 0.95845777 1.6192005 1.4506098 0.26948154 -0.21037598 -0.73280275 0.10429783
0.3487517 0.96759415 -0.46568844 1.6047972 -2.4801202 -0.41754374 -1.1954538 0.8123369
-1.9005532 0.22857653 0.024859404 -0.34595025 0.2868328 -0.7308424 0.17482026 -1.0939293
-1.6021603 1.3528969 1.2888277 0.052295472 -1.5468504 0.75670606 0.7755195 2.0265355
0.035817612 0.12058873 -0.8056637 -0.20757683 -0.9319478 -1.5909662 -1.1359757 -0.5225976
-0.5187733 -1.5012764 -1.9266542 0.12785123 1.0229133 -0.55579513 0.70427275 0.709876
1.7743884 -0.921551 0.9624499 -0.33701515 -1.1753336 0.35805708 0.4787679 1.3537
0.5260621 2.112038 -0.52075714 -0.9320061 0.18516134 1.0686918 1.3065344 0.45983452
-0.8146269 -1.0212393 -0.49492356 -0.59225166 0.15431595 0.44076708 -0.1482923 -2.3184433
-0.39799532 1.0804863 -1.7808644 1.5080454 0.30942854 -0.50030905 1.0350032 1.6896471
-0.0045050518 1.6667924 0.15392017 -1.060253 -0.5726576 0.08356804 0.39990535 1.9892071
-0.07198751 -0.9060945 -2.0487123 -1.0810555 0.01762308 0.078225985 0.1931583 0.40967342
-0.9291303 0.27619088 -0.5388753 0.46258232 -0.8718891 -0.02711836 -0.35324576 1.4638569
1.2554343 -0.7149558 0.8539193 0.5129912 0.539731 0.565505 0.5057917 0.22245365
00000000: 2693 f63f 3d2b c03f 82aa 6b3f e4e6 06c0
00000010: 9ab4 2b3f 6cfa 95bf c13e c1bd 40e6 cabf
00000020: 9c58 38bf b9dc d13f ccba b7be 02e9 afbf
00000030: ab10 40bf b935 0fbf f29c 31bf ef9a 4b3f
00000040: 6323 cb3f de2c edbd dceb e4be b461 bd3e
00000050: 73a3 40bf e8b6 843f 8fc1 553f 06cd da3f
00000060: dacf a23f 3929 9f3f 61d0 193f cd86 a73f
00000070: f5ee 4ebe d93f 073d 899c 87be 80ab 4f3f
00000080: 9311 31c0 d9b5 2ac0 99ab 8ebf 4181 2240
00000090: f084 623f 13a1 18be 80a5 d33f 2785 c8bf
000000a0: 6f4c 0ac0 1ef0 7b3f a88e 0ac0 1024 88bf
000000b0: d911 0ec0 0d02 5f40 fe73 18c0 bc9b 38bf
000000c0: 6fc6 94bf 5707 fbbf 9fc7 a9be 637d fd3f
000000d0: e811 6ebf 85a4 f93f 7a27 17c0 2bd7 87bf
000000e0: 9cc8 66c0 713e 87bf 87d9 01bf 9efa e93f
000000f0: 807f 0b3f ea23 2b40 f2cc 01c0 70f7 0f40
00000100: 25fa b83f da3d 5b3f f4f4 0d40 2dee 053f
00000110: ac7b b13e 4111 4abe c5fc 86bf 5c95 a33f
00000120: 9c52 30be 0017 063f 48ec 673d 7d43 da3e
00000130: 8833 133f 0848 24bf a235 0dc0 a134 40bf
00000140: 4d10 323c a36f adbe 639b abbf d8da 15bf
00000150: a043 093f ab4d 063f e512 923f 3c88 533d
00000160: a373 3e3f 3b92 f6be e854 86bf 1d99 1a3f
00000170: 2a74 dcbf a9e8 53bf 8cd7 aa3f 7692 f73e
00000180: 609c 20c0 46db f93e afda 483f 81ad ea3c
00000190: 8a08 243f b44f 153f 0e91 883f 817a e6be
000001a0: c2b6 3dbe ceb4 403f 6a3c cf3e cabf 363e
000001b0: 38a2 873e 2ef7 a23f 49d1 abba f471 9bbe
000001c0: ee7f babf 2395 d1bd 1862 19bf bd40 f43e
000001d0: c0e6 393f d4ad ba3d 8e33 c7be 8925 073f
000001e0: c1d6 4fbc cc9d 763e 5ab7 073e 46a5 433f
000001f0: 4729 8c3f 3006 ae3e ca4f 383f 05a4 d23e
00000200: 4530 f73f c184 813f 2bdc b7bf 3f9f 90bf
00000210: a34c 0bbe 1a55 d13f 179d 273f 0975 133f
00000220: ef1c 923f bd14 983c 9f24 e7bf 4de9 6c3f
00000230: 232d c0be 353c 843f 5bc8 2fbf 3806 233f
00000240: 2801 79bf 7d5d 753f f641 cf3f 95ad b93f
00000250: 7cf9 893e cd6c 57be f698 3bbf 1a9a d53d
00000260: 958f b23e 40b4 773f b76e eebe ff69 cd3f
00000270: 4aba 1ec0 4bc8 d5be a104 99bf 50f5 4f3f
00000280: 5445 f3bf f70f 6a3e f3a5 cb3c 6420 b1be
00000290: c0db 923e 7d18 3bbf 1504 333e e005 8cbf
000002a0: 9713 cdbf ba2b ad3f 4ef8 a43f c733 563d
000002b0: 32ff c5bf 7db7 413f 7288 463f c2b2 0140
000002c0: 7db5 123d 39f7 f63d fa3f 4ebf 058f 54be
000002d0: 2294 6ebf c8a4 cbbf a767 91bf f5c8 05bf
000002e0: 54ce 04bf d329 c0bf 9b9c f6bf 6feb 023e
000002f0: d3ee 823f 9748 0ebf 384b 343f 6fba 353f
00000300: 291f e33f c4ea 6bbf 1e63 763f 408d acbe
00000310: 5571 96bf 4253 b73e 1121 f53e 0b46 ad3f
00000320: 01ac 063f a12b 0740 5750 05bf f497 6ebf
00000330: ef9a 3d3e e5ca 883f 853c a73f 6e6f eb3e
00000340: 638b 50bf f8b7 82bf 9f66 fdbe ce9d 17bf
00000350: 0005 1e3e 39ac e13e f0d9 17be 6061 14c0
00000360: 0bc6 cbbe 604d 8a3f 5df3 e3bf a207 c13f
00000370: 6b6d 9e3e 4114 00bf fc7a 843f 5b46 d83f
00000380: 1d9f 93bb 7459 d53f 409d 1d3e 5fb6 87bf
00000390: b099 12bf b825 ab3d 65c0 cc3e 579e fe3f
000003a0: 306e 93bd cff5 67bf 1a1e 03c0 0760 8abf
000003b0: 475e 903c f234 a03d 4acb 453e b7c0 d13e
000003c0: 7cdb 6dbf e468 8d3e bbf3 09bf 97d7 ec3e
000003d0: 2034 5fbf 5327 debc a1dc b4be aa5f bb3f
000003e0: 12b2 a03f 5807 37bf 759a 5a3f 6453 033f
000003f0: d02b 0a3f f0c4 103f 917b 013f e4ca 633e

gce.weight f4 [32, 32]
-0.13419014 0.25460884 -0.29583153 0.0452604 0.23772582 0.1916084 0.114013456 0.29238227
0.031785306 0.37984964 0.2720559 0.23924592 -0.39583185 0.042542495 0.15948881 0.16264196
0.121846944 -0.36791372 -0.09431627 -0.08755651 -0.20444056 0.19152556 0.24989572 0.072744496
-0.18641688 0.115535565 0.0015249439 -0.3161621 -0.16315216 0.10349878 0.020517418 -0.020214219
0.23813556 -0.117354356 0.07385112 -0.24672543 -0.08398427 0.0969386 0.30531687 0.28653494
-0.0063565006 -0.20274058 -0.12603262 -0.030506985 -0.14575502 -0.20588103 0.5234308 0.28184468
-0.25565445 -0.24118748 0.066185 0.2672711 0.21118808 -0.28951928 0.3241819 0.23523076
0.1976778 -0.008178309 -0.17971835 -0.13479494 0.20386343 0.21958967 0.26266867 -0.11918975
0.23614413 0.23868509 0.18890458 -0.35941237 -0.38060033 0.35565186 -0.025392853 0.061789855
0.20693307 0.19829032 0.04576074 -0.045036316 0.0034110094 -0.1901316 0.46122366 0.29880613
-0.20668961 -0.20373592 -0.21010183 0.36271438 -0.2733483 -0.036684908 0.37154484 0.029141646
-0.1350061 -0.02046037 0.13316417 -0.11906088 -0.43457046 -0.1276822 0.19897604 0.03180702
-0.38721 0.113966346 0.030445127 0.2033006 0.49410102 -0.24770838 0.114888705 -0.035007622
0.33509275 0.24964964 0.14315297 -0.37063816 -0.046747085 -0.030493693 -0.409117 0.26789415
0.05008275 0.3682336 -0.040673412 0.084048025 -0.40799198 -0.022732468 -0.011636099 -0.25227603
0.12900539 -0.107073285 0.10412879 -0.32385027 -0.080248564 -0.2341947 -0.12018902 -0.001042642
0.04929163 -0.22155896 -0.18627909 0.32998046 0.39357844 -0.04466344 -0.2208812 0.05794381
0.1764009 0.098696016 -0.26687625 -0.31554824 0.045203503 -0.07636365 -0.115937956 0.15095264
0.29483917 0.4965972 -0.20130762 0.17374589 -0.2372466 0.26362097 -0.1842248 -0.04495618
0.18827441 0.018166687 0.046583742 -0.23472008 -0.07328362 -0.13176857 0.37448487 0.18501244
0.1440935 -0.2932673 -0.10774005 0.28198338 0.018545356 -0.33281916 0.060862735 0.25542706
0.20892748 0.28685623 -0.074618965 0.30399764 -0.035895757 -0.08376667 0.4310055 0.11756019
-0.11491892 0.24196039 -0.14230356 0.07008863 -0.21908395 -0.024118647 -0.011649745 -0.082060814
0.1824608 0.05299612 -0.017315146 0.17768688 -0.27869767 0.15402125 0.26378974 -0.09288279
-0.122637406 0.067653045 -0.34324372 0.3955528 0.34765017 -0.20294823 -0.07345804 -0.44040704
-0.3061812 0.15511893 -0.1271312 0.025102831 0.22360228 0.15365171 -0.059110302 -0.24956603
-0.12520598 0.56062824 -0.38490513 0.303666 0.34451604 -0.18234527 -0.053898353 -0.29533604
0.27328467 0.055972908 0.08044045 -0.052828435 0.37614498 0.021560835 0.33408645 -0.0037045954
0.0641658 0.13843732 -0.040220536 0.060416147 -0.2838676 -0.11930296 0.008884163 -0.3714044
0.2093734 0.24246714 -0.078714095 0.19141546 -0.43237484 -0.31001133 0.405863 0.13363868
0.054569248 -0.15853411 0.29590264 0.14813621 0.031832676 0.25826785 -0.08285234 -0.3603305
0.22103101 0.17940031 -0.011311295 0.09032837 -0.04115848 0.052804597 -0.09999785 0.18585734
00000000: 2469 09be 175c 823e 3b77 97be f862 393d
00000010: 666e 733e fe34 443e e37f e93d 21b3 953e
00000020: 4f31 023d a77b c23e e94a 8b3e e2fc 743e
00000030: 79aa cabe 0a41 2e3d 0951 233e 9d8b 263e
00000040: e48a f93d 305f bcbe e328 c1bd d450 b3bd
00000050: de58 51be 471f 443e aae4 7f3e 11fb 943d
00000060: 11e4 3ebe e99d ec3d a0e0 c73a 00e0 a1be
00000070: 5c11 27be 2bf7 d33d 2514 a83c 4a98 a5bc
00000080: cfd9 733e 7b57 f0bd 423f 973d 97a5 7cbe
00000090: f2ff abbd bf87 c63d 7e52 9c3e b5b4 923e
000000a0: 314a d0bb 3a9b 4fbe b20e 01be c9e9 f9bc
000000b0: ce40 15be 7ad2 52be 90ff 053f f24d 903e
000000c0: 24e5 82be daf9 76be 008c 873d c2d7 883e
000000d0: b041 583e df3b 94be 2cfb a53e 55e0 703e
000000e0: 0d6c 4a3e 50fe 05bc 1608 38be af07 0abe
000000f0: 93c1 503e 1ddc 603e 827c 863e c119 f4bd
00000100: c4cf 713e dd69 743e 3470 413e e604 b8be
00000110: 0cde c2be 0018 b63e ac04 d0bc 5c17 7d3d
00000120: 43e6 533e 9e0c 4b3e 9d6f 3b3d 0078 38bd
00000130: 3e8b 5f3b dcb1 42be 8225 ec3e 1efd 983e
00000140: 71a6 53be 26a0 50be ef24 57be b3b5 b93e
00000150: 4ff4 8bbe ea42 16bd 203b be3e 76ba ee3c
00000160: 0a3f 0abe 829c a7bc 305c 083e 31d6 f3bd
00000170: 0580 debe 1fbf 02be 60c0 4b3e 1448 023d
00000180: 6440 c6be 3067 e93d 0f68 f93c 082e 503e
00000190: cffa fc3e 44a7 7dbe c54a eb3d 2764 0fbd
000001a0: 4791 ab3e 28a4 7f3e b196 123e 49c4 bdbe
000001b0: df79 3fbd e9cd f9bc c977 d1be 6c29 893e
000001c0: 9223 4d3d 1d89 bc3e 2a99 26bd 5f21 ac3d
000001d0: 53e4 d0be 7139 babc 56a5 3ebc 532a 81be
000001e0: fd19 043e 3d49 dbbd 7a41 d53d b4cf a5be
000001f0: 5c59 a4bd bcd0 6fbe a925 f6bd 43a9 88ba
00000200: 05e6 493d 5ae0 62be f2bf 3ebe 33f3 a83e
00000210: 1d83 c93e 03f1 36bd ae2e 62be 7d56 6d3d
00000220: 70a2 343e 2321 ca3d 01a4 88be 8a8f a1be
00000230: 4f27 393d 8c64 9cbd e170 edbd 5493 1a3e
00000240: 29f5 963e fd41 fe3e 9623 4ebe 71ea 313e
00000250: c6f0 72be 54f9 863e 6da5 3cbe f923 38bd
00000260: 02cb 403e 4ed2 943c 98ce 3e3d 765a 70be
00000270: b915 96bd 57ee 06be 7bbc bf3e e773 3d3e
00000280: 3f8d 133e 2227 96be d1a6 dcbd 2060 903e
00000290: 6eec 973c 4667 aabe 344b 793d 56c7 823e
000002a0: 16f1 553e d2de 923e d4d1 98bd 94a5 9b3e
000002b0: 6e07 13bd dc8d abbd c1ac dc3e 66c3 f03d
000002c0: 9c5a ebbd 77c4 773e 06b8 11be a18a 8f3d
000002d0: 8b57 60be 7894 c5bc 92de 3ebc 800f a8bd
000002e0: 01d7 3a3e 7612 593d 7ed8 8dbc 8df3 353e
000002f0: 76b1 8ebe bfb7 1d3e 730f 873e 5539 bebd
00000300: 5229 fbbd ae8d 8a3d a4bd afbe e685 ca3e
00000310: 34ff b13e a9d1 4fbe 2b71 96bd 087d e1be
00000320: c8c3 9cbe 7fd7 1e3e ae2e 02be 74a4 cd3c
00000330: fff7 643e e056 1d3e a51d 72bd 3d8e 7fbe
00000340: ff35 00be 5585 0f3f 4912 c5be 1c7a 9b3e
00000350: 6864 b03e b8b8 3abe 85c4 5cbd 4936 97be
00000360: f8eb 8b3e d943 653d f6bd a43d a162 58bd
00000370: 1396 c03e 59a0 b03c 610d ab3e ccc8 72bb
00000380: 5c69 833d 83c2 0d3e 4abe 24bd ec76 773d
00000390: 1857 91be 1c55 f4bd e18e 113c b828 bebe
000003a0: fb65 563e 4e49 783e db34 a1bd 6a02 443e
000003b0: 3c60 ddbe ceb9 9ebe 46cd cf3e 94d8 083e
000003c0: 0184 5f3d c456 22be 8d80 973e 05b1 173e
000003d0: fb62 023d af3b 843e 7dae a9bd 3d7d b8be
000003e0: f455 623e b7b4 373e 0353 39bc 15fe b83d
000003f0: cb95 28bd a249 583d accb ccbd 6351 3e3e

gc1.weight f4 [160, 32]
-0.03042567 -0.06528836 0.08408168 -0.06717999 -0.10051676 0.030687587 -0.026004171 -0.20841306
-0.3921323 0.12767066 0.070909366 0.0025599492 -0.07125639 -0.09978566 0.02007389 -0.16378015
-0.21218084 0.019181225 -0.018405871 -0.22156143 0.18534172 -0.10277776 0.047907133 -0.07931177
0.29473084 -0.258039 0.027526546 0.070413455 -0.21673216 -0.035897024 -0.24815656 -0.010079877
0.1899772 0.0046280315 -0.21799308 0.067613535 0.024276769 0.01224548 -0.23518786 0.27089447
0.6608664 0.20299006 0.007274277 0.015722614 -0.08422561 0.16450605 -0.048208386 -0.09089387
0.20130536 -0.08533539 -0.082656786 0.16778672 -0.34373164 0.33842874 -0.39489442 0.4988337
0.0111046545 -0.10512363 0.04282493 0.19931068 -0.16577715 0.2315294 0.3080353 -0.76273817
0.13634934 -0.15850541 0.013426024 0.11486612 0.081605844 -0.06826196 0.27176633 -0.25091016
-0.020982305 -0.15858825 -0.026238328 -0.23037165 0.08122212 -0.07401476 -0.15633462 -0.0666593
-0.04421118 0.07414531 0.044956934 0.14723906 -0.049178492 0.13213457 -0.1715219 -0.28188238
0.17730147 -0.213811 -0.09294854 0.037168626 -0.043520126 0.088080704 -0.06701484 0.095959924
-0.41523382 -0.04305415 -0.20075256 0.12037697 -0.07199967 0.09301705 -0.23137729 0.21237634
0.36557436 -0.015926212 0.00810267 -0.12135074 -0.3278698 -0.03193382 0.05126083 0.033957057
0.07430507 -0.08082945 -0.24161774 -0.17442465 -0.094646275 0.016524915 -0.21122366 0.18757148
-0.12198153 -0.47832495 -0.022870045 0.2566205 -0.1371385 0.113690525 0.2009647 -0.43439502
0.00933084 0.07401574 0.1995568 -0.015250272 -0.12565918 -0.039665908 0.027694872 0.08520674
-0.059828267 0.1512382 0.21771996 0.33853364 -0.11263271 -0.04264482 -0.043925676 0.28481036
0.09566718 0.09100785 -0.3787296 0.07853397 0.30889502 -0.060404364 -0.072415 -0.15676457
-0.077960104 0.124920934 0.2534083 -0.029007047 0.09564338 0.16071872 -0.24263942 -0.12259316
0.070197165 -0.47068885 -0.010238697 0.034297843 0.08426709 -0.19105965 -0.12253454 0.4991833
0.041099787 -0.21195593 0.08844296 -0.5091174 -0.010137009 0.11061903 -0.1136766 0.15931402
0.27984792 -0.015638037 0.16231154 -0.0876768 -0.24114624 0.105004124 -0.032754146 0.28021657
-0.11969894 -0.57485086 -0.34485778 -0.4053164 -0.49630272 0.012786533 0.2287122 -0.22564454
0.02727127 0.050800666 0.1287724 -0.010939788 0.010875115 0.08950374 0.024982689 0.10156474
-0.07112642 0.050331365 -0.15114714 0.10609142 0.015462391 -0.037282083 0.16924815 0.07091797
-0.00973773 -0.038454346 0.14854968 -0.0025776292 -0.028798804 -0.015192245 -0.061350826 -0.11052526
0.03385682 -0.09857645 -0.06633183 0.07736353 -0.16842654 -0.07942867 -0.123953134 0.038027987
-0.07123238 -0.15516452 0.26713768 -0.022249075 0.10621114 0.23478207 0.1888961 -0.021818932
-0.122066215 -0.040680464 0.03117168 0.11380582 -0.16326651 0.056563467 -0.11743494 0.07915578
-0.15875065 0.047212727 -0.03687184 -0.0977647 -0.07884692 -0.059413716 0.035390373 0.11446479
0.13621366 -0.022628304 -0.0852951 0.2768181 -0.19009668 -0.032915328 -0.033220083 0.0044629127
00000000: 413f f9bc e7b5 85bd 0433 ac3d aa95 89bd
00000010: bbdb cdbd 8964 fb3c b306 d5bc 3c6a 55be
00000020: 91c5 c8be 19bc 023e ee38 913d d2c4 273b
00000030: dfee 91bd 6d5c ccbd 0072 a43c fcb5 27be
00000040: ef45 59be f221 9d3c e9c7 96bc 00e1 62be
00000050: 38ca 3d3e 257d d2bd 453a 443d 366e a2bd
00000060: f6e6 963e b01d 84be 5a7f e13c ee34 903d
00000070: 09ef 5dbe c208 13bd c11c 7ebe 1226 25bc
00000080: 6289 423e bea6 973b 9439 5fbe f778 8a3d
00000090: 13e0 c63c 44a1 483c 16d5 70be aeb2 8a3e
000000a0: 8a2e 293f a0dc 4f3e 0f5d ee3b b6cc 803c
000000b0: 7a7e acbd 4674 283e 2876 45bd 9126 babd
000000c0: fe22 4e3e 52c4 aebd f647 a9bd 48d0 2b3e
000000d0: 98fd afbe 8846 ad3e 9a2f cabe 2167 ff3e
000000e0: 4cf0 353c 0f4b d7bd 3269 2f3d 1918 4c3e
000000f0: 7cc1 29be 0b16 6d3e ceb6 9d3e cf42 43bf
00000100: 299f 0b3e 3e4f 22be d3f8 5b3c ee3e eb3d
00000110: f720 a73d edcc 8bbd f524 8b3e 4c77 80be
00000120: 15e3 abbc f564 22be c3f1 d6bc 8ce6 6bbe
00000130: c857 a63d 0d95 97bd 2f16 20be ac84 88bd
00000140: c816 35bd 7fd9 973d c324 383d d6c5 163e
00000150: 636f 49bd 494e 073e 70a3 2fbe e352 90be
00000160: 848e 353e 45f1 5abe ce5b bebd 213e 183d
00000170: 2942 32bd a863 b43d 143f 89bd a386 c43d
00000180: 8799 d4be 8c59 30bd 1492 4dbe 3388 f63d
00000190: 9074 93bd b97f be3d 2bee 6cbe 2f79 593e
000001a0: 902c bb3e b077 82bc 10c1 043c bd86 f8bd
000001b0: 8dde a7be 0acd 02bd e0f6 513d 8e16 0b3d
000001c0: 422d 983d e989 a5bd a46a 77be 609c 32be
000001d0: e8d5 c1bd 425f 873c 044b 58be bd12 403e
000001e0: 74d1 f9bd 02e7 f4be f659 bbbc c363 833e
000001f0: 096e 0cbe 94d6 e83d b1c9 4d3e 0669 debe
00000200: 61e0 183c 9095 973d 9e58 4c3e 47dc 79bc
00000210: cdac 00be b878 22bd 5be0 e23c df80 ae3d
00000220: 7c0e 75bd 30de 1a3e fbf1 5e3e 4854 ad3e
00000230: faab e6bd 56ac 2ebd 69eb 33bd aad2 913e
00000240: 28ed c33d 5362 ba3d d9e8 c1be 6bd6 a03d
00000250: 7d27 9e3e 916a 77bd 514e 94bd e486 20be
00000260: 8ca9 9fbd 8cd6 ff3d bcbe 813e 30a0 edbc
00000270: ade0 c33d 7393 243e 7876 78be 1f12 fbbd
00000280: 88c3 8f3d 21fe f0be 35c0 27bc e57b 0c3d
00000290: 3994 ac3d 24a5 43be 64f3 fabd f494 ff3e
000002a0: 4058 283d fa0a 59be 9521 b53d 8555 02bf
000002b0: b315 26bc 3b8c e23d 47cf e8bd 3723 233e
000002c0: 3a48 8f3e 571b 80bc ff34 263e e58f b3bd
000002d0: 0aef 76be 670c d73d 3629 06bd 8c78 8f3e
000002e0: b824 f5bd 6d29 13bf 3391 b0be a285 cfbe
000002f0: 641b febe 9b7e 513c 8833 6a3e 5d0f 67be
00000300: 0068 df3c 5c14 503d e9dc 033e cc3c 33bc
00000310: 8a2d 323c bd4d b73d 7fa8 cc3c 2d01 d03d
00000320: baaa 91bd 4328 4e3d 51c6 1abe 7546 d93d
00000330: f855 7d3c 19b5 18bd 634f 2d3e 713d 913d
00000340: 008b 1fbc 4e82 1dbd 681d 183e 71ed 28bb
00000350: 78eb ebbc e5e8 78bc 014b 7bbd 115b e2bd
00000360: 73ad 0a3d 73e2 c9bd fcd8 87bd c570 9e3d
00000370: 0278 2cbe 80ab a2bd 24db fdbd 3cc3 1b3d
00000380: 48e2 91bd 73e3 1ebe 45c6 883e b143 b6bc
00000390: 3a85 d93d b66a 703e fb6d 413e 9ebd b2bc
000003a0: dafd f9bd 8fa0 26bd c05b ff3c 0713 e93d
000003b0: 562f 27be 18af 673d bb81 f0bd 6d1c a23d
000003c0: 888f 22be 2262 413d ed06 17bd dc38 c8bd
000003d0: 7e7a a1bd cc5b 73bd 7ff5 103d 846c ea3d
000003e0: 987b 0b3e fe5e b9bc 33af aebd 1abb 8d3e
000003f0: b4a8 42be 39d2 06bd c811 08bd a03d 923b

gc2.weight f4 [32, 16]
-0.57252616 0.07482195 0.22318538 0.08743016 0.7018478 0.38043842 0.5471006 -0.27939466
0.9912842 -0.043774694 0.4780781 -1.3769035 -0.16886857 0.10281959 0.22871597 0.38414946
1.07993 0.39562708 -0.655784 0.0005839064 0.04817398 0.65022445 0.14086616 -0.035857502
-0.94350547 -0.008358238 0.7760742 -0.2589253 0.16606508 0.60885054 -1.1624168 -0.030512637
0.34626743 -0.06735558 -0.25873345 -0.14338987 -0.17812757 0.042814538 0.050531816 0.06701778
-0.18137014 -0.070522375 0.35514826 0.19848695 0.1836324 -0.28642696 0.34290445 0.36618853
-0.32827526 -0.7958675 0.1963202 -0.40011376 0.107000865 -0.23965347 0.38501585 -0.2258391
0.102236316 -0.27413544 -0.32046464 0.43713424 0.31223348 -0.36267185 0.037448958 0.20050591
0.17046718 -0.3652085 0.07557707 0.076819696 0.16949382 -0.49241006 0.12784463 -0.27537602
-0.20521218 0.17624941 0.3462701 0.14235428 -0.12713079 0.35686633 -0.28550577 0.026912369
-1.7109685 0.8025097 0.66546106 2.063927 0.4632884 -0.2237262 0.42103857 0.2864655
-0.17381275 0.64694464 -0.7968131 0.24802223 0.1254869 0.3419447 0.09879346 -0.37202036
-0.38416597 0.6061812 -0.07583621 0.39853245 -0.013742788 0.05764823 0.38515335 0.20245937
-0.5508234 -0.07254474 0.056811035 0.30012354 0.42595723 0.08223706 0.33176187 -0.30175894
0.24597895 0.3554089 0.41699454 -0.41891998 0.003526073 0.3715469 -0.0076761968 -0.11961769
0.42020693 0.10819127 -0.11366342 -0.5679785 -0.43953067 -0.1200338 -0.31923264 0.17972814
0.01962249 0.26730496 -0.28308222 0.59051156 0.09689944 -0.67285216 0.07578472 0.12957928
-0.4087565 -0.05607484 -0.19518565 0.33389875 0.5238207 0.25979704 -1.1971482 -0.12064291
-0.27514654 0.16803522 0.35686448 -0.52236825 -0.6837543 -0.3928562 0.782357 0.69954485
-0.8256891 0.9881188 -0.3886463 -0.55446106 1.1486785 0.28602573 -0.5959436 0.2195889
-0.19511478 0.31059712 0.30390087 -0.30147177 -0.12704049 0.41323483 -0.20942238 -0.35190457
0.34802827 -0.290594 0.08114611 -0.14056851 -0.37563816 -0.23218614 0.17362955 0.06410645
-0.56048125 -0.2163972 -0.65799224 0.09073836 0.7852057 0.31953555 -0.9799098 -0.92772603
1.1711732 -0.654458 0.751634 1.0514446 -1.131639 -0.99708796 0.2534623 0.01565463
0.116085365 -0.39088947 1.4314897 0.002353532 0.71571064 -0.061762765 0.9243383 1.0921016
-0.16721816 1.1748431 0.259687 -0.24154946 0.27935845 0.62923694 -1.1893005 -0.23160082
0.58407676 -0.20187701 -0.1151881 -0.15246221 -0.8920082 0.5919558 -0.6351983 -0.28162488
0.25119212 -0.5026615 0.10447791 -0.56163573 -0.56659013 -0.42247736 0.44999647 0.4185416
0.440222 3.419132 -2.0703266 -2.1918285 3.4352994 -3.8098953 0.5460931 1.2786053
0.9284324 -0.13594323 -0.33822122 -0.9826227 0.085304394 0.22172724 -0.3987778 -1.0033599
0.419552 0.2885367 -0.2929049 -0.58684665 -0.90155894 -0.026533617 0.027987018 -0.08669494
0.25072974 -0.27839822 0.06334309 -0.40431586 -0.054204244 -0.4708499 0.15052864 0.5765263
00000000: 1391 12bf 403c 993d b58a 643e 950e b33d
00000010: 4cac 333f d3c8 c23e c90e 0c3f d10c 8fbe
00000020: cdc4 7d3f 184d 33bd a7c6 f43e 603e b0bf
00000030: e2eb 2cbe 1493 d23d 8534 6a3e 3daf c43e
00000040: 253b 8a3f a28f ca3e 76e1 27bf 4c11 193a
00000050: 1452 453d 1c75 263f 383f 103e 51df 12bd
00000060: 9389 71bf fef0 08bc ccac 463f db91 84be
00000070: f70c 2a3e a1dd 1b3f 13ca 94bf a3f5 f9bc
00000080: f749 b13e b9f1 89bd b678 84be cbd4 12be
00000090: 1367 36be 4c5e 2f3d 73fa 4e3d 9e40 893d
000000a0: 18b9 39be 096e 90bd fed5 b53e 2a40 4b3e
000000b0: 220a 3c3e 8ea6 92be 2c91 af3e 107d bb3e
000000c0: b213 a8be f9bd 4bbf 2a08 493e b6db ccbe
000000d0: 4523 db3d b867 75be cc20 c53e 5d42 67be
000000e0: 4661 d13d 7b5b 8cbe f113 a4be 0fd0 df3e
000000f0: 11dd 9f3e 20b0 b9be 1464 193d 6c51 4d3e
00000100: f38e 2e3e 9cfc babe 27c8 9a3d a553 9d3d
00000110: ca8f 2d3e 2c1d fcbe b4e9 023e 16fe 8cbe
00000120: 2423 52be ba7a 343e 514a b13e 52c5 113e
00000130: 932e 02be 2fb7 b63e d02d 92be 5477 dc3c
00000140: 0401 dbbf 4771 4d3f a85b 2a3f 6117 0440
00000150: 2334 ed3e 7b18 65be 5e92 d73e 9bab 923e
00000160: f8fb 31be 2a9e 253f f1fb 4bbf 8af9 7d3e
00000170: a37f 003e 6013 af3e 3a54 ca3d 7479 bebe
00000180: 67b1 c4be b12e 1b3f 0450 9bbd 720c cc3e
00000190: 6e29 61bc 8d20 6c3d d232 c53e 8251 4f3e
000001a0: c302 0dbf 5692 94bd b0b2 683d cba9 993e
000001b0: 1117 da3e e76b a83d b1dc a93e 2680 9abe
000001c0: e8e1 7b3e 28f8 b53e 4f80 d53e ae7c d6be
000001d0: b015 673b 653b be3e 9b88 fbbb 1ffa f4bd
000001e0: 5d25 d73e 6293 dd3d 5ec8 e8bd 0a67 11bf
000001f0: 2a0a e1be 48d4 f5bd 7672 a3be a70a 383e
00000200: 58bf a03c 32dc 883e 27f0 90be c42b 173f
00000210: 3773 c63d 0a40 2cbf 0535 9b3d 6eb0 043e
00000220: 8848 d1be bbae 65bd bfde 47be c7f4 aa3e
00000230: 1d19 063f 1e04 853e 273c 99bf a113 f7bd
00000240: 02e0 8cbe 6d11 2c3e f1b6 b63e edb9 05bf
00000250: 860a 2fbf 7324 c9be 8c48 483f 5f15 333f
00000260: 5c60 53bf 5bf5 7c3f a6fc c6be 29f1 0dbf
00000270: e607 933f f771 923e c38f 18bf eadb 603e
00000280: 2bcc 47be 9606 9f3e e598 9b3e 825a 9abe
00000290: e716 02be 8493 d33e d272 56be d62c b4be
000002a0: c330 b23e bdc8 94be ef2f a63d 31f1 0fbe
000002b0: a553 c0be 34c2 6dbe f2cb 313e 3e4a 833d
000002c0: b37b 0fbf 3a97 5dbe 2e72 28bf 09d5 b93d
000002d0: 3e03 493f 2a9a a33e 5edb 7abf 747f 6dbf
000002e0: 01e9 953f 8f8a 27bf 166b 403f bd95 863f
000002f0: 8cd9 90bf 2841 7fbf d0c5 813e 233e 803c
00000300: 2abe ed3d aa22 c8be 0e3b b73f b73d 1a3b
00000310: d038 373f f4fa 7cbd 6fa1 6c3f fcc9 8b3f
00000320: 3d3b 2bbe 4261 963f b2f5 843e be58 77be
00000330: 1208 8f3e ac15 213f 003b 98bf c428 6dbe
00000340: 0e86 153f d9b8 4ebe bde7 ebbd 0e1f 1cbe
00000350: a65a 64bf 6a8a 173f 5b9c 22bf 2331 90be
00000360: 419c 803e 6dae 00bf 84f8 d53d 5cc7 0fbf
00000370: 0d0c 11bf f44e d8be f065 e63e 164b d63e
00000380: c764 e13e 0fd3 5a40 3b80 04c0 eb46 0cc0
00000390: f2db 5b40 53d5 73c0 c2cc 0b3f 57a9 a33f
000003a0: bfad 6d3f b434 0bbe 552b adbe 298d 7bbf
000003b0: 12b4 ae3d 770c 633e 9b2c ccbe 196e 80bf
000003c0: 85cf d63e 15bb 933e a2f7 95be 953b 16bf
000003d0: 91cc 66bf 075d d9bc 0845 e53c 1e8d b1bd
000003e0: a65f 803e 368a 8ebe 06ba 813d 7d02 cfbe
000003f0: 4505 5ebd 3d13 f1be 2e24 1a3e 3a97 133f

gc3.weight f4 [32, 16]
-0.13899283 -0.03072873 0.27905393 -0.08334797 -0.049897105 0.025815666 -0.08414305 0.45592877
-0.66143686 -0.21560848 0.66823274 -0.7211846 0.015946977 -0.020595409 0.40139532 -0.16457888
-0.3654567 -0.3664111 -0.8546802 -0.44850415 -0.2828775 -0.477037 -0.19153608 -0.6816863
-0.39397028 -0.6484026 0.24494769 -0.43981162 -0.47602627 -0.27202857 0.24538986 -0.42664692
0.04945553 -0.22376846 -0.084316194 0.057177115 -0.38313454 -0.11392744 -0.11637761 -0.5039328
-0.13293548 0.16145003 -0.24876069 -0.23243827 0.08281685 -0.075740345 -0.4218374 0.083231196
0.2146547 0.23013453 0.20931734 -0.06512459 -0.14869528 0.33986676 -0.31830642 -0.050898075
0.12426546 -0.030524334 0.05294624 0.13900405 -0.2847697 -0.38452983 0.62294835 -0.009528174
0.06862596 -0.7259478 -0.3496458 0.017247366 0.026996337 -0.41578138 0.18465741 -0.33591205
0.08201919 -0.053925324 -0.91541415 -0.2255537 -0.1549456 0.20280133 -1.2619063 0.00691035
0.20236711 -0.34502822 0.6166891 0.28855547 0.085166186 -0.24166098 -0.013518803 0.45690814
0.21690872 0.27952048 -0.68956 -0.10303286 -0.041782364 0.31449836 -0.28668192 0.19867425
-0.48928058 -0.19870366 -0.027652495 -0.28629038 -0.27027327 -0.48753873 0.13197073 -0.38244158
-0.013401733 0.052953783 -0.6119038 -0.23964493 -0.0397979 -0.28098556 -0.95901203 -0.11225062
-0.3184746 -0.38577133 -0.12790099 -0.55819786 -0.14961648 -0.19726636 0.21165662 -0.578528
-0.60399896 0.20602594 -0.68677974 -0.83899766 -0.22160245 -0.14218195 0.8198125 -0.32334876
-1.203955 0.4677577 -2.207119 -0.13675469 0.23537944 0.40100136 -0.9231235 -3.0214992
-0.6596306 -0.41469344 0.63835853 0.08338451 -0.8903836 -0.8001275 0.24872468 -0.69240355
0.031024883 -0.17328678 0.16291992 0.057300866 -0.39847073 -0.10717617 0.1469035 0.156711
0.10556203 -0.042706136 -0.19413733 0.055571336 0.13296135 0.211829 0.06853852 0.16530089
0.01705465 0.06285309 -0.047913976 -0.26522332 -0.29351097 -0.57182896 0.10966931 -0.25636128
-0.1228379 -0.3639579 -0.29485634 -0.053884923 0.13779016 -0.21560596 -0.18216713 -0.021253303
0.18414494 0.29102913 -0.11721952 0.04147392 0.57352877 0.34436008 -0.05312949 -0.07581161
0.10382268 0.2186826 0.26401284 0.24453336 -0.07526129 -0.09978456 0.5755133 0.0776861
0.3529663 0.30480492 1.5860108 0.29633293 0.015223465 0.72919005 0.3369873 1.8373653
0.44031006 0.24989533 -0.8846558 -0.029439818 0.3303163 0.23817015 0.90040934 0.48023066
-0.31466085 -0.41786945 -0.018964464 -0.34020838 -0.2261367 -0.4028334 -0.28124025 -0.38498196
-0.054641027 -0.23626082 0.39475608 -0.37231892 0.07442021 -0.25945562 0.37466252 -0.17658325
0.04214748 -0.1491933 0.18652205 0.3365088 0.14971457 0.06365729 -0.010350971 -0.26221836
-0.20959944 -0.16853197 -0.16267237 -0.32743523 0.07437022 -0.0114321215 0.054375798 0.16362663
-0.12631692 -0.009084311 -0.10804314 0.0019373571 0.06311359 0.20467317 -0.049069934 -0.12675436
0.22534582 -0.04421289 -0.07808185 0.12181089 0.1065453 0.33030993 0.44748983 0.0819791
00000000: 2354 0ebe d1ba fbbc 28e0 8e3e 57b2 aabd
00000010: e860 4cbd 607b d33c 3153 acbd 7f6f e93e
00000020: ed53 29bf 78c8 5cbe 4d11 2b3f 8e9f 38bf
00000030: 3ca3 823c b4b7 a8bc b083 cd3e 5e87 28be
00000040: 241d bbbe 3c9a bbbe 52cc 5abf 56a2 e5be
00000050: 52d5 90be 323e f4be 0922 44be fe82 2ebf
00000060: 79b6 c9be b6fd 25bf 91d3 7a3e fd2e e1be
00000070: b7b9 f3be 5447 8bbe 7b47 7b3e 7771 dabe
00000080: e291 4a3d 8f23 65be f8ad acbd 8d32 6a3d
00000090: 362a c4be ca52 e9bd 6257 eebd bd01 01bf
000000a0: 3d20 08be 2853 253e 1fbb 7ebe 4c04 6ebe
000000b0: e19b a93d c11d 9bbd 12fb d7be 1e75 aa3d
000000c0: 71ce 5b3e 63a8 6b3e 4957 563e 0b60 85bd
000000d0: 9343 18be 0403 ae3e 0ff9 a2be 807a 50bd
000000e0: e47e fe3d 2b0e fabc 28de 583d 1457 0e3e
000000f0: 56cd 91be 18e1 c4be 8b79 1f3f 0f1c 1cbc
00000100: c48b 8c3d b7d7 39bf c604 b3be 594a 8d3c
00000110: 6c27 dd3c 4ce1 d4be d516 3d3e aafc abbe
00000120: adf9 a73d cde0 5cbd 9558 6abf 8df7 66be
00000130: 0faa 1ebe 27ab 4f3e 2586 a1bf 3870 e23b
00000140: 5339 4f3e 8aa7 b0be 56df 1d3f 8bbd 933e
00000150: 9c6b ae3d fa75 77be f87d 5dbc ddef e93e
00000160: 521d 5e3e 4f1d 8f3e 0187 30bf e402 d3bd
00000170: fc23 2bbd ee05 a13e f9c7 92be 4371 4b3e
00000180: fc82 fabe f978 4bbe 7c87 e2bc a794 92be
00000190: 4261 8abe ad9e f9be 5623 073e 62cf c3be
000001a0: f192 5bbc 11e6 583d baa5 1cbf 7b65 75be
000001b0: 1f03 23bd 57dd 8fbe d081 75bf a7e3 e5bd
000001c0: 1a0f a3be d283 c5be 7af8 02be 0ee6 0ebf
000001d0: 1035 19be 3100 4abe 83bc 583e 691a 14bf
000001e0: ad9f 1abf 77f8 523e ccd0 2fbf 8dc8 56bf
000001f0: c1eb 62be 2598 11be 3bdf 513f f88d a5be
00000200: 331b 9abf f07d ef3e 7041 0dc0 6c09 0cbe
00000210: 4f07 713e 0d50 cd3e d251 6cbf 3e60 41c0
00000220: 8ddd 28bf b352 d4be 776b 233f 7fc5 aa3d
00000230: 2ef0 63bf 28d5 4cbf afb1 7e3e 5c41 31bf
00000240: e527 fe3c 1772 31be 7bd4 263e 50b4 6a3d
00000250: 5b04 ccbe 2e7f dbbd df6d 163e d978 203e
00000260: e830 d83d a1ec 2ebd f0cb 46be c59e 633d
00000270: 0527 083e b4e9 583e ec5d 8c3d a344 293e
00000280: 31b6 8b3c 1fb9 803d 7241 44bd 5acb 87be
00000290: 1247 96be 6263 12bf 4e9a e03d c941 83be
000002a0: 7092 fbbd b158 babe 69f7 96be 70b6 5cbd
000002b0: dd18 0d3e cfc7 5cbe 058a 3abe 681b aebc
000002c0: 7e90 3c3e c501 953e ca10 f0bd 8fe0 293d
000002d0: c8d2 123f f74f b03e 4f9e 59bd 1e43 9bbd
000002e0: fca0 d43d 55ee 5f3e b12c 873e f466 7a3e
000002f0: 9722 9abd d95b ccbd d754 133f e419 9f3d
00000300: 00b8 b43e 640f 9c3e 6702 cb3f f3b8 973e
00000310: d76b 793c 33ac 3a3f 9989 ac3e c92e eb3f
00000320: 5270 e13e 90e4 7f3e cd78 62bf c62b f1bc
00000330: 381f a93e e0e2 733e 3a81 663f cbe0 f53e
00000340: 3a1b a1be fcf2 d5be 5d5b 9bbc cb2f aebe
00000350: 6190 67be 2e40 cebe b9fe 8fbe 5b1c c5be
00000360: 45cf 5fbd 5bee 71be 781d ca3e 96a0 bebe
00000370: a069 983d 5ed7 84be c4d3 bf3e 3dd2 34be
00000380: d6a2 2c3d 21c6 18be a3ff 3e3e e24a ac3e
00000390: c74e 193e c15e 823d 1e97 29bc 7c41 86be
000003a0: 3ca1 56be a593 2cbe 9693 26be 97a5 a7be
000003b0: 6a4f 983d cb4d 3bbc 28b9 5e3d bd8d 273e
000003c0: 3959 01be 5dd6 14bc b945 ddbd ebee fd3a
000003d0: b341 813d d895 513e 8efd 48bd e5cb 01be
000003e0: 0ec1 663e 9318 35bd 61e9 9fbd fd77 f93d
000003f0: 6c34 da3d 621e a93e 631d e53e a9e4 a73d

dc.rk_lgt f4 [1, 16]
-1.9565059 -1.0764891 -1.819323 -1.8328408 -1.6989275 -0.65979767 -3.5452425 -1.1832119
-1.6963614 -3.371199 -0.08222993 -2.0544205 -2.4823916 -3.2928016 0.039695628 -2.680364
00000000: c96e fabf 65ca 89bf 93df e8bf 879a eabf
00000010: 7576 d9bf 80e8 28bf 41e5 62c0 7d73 97bf
00000020: 5f22 d9bf b9c1 57c0 2a68 a8bd a07b 03c0
00000030: 81df 1ec0 43bd 52c0 e297 223d 158b 2bc0
