models/ogbl-collab_CN_2_1_0_run6_sigvae.pt (torch, 160127 bytes, 6 tensors)

z_embedding.weight f4 [1000, 32]
00000000: 2993 f63f 762a c03f 5dab 6b3f 2de7 06c0
00000010: 42b5 2b3f 4afb 95bf a838 c1bd 03e7 cabf
00000020: ad57 38bf cfdb d13f 12bd b7be efe8 afbf
00000030: 4213 40bf ee35 0fbf 779c 31bf 3a9a 4b3f
00000040: 0c24 cb3f a235 edbd 6eeb e4be 7f66 bd3e
00000050: 37a2 40bf 57b7 843f 9fc1 553f 7ccc da3f
00000060: decf a23f c029 9f3f 5ed0 193f 5486 a73f
00000070: 4ff9 4ebe 3d5b 073d 6c9b 87be 3dac 4f3f
00000080: 8f11 31c0 d6b5 2ac0 67ab 8ebf 0e81 2240
00000090: 3a85 623f cb9f 18be 97a5 d33f cc85 c8bf
000000a0: d04c 0ac0 3af0 7b3f f68e 0ac0 5c24 88bf
000000b0: 3812 0ec0 d101 5f40 5274 18c0 799b 38bf
000000c0: 24c7 94bf 3b08 fbbf b2c4 a9be 5d7e fd3f
000000d0: 9712 6ebf 64a4 f93f 4527 17c0 24d7 87bf
000000e0: 9dc8 66c0 2c3e 87bf 26d8 01bf 4bfa e93f
000000f0: 6d7f 0b3f f923 2b40 24cd 01c0 6ef7 0f40
00000100: 25fa b83f da3d 5b3f f4f4 0d40 2dee 053f
00000110: ac7b b13e 4111 4abe c5fc 86bf 5c95 a33f
00000120: 9c52 30be 0017 063f 48ec 673d 7d43 da3e
00000130: 8833 133f 0848 24bf a235 0dc0 a134 40bf
00000140: 4d10 323c a36f adbe 639b abbf d8da 15bf
00000150: a043 093f ab4d 063f e512 923f 3c88 533d
00000160: a373 3e3f 3b92 f6be e854 86bf 1d99 1a3f
00000170: 2a74 dcbf a9e8 53bf 8cd7 aa3f 7692 f73e
00000180: 609c 20c0 46db f93e afda 483f 81ad ea3c
00000190: 8a08 243f b44f 153f 0e91 883f 817a e6be
000001a0: c2b6 3dbe ceb4 403f 6a3c cf3e cabf 363e
000001b0: 38a2 873e 2ef7 a23f 49d1 abba f471 9bbe
000001c0: ee7f babf 2395 d1bd 1862 19bf bd40 f43e
000001d0: c0e6 393f d4ad ba3d 8e33 c7be 8925 073f
000001e0: c1d6 4fbc cc9d 763e 5ab7 073e 46a5 433f
000001f0: 4729 8c3f 3006 ae3e ca4f 383f 05a4 d23e
00000200: 4530 f73f c184 813f 2bdc b7bf 3f9f 90bf
00000210: a34c 0bbe 1a55 d13f 179d 273f 0975 133f
00000220: ef1c 923f bd14 983c 9f24 e7bf 4de9 6c3f
00000230: 232d c0be 353c 843f 5bc8 2fbf 3806 233f
00000240: 2801 79bf 7d5d 753f f641 cf3f 95ad b93f
00000250: 7cf9 893e cd6c 57be f698 3bbf 1a9a d53d
00000260: 958f b23e 40b4 773f b76e eebe ff69 cd3f
00000270: 4aba 1ec0 4bc8 d5be a104 99bf 50f5 4f3f
00000280: 5445 f3bf f70f 6a3e f3a5 cb3c 6420 b1be
00000290: c0db 923e 7d18 3bbf 1504 333e e005 8cbf
000002a0: 9713 cdbf ba2b ad3f 4ef8 a43f c733 563d
000002b0: 32ff c5bf 7db7 413f 7288 463f c2b2 0140
000002c0: 7db5 123d 39f7 f63d fa3f 4ebf 058f 54be
000002d0: 2294 6ebf c8a4 cbbf a767 91bf f5c8 05bf
000002e0: 54ce 04bf d329 c0bf 9b9c f6bf 6feb 023e
000002f0: d3ee 823f 9748 0ebf 384b 343f 6fba 353f
00000300: 291f e33f c4ea 6bbf 1e63 763f 408d acbe
00000310: 5571 96bf 4253 b73e 1121 f53e 0b46 ad3f
00000320: 01ac 063f a12b 0740 5750 05bf f497 6ebf
00000330: ef9a 3d3e e5ca 883f 853c a73f 6e6f eb3e
00000340: 638b 50bf f8b7 82bf 9f66 fdbe ce9d 17bf
00000350: 0005 1e3e 39ac e13e f0d9 17be 6061 14c0
00000360: 0bc6 cbbe 604d 8a3f 5df3 e3bf a207 c13f
00000370: 6b6d 9e3e 4114 00bf fc7a 843f 5b46 d83f
00000380: 1d9f 93bb 7459 d53f 409d 1d3e 5fb6 87bf
00000390: b099 12bf b825 ab3d 65c0 cc3e 579e fe3f
000003a0: 306e 93bd cff5 67bf 1a1e 03c0 0760 8abf
000003b0: 475e 903c f234 a03d 4acb 453e b7c0 d13e
000003c0: 7cdb 6dbf e468 8d3e bbf3 09bf 97d7 ec3e
000003d0: 2034 5fbf 5327 debc a1dc b4be aa5f bb3f
000003e0: 12b2 a03f 5807 37bf 759a 5a3f 6453 033f
000003f0: d02b 0a3f f0c4 103f 917b 013f e4ca 633e
1.926366 1.5012958 0.92058355 -2.1078598 0.6707345 -1.1717312 -0.094346344 -1.5851749
-0.7200878 1.6395205 -0.35886437 -1.3742961 -0.75029385 -0.55941665 -0.6937937 0.79532206
1.5870376 -0.11582495 -0.4471087 0.3699226 -0.7524752 1.0368451 0.8349857 1.7093654
1.2719686 1.2434616 0.6008357 1.3087869 -0.20212291 0.033045996 -0.26485765 0.8112219
-2.7666967 -2.6673484 -1.1146058 2.5391269 0.8848454 -0.14904706 1.6534909 -1.5665832
-2.1609383 0.9841343 -2.1649756 -1.0636096 -2.219862 3.4844859 -2.3820996 -0.7211223
-1.1623273 -1.9611887 -0.3315788 1.9804188 -0.92997116 1.9503293 -2.3617718 -1.0612531
-3.6059945 -1.0565848 -0.5072044 1.8279508 0.5449131 2.6740706 -2.0281458 2.249477
1.4451338 0.85641253 2.2180758 0.5231655 0.34664667 -0.19733144 -1.0545889 1.2779956
-0.17219013 0.52378845 0.05662182 0.42629614 0.57500505 -0.6417241 -2.2063985 -0.75080305
0.010868144 -0.33874235 -1.3406795 -0.58537054 0.5361881 0.5246226 1.1412016 0.051643595
0.743952 -0.4815844 -1.0494661 0.6038988 -1.722295 -0.82776886 1.334703 0.48353928
-2.5095444 0.48800105 0.78458685 0.028647186 0.6407553 0.5832474 1.0669267 -0.45015338
-0.18526748 0.75275886 0.4047578 0.17846599 0.2649095 1.2731683 -0.0013108636 -0.30360377
-1.4570291 -0.10233524 -0.59915304 0.4770564 0.7261772 0.09115186 -0.3890652 0.5279165
-0.012685479 0.24083632 0.13253537 0.7642406 1.0950097 0.33989096 0.7199675 0.41140762
1.9311606 1.0118638 -1.4364065 -1.1298598 -0.13603453 1.6354096 0.65474075 0.57600456
1.141508 0.018564576 -1.8058051 0.9254349 -0.37534437 1.0330874 -0.68665093 0.63681364
-0.9726739 0.95845777 1.6192005 1.4506098 0.26948154 -0.21037598 -0.73280275 0.10429783
0.3487517 0.96759415 -0.46568844 1.6047972 -2.4801202 -0.41754374 -1.1954538 0.8123369
-1.9005532 0.22857653 0.024859404 -0.34595025 0.2868328 -0.7308424 0.17482026 -1.0939293
-1.6021603 1.3528969 1.2888277 0.052295472 -1.5468504 0.75670606 0.7755195 2.0265355
0.035817612 0.12058873 -0.8056637 -0.20757683 -0.9319478 -1.5909662 -1.1359757 -0.5225976
-0.5187733 -1.5012764 -1.9266542 0.12785123 1.0229133 -0.55579513 0.70427275 0.709876
1.7743884 -0.921551 0.9624499 -0.33701515 -1.1753336 0.35805708 0.4787679 1.3537
0.5260621 2.112038 -0.52075714 -0.9320061 0.18516134 1.0686918 1.3065344 0.45983452
-0.8146269 -1.0212393 -0.49492356 -0.59225166 0.15431595 0.44076708 -0.1482923 -2.3184433
-0.39799532 1.0804863 -1.7808644 1.5080454 0.30942854 -0.50030905 1.0350032 1.6896471
-0.0045050518 1.6667924 0.15392017 -1.060253 -0.5726576 0.08356804 0.39990535 1.9892071
-0.07198751 -0.9060945 -2.0487123 -1.0810555 0.01762308 0.078225985 0.1931583 0.40967342
-0.9291303 0.27619088 -0.5388753 0.46258232 -0.8718891 -0.02711836 -0.35324576 1.4638569
1.2554343 -0.7149558 0.8539193 0.5129912 0.539731 0.565505 0.5057917 0.22245365

gce.weight f4 [32, 32]
00000000: 0b5e 09be 0c5c 823e 5077 97be a662 393d
00000010: b966 733e 003e 443e 407a e93d 64b9 953e
00000020: 2d1c 023d 977a c23e 5c4f 8b3e 7208 753e
00000030: 71a4 cabe e426 2e3d 1c55 233e 828b 263e
00000040: 8a6e f93d 955e bcbe ad0f c1bd 3263 b3bd
00000050: 6256 51be 7f19 443e d0e8 7f3e d4e7 943d
00000060: f5de 3ebe 9ba6 ec3d cd2a c93a 57dc a1be
00000070: a50f 27be b9db d33d 73fc a73c 6658 a5bc
00000080: e1e3 733e bb59 f0bd cf47 973d a3a4 7cbe
00000090: 6d0d acbd e09a c63d 2951 9c3e 81ba 923e
000000a0: fb20 d1bb c49b 4fbe ee05 01be b38f f9bc
000000b0: ae34 15be b4cb 52be 8a00 063f c84d 903e
000000c0: 82ec 82be d1f8 76be 9ba4 873d 0cd3 883e
000000d0: 7043 583e 4b3e 94be 84fc a53e 49d7 703e
000000e0: 9970 4a3e 11b2 05bc 8005 38be 3e00 0abe
000000f0: 9dc2 503e e0cd 603e 577b 863e 7406 f4bd
00000100: 0cda 713e 9c6b 743e 9e6f 413e af04 b8be
00000110: 1ae2 c2be 831c b63e 371c d0bc de46 7d3d
00000120: 65e0 533e 470a 4b3e 5293 3b3d 564a 38bd
00000130: e759 623b 57aa 42be 5d27 ec3e 2dfd 983e
00000140: f8b4 53be 439f 50be c517 57be e5b0 b93e
00000150: 5af3 8bbe 4a58 16bd 863b be3e 446e ee3c
00000160: 8039 0abe 1986 a7bc f15e 083e 05c8 f3bd
00000170: 1c7f debe ebcc 02be 76bd 4b3e 3e67 023d
00000180: 573b c6be 5e67 e93d 9c96 f93c 4334 503e
00000190: b4f7 fc3e ba9d 7dbe 3d46 eb3d 8b31 0fbd
000001a0: 5e8e ab3e 34a1 7f3e 38a0 123e a0c0 bdbe
000001b0: 9146 3fbd 99cd f9bc cc74 d1be 4a29 893e
000001c0: e5e9 4c3d 9688 bc3e 1066 26bd b00c ac3d
000001d0: e9e2 d0be ec63 babc cc55 3ebc f62e 81be
000001e0: db1f 043e a73f dbbd 0846 d53d 0dcc a5be
000001f0: 4756 a4bd c8de 6fbe 642b f6bd 326c 83ba
00000200: 4614 4a3d d0de 62be fdc5 3ebe 37f6 a83e
00000210: 3d7f c93e e8cb 36bd 8c30 62be e089 6d3d
00000220: a39c 343e 091c ca3d c49e 88be d48a a1be
00000230: 9c56 393d 5a6e 9cbd ec64 edbd 0b93 1a3e
00000240: fbed 963e 3240 fe3e dd16 4ebe 59e0 313e
00000250: 8dee 72be ccf6 863e 44a3 3cbe 014a 38bd
00000260: 02d0 403e a3e2 943c 39d9 3e3d b652 70be
00000270: 1e13 96bd 95fc 06be e8ba bf3e 2580 3d3e
00000280: da98 133e 3b26 96be bc98 dcbd ee62 903e
00000290: 6eb0 973c 9662 aabe 9c42 793d 63cd 823e
000002a0: 15eb 553e 35de 923e a2be 98bd 20aa 9b3e
000002b0: 8bd5 12bd 4f9f abbd baae dc3e 85c3 f03d
000002c0: f177 ebbd fbc3 773e cbaa 11be 6b77 8f3d
000002d0: 7c55 60be d5c1 c5bc 6295 3ebc d022 a8bd
000002e0: f6db 3a3e 871c 593d cbc2 8dbc fafa 353e
000002f0: 8eb0 8ebe 4ea9 1d3e bd0d 873e a91b bebd
00000300: fe12 fbbd b892 8a3d c7bb afbe 2189 ca3e
00000310: fafb b13e 66c8 4fbe ce76 96bd df76 e1be
00000320: fcc6 9cbe a2d5 1e3e 6f23 02be 47fc cd3c
00000330: 6d04 653e 4856 1d3e 860f 72bd 5e8e 7fbe
00000340: c644 00be 8784 0f3f bc0b c5be 2275 9b3e
00000350: 6b65 b03e 2dbe 3abe 92b1 5cbd 473b 97be
00000360: f7ee 8b3e bd48 653d 17c3 a43d cb43 58bd
00000370: 5296 c03e d12b b03c 830b ab3e 7d46 6fbb
00000380: 987f 833d 37c1 0d3e 5cc9 24bd bd7e 773d
00000390: ad5b 91be f742 f4bd ff5a 113c fb22 bebe
000003a0: 7d5f 563e 4747 783e 7522 a1bd cc10 443e
000003b0: e059 ddbe 8ebe 9ebe 15cf cf3e 74d8 083e
000003c0: 2d4a 5f3d de54 22be 7886 973e b4a7 173e
000003d0: 256b 023d af38 843e 97a0 a9bd 4182 b8be
000003e0: fc5b 623e e7b8 373e b62d 39bc c10c b93d
000003f0: af91 28bd a811 583d 8fd1 ccbd 645b 3e3e
-0.13414781 0.2546085 -0.29583216 0.045260094 0.23769654 0.19164276 0.114002705 0.29243004
0.03176515 0.37984154 0.27208984 0.23929003 -0.39578584 0.042517558 0.15950435 0.16264156
0.12179287 -0.3679091 -0.09426818 -0.087591544 -0.20443109 0.19150351 0.24991155 0.0727078
-0.18639739 0.11555215 0.0015347839 -0.31613418 -0.16314562 0.10344643 0.02050612 -0.020183753
0.23817398 -0.11735865 0.07386743 -0.24672179 -0.08400998 0.09697509 0.3053067 0.28657916
-0.0063821054 -0.20274264 -0.12599918 -0.030464029 -0.14570877 -0.20585519 0.5234457 0.28184342
-0.25571066 -0.24118353 0.06623193 0.26723516 0.21119475 -0.28953776 0.32419217 0.23519625
0.19769515 -0.00816013 -0.17970848 -0.13476655 0.20386739 0.21953535 0.26265976 -0.11915293
0.23618335 0.23869175 0.18890235 -0.35941073 -0.38063127 0.35568628 -0.025404079 0.061835162
0.20691068 0.19828139 0.045794792 -0.044992767 0.003453845 -0.19010292 0.46123782 0.29880658
-0.20674503 -0.20373254 -0.21005161 0.36267772 -0.273341 -0.036705293 0.37154788 0.029105313
-0.13498497 -0.020449685 0.13317467 -0.11903385 -0.43456352 -0.12773483 0.19896492 0.03183674
-0.38717148 0.11396669 0.030467324 0.20332436 0.49407732 -0.24767199 0.11488006 -0.034959357
0.33507055 0.24963838 0.14318931 -0.37061024 -0.046698157 -0.030493544 -0.4090942 0.26789314
0.050027747 0.36822957 -0.040624678 0.084008574 -0.4079812 -0.022752725 -0.011617135 -0.2523114
0.12902777 -0.107055 0.10413748 -0.3238224 -0.080242686 -0.23424828 -0.12019995 -0.0010026752
0.04933574 -0.22155309 -0.18630214 0.33000347 0.39354888 -0.044628054 -0.22088832 0.057992816
0.17637877 0.098686285 -0.2668363 -0.3155123 0.045248613 -0.076382354 -0.11591515 0.15095155
0.2947844 0.49658352 -0.20125909 0.17370738 -0.23723812 0.26360166 -0.18421656 -0.04499245
0.18829349 0.018174475 0.04659388 -0.23469052 -0.07327865 -0.1318229 0.37447286 0.18505915
0.14413777 -0.29326043 -0.10771319 0.28200477 0.018516745 -0.3327834 0.06085454 0.25547323
0.20890458 0.28685156 -0.07458235 0.30403233 -0.03584818 -0.08379995 0.43102056 0.117560424
-0.114974864 0.24195854 -0.14225309 0.07005199 -0.2190761 -0.024140278 -0.011632295 -0.08209765
0.18247971 0.05300572 -0.017304799 0.17771521 -0.27869076 0.15396616 0.2637767 -0.092826195
-0.12259482 0.06766266 -0.3432295 0.39557746 0.34762555 -0.2029129 -0.07346879 -0.44036004
-0.30620563 0.15511182 -0.1270883 0.02514471 0.2236497 0.15364945 -0.059096836 -0.24956653
-0.12526235 0.56061596 -0.38485515 0.30362803 0.34452376 -0.18236609 -0.05388028 -0.29537413
0.27330753 0.05597757 0.08045023 -0.052799027 0.37614685 0.021505268 0.3340722 -0.003651052
0.06420821 0.13843237 -0.040231094 0.0604236 -0.28390256 -0.11926835 0.008871793 -0.37136063
0.20934863 0.2424594 -0.078679 0.19147032 -0.43232632 -0.31004757 0.4058768 0.1336382
0.0545141 -0.15852687 0.2959478 0.14810067 0.031840462 0.25824496 -0.08282583 -0.36036876
0.22105402 0.17941628 -0.011302402 0.09035636 -0.04115456 0.052751213 -0.10000908 0.1858955

gc1.weight f4 [160, 32]
00000000: af54 f9bc 85c3 85bd 743e ac3d fa8b 89bd
00000010: 23ce cdbd 4c75 fb3c 52fc d4bc 3f69 55be
00000020: 79bc c8be 9eb3 023e ec3e 913d 9684 293b
00000030: 3110 92bd d051 ccbd 0072 a43c 61b1 27be
00000040: 2335 59be f221 9d3c 0f89 96bc 7adc 62be
00000050: b2cd 3d3e ee72 d2bd 4729 443d 2359 a2bd
00000060: bee8 963e 8e20 84be f1a0 e13c 6632 903d
00000070: 52e9 5dbe 2aef 12bd 1419 7ebe 1a65 25bc
00000080: 9c8d 423e c592 983b 733a 5fbe 4b67 8a3d
00000090: 36d2 c63c defa 473c d7d5 70be 2db3 8a3e
000000a0: 0f2d 293f 39d3 4f3e cc85 ee3b b7ab 803c
000000b0: c876 acbd bc74 283e 2876 45bd 3d1c babd
000000c0: 961c 4e3e 52c4 aebd 9247 a9bd a2d1 2b3e
000000d0: a9fd afbe 6f42 ad3e 7030 cabe 4e66 ff3e
000000e0: 56e8 353c 6a4b d7bd 4153 2f3d c817 4c3e
000000f0: b7cd 29be c013 6d3e f9b5 9d3e 0343 43bf
00000100: b193 0b3e 1355 22be 940f 5c3c 1348 eb3d
00000110: 7a25 a73d a1b9 8bbd 6525 8b3e 0e78 80be
00000120: a19b abbc f762 22be 88fd d6bc c8e0 6bbe
00000130: 8048 a63d 7a95 97bd 2f16 20be 1096 88bd
00000140: bfee 34bd 7fd9 973d 9729 383d c9c6 163e
00000150: 186d 49bd 3c53 073e 06a6 2fbe 5452 90be
00000160: 088f 353e 4bef 5abe 2455 bebd 9e3b 183d
00000170: f309 32bd 4668 b43d 233c 89bd f981 c43d
00000180: f898 d4be d991 30bd 4592 4dbe 4393 f63d
00000190: 4876 93bd 6d83 be3d caf0 6cbe 3d72 593e
000001a0: 632c bb3e 5186 82bc 5c9c 043c 336a f8bd
000001b0: b5e0 a7be 75cc 02bd e0f6 513d 3c28 0b3d
000001c0: 782d 983d e989 a5bd 8c6b 77be 1e9b 32be
000001d0: e3d8 c1bd 8995 873c c34c 58be cb13 403e
000001e0: 5fd5 f9bd f2e4 f4be 274e bbbc a464 833e
000001f0: 4373 0cbe 7ad8 e83d 4ac4 4d3e 9165 debe
00000200: bd05 193c 9b9f 973d eb59 4c3e e912 7abc
00000210: 61ab 00be 7db0 22bd 88e6 e23c be87 ae3d
00000220: b115 75bd 9bd4 1a3e 80f5 5e3e 8752 ad3e
00000230: 15b2 e6bd 45a0 2ebd 69eb 33bd 25d7 913e
00000240: 6fea c33d 5362 ba3d d5e6 c1be 1ccf a03d
00000250: fd28 9e3e d66f 77bd dc4a 94bd 2e87 20be
00000260: 50a6 9fbd add1 ff3d 85bc 813e c085 edbc
00000270: 75d3 c33d 0e93 243e 0a75 78be 730a fbbd
00000280: 54c3 8f3d a3ff f0be 9fa0 27bc 1f81 0c3d
00000290: 8e93 ac3d 78a3 43be 63f1 fabd 9993 ff3e
000002a0: e747 283d b414 59be 0c23 b53d 3e54 02bf
000002b0: 6a65 26bc 068e e23d 47cf e8bd 7722 233e
000002c0: af47 8f3e 571b 80bc 912b 263e 518b b3bd
000002d0: 7bed 76be 5b16 d73d 523c 06bd 8c78 8f3e
000002e0: 8021 f5bd c928 13bf 2191 b0be ec84 cfbe
000002f0: c619 febe 1598 513c 6b33 6a3e f110 67be
00000300: d358 df3c f6fc 4f3d 9ee0 033e 1bf7 32bc
00000310: 8b77 323c 0360 b73d f1b1 cc3c a600 d03d
00000320: 7b89 91bd e032 4e3d 81c5 1abe 7753 d93d
00000330: fc9a 7c3c d4aa 18bd 634f 2d3e bd39 913d
00000340: 22a5 1ebc 4e82 1dbd 2820 183e 1dd2 27bb
00000350: e0dc ebbc f9c2 78bc f45b 7bbd d74a e2bd
00000360: 23b6 0a3d 2ce6 c9bd 39d2 87bd 416d 9e3d
00000370: 1373 2cbe 83a1 a2bd 04d6 fdbd f3b6 1b3d
00000380: fce2 91bd dde8 1ebe 5bc6 883e ab26 b6bc
00000390: da83 d93d 1870 703e 9b6d 413e 1fd7 b2bc
000003a0: 4afc f9bd dc78 26bd 5c52 ff3c dc20 e93d
000003b0: f12f 27be 29aa 673d bb81 f0bd 0114 a23d
000003c0: 3f8f 22be 2262 413d 3e14 17bd da31 c8bd
000003d0: da7c a1bd 1628 73bd a0ed 103d 616b ea3d
000003e0: 367b 0b3e 0f68 b9bc 22a9 aebd 28ba 8d3e
000003f0: f3ab 42be 1ad1 06bd d715 08bd f5f3 913b
-0.030435888 -0.06531433 0.084103495 -0.067161515 -0.10049083 0.03069558 -0.025999222 -0.2084093
-0.39206293 0.12763831 0.070920795 0.002586638 -0.071319945 -0.09976542 0.02007389 -0.16376258
-0.21211676 0.019181225 -0.018375902 -0.22154418 0.18535498 -0.10275827 0.047890928 -0.07927158
0.29474443 -0.25806087 0.027542563 0.07040863 -0.21671036 -0.035872616 -0.24814254 -0.010094905
0.18999332 0.004656168 -0.2179964 0.06757983 0.024270158 0.0122058075 -0.23519073 0.27089825
0.6608438 0.20295419 0.0072791334 0.01570688 -0.08421093 0.1645078 -0.048208386 -0.09087417
0.20128092 -0.08533539 -0.08265604 0.16779187 -0.34373215 0.33839747 -0.3949008 0.4988274
0.0111027565 -0.10512431 0.042804006 0.19930947 -0.1658238 0.23152065 0.30802897 -0.76274127
0.13630559 -0.15852766 0.0134314485 0.114883564 0.08161445 -0.06822515 0.27176967 -0.25091594
-0.020948233 -0.15858065 -0.02624394 -0.23034966 0.08119297 -0.07401557 -0.15633462 -0.06669247
-0.044173 0.07414531 0.04496154 0.14724268 -0.049176306 0.13215345 -0.17153177 -0.2818781
0.17730343 -0.21380346 -0.09293583 0.03716623 -0.04346652 0.08808951 -0.06700923 0.09595103
-0.41522956 -0.04310784 -0.20075329 0.12039807 -0.07200295 0.09302411 -0.23138729 0.21234985
0.36557302 -0.015933188 0.00809392 -0.12129631 -0.32788625 -0.031933267 0.05126083 0.033973917
0.074305475 -0.08082945 -0.2416212 -0.17441985 -0.09465196 0.016550796 -0.21123032 0.1875755
-0.121989004 -0.4783092 -0.022864414 0.2566272 -0.13715844 0.11369415 0.2009441 -0.43436864
0.009339747 0.07403489 0.19956176 -0.015263298 -0.12565376 -0.039719094 0.027697816 0.085219845
-0.05983514 0.15120165 0.21773338 0.33852026 -0.11264435 -0.042633314 -0.043925676 0.28484455
0.09566199 0.09100785 -0.37871423 0.07852003 0.30890647 -0.06040939 -0.07240841 -0.15676567
-0.077953935 0.12491164 0.2533914 -0.028994441 0.095618166 0.16071722 -0.24263397 -0.122578524
0.07019678 -0.47070035 -0.010231166 0.034302827 0.08426581 -0.19105327 -0.12253072 0.49917296
0.041084196 -0.21199304 0.08844575 -0.50909793 -0.010156015 0.11062245 -0.1136766 0.15931116
0.27984378 -0.015638037 0.16227557 -0.08766807 -0.24114029 0.10502311 -0.03277237 0.28021657
-0.1196928 -0.5748411 -0.34485725 -0.405311 -0.4962904 0.012792607 0.22871177 -0.22565056
0.027264034 0.05077835 0.12878653 -0.010923172 0.010892759 0.0895386 0.024987193 0.10156374
-0.071063004 0.050341487 -0.15114404 0.10611623 0.0154178105 -0.03727229 0.16924815 0.07091091
-0.009682925 -0.038454346 0.14856017 -0.0025607415 -0.028791845 -0.015183204 -0.06136699 -0.11049431
0.033865105 -0.09858355 -0.06631894 0.07735682 -0.16840772 -0.07940962 -0.12394336 0.03801627
-0.07123372 -0.15518518 0.26713833 -0.022235235 0.10620852 0.2348026 0.18889467 -0.021831093
-0.122063234 -0.040642604 0.031167202 0.113832206 -0.16326882 0.05655876 -0.11743494 0.07913972
-0.15874957 0.047212727 -0.03688454 -0.097751334 -0.07885142 -0.0593644 0.035382867 0.11446262
0.1362122 -0.022632627 -0.08528353 0.27681088 -0.19010906 -0.03291426 -0.033223953 0.004454131

gc2.weight f4 [32, 16]
00000000: e491 12bf 2e38 993d 1d8a 643e 240f b33d
00000010: 17ac 333f 43cb c23e f60f 0c3f a605 8fbe
00000020: 88c5 7d3f 8f65 33bd bbc4 f43e bd3e b0bf
00000030: e5ed 2cbe 1d94 d23d 942f 6a3e 99ad c43e
00000040: ee3a 8a3f c08e ca3e ede2 27bf 6aa9 1d3a
00000050: 554e 453d cd76 263f 663b 103e 4bc0 12bd
00000060: 9e88 71bf e062 09bc 2aac 463f 418f 84be
00000070: 1c08 2a3e 52dc 1b3f 00cb 94bf 2a4c fabc
00000080: 4a48 b13e 37f8 89bd bb73 84be dbd9 12be
00000090: 086a 36be cc70 2f3d eee9 4e3d f056 893d
000000a0: 1ab2 39be 8b6c 90bd 26d3 b53e b137 4b3e
000000b0: f608 3c3e 34a8 92be 4592 af3e 7f7c bb3e
000000c0: 1c11 a8be bbbe 4bbf 980a 493e 88dc ccbe
000000d0: da1d db3d 8d62 75be e921 c53e fa32 67be
000000e0: 9d6b d13d 705e 8cbe 9317 a4be a9cf df3e
000000f0: 80db 9f3e d2b0 b9be 8083 193d f84d 4d3e
00000100: d183 2e3e 36fc babe 58f2 9a3d 7d47 9d3d
00000110: 508a 2d3e 4a1a fcbe 4ae5 023e 11f8 8cbe
00000120: 4917 52be 5374 343e 4648 b13e 17bd 113e
00000130: 4635 02be 22b3 b63e 792c 92be 0066 dc3c
00000140: fbff dabf c16e 4d3f 285d 2a3f 7b17 0440
00000150: 5532 ed3e 9113 65be e38f d73e cbb2 923e
00000160: 52f5 31be e29b 253f f4fd 4bbf 3bf4 7d3e
00000170: 957b 003e 0712 af3e 1a5d ca3d d37c bebe
00000180: b4b7 c4be 1e2e 1b3f 3323 9bbd ea0a cc3e
00000190: 2b73 61bc f437 6c3d e730 c53e 5156 4f3e
000001a0: 0c00 0dbf e39d 94bd 979b 683d d9a5 993e
000001b0: f012 da3e 345c a83d c3dd a93e c780 9abe
000001c0: 2ce4 7b3e 19f3 b53e fb83 d53e 0182 d6be
000001d0: 07b6 653b 663c be3e d98a fbbb 3700 f5bd
000001e0: 6f2a d73e e080 dd3d 43e2 e8bd 4d69 11bf
000001f0: 5f0d e1be 06d4 f5bd c571 a3be 7f0e 383e
00000200: 973e a03c 28df 883e 6de4 90be 582b 173f
00000210: 966a c63d 7741 2cbf 194a 9b3d 0dc7 043e
00000220: 6047 d1be a59b 65bd c7e4 47be 6bf4 aa3e
00000230: a21b 063f 030b 853e a43a 99bf a632 f7bd
00000240: abe0 8cbe 170a 2c3e 31b4 b63e ddb8 05bf
00000250: f30a 2fbf 2a21 c9be a947 483f 7f17 333f
00000260: 565f 53bf 49f3 7c3f 52fe c6be 89f0 0dbf
00000270: 5507 933f 1170 923e a391 18bf 75d3 603e
00000280: d8d0 47be 2d05 9f3e c19e 9b3e 8b5d 9abe
00000290: 8f19 02be ca95 d33e cd76 56be 7d2a b4be
000002a0: 7734 b23e a3c8 94be 0521 a63d aefa 0fbe
000002b0: 6554 c0be 98c3 6dbe 4ece 313e 5048 833d
000002c0: a67c 0fbf ba98 5dbe d073 28bf 2bdf b93d
000002d0: 2a04 493f d19d a33e 06dc 7abf ca7d 6dbf
000002e0: 5fe9 953f d58c 27bf e16b 403f 7796 863f
000002f0: 36da 90bf 9f42 7fbf 5ac2 813e ed08 803c
00000300: 0ac9 ed3d 4b25 c8be af3a b73f 4292 173b
00000310: 6937 373f 6ae8 7cbd 33a1 6c3f b1c9 8b3f
00000320: dc34 2bbe 1861 963f 0ef7 843e 4f5c 77be
00000330: f003 8f3e 3315 213f d13a 98bf bf24 6dbe
00000340: a387 153f 7dbd 4ebe b2e3 ebbd 471c 1cbe
00000350: 245b 64bf b58b 173f 6c9d 22bf d329 90be
00000360: 2a9f 803e a7ad 00bf 10f2 d53d eac8 0fbf
00000370: ca0c 11bf b34f d8be c769 e63e d14a d63e
00000380: a762 e13e 2dd3 5a40 c87f 04c0 5f47 0cc0
00000390: f6db 5b40 2ad5 73c0 b4cc 0b3f 92a9 a33f
000003a0: 85af 6d3f 182c 0bbe c42f adbe db8e 7bbf
000003b0: eaad ae3d 9c03 633e fd2b ccbe b46e 80bf
000003c0: adcd d63e 74b8 933e 93f2 95be 1d3d 16bf
000003d0: 56cd 66bf a035 d9bc 262a e53c ce76 b1bd
000003e0: 9963 803e b087 8ebe aeaa 813d 3107 cfbe
000003f0: d60a 5ebd 4613 f1be 2d27 1a3e 4a97 133f
-0.5725386 0.074814186 0.22318311 0.08743122 0.70184463 0.380457 0.54711854 -0.27933997
0.99129534 -0.043798026 0.47806343 -1.3769146 -0.16887625 0.102821566 0.22869712 0.38413695
1.0799234 0.39562035 -0.65580636 0.00060143194 0.048170406 0.65025026 0.14085159 -0.035827916
-0.94349086 -0.00838539 0.7760645 -0.25890544 0.16604656 0.6088306 -1.1624451 -0.030553896
0.34625465 -0.06736796 -0.25869545 -0.14340918 -0.17813885 0.04283218 0.05051606 0.06706035
-0.18134347 -0.07051953 0.35512656 0.19845463 0.18362793 -0.28643954 0.34291282 0.3661842
-0.32825553 -0.79587907 0.19632947 -0.40012002 0.10699053 -0.23963375 0.38502434 -0.2257804
0.10225604 -0.274158 -0.32049236 0.4371312 0.31222153 -0.36267716 0.037478924 0.20049274
0.17042471 -0.36520547 0.07565755 0.07679651 0.16947293 -0.49238807 0.1278278 -0.2753301
-0.20516695 0.17622499 0.34625453 0.14232288 -0.12715635 0.35683542 -0.28549555 0.026904106
-1.7109369 0.8024712 0.66548395 2.0639331 0.46327463 -0.22370745 0.42101964 0.28652033
-0.17378739 0.64690983 -0.79684377 0.24800198 0.12547143 0.3419344 0.09881039 -0.37204608
-0.38421404 0.60617244 -0.07575073 0.39852077 -0.013760368 0.05767055 0.38513872 0.20247771
-0.55078197 -0.07256677 0.056789007 0.30009344 0.42592573 0.08220711 0.33177003 -0.30176374
0.2459876 0.3553703 0.41702256 -0.4189606 0.0035051124 0.37155455 -0.007676464 -0.119629316
0.42024562 0.108155966 -0.11371281 -0.568013 -0.43955514 -0.12003331 -0.31922737 0.1797428
0.019561095 0.26732755 -0.28299275 0.5905051 0.096882984 -0.6728739 0.075824924 0.12966557
-0.40874767 -0.056056637 -0.19520865 0.333896 0.52385914 0.25984964 -1.1971021 -0.12070207
-0.27515158 0.16800724 0.3568435 -0.52235204 -0.6837608 -0.39283115 0.78234345 0.6995773
-0.82567346 0.98808724 -0.38865906 -0.5544515 1.1486613 0.28601125 -0.59597224 0.21955664
-0.19513261 0.31058636 0.30394557 -0.30149493 -0.12705062 0.41325217 -0.20943756 -0.35188666
0.34805652 -0.29059324 0.08111767 -0.1406047 -0.37564388 -0.23219144 0.17363855 0.06410277
-0.56049573 -0.21640292 -0.65801716 0.09075769 0.7852198 0.31956342 -0.9799198 -0.92770064
1.1711844 -0.6544927 0.7516461 1.0514668 -1.1316593 -0.9971103 0.2534359 0.015629256
0.11610611 -0.39090952 1.4314784 0.0023127948 0.71568924 -0.061745085 0.9243347 1.0920926
-0.16719383 1.1748381 0.25969738 -0.24156307 0.27932692 0.6292297 -1.1892949 -0.23158549
0.5841009 -0.20189472 -0.11518039 -0.15245162 -0.8920157 0.5919755 -0.63521457 -0.2815691
0.25121433 -0.5026497 0.104465604 -0.56165946 -0.5666014 -0.42248306 0.45002577 0.41853955
0.44020578 3.4191391 -2.0702991 -2.1918561 3.4353004 -3.8098855 0.5460923 1.2786124
0.92845947 -0.13591039 -0.33825505 -0.98264855 0.08529265 0.22169346 -0.3987731 -1.0033784
0.41953793 0.28851664 -0.29286632 -0.58687 -0.9015707 -0.026514828 0.0279742 -0.08665238
0.25075987 -0.27837896 0.06331383 -0.40435174 -0.054209553 -0.47085017 0.15054007 0.57652724

gc3.weight f4 [32, 16]
00000000: 4357 0ebe 05d9 fbbc 59de 8e3e 50ba aabd
00000010: d96f 4cbd 855d d33c 5754 acbd 236d e93e
00000020: cd54 29bf 16c9 5cbe ab10 2b3f b6a0 38bf
00000030: 9496 823c 88bc a8bc 0181 cd3e 1a89 28be
00000040: c81f bbbe 0b9d bbbe cacd 5abf 74a5 e5be
00000050: 05d8 90be 1c41 f4be 3c24 44be b584 2ebf
00000060: 26b9 c9be 47ff 25bf 42ce 7a3e bb31 e1be
00000070: 74bb f3be 9748 8bbe 3b3f 7b3e 2674 dabe
00000080: be94 4a3d 7c23 65be 54ad acbd 9133 6a3d
00000090: 4f2a c4be b952 e9bd 2a4c eebd b101 01bf
000000a0: f21f 08be 4857 253e 28bb 7ebe 0904 6ebe
000000b0: d49e a93d ea14 9bbd 77fb d7be 3979 aa3d
000000c0: abca 5b3e 62a4 6b3e 2b53 563e 7268 85bd
000000d0: 9147 18be f600 ae3e d7f9 a2be f68c 50bd
000000e0: 7b77 fe3d 7c34 fabc 86ce 583d 2c53 0e3e
000000f0: 86ce 91be afe1 c4be 1278 1f3f b34e 1cbc
00000100: a891 8c3d 4bd7 39bf 6503 b3be ff5e 8d3c
00000110: 023a dd3c 26e0 d4be 531f 3d3e 70fb abbe
00000120: aafe a73d d2c3 5cbd 3358 6abf 15f5 66be
00000130: 83a6 1ebe ffb1 4f3e 1886 a1bf f0fd e23b
00000140: de36 4f3e dfa8 b0be 86de 1d3f 09bc 933e
00000150: fb65 ae3d c078 77be bd89 5dbc 58ee e93e
00000160: a21a 5e3e 9f1b 8f3e dc87 30bf 6208 d3bd
00000170: fc2a 2bbd f305 a13e 01ca 92be 0f6f 4b3e
00000180: 4d81 fabe 5376 4bbe b36f e2bc 3093 92be
00000190: f35f 8abe 649d f9be 7b2b 073e 06ce c3be
000001a0: ef65 5bbc 4701 593d 4da5 1cbf a562 75be
000001b0: fff3 22bd 1ada 8fbe 6381 75bf b3da e5bd
000001c0: 2910 a3be 3b85 c5be f9fa 02be a5e6 0ebf
000001d0: bd37 19be cf02 4abe 5ac1 583e 0c1b 14bf
000001e0: 43a0 1abf a5fb 523e 6ad1 2fbf 31c9 56bf
000001f0: 78ed 62be 3095 11be 87de 513f 238e a5be
00000200: ec18 9abf 4c87 ef3e 2f40 0dc0 76f6 0bbe
00000210: 061a 713e 7259 cd3e 9b4c 6cbf fe5e 41c0
00000220: ced8 28bf f047 d4be 2a70 233f 26eb aa3d
00000230: 3eeb 63bf 35d0 4cbf 5ec4 7e3e 403c 31bf
00000240: cf03 fe3c d776 31be a3cf 263e 2ea0 6a3d
00000250: af06 ccbe df88 dbbd c96b 163e 7673 203e
00000260: 7428 d83d 2104 2fbd 8cd0 46be 918c 633d
00000270: 5724 083e 46e8 583e e04f 8c3d a140 293e
00000280: a7bd 8b3c 95b9 803d 5e3f 44bd 20cb 87be
00000290: ef46 96be 4363 12bf cfa8 e03d ce41 83be
000002a0: 8c91 fbbd 0c56 babe 53f7 96be 5ab4 5cbd
000002b0: d11a 0d3e 60c2 5cbe 808a 3abe b206 aebc
000002c0: 338b 3c3e 11ff 943e b01c f0bd f1c7 293d
000002d0: 52d1 123f 244d b03e 379a 59bd 9650 9bbd
000002e0: e297 d43d a3ea 5f3e 2c2a 873e 7461 7a3e
000002f0: 9725 9abd 915c ccbd ea52 133f 3211 9f3d
00000300: 90b7 b43e d20e 9c3e 5f02 cb3f 5eb8 973e
00000310: d559 793c feab 3a3f 398a ac3e a32e eb3f
00000320: ba6f e13e 44e5 7f3e f978 62bf bb34 f1bc
00000330: e31e a93e 27e2 733e 0181 663f a2e0 f53e
00000340: 9d1b a1be acf3 d5be e164 9bbc 5430 aebe
00000350: c091 67be ed40 cebe 7bfc 8fbe 341d c5be
00000360: a5d3 5fbd e0eb 71be bc1c ca3e 1ba1 bebe
00000370: 606a 983d b7d5 84be 82d2 bf3e 76d1 34be
00000380: d6a2 2c3d 21c6 18be a3ff 3e3e e24a ac3e
00000390: c74e 193e c15e 823d 1e97 29bc 7c41 86be
000003a0: 3ca1 56be a593 2cbe 9693 26be 97a5 a7be
000003b0: 6a4f 983d cb4d 3bbc 28b9 5e3d bd8d 273e
000003c0: c958 01be b9da 14bc c545 ddbd c3f3 fd3a
000003d0: 4b41 813d 7e95 513e 8fde 48bd 5bcc 01be
000003e0: 20c1 663e 6902 35bd 10ea 9fbd 2e78 f93d
000003f0: bd37 da3d 4821 a93e c51c e53e 45e9 a73d
-0.13900475 -0.030743131 0.27904013 -0.083363175 -0.049911354 0.02580143 -0.08414524 0.45591077
-0.6614502 -0.21561083 0.6682231 -0.72120225 0.015940942 -0.020597711 0.40137485 -0.1645855
-0.36547685 -0.36643252 -0.8547026 -0.44852793 -0.2828981 -0.47705925 -0.19154447 -0.68171245
-0.3939907 -0.6484265 0.24492744 -0.43983254 -0.47603953 -0.2720382 0.2453584 -0.4266674
0.049458258 -0.22376817 -0.08431497 0.057178084 -0.3831353 -0.11392731 -0.11635621 -0.50393206
-0.13293436 0.16146576 -0.24876082 -0.23243727 0.08282247 -0.075723484 -0.4218404 0.08323903
0.2146403 0.23011926 0.20930164 -0.06514062 -0.1487105 0.33985108 -0.31831238 -0.05091568
0.12425133 -0.030542605 0.05293133 0.13898915 -0.28477877 -0.38453433 0.6229259 -0.009540248
0.06863719 -0.72594136 -0.34963527 0.017257212 0.0270052 -0.41577262 0.1846898 -0.3359027
0.0820287 -0.053897686 -0.9154083 -0.22554429 -0.15493207 0.20282744 -1.2619047 0.0069272444
0.20235774 -0.34503838 0.6166767 0.28854397 0.08515545 -0.24167156 -0.013521609 0.45689654
0.21689847 0.2795076 -0.68957305 -0.10304333 -0.04178904 0.3144985 -0.28669742 0.19866584
-0.48926774 -0.19869356 -0.027641153 -0.2862792 -0.27026328 -0.48752892 0.1320018 -0.3824312
-0.013391002 0.052979734 -0.6118973 -0.23963411 -0.039783474 -0.28096086 -0.95900553 -0.11223354
-0.31848267 -0.3857821 -0.12791051 -0.55820686 -0.14962669 -0.19727634 0.21167508 -0.5785377
-0.6040079 0.20603807 -0.68678916 -0.83900744 -0.221609 -0.14217067 0.81980175 -0.32335004
-1.2038856 0.4678291 -2.2070425 -0.13668236 0.23545083 0.40107304 -0.9230439 -3.0214229
-0.6595582 -0.41461134 0.63843024 0.08345632 -0.89030826 -0.800052 0.24879596 -0.6923256
0.031007675 -0.1733049 0.16290145 0.057281666 -0.3984885 -0.107194655 0.14689554 0.15669045
0.10554591 -0.042728547 -0.19415492 0.055553976 0.13295113 0.21182355 0.068511724 0.1652856
0.017058207 0.06285397 -0.047911994 -0.2652216 -0.29350993 -0.5718271 0.10969698 -0.25636142
-0.1228362 -0.36393774 -0.29485568 -0.053882934 0.13779761 -0.21558523 -0.18216896 -0.021243427
0.18412475 0.2910085 -0.11724222 0.041450445 0.5735065 0.34433854 -0.053125586 -0.0758373
0.10380532 0.2186685 0.26399362 0.24451238 -0.07526701 -0.09978593 0.5754839 0.077669516
0.35296297 0.30480057 1.5860099 0.29632849 0.0152191715 0.7291869 0.33699206 1.8373607
0.44030553 0.24989802 -0.8846584 -0.02944409 0.33031377 0.23816739 0.90040594 0.48022944
-0.3146638 -0.4178747 -0.018969001 -0.34021246 -0.22614193 -0.4028391 -0.28122315 -0.38498843
-0.0546452 -0.23625135 0.39475048 -0.3723229 0.074421644 -0.259443 0.37465292 -0.17658028
0.04214748 -0.1491933 0.18652205 0.3365088 0.14971457 0.06365729 -0.010350971 -0.26221836
-0.20959944 -0.16853197 -0.16267237 -0.32743523 0.07437022 -0.0114321215 0.054375798 0.16362663
-0.12631525 -0.009085351 -0.10804323 0.0019375015 0.06311282 0.20467183 -0.049040373 -0.12675612
0.22534609 -0.04419175 -0.07808316 0.121811256 0.106551625 0.33033204 0.44748512 0.081987895

dc.rk_lgt f4 [1, 16]
00000000: 966e fabf 1ccb 89bf 9fdf e8bf 549a eabf
00000010: 7c77 d9bf 32e9 28bf 9ce5 62c0 dd73 97bf
00000020: 3f22 d9bf 14c2 57c0 b769 a8bd 477b 03c0
00000030: 68df 1ec0 5cbd 52c0 079e 223d 4b8b 2bc0
-1.9564998 -1.0765109 -1.8193244 -1.8328347 -1.6989589 -0.6598083 -3.5452642 -1.1832234
-1.6963576 -3.3712206 -0.082232885 -2.0543993 -2.4823856 -3.2928076 0.039701488 -2.6803768
