models/ogbl-collab_CN_2_1_0_run10_gnn.pt (torch, 668331 bytes, 10 tensors)

convs.0.bias f4 [256]
0	0x40b1e87f	5.559631
1	0x400a37e2	2.1596608
2	0x408874a1	4.264237
3	0xbfbfc023	-1.498051
4	0xc009b774	-2.151822
5	0x4090802e	4.515647
6	0xbe87282f	-0.26397845
7	0xbf3a7874	-0.72840047
8	0x40cb1c1d	6.347182
9	0xbf5ff888	-0.87488604
10	0x404033f1	3.0031703
11	0x4094a841	4.645539
12	0xbfc413df	-1.5318564
13	0x40cc5289	6.385075
14	0xbfc6a796	-1.5519893
15	0x3fec2709	1.8449413
16	0xbfdd28e1	-1.72781
17	0x409c5c14	4.88624
18	0xbf559ca1	-0.8344212
19	0xbfec83f5	-1.847777
20	0xbf42319e	-0.7585696
21	0x4105d7d6	8.365194
22	0xbf281a49	-0.6566511
23	0xc146c128	-12.422157
24	0x3f751e81	0.9574967
25	0x40d0cfda	6.5253725
26	0x40590a9f	3.3912733
27	0x4115040e	9.31349
28	0x4060ee47	3.5145433
29	0x400697f8	2.1030254
30	0xbfcaf05a	-1.58546
31	0xbefb4a05	-0.4907991
32	0xc05ceaf4	-3.4518404
33	0xc0f3332f	-7.599998
34	0x3e0eb1fd	0.13935085
35	0x405c2c82	3.4402165
36	0x40746ef6	3.8192725
37	0x404ba951	3.1822093
38	0x40aaf688	5.342594
39	0x405cc517	3.4495294
40	0x402afe9a	2.6717896
41	0x3edc42b8	0.43019652
42	0xc06ac1b7	-3.6680734
43	0x411c529c	9.770168
44	0x40b20ccb	5.5640616
45	0xbf25a237	-0.64700645
46	0x3f1a1051	0.60181147
47	0x3fd5217d	1.6650845
48	0xc0650946	-3.578691
49	0x40be3cb4	5.94491
50	0xbf82abde	-1.02087
51	0xbf0985cb	-0.53719777
52	0xc09b7caa	-4.858968
53	0xbcd298c8	-0.025707617
54	0x40e4c1b0	7.1486435
55	0x41164fdd	9.394498
56	0x41011de8	8.069801
57	0x411258c8	9.146675
58	0x4083719e	4.1076193
59	0x3e8d6fd4	0.2762438
60	0x40a68621	5.203873
61	0x409d9116	4.9239607
62	0xc18863ef	-17.048796
63	0xbf110418	-0.5664687
64	0x3e64f7be	0.22360131
65	0x40eb4bee	7.3530188
66	0xc090e3f7	-4.5278277
67	0xbf2870bb	-0.65797013
68	0x4068597d	3.630462
69	0x415a3380	13.637573
70	0x4029b153	2.651448
71	0x406bf72f	3.686962
72	0x405d826a	3.4610848
73	0xc0730e18	-3.7977352
74	0x4107495c	8.45541
75	0x41311085	11.066533
76	0x410da147	8.851874
77	0x3f97e042	1.1865313
78	0xbfdebb90	-1.740099
79	0x4090d32d	4.5257783
80	0x402913b7	2.6418283
81	0xbdf15b3c	-0.1178498
82	0x4109a441	8.602601
83	0x3ffb9243	1.965401
84	0xbcb19bc8	-0.021680728
85	0x40e0c4a7	7.0240054
86	0xbfa6eb86	-1.3040626
87	0xc0bdd612	-5.9323816
88	0x40841289	4.1272626
89	0x3e9b99a8	0.30390668
90	0x4044c1cf	3.0743291
91	0xbe3d0055	-0.18457158
92	0x40bef3a5	5.967242
93	0xbe63feb3	-0.22265129
94	0x40f7e79a	7.7470217
95	0x401375f9	2.3040755
96	0x40b7e7fc	5.7470684
97	0xc180b9b4	-16.090675
98	0x411c62c3	9.774112
99	0x3f31d64a	0.69467604
100	0xbf2fe673	-0.6871101
101	0x4011a7a2	2.2758565
102	0xbfa6f335	-1.3042971
103	0x404d9add	3.212577
104	0x404e6cd6	3.2253928
105	0x4001cd11	2.0281413
106	0xbf3e87c1	-0.74425894
107	0xbf9e05e1	-1.2345544
108	0xc18bb2ec	-17.462364
109	0x40d18863	6.547899
110	0x41061225	8.37943
111	0xbf87e5a2	-1.0616953
112	0x40101c82	2.25174
113	0x4071104c	3.7666197
114	0xbeb0e7ad	-0.34551755
115	0xbebf599d	-0.37373057
116	0x40cbf2b5	6.3733773
117	0xbf8a2704	-1.0793157
118	0x3f9279df	1.1443442
119	0x40f4b643	7.6472487
120	0x3e843cbb	0.25827584
121	0xbeb2838a	-0.3486598
122	0x401f642d	2.4904892
123	0x40c1fe66	6.0623045
124	0xbf70c7dc	-0.9405496
125	0xbfad9fcb	-1.356439
126	0x40a49fbd	5.1444993
127	0x40a69704	5.2059345
128	0x3f53f5db	0.8279702
129	0xbefe546a	-0.49673778
130	0xc0eefcbf	-7.468353
131	0x410851a6	8.519934
132	0xbf60fc4a	-0.8788496
133	0xc01c9609	-2.4466574
134	0xbe83c2a4	-0.25734437
135	0x400a8ca9	2.1648352
136	0x40245fcf	2.5683477
137	0x4123046b	10.188579
138	0xbdf837e2	-0.12120034
139	0x40976a6f	4.7317424
140	0xbc904cc1	-0.017614724
141	0xc0191492	-2.3918805
142	0x412718d5	10.4435625
143	0xbf0f5896	-0.55994546
144	0x40a6f3e0	5.21727
145	0x3d3ad513	0.04561336
146	0x40aff7f5	5.499018
147	0x3ff44170	1.908247
148	0xbfa179c9	-1.2615291
149	0xbd673fef	-0.056457456
150	0x404af97d	3.1714776
151	0xbf35d352	-0.71025574
152	0x408d80e5	4.421984
153	0xc094221e	-4.6291647
154	0xbf8c663e	-1.0968702
155	0x40832f0c	4.099493
156	0xc0b69ce6	-5.7066526
157	0xc120b0c7	-10.043159
158	0x3e22dbea	0.15904203
159	0x40735ee6	3.8026671
160	0x40eb759b	7.358106
161	0x40aecde6	5.462634
162	0xbfb62631	-1.4230405
163	0x40ad849d	5.422438
164	0x40c214d3	6.065042
165	0xc0222c7b	-2.5339649
166	0xbe47a7d4	-0.19497615
167	0x3f9ca132	1.2236693
168	0x40ae7761	5.4520726
169	0x404b0cdd	3.17266
170	0xbe3898cc	-0.18027037
171	0xbf86ce3b	-1.0531687
172	0x408182c6	4.0472136
173	0xc03e4f49	-2.9735892
174	0x3fac1181	1.3442842
175	0x3efc989a	0.49335176
176	0x40b0f130	5.529442
177	0xc1875f10	-16.921417
178	0xbc2d3338	-0.0105712935
179	0xc18713b1	-16.884615
180	0x3fc69453	1.5514015
181	0x40ecf8cb	7.40537
182	0xbf16292d	-0.5865658
183	0x402a3ad6	2.659841
184	0x4087621f	4.2307277
185	0x4080d929	4.026509
186	0x41068827	8.40824
187	0xc06eb75a	-3.729941
188	0xc006f34a	-2.1085992
189	0xbfa072fe	-1.2535093
190	0x404f28ef	3.2368734
191	0x40aada14	5.339121
192	0x3fd24018	1.642581
193	0x40971901	4.721802
194	0xc0043520	-2.0657425
195	0x3e4931b4	0.19647866
196	0xbd2f5551	-0.042805973
197	0x3cc21ef9	0.02369641
198	0x408d1cfb	4.4097877
199	0xc0c003f2	-6.0004816
200	0x40dd1617	6.9089465
201	0xc00c127c	-2.1886282
202	0x41004672	8.017199
203	0x41041380	8.254761
204	0x402d53e1	2.7082446
205	0x411120cc	9.070507
206	0xbf7c7855	-0.9862111
207	0xbfa31f97	-1.2744015
208	0xc058c5d7	-3.3870752
209	0x411f8163	9.969089
210	0x40307936	2.7573981
211	0xbf814fdb	-1.0102495
212	0xc07ed02d	-3.981456
213	0x40e7f6d4	7.2488804
214	0xc0345ebc	-2.8182821
215	0x40d6cdce	6.7126226
216	0x40935aea	4.604848
217	0xc04ba4f1	-3.1819422
218	0xbf00ec80	-0.5036087
219	0xbe486028	-0.1956793
220	0xc0f76c58	-7.7319756
221	0x40be5ee1	5.949082
222	0x412c2cf2	10.760973
223	0xbcdab7e1	-0.026699008
224	0xbeddbc82	-0.43307883
225	0x40fa395d	7.8195024
226	0x40c74818	6.2275505
227	0xbe4148ec	-0.18875474
228	0xbfd73b90	-1.6815052
229	0x40c8dee1	6.277207
230	0x3e6fe12c	0.2342574
231	0xc01ae369	-2.42013
232	0x3ec75af6	0.38936585
233	0x400787de	2.1176677
234	0x40da89e4	6.8293324
235	0x406e2677	3.7210977
236	0x405723c1	3.3615572
237	0xbf64ca1a	-0.8937088
238	0x3aa438cd	0.0012529135
239	0xc00567c8	-2.0844593
240	0xbfb1928f	-1.3872851
241	0xbe6ac4df	-0.22926663
242	0x40b21101	5.5645757
243	0x410f90f4	8.972889
244	0xbec7f8af	-0.39056918
245	0x4042cc05	3.0437024
246	0x409c2d29	4.8805127
247	0x401de336	2.4669929
248	0x3f2c18ee	0.6722554
249	0x408b4fb3	4.353479
250	0x40f934f4	7.787714
251	0x40c1d946	6.0577726
252	0xbed1db9e	-0.40987867
253	0x401c1c93	2.439244
254	0x40652744	3.5805216
255	0x3e1482a6	0.14502963

convs.0.lin.weight f4 [256, 128]
0	0xbee3fbd9	-0.44528082
1	0x3f89e52e	1.0773065
2	0xbe4814d9	-0.19539203
3	0x3ea58454	0.3232752
4	0xbe81cf0c	-0.25353277
5	0xbe62fd1e	-0.22166869
6	0xbd702044	-0.05862452
7	0xbe037efe	-0.12841412
8	0x3f5dbf6a	0.866202
9	0xbef853ea	-0.4850152
10	0x3edc2dd2	0.43003708
11	0xbda5b5db	-0.08091327
12	0x3dc3a0c0	0.09552145
13	0xbe44fa65	-0.19236143
14	0xbcce69fb	-0.02519702
15	0x3dde6db5	0.10860769
16	0x3f303597	0.6883177
17	0x3e6e5ace	0.23276827
18	0x3d9930c9	0.07480008
19	0xbdee3dee	-0.11632906
20	0x3e94bb37	0.29049084
21	0x3a4190a4	0.0007383919
22	0xbe483164	-0.19550091
23	0x3f187a21	0.59561354
24	0xbe896011	-0.26831105
25	0x3e3c60bf	0.1839628
26	0x3c35dc7c	0.011099931
27	0x3c5ff3fa	0.013669008
28	0xbeefe206	-0.4685213
29	0x3e31288e	0.17300627
30	0xbeee8a30	-0.46589804
31	0x3ecadbb3	0.39620742
32	0x3e6f2f98	0.23358
33	0x3f0a42e0	0.54008293
34	0xbe77ae96	-0.24187693
35	0xbe0025ca	-0.12514415
36	0xbb3f6c6d	-0.0029208914
37	0x3d032571	0.03201813
38	0x3f66daaa	0.90177405
39	0x3e640632	0.22267988
40	0x3df862fa	0.12128253
41	0x3e13a626	0.1441885
42	0x3edce07f	0.43140027
43	0xbdd9645d	-0.10614846
44	0x3d197264	0.037462607
45	0x3f1ad35b	0.6047875
46	0x3d116f6e	0.03550666
47	0xbf4234ce	-0.75861824
48	0x3cbaf82e	0.02282342
49	0x3eff65b1	0.49882272
50	0x3e8ccc9e	0.2749986
51	0xbd3ad035	-0.045608718
52	0xbefbc57a	-0.491741
53	0xbf332142	-0.6997262
54	0xbe36802e	-0.17822334
55	0xbdb7fa70	-0.08983314
56	0x3dae48c5	0.085099734
57	0xbf119690	-0.56870365
58	0x3f3fd2df	0.7493114
59	0xbeb30d83	-0.34971246
60	0x3e93a42f	0.288362
61	0x3f43a6b9	0.76426274
62	0xbd0ac11b	-0.033875566
63	0xbecb1983	-0.396679
64	0x3e8ebf16	0.27880162
65	0xbbf940a6	-0.0076065836
66	0x3db64bad	0.08901153
67	0xbefd149a	-0.4942978
68	0x3c919846	0.017772805
69	0xbe1f862a	-0.15578523
70	0x3ed58695	0.4170424
71	0x3e6f7f44	0.23388392
72	0xbf021478	-0.5081248
73	0xbd93ba55	-0.072132744
74	0x3e17e6af	0.14834093
75	0xbe981dd1	-0.29710248
76	0x3cee8c07	0.029119505
77	0x3d7c4d74	0.061597303
78	0x3dc44c72	0.09584893
79	0x3d209a3c	0.03920959
80	0xbee5047c	-0.44729984
81	0x3efd2f41	0.49450114
82	0x3e248c98	0.16069257
83	0x3cfbee45	0.030753264
84	0x3e213818	0.15744054
85	0xbdce216f	-0.10064971
86	0xbd51894d	-0.05115633
87	0x3f9ab394	1.2086053
88	0x3f7a0716	0.9766706
89	0x3dc085d1	0.094005235
90	0x3e995ee6	0.29955214
91	0x3eeb6955	0.459788
92	0x3ebf9fa7	0.37426493
93	0xbeed2035	-0.46313635
94	0xbf1527de	-0.5826396
95	0xbdf71e43	-0.12066319
96	0xbbb60639	-0.005554941
97	0xbdcd4b90	-0.10024178
98	0xbcacb2d5	-0.021081368
99	0xbeb1ba42	-0.34712416
100	0xbe9c2f2a	-0.30504733
101	0x3e5ab7a5	0.21359117
102	0xbdc31e71	-0.095272906
103	0xbda40629	-0.080089875
104	0x3e849f3b	0.25902733
105	0x3dbe8ef2	0.093046084
106	0xbcf46f21	-0.029838147
107	0x3f69b22e	0.91287506
108	0x3f1693b2	0.58819115
109	0x3e9b1340	0.30288124
110	0xbd9d0b1e	-0.07668136
111	0xbf0caf01	-0.54954535
112	0x3e45050c	0.19240206
113	0x3c872d40	0.01650107
114	0x3e42ad3b	0.19011395
115	0x3e9604d1	0.2930055
116	0x3e2fc466	0.17164764
117	0x3ed731ac	0.42030084
118	0xbeea84a5	-0.45804325
119	0xbea75320	-0.32680607
120	0xbeb61160	-0.3556013
121	0xbe8cd009	-0.27502468
122	0x3e35cc3c	0.1775369
123	0xbd21d9bb	-0.039514285
124	0x3e89fb62	0.26949602
125	0xbe06b78c	-0.13155955
126	0xbb901b70	-0.004397802
127	0x3de72c84	0.112877876
128	0xbe85091f	-0.2598352
129	0x3f6a7086	0.9157795
130	0xbd94c6a5	-0.07264451
131	0xbf29aaa6	-0.66276014
132	0xbf2ca9cf	-0.6744661
133	0xbe37962c	-0.1792838
134	0xbd6c0836	-0.057625018
135	0xbe6771aa	-0.22601953
136	0x3f4f8840	0.81067276
137	0x3cccf2f7	0.025018198
138	0x3e8bd92f	0.27314135
139	0xbdcb0b31	-0.09914244
140	0x3e74eec9	0.23919214
141	0xbea8bb08	-0.32955194
142	0xbd8bec71	-0.06832207
143	0xbeb88925	-0.36042133
144	0x3f11804b	0.56836385
145	0x3da6474b	0.08119067
146	0x3eb58bf8	0.3545835
147	0xbd34bbef	-0.04412454
148	0x3c331cf2	0.010932194
149	0x3e56c42f	0.20973276
150	0xbe8e6bdd	-0.27816668
151	0x3e690373	0.22755222
152	0xbe9b2717	-0.3030326
153	0x3e305058	0.17218149
154	0x3edd5ad4	0.4323336
155	0xbe6fb119	-0.23407401
156	0x3e8253fc	0.254547
157	0x3ec38a90	0.38191652
158	0xbe7783a4	-0.2417131
159	0x3cfbc6d3	0.030734455
160	0xbeaa8081	-0.33301166
161	0x3f0f2139	0.5591007
162	0x3c863c73	0.016386246
163	0xbc5df317	-0.013546727
164	0xbe0811de	-0.13288066
165	0xbded4a04	-0.11586383
166	0x3e60b27a	0.21943083
167	0x3ec879c2	0.39155394
168	0x3e7b5ce1	0.24547149
169	0xbe906732	-0.28203732
170	0x3eb24eb7	0.3482568
171	0xbe232dc4	-0.15935427
172	0xbe37e692	-0.1795905
173	0x3eccaef0	0.39977217
174	0x3e02edcd	0.12786026
175	0xbf4735c7	-0.7781643
176	0x3eaafb3b	0.333948
177	0x3f5e38f7	0.8680567
178	0x3d0a1571	0.033711854
179	0x3dd44f92	0.10366739
180	0xbe426f40	-0.18987751
181	0xbe135b0d	-0.14390202
182	0xbee63321	-0.44960883
183	0x3ec7ed26	0.39048117
184	0xbf12cfe3	-0.5734846
185	0xbebdadfc	-0.37046802
186	0x3f67e6d1	0.9058657
187	0xbee1eab3	-0.44124374
188	0x3e952579	0.29130152
189	0x3faea6cf	1.3644656
190	0xbebc8f92	-0.36828285
191	0xbee7193b	-0.45136437
192	0x3dec7be7	0.1154707
193	0x3d46d801	0.04854584
194	0x3bfd2b9f	0.0077261473
195	0xbe5157da	-0.20443669
196	0x3e70bba3	0.23509078
197	0xbd618096	-0.05505427
198	0x3e93f335	0.2889649
199	0xbe968e0c	-0.29405248
200	0xbe21adcd	-0.15788956
201	0xbdc1214b	-0.09430178
202	0x3d9d0338	0.076666296
203	0xbe1e4b9e	-0.15458533
204	0xbdaba385	-0.08380798
205	0xbe26c8ba	-0.16287509
206	0xbf3430d2	-0.70386994
207	0xbec253e0	-0.37954617
208	0xbefbad9e	-0.49155897
209	0xbe20b560	-0.15694189
210	0xbb2c3dbf	-0.002628192
211	0xbe38c30f	-0.18043159
212	0xbed76fea	-0.4207757
213	0x3c8a812c	0.016907297
214	0xbde70231	-0.11279715
215	0x3f8009bd	1.0002972
216	0x3f4d4a76	0.80191743
217	0x3f043a0a	0.5165106
218	0x3e60813b	0.21924298
219	0xbe224b5c	-0.1584906
220	0x3c7157f3	0.014730441
221	0xbf52a070	-0.8227606
222	0x3d7bdfe0	0.0614928
223	0x3e5ff882	0.21872142
224	0xbea48279	-0.32130793
225	0xbe56821c	-0.2094807
226	0x3e8ec09b	0.2788132
227	0xbf40e8ab	-0.75355023
228	0xbf06b4f8	-0.52619886
229	0x3ef26a4f	0.47346732
230	0xbe7b0cd1	-0.24516608
231	0xbd99061a	-0.07471867
232	0x3e3f64b9	0.18690766
233	0x3e88d428	0.26724362
234	0xbe990328	-0.2988522
235	0x3f6da070	0.92822933
236	0x3edf9b87	0.43673345
237	0x3cf5fd3b	0.030027976
238	0xbdacc394	-0.08435741
239	0xbf57a0ac	-0.8422954
240	0x3e5abe01	0.21361543
241	0x3ec4b519	0.38419417
242	0x3ec09c1b	0.376191
243	0x3eedf1c1	0.46473506
244	0x3e8d9cec	0.27658784
245	0x3f195227	0.5989098
246	0xbe8d1dd4	-0.2756182
247	0x3f102b34	0.5631592
248	0xbdc9f936	-0.09861986
249	0xbe93d33d	-0.288721
250	0x3e6e49b4	0.23270303
251	0xbedd9940	-0.43280983
252	0x3ea62396	0.32449025
253	0x3ce344e3	0.027742809
254	0x3e000f42	0.1250582
255	0x3f0c89f6	0.5489801

convs.1.bias f4 [256]
0	0xc0515e1e	-3.2713695
1	0x3f7e8d4c	0.9943435
2	0xc011d3a7	-2.2785432
3	0xbf9696cc	-1.176477
4	0xbf30b3bb	-0.69024247
5	0xbf524770	-0.82140255
6	0x3e1bfbb3	0.15232734
7	0x3f13ed01	0.57783514
8	0xbecfdd9b	-0.4059876
9	0x40f1bb8d	7.5541444
10	0x3f870ede	1.0551412
11	0x3defe318	0.117132366
12	0x3f213a4e	0.6297959
13	0x3d05bdd5	0.03265174
14	0x40acf040	5.4043274
15	0x4106a0eb	8.414287
16	0x40c07819	6.0146604
17	0x3fc15cb2	1.5106413
18	0xbf7e0c1a	-0.99237216
19	0x40c37988	6.1085854
20	0xbed3eb38	-0.41390395
21	0xbb7c5545	-0.0038502973
22	0x3ca07e21	0.019591393
23	0xc0b40898	-5.626049
24	0xbee66bf1	-0.45004228
25	0xbf8093b8	-1.004508
26	0xbe86baaa	-0.26314288
27	0x3fc50616	1.5392482
28	0x3e80fae8	0.25191426
29	0xbe51ecd8	-0.20500505
30	0x3c6fadd4	0.014628846
31	0x3d847769	0.06468088
32	0xbee27617	-0.4423072
33	0x3e2fab03	0.1715508
34	0x3f2cd0cd	0.67506105
35	0x40d3f448	6.6235695
36	0x409b16a6	4.8465147
37	0x41105826	9.021521
38	0xbec6fe5c	-0.38865936
39	0xc004eb4f	-2.076862
40	0xbef4d1c4	-0.47816288
41	0x410cccb4	8.799976
42	0x40e00f4e	7.0018682
43	0x3f5018f5	0.8128808
44	0x3f82bb41	1.0213395
45	0x40c3f4b3	6.1236205
46	0x3f35ed2d	0.71065027
47	0x40cb37c1	6.350556
48	0x3d44172f	0.047873672
49	0x40ff72e5	7.982775
50	0x410160c5	8.086125
51	0xbf1cb813	-0.61218375
52	0xbf838841	-1.0275956
53	0xbcfd02e9	-0.030885177
54	0xc004553b	-2.067702
55	0x3e82d0c9	0.25549915
56	0xbe809f0d	-0.25121346
57	0xbf16e7ce	-0.58947456
58	0xbea940da	-0.3305729
59	0x4042d500	3.0442505
60	0x40bcd20b	5.90064
61	0xc04b3a70	-3.1754417
62	0xbf62f36f	-0.886527
63	0x40c9194a	6.284337
64	0xbf5b4ca5	-0.85663825
65	0x3e7380a7	0.23779546
66	0x3e922b9d	0.285489
67	0xbf075f0e	-0.52879417
68	0xbf53d5bf	-0.82748026
69	0x3ea59c02	0.32345587
70	0xbf18f212	-0.5974437
71	0x3ec2ab1b	0.38021168
72	0x3d5f2606	0.05447962
73	0x4095e2a2	4.683915
74	0xbf46ecdf	-0.77705187
75	0x408887ae	4.2665625
76	0xbe536782	-0.20644954
77	0xbf2701cb	-0.6523711
78	0x40f14907	7.5401645
79	0x3e583c3c	0.21116728
80	0x3f834872	1.0256484
81	0x3f9414ea	1.1568882
82	0x3d69b3bf	0.057056185
83	0x40ab86ad	5.36019
84	0xc06a8ea9	-3.6649573
85	0x40981b6c	4.7533474
86	0x3f859e6f	1.0438975
87	0x3d4fef2d	0.050765205
88	0x3eca56d4	0.3951937
89	0x3d4a2b1e	0.049357526
90	0xbfab24e0	-1.3370628
91	0x4105b0de	8.35568
92	0xbfb2bfd8	-1.3964796
93	0xc08fd27b	-4.4944434
94	0x40ba0a48	5.813755
95	0xbebd45cd	-0.36967316
96	0x40f497f9	7.6435513
97	0x3ef90575	0.48636976
98	0x401d02d0	2.4532967
99	0xc0492b19	-3.1432555
100	0x40efd43f	7.494659
101	0x40ac32dc	5.3812084
102	0x3d2e0530	0.042485416
103	0xbe7b3f64	-0.245359
104	0x3b03d791	0.0020117501
105	0x40a90d07	5.2828403
106	0xbe6ed88d	-0.23324795
107	0xbe05d7d3	-0.13070612
108	0xbf43b8e1	-0.7645398
109	0xbdf808c9	-0.12111051
110	0xbf0d822f	-0.5527677
111	0x3f8daa48	1.1067591
112	0xbfd7579b	-1.682361
113	0xbf347e9a	-0.7050568
114	0x3e82a495	0.2551619
115	0x3dcf87d0	0.10133326
116	0x3dc26980	0.09492779
117	0x3ef00446	0.4687826
118	0xbdeff9fa	-0.11717601
119	0x3f4bb613	0.795747
120	0x3f8cfd77	1.1014851
121	0x3f386948	0.72035646
122	0xbbeb4022	-0.007179276
123	0xbf44f79b	-0.76940316
124	0x3f5db704	0.86607385
125	0xbf32f2d2	-0.69901764
126	0xbf1afd66	-0.60542905
127	0x3f557098	0.8337493
128	0xbf1accdb	-0.60468835
129	0x3eab2fdd	0.33434954
130	0x3fb1ab19	1.388034
131	0xbf1cb4ea	-0.6121355
132	0x3f153100	0.58277893
133	0xbf2e6d01	-0.68135077
134	0x3daa7781	0.08323575
135	0x40f2a747	7.5829196
136	0xbf5531e1	-0.83279234
137	0xbf005cbb	-0.50141495
138	0xbf081be1	-0.5316754
139	0xbeac5a20	-0.3366251
140	0x3d9239f4	0.0713996
141	0xbf251b56	-0.64494836
142	0xbe30eca1	-0.17277767
143	0xbe483f5d	-0.19555421
144	0xbe62284f	-0.22085689
145	0x3ed80fe5	0.42199627
146	0x3f017f8f	0.50585264
147	0xbfaa9f2c	-1.3329825
148	0xbefeacb0	-0.49741125
149	0x3f0bed10	0.54658604
150	0x40878659	4.23515
151	0x40f805cf	7.750709
152	0xbf26c29c	-0.651407
153	0xbf1aa58b	-0.6040885
154	0xbcba52cb	-0.022744557
155	0xbf74746c	-0.95490146
156	0xbf216c4c	-0.6305587
157	0x3df19c6e	0.11797415
158	0xbf804c5f	-1.0023307
159	0xbf31a903	-0.69398516
160	0xbf2842dc	-0.6572702
161	0x401fcb0b	2.4967678
162	0xbeb3c6a9	-0.35112503
163	0x3e6415f0	0.22273993
164	0xbe8c4a8b	-0.27400622
165	0xbe162673	-0.14663105
166	0x3e5f6c54	0.21818668
167	0xbf2be60f	-0.67147917
168	0xbd12bdfb	-0.03582571
169	0x3e9b9d98	0.30393672
170	0x3e2365ae	0.15956756
171	0xbea3a563	-0.31962118
172	0x3e17a49f	0.14808892
173	0xbd7abdc6	-0.06121614
174	0x3f30f01f	0.69116396
175	0x4051e382	3.279511
176	0xbf3355b4	-0.7005265
177	0x3f00971b	0.5023057
178	0x3f8c82c8	1.0977411
179	0xbf1b4459	-0.60651165
180	0x3f013605	0.5047305
181	0x40357f0f	2.83588
182	0x3f896872	1.0734999
183	0xbee0d62f	-0.4391341
184	0x40ecd2df	7.400741
185	0x3e4180a3	0.18896727
186	0xbfc555dd	-1.5416828
187	0x41077919	8.467065
188	0xbda62db6	-0.081141874
189	0x40c1b71d	6.0536027
190	0xbd8ff844	-0.07029775
191	0xbf8ac912	-1.0842612
192	0x40a2426d	5.0706086
193	0x3dc40643	0.09571507
194	0x40e45795	7.135691
195	0x40ea0672	7.313287
196	0x3f8c98ed	1.0984169
197	0x41103276	9.01232
198	0x3f8efe3b	1.1171335
199	0x40999432	4.7993402
200	0xbf358532	-0.70906365
201	0x41022a22	8.135286
202	0xbf1c15f4	-0.60971
203	0x3f4b6a57	0.79459137
204	0x40cb1090	6.345772
205	0x40dc71e1	6.888901
206	0x3f53a2ea	0.8267046
207	0x3eb9612d	0.36206952
208	0x40c76ba5	6.23189
209	0xbeddbafc	-0.4330672
210	0x3e118041	0.14209081
211	0x405f810b	3.4922512
212	0xbf529745	-0.8226207
213	0xbd96b2df	-0.07358336
214	0xc0802a11	-4.005135
215	0xbe9160be	-0.2839412
216	0x3f81ff98	1.0156126
217	0x40d956a3	6.791826
218	0x3f1a2596	0.602136
219	0xbf233ef3	-0.6376793
220	0xbf26821e	-0.65042293
221	0x3e90fdd2	0.2831865
222	0xbfa1d9ca	-1.2644589
223	0x405a5249	3.4112723
224	0xbcb6b3c4	-0.022302516
225	0x3e0acf2f	0.13555597
226	0x3f36d347	0.71416134
227	0x402ba443	2.6819007
228	0xbfa96e65	-1.3236815
229	0x40cf507a	6.478574
230	0x400a22d5	2.158376
231	0x4029ba42	2.6519933
232	0x40034c1b	2.05152
233	0x40633d66	3.5506225
234	0x3ed8edfe	0.42369074
235	0x3ea83d8f	0.32859465
236	0x4107606b	8.46104
237	0x40cdbdb1	6.4294057
238	0x3f1936bf	0.5984916
239	0xbeb4ab0c	-0.35286748
240	0xbec827f3	-0.3909298
241	0x3e8968fb	0.26837906
242	0x3fa61f79	1.2978355
243	0xbee26d42	-0.44223982
244	0x40fa8f7d	7.8300157
245	0xbf942ea1	-1.157673
246	0xbe5e6c16	-0.21720919
247	0x3e70a11f	0.23498963
248	0xbf9bdcd3	-1.2176765
249	0x3fdce0c2	1.7256091
250	0x40ac0295	5.375315
251	0xbed1fcf0	-0.41013288
252	0xbf56235c	-0.83647704
253	0x40d4af35	6.6463876
254	0xbe49530a	-0.19660583
255	0xbe9478c5	-0.2899839

convs.1.lin.weight f4 [256, 256]
0	0xbf0edf6a	-0.5580965
1	0x3e956cba	0.29184514
2	0xbe7d60b6	-0.24743924
3	0x3ff3f938	1.906043
4	0x3f989a0d	1.1922013
5	0x3e3acc26	0.18241939
6	0x3da662a3	0.08124282
7	0x3ee03999	0.43793944
8	0xbd8a205d	-0.06744454
9	0xbd6757df	-0.056480285
10	0xbdab85d2	-0.083751336
11	0x3d3625c3	0.044469606
12	0xbe03d20c	-0.12873095
13	0xbeb56eba	-0.3543604
14	0x3fbf2b93	1.4935173
15	0xbde82e21	-0.113369234
16	0xbe822eee	-0.2542643
17	0x3d393f7f	0.04522657
18	0x3fca044a	1.5782559
19	0xbd9f54f1	-0.07779873
20	0xbfd8f9ca	-1.695123
21	0xbe0862d1	-0.13318945
22	0x3ee0f9ec	0.43940675
23	0x3b9fd6bf	0.0048778947
24	0x3e94defe	0.2907638
25	0xbd8f1698	-0.06986731
26	0x3ec9f65d	0.39445773
27	0xbe2ff1af	-0.17182039
28	0x3d9949fa	0.07484813
29	0x3ed5244e	0.4162926
30	0xc00224f6	-2.033506
31	0xbfa96b19	-1.3235809
32	0x3fc0913b	1.5044321
33	0x3edf0732	0.43560177
34	0xc05c1a44	-3.4391031
35	0xbe5ebd85	-0.21751983
36	0x3e36080a	0.17776504
37	0xbcb6164a	-0.022227425
38	0x3e3857e7	0.18002282
39	0x3ea2f959	0.31830862
40	0xbeff2ad7	-0.49837372
41	0x3f2b903f	0.6701698
42	0x3eef5f34	0.46752322
43	0x3e9057c1	0.2819195
44	0xbe1ef675	-0.15523703
45	0x3fc08ca0	1.5042915
46	0x3eab7e9a	0.33495027
47	0xbdd4a391	-0.1038276
48	0x3fb3f099	1.40578
49	0x405671c7	3.3506944
50	0xbfdaebc9	-1.7103206
51	0x3fa2ce3f	1.2719191
52	0x3d0ea13a	0.034821726
53	0xbc7e64d6	-0.015526971
54	0xbda737e5	-0.08164958
55	0xbdaae2ca	-0.08344038
56	0xbd818a22	-0.06325175
57	0xbdda48b9	-0.10658402
58	0xbf5dbe48	-0.8661847
59	0xbf3b34b4	-0.73127294
60	0xbdce0d72	-0.10061158
61	0xbe51dbad	-0.20493956
62	0xbcb77bf1	-0.022397967
63	0x401d9e02	2.462769
64	0xbf0856f4	-0.5325768
65	0xbdfe58b0	-0.124192595
66	0x3f2d38d5	0.67664844
67	0x3f8cd1c3	1.1001514
68	0x3d4e90a9	0.050430927
69	0xbd9c0dae	-0.07619797
70	0x3f19727e	0.59940326
71	0x3e352010	0.17688012
72	0x3e1c065c	0.15236801
73	0x3fa68928	1.3010607
74	0x3d06723c	0.032823786
75	0x3f1d296a	0.6139132
76	0x39d10efe	0.00039874756
77	0x3e5f8b77	0.21830545
78	0xbc4ea01d	-0.012611416
79	0x3dbbb2af	0.091649406
80	0xbdc60b17	-0.09670084
81	0xbec9f860	-0.39447308
82	0xbe786308	-0.24256527
83	0xbc852f1c	-0.016257815
84	0xc007ae23	-2.1200035
85	0xbe4cada9	-0.19988121
86	0xbd1793f4	-0.037006333
87	0x3eabaea0	0.33531666
88	0x3e771d96	0.2413238
89	0xbf4ed1fb	-0.80789155
90	0xbe6461f8	-0.22302997
91	0x3f17b8b8	0.59266233
92	0x3dea72a4	0.11447647
93	0xbf526c67	-0.8219666
94	0xbe4d8a33	-0.2007225
95	0x3ee4803d	0.44629088
96	0xbdad96b0	-0.08476007
97	0x3c10993d	0.008825597
98	0xbe780e36	-0.24224171
99	0x4018ca82	2.38736
100	0x3ec38114	0.38184416
101	0xbe55b90d	-0.20871373
102	0x3fc3d655	1.5299784
103	0xbdc9647b	-0.09833618
104	0xbbb0935b	-0.00538866
105	0x3f3c958f	0.7366571
106	0x3fde05ec	1.7345557
107	0xbfdf37f2	-1.7438948
108	0xbcc1baa4	-0.023648567
109	0x3e251071	0.16119553
110	0xbe5a08ca	-0.21292415
111	0xbe32c763	-0.17458872
112	0x3d0a35ca	0.033742703
113	0xbd6aff48	-0.05737236
114	0x3fea6115	1.8310877
115	0x3f4d52a7	0.8020424
116	0x3dce54ee	0.10074793
117	0xc005362b	-2.0814312
118	0xc0150b6e	-2.3288226
119	0x3dc33cf9	0.09533114
120	0x3f434b07	0.7628636
121	0x3fec9c88	1.848527
122	0xbe18867c	-0.14895052
123	0xbec2303e	-0.3792743
124	0x3e24050e	0.16017553
125	0x40765e81	3.849518
126	0x3df1fb42	0.11815502
127	0x3c84adee	0.016196217
128	0x3b48865f	0.003059767
129	0x3d5c0cdb	0.053723197
130	0x3f593849	0.8485151
131	0x3c9eb05b	0.019371202
132	0xbea216d3	-0.31658038
133	0x3d1213a3	0.03566326
134	0x3f84a883	1.0363926
135	0xbe218283	-0.15772443
136	0x3dcaa2c0	0.09894323
137	0xbda19798	-0.07890242
138	0xbe162300	-0.14661789
139	0xbc77a1a8	-0.015114225
140	0x3f947899	1.1599303
141	0x3f5c19b0	0.85976696
142	0xbe61d97f	-0.22055624
143	0x3ff2080f	1.8908709
144	0x3e761be7	0.24034081
145	0x3dd47636	0.103741094
146	0xbd15c4ab	-0.03656451
147	0xbd0f0a1f	-0.03492176
148	0x40743018	3.8154354
149	0xbfca8e16	-1.5824611
150	0xbdaa1595	-0.08304898
151	0x3f83da36	1.0300968
152	0x3e7d8e50	0.24761319
153	0x3e03c3e0	0.12867689
154	0xbe85f67f	-0.26164624
155	0xbec099df	-0.37617394
156	0x3e34ed97	0.17668758
157	0x3f1f0e5c	0.62131286
158	0x3d3d9636	0.04628583
159	0x3cbe302f	0.023216335
160	0xbc6d3acc	-0.01447935
161	0xbe155303	-0.14582448
162	0x40011996	2.0171866
163	0xbdddd170	-0.10830963
164	0x3d8913fe	0.06693266
165	0x3f7b1708	0.9808202
166	0xbeb62d22	-0.3558131
167	0x3dd5a4f2	0.104318514
168	0xbde6609c	-0.112488955
169	0x3e85c66c	0.26127946
170	0xbec890fa	-0.39173108
171	0x3fdedc1c	1.7410922
172	0x3e855244	0.26039326
173	0xbd8a2202	-0.06744768
174	0x3ddaf605	0.10691456
175	0xbfbfb57b	-1.4977258
176	0xbca3d3f2	-0.019998524
177	0x3b4bcc5c	0.003109715
178	0x3dd95b0d	0.1061307
179	0x3e55472f	0.20827936
180	0x3f300c5a	0.68768847
181	0xbcfbe452	-0.03074852
182	0x3fa37b72	1.2772048
183	0x3e9028b5	0.28156057
184	0xbda5ef9a	-0.08102341
185	0x3e2da388	0.16956913
186	0xbdb9bdd2	-0.090694085
187	0x3e8c88d6	0.27448148
188	0x400d435e	2.2072368
189	0xbd177743	-0.03697897
190	0xbd64b79e	-0.055839173
191	0x3e362414	0.177872
192	0x3e0c05f3	0.13674144
193	0x3e4dbd8c	0.20091838
194	0x3ec83931	0.39106134
195	0xbd5f90b4	-0.05458136
196	0xbf121fed	-0.57079965
197	0x3faeed21	1.3666116
198	0xbde5cf3c	-0.112211674
199	0x400001f0	2.0001183
200	0xbe56e7f2	-0.20986918
201	0x3fc307c6	1.5236747
202	0xbce18791	-0.027530463
203	0x3d552002	0.05203248
204	0x3ecbedf5	0.39829984
205	0xbd931f78	-0.071837366
206	0xbf6dc295	-0.92875034
207	0x3ecb0ec0	0.3965969
208	0x3f96e52b	1.1788687
209	0x3d832d65	0.06405143
210	0xbce3f120	-0.027824938
211	0x3e9bb823	0.30413923
212	0x3e935ae4	0.28780282
213	0x3e111864	0.1416946
214	0xbf2a971c	-0.66636825
215	0xbd3b1b95	-0.0456806
216	0x3ad76518	0.0016433327
217	0x4066ba34	3.605115
218	0xc025609c	-2.5840216
219	0x40290109	2.6406882
220	0x3f149343	0.58037204
221	0x3e2d2721	0.16909458
222	0xbd135e6b	-0.035978716
223	0x400adde7	2.1697938
224	0xc0422171	-3.033291
225	0x3d9d1c0c	0.07671365
226	0xbe268b28	-0.16264021
227	0x3f6bec66	0.9215759
228	0x3f17dfa5	0.5932563
229	0xbe2b0d81	-0.1670437
230	0xbfaaf31f	-1.3355445
231	0x400375d1	2.054066
232	0x3f7b9210	0.9826975
233	0xbacec070	-0.0015773904
234	0x3d5c6eb8	0.053816527
235	0xbea2e622	-0.31816202
236	0x40182b93	2.3776596
237	0xbf37e2b6	-0.7183031
238	0xbfcf24c3	-1.6183094
239	0xbe954d5a	-0.29160577
240	0x3f36c379	0.7139202
241	0x3ea0c073	0.31396827
242	0xbd3963cb	-0.045261186
243	0xbcc019c2	-0.023449782
244	0x3f084b67	0.53240055
245	0x3e592866	0.21206817
246	0xbe76c900	-0.24100113
247	0x3e633637	0.2218865
248	0xbf3121e9	-0.6919237
249	0x3d139c76	0.036037885
250	0xbe301084	-0.171938
251	0x3cd91272	0.026498053
252	0xbfa0fb74	-1.2576737
253	0xbc22fbad	-0.0099476995
254	0x3f8a494c	1.0803618
255	0xbf9f57a3	-1.244862

convs.2.bias f4 [256]
0	0x3f4d469f	0.80185884
1	0x3f544b87	0.82927746
2	0xbfeee4f7	-1.8663625
3	0xbfa1eaa5	-1.2649733
4	0x3f231d16	0.63716257
5	0x3ff79537	1.9342412
6	0x3f487534	0.7830384
7	0xbeb94eec	-0.36193025
8	0x3c550bec	0.013003331
9	0x3f18ab58	0.5963645
10	0xbe0e696c	-0.13907403
11	0xbe4ffdd0	-0.20311666
12	0x3fd4f6fb	1.6637872
13	0xbf93e171	-1.1553174
14	0x40c39f11	6.1131673
15	0x4014fbfa	2.3278794
16	0xc0263329	-2.5968726
17	0x40226b8c	2.5378141
18	0x3ee4dd34	0.44700015
19	0xc00846ce	-2.1293216
20	0x4025973c	2.5873556
21	0x3f1919d2	0.59805024
22	0x3ea9470d	0.3306202
23	0x4067d6ed	3.622493
24	0xc0065d20	-2.099434
25	0xbf95531b	-1.1665987
26	0x3ed1ecf0	0.4100108
27	0xbf600155	-0.8750203
28	0x3f5bf346	0.8591808
29	0x3d488238	0.04895231
30	0x40194758	2.3949795
31	0xbf3a158c	-0.7268913
32	0xbf8990f2	-1.0747359
33	0xbf0a3e21	-0.5400105
34	0x3f137cbf	0.5761222
35	0xbf791bf5	-0.97308284
36	0x400bec39	2.186293
37	0x3fd6877e	1.6760099
38	0xbe2d2279	-0.16907682
39	0x3fa6c94c	1.3030181
40	0xbf4d81b7	-0.80276054
41	0x3dfcf59a	0.12351532
42	0xbd9b4e88	-0.07583338
43	0x4023b918	2.5581722
44	0xbf73aab8	-0.9518237
45	0x3f3d4cfd	0.739456
46	0xc0028ff5	-2.0400364
47	0x3fe76059	1.8076278
48	0x3f988e04	1.191834
49	0x3dde472c	0.10853419
50	0x3f677d0d	0.9042519
51	0xbe6b23fd	-0.22962947
52	0xbfb5ca4e	-1.4202363
53	0xbfec2601	-1.8449098
54	0x3fd20d47	1.6410302
55	0xbfb15e1e	-1.3856847
56	0xbd53ef1d	-0.051741708
57	0x3e967119	0.29383162
58	0xbfae2b03	-1.3606876
59	0x3f239f57	0.6391501
60	0xbf41b4c2	-0.7566644
61	0x40e5d8c7	7.182712
62	0x3fdb89b8	1.7151403
63	0x3f75c9a8	0.9601083
64	0xbf1ad02d	-0.604739
65	0x3f455275	0.77078944
66	0x3f68c218	0.90921164
67	0x3f884f82	1.0649264
68	0x3d4c5cac	0.049893066
69	0x3e91bb68	0.28463292
70	0x3fe024a9	1.7511188
71	0xc073464d	-3.8011658
72	0x3f84c65d	1.0373036
73	0xbf105837	-0.56384605
74	0xbf912a88	-1.1341105
75	0x400799a3	2.1187522
76	0xbe526f16	-0.20550188
77	0xbf4e3d22	-0.8056203
78	0x40e48eaa	7.142415
79	0xbee26bb2	-0.4422279
80	0xbfa151a9	-1.2603046
81	0xbe036b8b	-0.12833993
82	0xbcbd197e	-0.023083445
83	0x3fed4c35	1.8538882
84	0x3fff8047	1.9961022
85	0xbef3331f	-0.4749994
86	0x40317411	2.7727091
87	0x3f840cf6	1.0316455
88	0xbfcfd4d3	-1.6236824
89	0x3e809e09	0.2512057
90	0x3f7c8cac	0.9865215
91	0x3f49439d	0.78618795
92	0xbef581aa	-0.47950488
93	0xbfd080f0	-1.6289349
94	0x3ef03e3d	0.46922484
95	0xbd2eeb06	-0.042704605
96	0x4006e430	2.1076775
97	0x3fce8860	1.6135368
98	0xbec5a34c	-0.38601148
99	0x3fae893f	1.3635634
100	0x3ff1efd6	1.8901317
101	0xbe99af95	-0.3001677
102	0xbf76cacf	-0.9640321
103	0x3fb6e42f	1.4288386
104	0x3f03584b	0.513066
105	0x4047a3f6	3.1193824
106	0x3eed459b	0.46342167
107	0x3f93dc90	1.1551685
108	0xbfc4d5c5	-1.5377737
109	0x3e231951	0.15927626
110	0x40cea5c6	6.457736
111	0x3f774545	0.9659007
112	0x3ea463c4	0.32107365
113	0x3f06681d	0.52502614
114	0x3f0ef4a3	0.55842036
115	0xbf77378b	-0.96569127
116	0xbf0366ec	-0.5132892
117	0x3f8f846f	1.121229
118	0x3fb9e2a0	1.4522285
119	0xc0212ce8	-2.5183659
120	0x3f482894	0.7818692
121	0xbe6c726c	-0.23090523
122	0xbfb4da26	-1.4129074
123	0xbe1e01dd	-0.15430398
124	0x3f419ac5	0.75626785
125	0x3f3a5946	0.7279247
126	0xbf6e128c	-0.9299705
127	0x3f40b210	0.752717
128	0x3e239cff	0.15977858
129	0x40bd565d	5.9167924
130	0xbf13a1c3	-0.57668704
131	0xbdd8ad85	-0.10579971
132	0x3faf39d4	1.3689523
133	0x3edd3182	0.43201834
134	0xbf872ec9	-1.0561153
135	0x4026cfad	2.6064255
136	0x3f9bfa6c	1.2185798
137	0x3e21465d	0.15749498
138	0x3e3d61ec	0.18494385
139	0xc00c0cb7	-2.188276
140	0x4020936f	2.5089986
141	0xbe8723df	-0.26394555
142	0xc0130b18	-2.297552
143	0x3fbd679c	1.4797244
144	0x3dd78330	0.10523069
145	0xbd6de380	-0.05807829
146	0x3ee8fc44	0.45504963
147	0x3f654f23	0.8957388
148	0xbe234c2d	-0.15947028
149	0xbfa5ecc3	-1.2962879
150	0x4138b8c6	11.545111
151	0xbfbcc4ac	-1.474752
152	0xbfd0ac7a	-1.6302636
153	0x3f5e7908	0.8690343
154	0xbfb727ae	-1.4308984
155	0xbf4ae5ba	-0.79256785
156	0x3fb10344	1.3829122
157	0x3e9485ef	0.29008433
158	0xbf60a083	-0.8774492
159	0x3eb24402	0.3481751
160	0xbe4225d2	-0.1895974
161	0x3f8bd9dc	1.092586
162	0x4064d311	3.5753825
163	0x3f28fe09	0.66012627
164	0xbf84c540	-1.0372696
165	0xbe9d487e	-0.3071937
166	0xbf1de737	-0.6168093
167	0xbe98e90d	-0.29865304
168	0xbe003996	-0.12521967
169	0xc0183088	-2.377962
170	0x3e55d2d0	0.208812
171	0x4028e061	2.638695
172	0x3fc897de	1.5671346
173	0x3f116cb8	0.56806517
174	0x3d95d3b4	0.0731577
175	0x408430ad	4.130942
176	0x3f2b5b20	0.6693592
177	0x3fc04530	1.5021114
178	0x3fd2bd73	1.6464065
179	0x3f8e7aeb	1.1131262
180	0x3f55877c	0.8340986
181	0x400cddd5	2.2010396
182	0xbff5d973	-1.9206985
183	0xbf48d5a1	-0.7845097
184	0x3d07e0e7	0.033173468
185	0x403f1cd5	2.9861348
186	0x3db2d6bd	0.08732364
187	0xbeeec8e4	-0.46637642
188	0x408e0b10	4.4388504
189	0xbe31772d	-0.17330618
190	0x3f218205	0.6308902
191	0x3ee38be0	0.44442654
192	0x40337581	2.8040469
193	0x3e083ac2	0.13303664
194	0xbeed670c	-0.4636768
195	0xbe4ac950	-0.19803357
196	0x3e3830a5	0.17987306
197	0xbf21fff4	-0.6328118
198	0xbffe039f	-1.9844855
199	0xbfc7ba7e	-1.5603788
200	0x3f1f6a6d	0.6227177
201	0x3fc0efcc	1.507318
202	0xbff2e810	-1.897707
203	0x3f7b64b5	0.9820054
204	0x4023c206	2.5587173
205	0x3f3dadc4	0.7409327
206	0x408040e1	4.00792
207	0xbfa3f64c	-1.2809539
208	0x3dd1cf9a	0.10244675
209	0x40358fa2	2.8368917
210	0xbe0359e5	-0.12827261
211	0x3e2031aa	0.15643945
212	0xbee1d7b6	-0.44109887
213	0x3eddf674	0.4335209
214	0xbf8a516d	-1.0806099
215	0x3cb013eb	0.021493873
216	0xbed2fa0f	-0.41206405
217	0xbffd2a8c	-1.9778609
218	0xc0198467	-2.3987062
219	0x3ee4652e	0.44608444
220	0xbd814bb9	-0.06313271
221	0xbfc9d1e0	-1.5767174
222	0xc03e1d12	-2.9705243
223	0x3f4dcca1	0.80390364
224	0x40502366	3.2521605
225	0x3f072086	0.52784
226	0xbfa1b8f1	-1.2634565
227	0x405ed4a2	3.481728
228	0xbd8f97d1	-0.070113786
229	0x3ef52833	0.47882232
230	0x40d8fd7b	6.7809424
231	0xc007f590	-2.124363
232	0xbd9d1ee5	-0.07671908
233	0x40098fc9	2.149401
234	0xbfd26444	-1.6436849
235	0xbe8c5350	-0.27407312
236	0x3fd2dce5	1.6473662
237	0x3d9a4f0a	0.07534607
238	0xbdfdd400	-0.123939514
239	0x3f29d70c	0.6634376
240	0x3f084fcf	0.5324678
241	0xc02352e1	-2.5519335
242	0xbf22d3b5	-0.6360429
243	0x3fcf2d4a	1.6185696
244	0x40042675	2.0648472
245	0x3eabc9fc	0.3355254
246	0x3ec5ee06	0.3865816
247	0x3f03c9a4	0.51479554
248	0x3fdcdb2d	1.7254387
249	0x3ec586c5	0.38579383
250	0x3f5c813c	0.86134696
251	0x3f278276	0.6543344
252	0x3e94c967	0.29059908
253	0xbf1325ae	-0.5747937
254	0xbea2b9fe	-0.31782526
255	0x3facddeb	1.3505224

convs.2.lin.weight f4 [256, 256]
0	0x3fe89e86	1.8173378
1	0x3fb3d07a	1.4047997
2	0xbfbf7db1	-1.4960233
3	0xbe85b96f	-0.26118037
4	0x3fd787fd	1.6838375
5	0xbf925070	-1.1430798
6	0xbe441630	-0.19149089
7	0x3f4cb818	0.79968405
8	0x404b25bb	3.174178
9	0xbe012bb7	-0.12614332
10	0xbf2f1e98	-0.6840606
11	0x3f648530	0.8926573
12	0x404c2051	3.1894724
13	0x3f559479	0.83429676
14	0xbfaf76d0	-1.3708134
15	0x3d84e13d	0.06488273
16	0x3f384142	0.71974576
17	0x3f2e9be9	0.6820665
18	0x3e9d5071	0.30725434
19	0x3f00cc82	0.50312054
20	0xbfa2bc32	-1.2713683
21	0x3e4b0c5f	0.19828938
22	0xbfd9435f	-1.6973685
23	0xbdfd34c4	-0.1236358
24	0x400801d8	2.1251125
25	0xc028b8f0	-2.6362877
26	0x3ec8fced	0.39255467
27	0x3f7282d8	0.947309
28	0xbfbe9f3e	-1.4892347
29	0x3f5d9586	0.8655628
30	0x3f8bee28	1.0932055
31	0x3eaa4442	0.33255202
32	0xbfee7372	-1.8628981
33	0x3fc8729d	1.5659977
34	0x3bd0f94e	0.0063773757
35	0xbf1da987	-0.61586803
36	0x3e5419c3	0.20712952
37	0x3e10319f	0.14081429
38	0xbec92f53	-0.39293918
39	0x3fbc0c1a	1.4691193
40	0xc0349bef	-2.8220174
41	0x3f03c7d9	0.5147682
42	0x3f2a193c	0.66444755
43	0x3f928148	1.1445704
44	0xbe1adb10	-0.15122628
45	0x3fde3426	1.7359664
46	0x3eaea01c	0.3410653
47	0x3e2fefaf	0.17181276
48	0x3f8c9288	1.0982218
49	0x3fe2de02	1.7724001
50	0xbfd0b1cf	-1.6304263
51	0x3f442062	0.7661191
52	0x3f9ab20c	1.2085586
53	0xc0252e6b	-2.5809581
54	0x3f03dfd0	0.51513386
55	0xc04de6eb	-3.217219
56	0xc00291bd	-2.0401452
57	0xbefb6859	-0.49103048
58	0x3f0f1063	0.5588438
59	0xbfc97639	-1.5739204
60	0x3c9973ea	0.01873203
61	0xc00b74d8	-2.1790066
62	0x3faac786	1.334214
63	0x3f2c6660	0.6734371
64	0xbafcb6b7	-0.0019280527
65	0x3f66e485	0.90192443
66	0x3f86800a	1.0507824
67	0x3fcc11ec	1.5942969
68	0xbf315e3e	-0.6928443
69	0x3c30e89a	0.010797644
70	0xbfc6ae6f	-1.5521983
71	0xbfe630a9	-1.79836
72	0xbfa8c73e	-1.3185804
73	0xbd1e9263	-0.038713824
74	0xc00d4740	-2.2074738
75	0xbfa9df5e	-1.3271291
76	0x3f559d3a	0.83443034
77	0xc0020cc4	-2.0320292
78	0xbf9f96d6	-1.2467906
79	0x400f3ec7	2.2382066
80	0x4057319d	3.3624032
81	0xc00105cd	-2.015979
82	0xbeb28e6b	-0.3487428
83	0x3f4a0571	0.7891455
84	0xc0693a64	-3.644189
85	0xbf518d64	-0.8185637
86	0x3f34c471	0.70612246
87	0xbf01f634	-0.507663
88	0xbfb84326	-1.4395492
89	0xbf88849b	-1.0665468
90	0xbdac4cf3	-0.084131144
91	0xbf351cbb	-0.70746964
92	0x3fa351ea	1.2759373
93	0xbeba1f2a	-0.363519
94	0x3dcae75a	0.09907408
95	0xbef08e75	-0.46983686
96	0x3c76ad4c	0.015055966
97	0xbfea8264	-1.8321042
98	0x3f6ade6b	0.9174563
99	0x3f06b4e7	0.52619785
100	0x3f1011cf	0.56277174
101	0x3d112610	0.03543669
102	0xbf992bf3	-1.1966537
103	0x3f9ad714	1.2096887
104	0x3dea5838	0.11442608
105	0x3f3547b5	0.7081254
106	0x3fabb0d2	1.3413336
107	0x3e1ef894	0.15524513
108	0x3eec4686	0.46147555
109	0x400f3b7b	2.2380054
110	0xbf9d4e9c	-1.2289615
111	0xc0032772	-2.0492826
112	0xbfa52ba6	-1.2903945
113	0x3f5793d1	0.84209925
114	0x3f31c22a	0.69436896
115	0xc071ee5b	-3.780173
116	0xbfb077bc	-1.378654
117	0xbf61662a	-0.88046515
118	0xbfce1d5f	-1.6102713
119	0x400b52ca	2.176928
120	0xbe991770	-0.29900694
121	0x3f734453	0.9502613
122	0x3f27f5d0	0.65609455
123	0x40118340	2.2736359
124	0xbfe66019	-1.7998077
125	0x3efe3d99	0.4965637
126	0x3f903e71	1.1269056
127	0xbff93c11	-1.9471456
128	0x3fe44f21	1.7836648
129	0x3fb48fd3	1.4106392
130	0xbf73a3d2	-0.95171845
131	0xbe99d5a9	-0.30045822
132	0x3f89a1ba	1.075248
133	0x40891818	4.284191
134	0xbec4ce1b	-0.38438496
135	0x3d4ab015	0.04948433
136	0xbea4ed6b	-0.32212386
137	0xc08e2664	-4.4421864
138	0xc03095c0	-2.75914
139	0x3ffa7658	1.9567366
140	0x40980ac2	4.751313
141	0x3f6a7975	0.9159158
142	0xbe8ff95c	-0.28119934
143	0x3f485712	0.7825786
144	0x3f131778	0.57457685
145	0xc01c94d6	-2.4465842
146	0xc006d9b4	-2.1070375
147	0x3f04bdf3	0.5185234
148	0xbf770c3f	-0.9650306
149	0xbf15f766	-0.58580625
150	0xbf3f7b4e	-0.74797523
151	0xc0365571	-2.848965
152	0xc0013020	-2.0185623
153	0x3fbe3b33	1.4861816
154	0xbfb85fd9	-1.440425
155	0x402ea402	2.7287602
156	0xbf91d820	-1.1394081
157	0xbe94af8a	-0.29040176
158	0x3eae37ed	0.34027043
159	0xbf5cc372	-0.86235726
160	0x400f7370	2.2414207
161	0x3ce39483	0.027780777
162	0xc06ada94	-3.669591
163	0x3ebc6a7b	0.36799988
164	0xc012264c	-2.2835875
165	0x3fe065a0	1.7531013
166	0x3fdd7d15	1.7303797
167	0x4003ede7	2.0613954
168	0xbf125c90	-0.5717249
169	0xc05fefaa	-3.499003
170	0x3c02404e	0.007949902
171	0x3fd28953	1.6448158
172	0x4034d18d	2.82529
173	0x3e35df2d	0.17760916
174	0xc030c1f2	-2.7618375
175	0xbf50920e	-0.8147286
176	0xbf53d90c	-0.8275306
177	0xbff2cdae	-1.8969018
178	0xbfcf5800	-1.619873
179	0xbff3f182	-1.9058077
180	0x3deecd24	0.11660221
181	0x3f785441	0.9700356
182	0x3e2601b7	0.16211592
183	0xbe9c4e37	-0.30528423
184	0xbe6dcef6	-0.2322348
185	0xbf070d5b	-0.52754754
186	0xbf7fe42a	-0.99957526
187	0x3ffedc57	1.9910992
188	0x3ef40f06	0.47667712
189	0xbf95431f	-1.1661109
190	0xbfd725cd	-1.6808411
191	0x3ed07e7e	0.40721506
192	0xbe36e542	-0.17860892
193	0x3ff8367b	1.9391626
194	0xbf522f2e	-0.8210324
195	0xbe5aabcd	-0.213546
196	0xbeecfd99	-0.4628723
197	0xbebb5ef9	-0.36595896
198	0x3f1d2e97	0.61399215
199	0x3dce8dc6	0.10085635
200	0x3fc1acdc	1.5130877
201	0x3ede69bc	0.43440044
202	0xbe55a01f	-0.20861863
203	0xc0399737	-2.8998544
204	0x3da98c77	0.08278745
205	0x3efc3918	0.4926231
206	0x3f546a5d	0.829748
207	0x404018a9	3.0015051
208	0x3ff7a2b6	1.934653
209	0x4019b13c	2.4014425
210	0xbf3886d9	-0.7208076
211	0x3f370980	0.7149887
212	0x3fc767a8	1.5578508
213	0xbf42764c	-0.75961757
214	0xc0098b60	-2.1491318
215	0x3f71a85b	0.94397515
216	0x3f98134d	1.188089
217	0x3f2906f9	0.66026264
218	0xbf66b0ac	-0.9011333
219	0xbda78434	-0.081795126
220	0xbf91c6b1	-1.1388761
221	0xbef73de4	-0.48289406
222	0x3faf8420	1.3712196
223	0x3fb250d3	1.3930916
224	0x401fcf50	2.4970284
225	0xbea3591f	-0.31903931
226	0x3f473dc0	0.778286
227	0xbfb20a8d	-1.390947
228	0x3f762d5c	0.9616296
229	0xbd3c8b37	-0.046031203
230	0xbff11565	-1.8834654
231	0xbfeda12d	-1.8564812
232	0x3d4353b7	0.04768726
233	0x3e461e2a	0.19347444
234	0x400575e2	2.08532
235	0x3f4d388b	0.801644
236	0x3ed38a9b	0.41316685
237	0xbfa6a31d	-1.3018528
238	0x3fa9cc20	1.3265419
239	0x40143ce3	2.3162162
240	0xbef6113f	-0.48060033
241	0x40082081	2.126984
242	0x3fb71951	1.4304601
243	0xbfab2ff4	-1.3374009
244	0xbf1a6430	-0.60309124
245	0x3e8d9181	0.27650073
246	0xc001dd5a	-2.0291352
247	0xbfb481d4	-1.410212
248	0x3fda21ba	1.7041543
249	0x3fc7c5a9	1.5607196
250	0x3e0f3755	0.13985951
251	0xbfcaba6c	-1.5838141
252	0x3f2d9ee4	0.6782057
253	0x3e0e3174	0.13886052
254	0xbf3545cf	-0.70809644
255	0x405ad8de	3.4194865

lins.0.0.weight f4 [256]
0	0x3e9cdf2a	0.3063901
1	0x3f39a3bc	0.72515464
2	0x3e9f7519	0.31144026
3	0x3ffbd76e	1.9675119
4	0x3f9c77a9	1.2224017
5	0x3f0c73c3	0.5486414
6	0x3f61e789	0.8824392
7	0x3fbed5fc	1.4909053
8	0x3e4d7419	0.20063819
9	0x3f40337b	0.7507855
10	0x3f19b8f1	0.60047823
11	0x3edd0cd2	0.43173844
12	0x3f460b8e	0.7736138
13	0x3ede3747	0.43401548
14	0x40269588	2.6028767
15	0x3f0a924a	0.5412947
16	0x3f094ee1	0.53635985
17	0x3ebda754	0.37041724
18	0x3fbc9f55	1.4736124
19	0x3f08da51	0.53458124
20	0x3fbb7ae8	1.4646883
21	0x3e80693d	0.2508029
22	0x4014bf5b	2.3241794
23	0x3f14a91c	0.5807054
24	0x3ede272f	0.4338927
25	0x3ee274a7	0.44229624
26	0x3ed97fa7	0.42480204
27	0x3e602ed2	0.2189286
28	0x3f0f49a9	0.5597177
29	0x3ed25eaf	0.41087863
30	0x4013bb60	2.3083115
31	0x3f83c793	1.029528
32	0x402a1f9d	2.6581795
33	0x3f4ca937	0.799457
34	0x3fc702b2	1.5547698
35	0x3ee6839a	0.4502228
36	0x3f017d8f	0.5058221
37	0x3f198273	0.59964675
38	0x3edb162b	0.4279035
39	0x3ea76228	0.32692075
40	0x3f05cd6d	0.5226658
41	0x3fc1b7d5	1.5134226
42	0x402262fe	2.537292
43	0x3d972e80	0.07381916
44	0x3ed8d8d8	0.4235294
45	0x3fa1b29a	1.263263
46	0x3eeca2aa	0.46217853
47	0x3f04e21f	0.51907533
48	0x4014fb76	2.327848
49	0x400a0758	2.1566982
50	0x403fc3f8	2.996336
51	0x3fbeb161	1.4897882
52	0x3f27d23d	0.65555173
53	0x3fc996a3	1.5749096
54	0x3e885565	0.2662765
55	0x3e758baa	0.23979059
56	0x3ead6c6a	0.33871776
57	0x3e5c53b3	0.21516304
58	0x3f10309b	0.56324166
59	0x4005f701	2.093201
60	0x3ef25b05	0.47335067
61	0x3ed03da3	0.40672025
62	0x3f61be49	0.8818098
63	0x4009128c	2.141757
64	0x3fe246fb	1.7677912
65	0x3eaf074a	0.3418525
66	0x3e9f38b9	0.31097963
67	0x3fb5d2f8	1.4205008
68	0x3ea57df8	0.3232267
69	0xbdeb0c1d	-0.1147692
70	0x3ecad374	0.3961445
71	0x3eaef35a	0.34170038
72	0x3f016413	0.50543326
73	0x3f8f4b42	1.1194842
74	0x3e3ac01a	0.18237343
75	0x3e224869	0.15847935
76	0x3e71e9dd	0.23624368
77	0x3fc275b6	1.5192173
78	0x3f7b4868	0.9815736
79	0x3ee287b2	0.44244152
80	0x3ef83650	0.48478937
81	0x3fc92744	1.5715108
82	0x3e93fde8	0.28904653
83	0x3f1137d8	0.56725836
84	0x3fb6fc61	1.429577
85	0x3e59acf7	0.21257387
86	0x3f90b61f	1.1305579
87	0x3fccf794	1.6013055
88	0x3ea97d20	0.33103275
89	0x3f9e5249	1.2368861
90	0x3efa9355	0.4894053
91	0x401917b5	2.392072
92	0x3e88dfa2	0.26733118
93	0x3fb94e0d	1.4476944
94	0x3e9341fa	0.28761274
95	0x3ea9e5df	0.3318319
96	0x3e94e3dd	0.29080096
97	0x3f8281ae	1.0195825
98	0x3e6e0ce0	0.23247099
99	0x3f9fc2c5	1.2481314
100	0x402c22e2	2.689629
101	0x3f1cbb6a	0.6122347
102	0x3fa8612c	1.3154655
103	0x3ed7d35f	0.4215345
104	0x3ecd9468	0.40152287
105	0x3f508924	0.8145926
106	0x3fc20378	1.5157309
107	0x3fba1534	1.4537721
108	0x3f01d8e8	0.507216
109	0x3eee7d24	0.4657985
110	0x3e81de2b	0.25364813
111	0x3f03ddda	0.51510394
112	0x3f1a82f9	0.603561
113	0x3eded0e7	0.43518755
114	0x3fb7ed5a	1.4369309
115	0x3fefc12f	1.873083
116	0x3efcdaf2	0.49385792
117	0x401ad948	2.4195118
118	0x3fda9dcc	1.7079406
119	0x3eb23ea9	0.3481343
120	0x3f9376b2	1.1520598
121	0x3fae89a0	1.363575
122	0x3eeea840	0.4661274
123	0x3eb0393f	0.34418675
124	0x3faaac2c	1.3333793
125	0x3f993887	1.1970376
126	0x3ede1c01	0.4338074
127	0x3e6544cc	0.22389525
128	0x3e86684a	0.2625144
129	0x3f956787	1.1672219
130	0x402f6368	2.7404423
131	0x3dcb99ab	0.09941419
132	0x3fbd5caa	1.4793904
133	0x3fc23c9f	1.517475
134	0x402db32c	2.7140608
135	0x3ec9ff97	0.39452812
136	0x3f03250a	0.5122839
137	0x3e486d3e	0.19572923
138	0x3fdad493	1.7096123
139	0x3edbfb39	0.42965105
140	0x3fb7ec50	1.4368992
141	0x3fec3092	1.8452322
142	0x3e1645aa	0.14675012
143	0x3ff7ad8c	1.9349837
144	0x3e86a107	0.2629473
145	0x3fba0f07	1.4535836
146	0x3ec0d0ba	0.37659246
147	0x3ef04056	0.46924084
148	0x400d5363	2.2082145
149	0x3fb3787e	1.4021146
150	0x3efe3500	0.4964981
151	0x3fd29f0c	1.6454787
152	0x3eec8812	0.46197563
153	0x3f5c83ee	0.8613881
154	0x3ee7dad1	0.4528413
155	0x3e9fe224	0.3122722
156	0x3fdb5603	1.7135624
157	0x3f96eee7	1.1791657
158	0x3f3e92bb	0.7444264
159	0x3eb6c893	0.356999
160	0x3e45b1ff	0.19306181
161	0x3f0bc772	0.54601204
162	0x3fa4d8ed	1.28787
163	0x3ee7b15f	0.4525251
164	0x3eb5c86e	0.35504478
165	0x401fea36	2.49867
166	0x402ebf50	2.7304268
167	0x3efebdee	0.4975428
168	0x3f0b3f15	0.5439313
169	0x3ec9261d	0.3928689
170	0x3f2b4573	0.66902846
171	0x3fb4c9e7	1.4124116
172	0x3e957faf	0.29198977
173	0x401a123c	2.407363
174	0x3ead2ec1	0.33824733
175	0x3ff3aa3d	1.9036328
176	0x3ede425e	0.4341001
177	0x3f548847	0.8302044
178	0x3fbb380a	1.4626477
179	0x3f8854cc	1.0650878
180	0x3fcb62a7	1.5889481
181	0x3ea59b51	0.3234506
182	0x3fcab5c7	1.5836724
183	0x3f0c7cec	0.54878116
184	0x3efb0e98	0.49034572
185	0x3ed6a5bf	0.4192333
186	0x3e8cb975	0.27485242
187	0x40856b7a	4.1693697
188	0x402ad1b7	2.66905
189	0x3ecb59dd	0.39716998
190	0x3f01ea9f	0.5074863
191	0x3eccce89	0.40001324
192	0x3eca488d	0.39508477
193	0x3f02806a	0.50977194
194	0x406f2b9b	3.7370365
195	0x3ec02b13	0.37532863
196	0x3fc3e3b1	1.5303861
197	0x3ff3f87d	1.9060208
198	0x3ec03614	0.37541258
199	0x4084ac41	4.146027
200	0x3e6f5e3e	0.23375794
201	0x40962ba2	4.6928263
202	0x3e8682f3	0.2627178
203	0x3e9fb27f	0.3119087
204	0x3ec634ec	0.3871225
205	0x3ea034eb	0.31290373
206	0x3fa2afd4	1.2709908
207	0x3ed82fe6	0.42224044
208	0x3fcf582e	1.6198785
209	0x3e96f45b	0.29483303
210	0x3f1680bc	0.58790183
211	0x3edeef1f	0.4354181
212	0x3fe786fd	1.808807
213	0x3d9b38fa	0.07579227
214	0x3f17324c	0.5906112
215	0x3e6707ac	0.2256152
216	0x3f0dd0b5	0.55396587
217	0x403dd2c5	2.9659894
218	0x3fa1aaaf	1.2630213
219	0x400bd4a1	2.1848528
220	0x3ec13127	0.37732813
221	0x3f037c09	0.5136114
222	0x3d506fca	0.05088786
223	0x3fb69283	1.4263462
224	0x3fe16491	1.7608815
225	0x3e6d13d6	0.23152098
226	0x3ec63396	0.38711232
227	0x3f7bc676	0.983497
228	0x3ff8111a	1.9380219
229	0x3eb44279	0.35206965
230	0x40063639	2.0970595
231	0x402dd086	2.7158523
232	0x3fbb7f8f	1.4648303
233	0x3f117a2a	0.5682703
234	0x3e3464d5	0.1761659
235	0x3f0d23fc	0.5513303
236	0x3f21e895	0.63245517
237	0x403984c5	2.8987286
238	0x3fae8032	1.3632872
239	0x4010471b	2.25434
240	0x3fbd032e	1.4766595
241	0x40027f69	2.0390265
242	0x3ee7feb3	0.45311508
243	0x3e5cfcf8	0.21580875
244	0x3f9cef70	1.226057
245	0x3f101668	0.5628419
246	0x3efe2649	0.49638584
247	0x3f0de97a	0.5543438
248	0x3facb337	1.3492192
249	0x3f055e12	0.52096665
250	0x3eb99927	0.36249658
251	0x3e37b5f8	0.1794051
252	0x3fa783f3	1.3087143
253	0x3f10a061	0.5649472
254	0x3f03fcf5	0.51557857
255	0x3fc682c8	1.5508661
