models/ogbl-collab_CN_2_1_0_run1_sigvae.pt (torch, 160127 bytes, 6 tensors)

z_embedding.weight f4 [1000, 32]
0	0x3ff6931d	1.9263645
1	0x3fc02a9b	1.5013002
2	0x3f6bab54	0.920583
3	0xc006e753	-2.107869
4	0x3f2bb510	0.67073154
5	0xbf95fafe	-1.1717222
6	0xbdc1355e	-0.09434007
7	0xbfcae6c7	-1.5851678
8	0xbf3858df	-0.72010607
9	0x3fd1dc27	1.639531
10	0xbeb7bb18	-0.3588493
11	0xbfafe900	-1.3742981
12	0xbf401142	-0.75026333
13	0xbf0f35e1	-0.5594159
14	0xbf319d25	-0.6938041
15	0x3f4b9a6f	0.7953252
16	0x3fcb23d7	1.5870312
17	0xbded2d7e	-0.115809426
18	0xbee4ec3a	-0.44711477
19	0x3ebd657e	0.36991495
20	0xbf40a18b	-0.75246495
21	0x3f84b7b9	1.0368568
22	0x3f55c1c8	0.8349881
23	0x3fdacc5a	1.7093613
24	0x3fa2cfc8	1.271966
25	0x3f9f29a0	1.2434578
26	0x3f19cfdc	0.60082793
27	0x3fa78676	1.3087909
28	0xbe4ef838	-0.20211875
29	0x3d075d1a	0.033047773
30	0xbe879c00	-0.26486206
31	0x3f4fac32	0.81122124
32	0xc0311187	-2.7666948
33	0xc02ab5c6	-2.6673446
34	0xbf8eab03	-1.1145939
35	0x402280a8	2.5391026
36	0x3f628391	0.88482004
37	0xbe18a00d	-0.14904805
38	0x3fd3a56b	1.6534857
39	0xbfc885b4	-1.5665803
40	0xc00a4ccd	-2.1609375
41	0x3f7bf0a2	0.9841405
42	0xc00a8ed9	-2.1649687
43	0xbf8824c4	-1.063622
44	0xc00e12ae	-2.21989
45	0x405f0160	3.484459
46	0xc0187464	-2.382104
47	0xbf389ab7	-0.72111076
48	0xbf94c746	-1.1623313
49	0xbffb0768	-1.9611635
50	0xbea9c652	-0.3315912
51	0x3ffd7e56	1.980418
52	0xbf6e128d	-0.92997056
53	0x3ff9a497	1.9503354
54	0xc017271e	-2.3617625
55	0xbf87d6c8	-1.0612421
56	0xc066c89e	-3.6059947
57	0xbf873e10	-1.0565815
58	0xbf01d940	-0.5072212
59	0x3fe9fa99	1.8279601
60	0x3f0b7e78	0.5448985
61	0x402b2443	2.6740882
62	0xc001cd54	-2.0281572
63	0x400ff76f	2.2494771
64	0x3fb8fa25	1.4451338
65	0x3f5b3dda	0.85641253
66	0x400df4f4	2.2180758
67	0x3f05ee2d	0.5231655
68	0x3eb17bac	0.34664667
69	0xbe4a1141	-0.19733144
70	0xbf86fcc5	-1.0545889
71	0x3fa3955c	1.2779956
72	0xbe30529c	-0.17219013
73	0x3f061700	0.52378845
74	0x3d67ec48	0.05662182
75	0x3eda437d	0.42629614
76	0x3f133388	0.57500505
77	0xbf244808	-0.6417241
78	0xc00d35a2	-2.2063985
79	0xbf4034a1	-0.75080305
80	0x3c32104d	0.010868144
81	0xbead6fa3	-0.33874235
82	0xbfab9b63	-1.3406795
83	0xbf15dad8	-0.58537054
84	0x3f0943a0	0.5361881
85	0x3f064dab	0.5246226
86	0x3f9212e5	1.1412016
87	0x3d53883c	0.051643595
88	0x3f3e73a3	0.743952
89	0xbef6923b	-0.4815844
90	0xbf8654e8	-1.0494661
91	0x3f1a991d	0.6038988
92	0xbfdc742a	-1.722295
93	0xbf53e8a9	-0.82776886
94	0x3faad78c	1.334703
95	0x3ef79276	0.48353928
96	0xc0209c60	-2.5095444
97	0x3ef9db46	0.48800105
98	0x3f48daaf	0.78458685
99	0x3ceaad81	0.028647186
100	0x3f24088a	0.6407553
101	0x3f154fb4	0.5832474
102	0x3f88910e	1.0669267
103	0xbee67a81	-0.45015338
104	0xbe3db6c2	-0.18526748
105	0x3f40b4ce	0.75275886
106	0x3ecf3c6a	0.4047578
107	0x3e36bfca	0.17846599
108	0x3e87a238	0.2649095
109	0x3fa2f72e	1.2731683
110	0xbaabd149	-0.0013108636
111	0xbe9b71f4	-0.30360377
112	0xbfba7fee	-1.4570291
113	0xbdd19523	-0.10233524
114	0xbf196218	-0.59915304
115	0x3ef440bd	0.4770564
116	0x3f39e6c0	0.7261772
117	0x3dbaadd4	0.09115186
118	0xbec7338e	-0.3890652
119	0x3f072589	0.5279165
120	0xbc4fd6c1	-0.012685479
121	0x3e769dcc	0.24083632
122	0x3e07b75a	0.13253537
123	0x3f43a546	0.7642406
124	0x3f8c2947	1.0950097
125	0x3eae0630	0.33989096
126	0x3f384fca	0.7199675
127	0x3ed2a405	0.41140762
128	0x3ff73045	1.9311606
129	0x3f8184c1	1.0118638
130	0xbfb7dc2b	-1.4364065
131	0xbf909f3f	-1.1298598
132	0xbe0b4ca3	-0.13603453
133	0x3fd1551a	1.6354096
134	0x3f279d17	0.65474075
135	0x3f137509	0.57600456
136	0x3f921cef	1.141508
137	0x3c9814bd	0.018564576
138	0xbfe7249f	-1.8058051
139	0x3f6ce94d	0.9254349
140	0xbec02d23	-0.37534437
141	0x3f843c35	1.0330874
142	0xbf2fc85b	-0.68665093
143	0x3f230638	0.63681364
144	0xbf790128	-0.9726739
145	0x3f755d7d	0.95845777
146	0x3fcf41f6	1.6192005
147	0x3fb9ad95	1.4506098
148	0x3e89f97c	0.26948154
149	0xbe576ccd	-0.21037598
150	0xbf3b98f6	-0.73280275
151	0x3dd59a1a	0.10429783
152	0x3eb28f95	0.3487517
153	0x3f77b440	0.96759415
154	0xbeee6eb7	-0.46568844
155	0x3fcd69ff	1.6047972
156	0xc01eba4a	-2.4801202
157	0xbed5c84b	-0.41754374
158	0xbf9904a1	-1.1954538
159	0x3f4ff550	0.8123369
160	0xbff34554	-1.9005532
161	0x3e6a0ff7	0.22857653
162	0x3ccba5f3	0.024859404
163	0xbeb12064	-0.34595025
164	0x3e92dbc0	0.2868328
165	0xbf3b187d	-0.7308424
166	0x3e330415	0.17482026
167	0xbf8c05e0	-1.0939293
168	0xbfcd1397	-1.6021603
169	0x3fad2bba	1.3528969
170	0x3fa4f84e	1.2888277
171	0x3d5633c7	0.052295472
172	0xbfc5ff32	-1.5468504
173	0x3f41b77d	0.75670606
174	0x3f468872	0.7755195
175	0x4001b2c2	2.0265355
176	0x3d12b57d	0.035817612
177	0x3df6f739	0.12058873
178	0xbf4e3ffa	-0.8056637
179	0xbe548f05	-0.20757683
180	0xbf6e9422	-0.9319478
181	0xbfcba4c8	-1.5909662
182	0xbf9167a7	-1.1359757
183	0xbf05c8f5	-0.5225976
184	0xbf04ce54	-0.5187733
185	0xbfc029d3	-1.5012764
186	0xbff69c9b	-1.9266542
187	0x3e02eb6f	0.12785123
188	0x3f82eed3	1.0229133
189	0xbf0e4897	-0.55579513
190	0x3f344b38	0.70427275
191	0x3f35ba6f	0.709876
192	0x3fe31f29	1.7743884
193	0xbf6beac4	-0.921551
194	0x3f76631e	0.9624499
195	0xbeac8d40	-0.33701515
196	0xbf967155	-1.1753336
197	0x3eb75342	0.35805708
198	0x3ef52111	0.4787679
199	0x3fad460b	1.3537
200	0x3f06ac01	0.5260621
201	0x40072ba1	2.112038
202	0xbf055057	-0.52075714
203	0xbf6e97f4	-0.9320061
204	0x3e3d9aef	0.18516134
205	0x3f88cae5	1.0686918
206	0x3fa73c85	1.3065344
207	0x3eeb6f6e	0.45983452
208	0xbf508b63	-0.8146269
209	0xbf82b7f8	-1.0212393
210	0xbefd669f	-0.49492356
211	0xbf179dce	-0.59225166
212	0x3e1e0500	0.15431595
213	0x3ee1ac39	0.44076708
214	0xbe17d9f0	-0.1482923
215	0xc0146160	-2.3184433
216	0xbecbc60b	-0.39799532
217	0x3f8a4d60	1.0804863
218	0xbfe3f35d	-1.7808644
219	0x3fc107a2	1.5080454
220	0x3e9e6d6b	0.30942854
221	0xbf001441	-0.50030905
222	0x3f847afc	1.0350032
223	0x3fd8465b	1.6896471
224	0xbb939f1d	-0.0045050518
225	0x3fd55974	1.6667924
226	0x3e1d9d40	0.15392017
227	0xbf87b65f	-1.060253
228	0xbf1299b0	-0.5726576
229	0x3dab25b8	0.08356804
230	0x3eccc065	0.39990535
231	0x3ffe9e57	1.9892071
232	0xbd936e30	-0.07198751
233	0xbf67f5cf	-0.9060945
234	0xc0031e1a	-2.0487123
235	0xbf8a6007	-1.0810555
236	0x3c905e47	0.01762308
237	0x3da034f2	0.078225985
238	0x3e45cb4a	0.1931583
239	0x3ed1c0b7	0.40967342
240	0xbf6ddb7c	-0.9291303
241	0x3e8d68e4	0.27619088
242	0xbf09f3bb	-0.5388753
243	0x3eecd797	0.46258232
244	0xbf5f3420	-0.8718891
245	0xbcde2753	-0.02711836
246	0xbeb4dca1	-0.35324576
247	0x3fbb5faa	1.4638569
248	0x3fa0b212	1.2554343
249	0xbf370758	-0.7149558
250	0x3f5a9a75	0.8539193
251	0x3f035364	0.5129912
252	0x3f0a2bd0	0.539731
253	0x3f10c4f0	0.565505
254	0x3f017b91	0.5057917
255	0x3e63cae4	0.22245365

gce.weight f4 [32, 32]
0	0xbe0962d3	-0.13416605
1	0x3e825b84	0.25460446
2	0xbe9774fb	-0.29581437
3	0x3d396567	0.04526272
4	0x3e73649f	0.23768853
5	0x3e44369f	0.19161461
6	0x3de96db3	0.113978766
7	0x3e95b935	0.29242864
8	0x3d0220a9	0.03176943
9	0x3ec27e51	0.37986997
10	0x3e8b4dfa	0.2720793
11	0x3e74f8ff	0.2392311
12	0xbecaa60b	-0.39579806
13	0x3d2e67fb	0.042579632
14	0x3e235466	0.15950164
15	0x3e268ea7	0.16265355
16	0x3df9858a	0.12183674
17	0xbebc5eb3	-0.36791
18	0xbdc11bff	-0.09429168
19	0xbdb3580b	-0.08757027
20	0xbe515927	-0.20444165
21	0x3e441c86	0.19151506
22	0x3e7fe8b9	0.2499112
23	0x3d94eab2	0.07271327
24	0xbe3ee73f	-0.18642901
25	0x3decaa1c	0.11555883
26	0x3ac9612e	0.0015364045
27	0xbea1def5	-0.31615415
28	0xbe27116e	-0.16315243
29	0x3dd3e944	0.10347226
30	0x3ca80858	0.020511791
31	0xbca5a360	-0.020219505
32	0x3e73e015	0.2381595
33	0xbdf05c55	-0.11736361
34	0x3d974ce1	0.0738771
35	0xbe7ca40c	-0.24671954
36	0xbdac1331	-0.08402098
37	0x3dc68a7d	0.09694383
38	0x3e9c4deb	0.30528197
39	0x3e92ba8c	0.2865795
40	0xbbd0f531	-0.0063768853
41	0xbe4f94b5	-0.20271571
42	0xbe0108b2	-0.12600973
43	0xbcfa059c	-0.030520253
44	0xbe153817	-0.14572178
45	0xbe52cc2f	-0.20585702
46	0x3f06005e	0.5234431
47	0x3e904f93	0.2818571
48	0xbe82e64f	-0.25566337
49	0xbe76f95f	-0.24118565
50	0x3d8797f5	0.066207804
51	0x3e88d5d9	0.26725653
52	0x3e584139	0.2111863
53	0xbe943d0e	-0.2895283
54	0x3ea5fcd5	0.32419458
55	0x3e70d88b	0.23520105
56	0x3e4a6afd	0.19767375
57	0xbc059e78	-0.008155458
58	0xbe3804c5	-0.1797057
59	0xbe0a05ed	-0.13478823
60	0x3e50c15e	0.20386264
61	0x3e60d513	0.21956281
62	0x3e867be6	0.26266402
63	0xbdf41c64	-0.119194776
64	0x3e71d612	0.23616818
65	0x3e74693a	0.23868266
66	0x3e417533	0.18892364
67	0xbeb804d7	-0.35941193
68	0xbec2e2eb	-0.3806375
69	0x3eb6186c	0.35565507
70	0xbcd04ef3	-0.02542827
71	0x3d7d460a	0.061834373
72	0x3e53e20d	0.206917
73	0x3e4b1124	0.19830757
74	0x3d3b8753	0.045783352
75	0xbd387247	-0.04503086
76	0x3b618c55	0.003441592
77	0xbe42ab4d	-0.19010659
78	0x3eec2735	0.46123663
79	0x3e98fec7	0.2988188
80	0xbe53a894	-0.20669776
81	0xbe50a053	-0.20373659
82	0xbe571e70	-0.21007705
83	0x3eb9b405	0.36270157
84	0xbe8bf485	-0.2733499
85	0xbd164e12	-0.036695547
86	0x3ebe3c43	0.3715535
87	0x3cee7a83	0.029111153
88	0xbe0a4181	-0.1350155
89	0xbca775a4	-0.020441838
90	0x3e085f33	0.13317566
91	0xbdf3d343	-0.11905529
92	0xbede7fdd	-0.43456927
93	0xbe02c618	-0.1277088
94	0x3e4bbf35	0.19897158
95	0x3d0241c0	0.031800985
96	0xbec63d51	-0.38718656
97	0x3de96541	0.11396266
98	0x3cf9758c	0.030451559
99	0x3e503214	0.20331603
100	0x3efcf654	0.49406683
101	0xbe7da5be	-0.24770257
102	0x3deb386d	0.11485372
103	0xbd0f3584	-0.034963146
104	0x3eab8eb5	0.33507314
105	0x3e7fa877	0.24966608
106	0x3e129c19	0.14317359
107	0xbebdc43e	-0.37063783
108	0xbd3f556e	-0.04671233
109	0xbcf997a6	-0.03046782
110	0xbed1761c	-0.40910423
111	0x3e892afa	0.267906
112	0x3d4d18a4	0.050072327
113	0x3ebc89ef	0.36823985
114	0xbd267eda	-0.04064832
115	0x3dac190d	0.084032156
116	0xbed0e4b9	-0.40799502
117	0xbcba4f38	-0.022742853
118	0xbc3e59fc	-0.011618134
119	0xbe812e3f	-0.25230595
120	0x3e0417cc	0.12899703
121	0xbddb3fe4	-0.107055455
122	0x3dd545f0	0.1041373
123	0xbea5ceb3	-0.3238426
124	0xbda458c4	-0.08024743
125	0xbe6fd7aa	-0.23422113
126	0xbdf62711	-0.1201917
127	0xba88e936	-0.0010445479
128	0x3d4a02ba	0.049319007
129	0xbe62e12c	-0.22156209
130	0xbe3ebf81	-0.1862774
131	0x3ea8f532	0.3299957
132	0x3ec97de2	0.39353853
133	0xbd36eb5f	-0.04465806
134	0xbe6237c9	-0.22091593
135	0x3d6d8798	0.05799064
136	0x3e349dd0	0.17638326
137	0x3dca2b55	0.09871546
138	0xbe88a126	-0.26685447
139	0xbea18ee8	-0.3155434
140	0x3d394a82	0.04523707
141	0xbd9c5add	-0.07634518
142	0xbded688f	-0.115922086
143	0x3e1a9684	0.1509648
144	0x3e96f3bf	0.2948284
145	0x3efe41b1	0.49659494
146	0xbe4e1cea	-0.20128217
147	0x3e31e652	0.17373016
148	0xbe72f15c	-0.23724884
149	0x3e86f79a	0.2636078
150	0xbe3ca1bf	-0.18421076
151	0xbd384522	-0.044987805
152	0x3e40c7a9	0.18826164
153	0x3c94f275	0.018182019
154	0x3d3ed9a8	0.046594292
155	0xbe705858	-0.234712
156	0xbd9614a7	-0.07328158
157	0xbe06f5d9	-0.13179721
158	0x3ebfbbf8	0.37448096
159	0x3e3d7326	0.18500957
160	0x3e1394ba	0.14412203
161	0xbe962793	-0.29327068
162	0xbddca697	-0.10773962
163	0x3e90623b	0.28199944
164	0x3c97a756	0.01851241
165	0xbeaa6672	-0.33281285
166	0x3d7925ab	0.06082694
167	0x3e82cd66	0.25547332
168	0x3e55ece5	0.2089115
169	0x3e92e232	0.28688198
170	0xbd98c63f	-0.074596874
171	0x3e9ba339	0.30397967
172	0xbd12e38b	-0.035861533
173	0xbdab8b54	-0.08376184
174	0x3edcae0d	0.4310154
175	0x3df0c98d	0.11757193
176	0xbdeb604a	-0.11492975
177	0x3e77c5de	0.24196574
178	0xbe11b184	-0.14227873
179	0x3d8f833e	0.07007454
180	0xbe60578f	-0.21908401
181	0xbcc5aa5a	-0.024129082
182	0xbc3e8b80	-0.011629939
183	0xbda8200a	-0.08209236
184	0x3e3ad354	0.18244678
185	0x3d5921c3	0.053010713
186	0xbc8dc1dc	-0.017304353
187	0x3e35f550	0.1776936
188	0xbe8eb141	-0.2786961
189	0x3e1dafbf	0.15399073
190	0x3e870efe	0.26378626
191	0xbdbe38a2	-0.092881456
192	0xbdfb1be5	-0.1226118
193	0x3d8a8e6a	0.067654446
194	0xbeafbcf7	-0.34323856
195	0x3eca8706	0.3955614
196	0x3eb1fb2a	0.34761935
197	0xbe4fd065	-0.2029434
198	0xbd968431	-0.07349432
199	0xbee1776b	-0.4403642
200	0xbe9cc607	-0.30619833
201	0x3e1edc49	0.1551372
202	0xbe022914	-0.12710983
203	0x3ccd8b8c	0.025090955
204	0x3e650107	0.22363673
205	0x3e1d5a4d	0.15366478
206	0xbd72130d	-0.0591002
207	0xbe7f8af0	-0.24955344
208	0xbe003890	-0.12521577
209	0x3f0f8536	0.5606264
210	0xbec50f16	-0.38488072
211	0x3e9b7837	0.30365154
212	0x3eb0642d	0.34451428
213	0xbe3abb95	-0.1823562
214	0xbd5cb4c6	-0.053883336
215	0xbe973a68	-0.29536748
216	0x3e8beade	0.27327627
217	0x3d654f3e	0.055983774
218	0x3da4c304	0.08045009
219	0xbd585a7f	-0.05282068
220	0x3ec095d9	0.37614325
221	0x3cb06305	0.021531591
222	0x3eab0ce6	0.33408278
223	0xbb72f39d	-0.0037071474
224	0x3d837589	0.064189024
225	0x3e0dc06e	0.13842937
226	0xbd24a541	-0.04019666
227	0x3d77789e	0.060417764
228	0xbe915c9b	-0.28390965
229	0xbdf4526c	-0.11929783
230	0x3c10fae9	0.008848884
231	0xbebe22c9	-0.37135914
232	0x3e566079	0.20935239
233	0x3e784f1b	0.24248926
234	0xbda129a5	-0.07869271
235	0x3e440043	0.19140725
236	0xbedd5bee	-0.432342
237	0xbe9eb720	-0.30999088
238	0x3ecfcedf	0.40587518
239	0x3e08dc07	0.13365184
240	0x3d5f7985	0.05455925
241	0xbe225678	-0.15853298
242	0x3e9783bb	0.2959269
243	0x3e17ad2b	0.14812152
244	0x3d02635b	0.031833034
245	0x3e843aec	0.25826204
246	0xbda9a392	-0.08283152
247	0xbeb8816b	-0.36036238
248	0x3e625407	0.22102366
249	0x3e37ba33	0.17942123
250	0xbc3925b8	-0.011300497
251	0x3db901dc	0.09033558
252	0xbd2896b6	-0.041159354
253	0x3d582c1a	0.052776434
254	0xbdcccdae	-0.10000168
255	0x3e3e50a3	0.18585448

gc1.weight f4 [160, 32]
0	0xbcf94d14	-0.030432262
1	0xbd85c3c6	-0.065314814
2	0x3dac38d0	0.084092736
3	0xbd89885e	-0.06715463
4	0xbdcdd515	-0.10050408
5	0x3cfb827c	0.030701868
6	0xbcd50277	-0.026002152
7	0xbe556b14	-0.20841628
8	0xbec8c28d	-0.3921093
9	0x3e02bb6e	0.12766811
10	0x3d913908	0.07090956
11	0x3b298498	0.0025866386
12	0xbd91ff66	-0.071287915
13	0xbdcc59d5	-0.099780716
14	0x3ca47200	0.02007389
15	0xbe27b6bf	-0.16378306
16	0xbe593fa2	-0.2121568
17	0x3c9d21f2	0.019181225
18	0xbc968c8d	-0.018377567
19	0xbe62ddba	-0.22154894
20	0x3e3dcca1	0.18535091
21	0xbdd2806d	-0.102784015
22	0x3d442725	0.047888894
23	0xbda266be	-0.07929753
24	0x3e96e7ab	0.29473624
25	0xbe841cd0	-0.25803232
26	0x3ce1a170	0.0275428
27	0x3d9036a4	0.07041672
28	0xbe5de713	-0.21670179
29	0xbd13009f	-0.035889264
30	0xbe7e1b46	-0.24815091
31	0xbc257b68	-0.010100223
32	0x3e428e90	0.18999696
33	0x3b977cb8	0.004623022
34	0xbe5f3c09	-0.21800245
35	0x3d8a6b6d	0.06758771
36	0x3cc6ced8	0.024268553
37	0x3c47dc25	0.012198483
38	0xbe70d7a4	-0.2351976
39	0x3e8ab304	0.27089703
40	0x3f292dd5	0.6608556
41	0x3e4fdc42	0.20298865
42	0x3bee5f46	0.007274541
43	0x3c80f0b8	0.015739784
44	0xbdac77ed	-0.084213115
45	0x3e2875b4	0.1645115
46	0xbd457628	-0.048208386
47	0xbdba210b	-0.09088334
48	0x3e4e248c	0.20131129
49	0xbdaec452	-0.08533539
50	0xbda955e7	-0.08268338
51	0x3e2bd037	0.16778646
52	0xbeaffe66	-0.34373778
53	0x3ead45c1	0.3384228
54	0xbeca3358	-0.39492297
55	0x3eff6769	0.49883583
56	0x3c35dd8e	0.011100186
57	0xbdd74e40	-0.10512972
58	0x3d2f6056	0.042816482
59	0x3e4c14c9	0.19929804
60	0xbe29cb17	-0.16581379
61	0x3e6d15b1	0.23152806
62	0x3e9db5d5	0.3080279
63	0xbf434532	-0.7627746
64	0x3e0b9442	0.13630775
65	0xbe225359	-0.15852107
66	0x3c5c1af4	0.0134341605
67	0x3deb46b6	0.114880964
68	0x3da7264e	0.08161603
69	0xbd8bc1ed	-0.06824098
70	0x3e8b25f2	0.27177387
71	0xbe807796	-0.25091237
72	0xbcabc1bc	-0.020966403
73	0xbe225f10	-0.15856576
74	0xbcd6edf8	-0.02623652
75	0xbe6be3ee	-0.23036167
76	0x3da64bec	0.0811995
77	0xbd97955b	-0.07401534
78	0xbe20162f	-0.15633462
79	0xbd888d64	-0.06667593
80	0xbd350bf3	-0.04420085
81	0x3d97d97f	0.07414531
82	0x3d383e72	0.044981427
83	0x3e16c5e0	0.14723921
84	0xbd496746	-0.049170755
85	0x3e074f1b	0.1321377
86	0xbe2fa4e7	-0.17152749
87	0xbe90520b	-0.28187594
88	0x3e358fdf	0.17730664
89	0xbe5aee11	-0.21379878
90	0xbdbe56dd	-0.092939116
91	0x3d184745	0.037177343
92	0xbd322efb	-0.043501835
93	0x3db46648	0.08808571
94	0xbd893be7	-0.067008786
95	0x3dc487fe	0.09596251
96	0xbed4977e	-0.4152183
97	0xbd3076a2	-0.043081887
98	0xbe4d90ff	-0.20074843
99	0x3df68dd3	0.120387696
100	0xbd936e18	-0.07198733
101	0x3dbe825f	0.0930221
102	0xbe6cef18	-0.23138082
103	0x3e5975f0	0.21236396
104	0x3ebb2a18	0.36555552
105	0xbc827516	-0.015924972
106	0x3c04bc93	0.0081016
107	0xbdf870ca	-0.12130888
108	0xbea7dd45	-0.32786003
109	0xbd02d42a	-0.031940617
110	0x3d51f6e0	0.05126083
111	0x3d0b28aa	0.033974327
112	0x3d982812	0.07429518
113	0xbda589e9	-0.08082945
114	0xbe777089	-0.24164023
115	0xbe329ad2	-0.17441872
116	0xbdc1d539	-0.09464497
117	0x3c8767d4	0.016529001
118	0xbe584a60	-0.21122122
119	0x3e400ed7	0.18755661
120	0xbdf9cb5e	-0.12196992
121	0xbef4e898	-0.47833705
122	0xbcbb70d1	-0.022880943
123	0x3e8366ca	0.2566436
124	0xbe0c6ff0	-0.13714576
125	0x3de8d411	0.113685735
126	0x3e4dcb5a	0.20097104
127	0xbede684c	-0.43438947
128	0x3c194ae1	0.009356231
129	0x3d9795be	0.07401608
130	0x3e4c58c0	0.1995573
131	0xbc7a332c	-0.015270989
132	0xbe00acc4	-0.12565905
133	0xbd22a38c	-0.03970675
134	0x3ce2da75	0.027692059
135	0x3dae88fd	0.08522222
136	0xbd751db9	-0.0598428
137	0x3e1adcde	0.15123317
138	0x3e5ef5c1	0.21773435
139	0x3ead527b	0.3385199
140	0xbde6acee	-0.112634525
141	0xbd2e9845	-0.042625684
142	0xbd33eb69	-0.043925676
143	0x3e91d550	0.28483057
144	0x3dc3f495	0.09568135
145	0x3dba6253	0.09100785
146	0xbec1e955	-0.3787333
147	0x3da0cd13	0.07851615
148	0x3e9e28a1	0.30890372
149	0xbd775d3e	-0.060391657
150	0xbd9446f8	-0.07240099
151	0xbe208858	-0.15677011
152	0xbd9fa809	-0.07795722
153	0x3dffd856	0.12492435
154	0x3e81bce5	0.25339428
155	0xbced99de	-0.029004034
156	0x3dc3ceb0	0.09560907
157	0x3e2493c2	0.1607199
158	0xbe78755a	-0.24263516
159	0xbdfb0fdf	-0.122588865
160	0x3d8fba08	0.070179045
161	0xbef0ffdb	-0.47070202
162	0xbc27bf80	-0.010238528
163	0x3d0c9155	0.034318287
164	0x3dac8f29	0.08425743
165	0xbe43a5df	-0.19106244
166	0xbdfaf93c	-0.12254569
167	0x3eff92b9	0.49916628
168	0x3d28685c	0.04111515
169	0xbe59117c	-0.21198076
170	0x3db51f28	0.08843833
171	0xbf025347	-0.5090832
172	0xbc26522b	-0.010151426
173	0x3de289c1	0.11061431
174	0xbde8cf47	-0.1136766
175	0x3e232563	0.1593223
176	0x3e8f4683	0.27983484
177	0xbc801b57	-0.015638037
178	0x3e263341	0.1623049
179	0xbdb38398	-0.08765334
180	0xbe76ef86	-0.24114808
181	0x3dd71539	0.10502095
182	0xbd063eb1	-0.03277463
183	0x3e8f7738	0.28020644
184	0xbdf526ca	-0.11970289
185	0xbf132931	-0.5748473
186	0xbeb090b4	-0.344854
187	0xbecf86d1	-0.40532544
188	0xbefe1b23	-0.4963008
189	0x3c5165b2	0.012780594
190	0x3e6a3093	0.22870092
191	0xbe6712fa	-0.22565833
192	0x3cdf2447	0.027238978
193	0x3d5005f3	0.050786924
194	0x3e03dfd1	0.12878348
195	0xbc32dd9f	-0.010917096
196	0x3c32642e	0.0108881425
197	0x3db75daa	0.08953412
198	0x3cccbb2b	0.024991592
199	0x3dcffcb4	0.10155621
200	0xbd9197a6	-0.07109003
201	0x3d4e4014	0.05035408
202	0xbe1ac6fd	-0.1511497
203	0x3dd94d82	0.106104866
204	0x3c7cf634	0.015439559
205	0xbd18b9ac	-0.037286445
206	0x3e2d4f63	0.16924815
207	0x3d9130a0	0.070893526
208	0xbc1f6339	-0.009728246
209	0xbd1d824e	-0.038454346
210	0x3e1823ec	0.14857453
211	0xbb280140	-0.002563551
212	0xbcebe4ac	-0.028795563
213	0xbc790380	-0.015198588
214	0xbd7b5b7b	-0.06136654
215	0xbde24ce8	-0.11049825
216	0x3d0ab4e6	0.033863924
217	0xbdc9de2a	-0.098568276
218	0xbd87d293	-0.06631961
219	0x3d9e7274	0.07736674
220	0xbe2c6f0f	-0.1683924
221	0xbda2a6b3	-0.079419516
222	0xbdfdd7f7	-0.12394708
223	0x3d1bbac1	0.0380199
224	0xbd91eedb	-0.07125636
225	0xbe1ee6b3	-0.15517692
226	0x3e88c62f	0.26713702
227	0xbcb619bd	-0.02222907
228	0x3dd984e8	0.10621053
229	0x3e707475	0.23481925
230	0x3e416e6b	0.18889777
231	0xbcb2dc74	-0.021833636
232	0xbdf9fcb3	-0.12206402
233	0xbd268fd1	-0.040664498
234	0x3cff491a	0.031162787
235	0x3de91b44	0.11382154
236	0xbe272fea	-0.16326872
237	0x3d679f4d	0.056548405
238	0xbdf081bb	-0.11743494
239	0x3da20e24	0.07912853
240	0xbe2295d6	-0.1587747
241	0x3d416222	0.047212727
242	0xbd17014a	-0.036866464
243	0xbdc837e2	-0.09776284
244	0xbda17c69	-0.078850575
245	0xbd73462f	-0.059393104
246	0x3d10e9eb	0.03537933
247	0x3dea6c15	0.11446396
248	0x3e0b7b2c	0.13621205
249	0xbcb9401e	-0.022613581
250	0xbdaea8c7	-0.085282855
251	0x3e8dbbd2	0.27682358
252	0xbe42a3a2	-0.19007733
253	0xbd06d6ff	-0.03291988
254	0xbd081528	-0.0332233
255	0x3b922a47	0.0044606063

gc2.weight f4 [32, 16]
0	0xbf1290fe	-0.5725249
1	0x3d993133	0.07480087
2	0x3e648b92	0.22318867
3	0x3db30943	0.08742001
4	0x3f33ac3f	0.701847
5	0x3ec2ca69	0.38045052
6	0x3f0c0f9d	0.54711324
7	0xbe8f07c6	-0.27935618
8	0x3f7dc632	0.9913055
9	0xbd3354fe	-0.043782227
10	0x3ef4c131	0.47803643
11	0xbfb03f45	-1.3769308
12	0xbe2cf407	-0.16889964
13	0x3dd28de6	0.10280971
14	0x3e6a3526	0.22871837
15	0x3ec4ad6a	0.38413554
16	0x3f8a3b6a	1.0799382
17	0x3eca90e3	0.39563665
18	0xbf27e27d	-0.6557997
19	0x3a1a1ab7	0.00058786146
20	0x3d4541ab	0.04815833
21	0x3f267644	0.6502421
22	0x3e103421	0.14082386
23	0xbd12cbd7	-0.035838928
24	0xbf7187a3	-0.9434759
25	0xbc09972c	-0.008397859
26	0x3f46aa61	0.7760373
27	0xbe8492da	-0.2589329
28	0x3e2a04aa	0.16603342
29	0x3f1bdb9c	0.6088197
30	0xbf94ca69	-1.1624271
31	0xbcfa41a8	-0.030548885
32	0x3eb14c6b	0.34628615
33	0xbd89fa61	-0.06737209
34	0xbe8475a7	-0.25871012
35	0xbe12d5d4	-0.14339381
36	0xbe366a99	-0.17814101
37	0x3d2f552e	0.042805843
38	0x3d4ef88d	0.050530005
39	0x3d89537b	0.06705376
40	0xbe39aec6	-0.18133077
41	0xbd9069d7	-0.07051437
42	0x3eb5d561	0.35514358
43	0x3e4b3901	0.19845964
44	0x3e3c03e6	0.18360862
45	0xbe92a6d6	-0.2864291
46	0x3eaf9028	0.3428967
47	0x3ebb7bd6	0.36617917
48	0xbea81228	-0.32826352
49	0xbf4bbe4e	-0.79587257
50	0x3e4909a2	0.19632581
51	0xbeccdabd	-0.40010634
52	0x3ddb1ac5	0.10698465
53	0xbe756821	-0.23965503
54	0x3ec52240	0.38502693
55	0xbe6738a6	-0.22580203
56	0x3dd17687	0.102276854
57	0xbe8c5b84	-0.2741357
58	0xbea4154b	-0.32047495
59	0x3edfce8d	0.43712273
60	0x3e9fd847	0.31219694
61	0xbeb9b2dc	-0.3626927
62	0x3d197076	0.037460767
63	0x3e4d4f62	0.20049813
64	0x3e2e8e47	0.17046462
65	0xbebafd04	-0.3652116
66	0x3d9adb5f	0.07561373
67	0x3d9d4a10	0.07680142
68	0x3e2d8d30	0.1694839
69	0xbefc2053	-0.4924341
70	0x3e02eaf9	0.12784947
71	0xbe8cfae1	-0.27535155
72	0xbe52173b	-0.20516674
73	0x3e347ba3	0.17625289
74	0x3eb14b0e	0.34627575
75	0x3e11bf47	0.14233123
76	0xbe0236eb	-0.12716262
77	0x3eb6b689	0.35686138
78	0xbe922d19	-0.28550032
79	0x3cdc5f4b	0.026900908
80	0xbfdb0104	-1.7109685
81	0x3f4d6e3f	0.8024635
82	0x3f2a5c4d	0.6654709
83	0x4004178f	2.063938
84	0x3eed3173	0.4632679
85	0xbe6519e4	-0.22373158
86	0x3ed7919d	0.42103282
87	0x3e92af9b	0.286496
88	0xbe31eff4	-0.17376691
89	0x3f259e0e	0.646943
90	0xbf4bfd96	-0.79683816
91	0x3e7df31a	0.24799767
92	0x3e00771c	0.12545437
93	0x3eaf118d	0.34193078
94	0x3dca4cc9	0.09877927
95	0xbebe7de0	-0.3720541
96	0xbec4b2b5	-0.38417593
97	0x3f1b2da5	0.60616523
98	0xbd9b3abf	-0.07579564
99	0x3ecc0b50	0.3985238
100	0xbc615065	-0.013752078
101	0x3d6c0950	0.05762607
102	0x3ec5335f	0.38515756
103	0x3e4f5570	0.20247436
104	0xbf0d007e	-0.55078876
105	0xbd949069	-0.072541066
106	0x3d68b45a	0.05681262
107	0x3e99a719	0.30010298
108	0x3eda1430	0.42593527
109	0x3da865eb	0.08222564
110	0x3ea9dd8f	0.33176848
111	0xbe9a81b9	-0.30177096
112	0x3e7bea0c	0.24601
113	0x3eb5f12b	0.3553556
114	0x3ed58281	0.4170113
115	0xbed6830a	-0.4189685
116	0x3b64f1ab	0.0034934084
117	0x3ebe3a65	0.37153926
118	0xbbfc0916	-0.007691513
119	0xbdf5022b	-0.11963304
120	0x3ed72d82	0.42026907
121	0x3ddd8e58	0.108181655
122	0xbde8d626	-0.113689706
123	0xbf11696f	-0.56801504
124	0xbee112a4	-0.43959534
125	0xbdf5e766	-0.120070264
126	0xbea3732a	-0.319238
127	0x3e381487	0.1797658
128	0x3ca0b858	0.019619152
129	0x3e88d85b	0.26727566
130	0xbe90eb84	-0.28304684
131	0x3f172863	0.59046
132	0x3dc67a06	0.09691243
133	0xbf2c4241	-0.67288595
134	0x3d9b3991	0.07579339
135	0x3e04b830	0.12960887
136	0xbed1463a	-0.4087389
137	0xbd65a73c	-0.05606769
138	0xbe47e27d	-0.19519992
139	0x3eaaee1d	0.3338479
140	0x3f061752	0.52379334
141	0x3e8504bc	0.25980175
142	0xbf993b53	-1.1971229
143	0xbdf71920	-0.12065339
144	0xbe8cdf17	-0.27513954
145	0x3e2c0be9	0.16801418
146	0x3eb6b509	0.35684994
147	0xbf05b98b	-0.5223624
148	0xbf2f0b82	-0.68376935
149	0xbec92264	-0.3928405
150	0x3f48488e	0.7823571
151	0x3f3316b0	0.69956493
152	0xbf535e6b	-0.82565945
153	0x3f7cf2fa	0.9880825
154	0xbec6ffae	-0.38866943
155	0xbf0df21e	-0.55447567
156	0x3f9306b1	1.1486417
157	0x3e926e4f	0.28599784
158	0xbf189012	-0.59594834
159	0x3e60d2a7	0.21955357
160	0xbe47c756	-0.19509634
161	0x3e9f0520	0.31058598
162	0x3e9b9c79	0.30392817
163	0xbe9a5cb7	-0.3014886
164	0xbe021ae0	-0.12705564
165	0x3ed39339	0.4132326
166	0xbe56729b	-0.20942156
167	0xbeb429c7	-0.35188124
168	0x3eb23697	0.34807274
169	0xbe94c715	-0.29058138
170	0x3da62cac	0.08113989
171	0xbe0ffa02	-0.14060214
172	0xbec057a6	-0.3756687
173	0xbe6dc3f2	-0.23219278
174	0x3e31c9a7	0.1736208
175	0x3d83490b	0.06410416
176	0xbf0f7bcd	-0.5604828
177	0xbe5d9754	-0.21639758
178	0xbf287346	-0.65800893
179	0x3db9d7b1	0.09074343
180	0x3f4902e2	0.78520024
181	0x3ea39cea	0.31955653
182	0xbf7ade15	-0.9799512
183	0xbf6d7e6b	-0.92771024
184	0x3f95e9b7	1.1711949
185	0xbf278d72	-0.65450203
186	0x3f406a1f	0.7516193
187	0x3f8695ab	1.0514425
188	0xbf90da75	-1.1316668
189	0xbf7f4317	-0.99711746
190	0x3e81c424	0.25344956
191	0x3c802052	0.015640412
192	0x3dedc253	0.1160933
193	0xbec8250f	-0.39090773
194	0x3fb73ac4	1.4314809
195	0x3b19513c	0.0023394367
196	0x3f3739c6	0.7157253
197	0xbd7d06be	-0.061774008
198	0x3f6ca085	0.92432433
199	0x3f8bc952	1.0920813
200	0xbe2b337d	-0.1671886
201	0x3f966160	1.1748466
202	0x3e84f36b	0.25966963
203	0xbe775a93	-0.24155645
204	0x3e8f035d	0.27932253
205	0x3f211415	0.6292127
206	0xbf983aa7	-1.1892899
207	0xbe6d2d05	-0.23161705
208	0x3f1586ca	0.58408797
209	0xbe4ebca2	-0.20189145
210	0xbdebe41e	-0.11518119
211	0xbe1c1c07	-0.15245067
212	0xbf645bab	-0.89202374
213	0x3f178ae1	0.5919629
214	0xbf229cd8	-0.63520575
215	0xbe902bdc	-0.28158462
216	0x3e80a182	0.2512322
217	0xbf00ae3e	-0.5026587
218	0x3dd5f346	0.10446791
219	0xbf0fc8b6	-0.56165636
220	0xbf110e32	-0.56662285
221	0xbed85143	-0.42249498
222	0x3ee66771	0.45000795
223	0x3ed64b22	0.41854197
224	0x3ee16513	0.44022426
225	0x405ad38a	3.4191613
226	0xc0048017	-2.070318
227	0xc00c472d	-2.1918442
228	0x405bdc1d	3.4353096
229	0xc073d59b	-3.8099124
230	0x3f0bcda3	0.5461065
231	0x3fa3a9ea	1.2786229
232	0x3f6db00f	0.9284677
233	0xbe0b3155	-0.13593037
234	0xbead2c1a	-0.3382271
235	0xbf7b8ea2	-0.98264515
236	0x3daea4ea	0.085275486
237	0x3e630d09	0.22172941
238	0xbecc2d02	-0.39878088
239	0xbf806e7e	-1.003372
240	0x3ed6d238	0.4195726
241	0x3e93b7ea	0.28851253
242	0xbe95f4b5	-0.2928826
243	0xbf163c99	-0.58686215
244	0xbf66cdb5	-0.90157634
245	0xbcd9674e	-0.026538517
246	0x3ce54076	0.027984839
247	0xbdb17a8d	-0.08665953
248	0x3e80659a	0.25077516
249	0xbe8e8739	-0.27837542
250	0x3d81b3da	0.06333132
251	0xbecf06db	-0.40434918
252	0xbd5e234e	-0.054232888
253	0xbef11436	-0.47085732
254	0x3e1a20a1	0.1505151
255	0x3f1397a3	0.57653254

gc3.weight f4 [32, 16]
0	0xbe0e5571	-0.13899781
1	0xbcfbce7a	-0.030738104
2	0x3e8edf68	0.2790482
3	0xbdaab69c	-0.08335611
4	0xbd4c67f1	-0.049903814
5	0x3cd36bb7	0.025808198
6	0xbdac49c2	-0.08412506
7	0x3ee96e07	0.45591757
8	0xbf295500	-0.66145325
9	0xbe5cc194	-0.21558219
10	0x3f2b10c5	0.66822463
11	0xbf38a024	-0.72119355
12	0x3c82afa9	0.015952902
13	0xbca89d86	-0.020582926
14	0x3ecd81f4	0.4013821
15	0xbe288731	-0.16457821
16	0xbebb1fcd	-0.365477
17	0xbebb9cf9	-0.36643198
18	0xbf5acda7	-0.8547005
19	0xbee5a52c	-0.4485258
20	0xbe90d7ad	-0.28289548
21	0xbef440ae	-0.47705597
22	0xbe442644	-0.19155222
23	0xbf2e8478	-0.6817088
24	0xbec9ba1a	-0.39399797
25	0xbf25feb4	-0.6484177
26	0x3e7ace7d	0.24492832
27	0xbee131d4	-0.43983328
28	0xbef3bb87	-0.4760401
29	0xbe8b475f	-0.2720289
30	0x3e7b401c	0.24536175
31	0xbeda74b7	-0.4266717
32	0x3d4a926b	0.04945604
33	0xbe6523e9	-0.2237698
34	0xbdacae12	-0.08431639
35	0x3d6a3213	0.05717666
36	0xbec42a55	-0.38313547
37	0xbde9537f	-0.11392879
38	0xbdee4e74	-0.116360575
39	0xbf0101c3	-0.50393313
40	0xbe0820d3	-0.13293771
41	0x3e25579d	0.16146703
42	0xbe7ebb80	-0.24876213
43	0xbe6e0472	-0.23243883
44	0x3da99d60	0.0828197
45	0xbd9b1660	-0.07572627
46	0xbed7fb87	-0.42184088
47	0x3daa780c	0.083236784
48	0x3e5bcacb	0.21464078
49	0x3e6ba473	0.23011951
50	0x3e565381	0.20930292
51	0xbd8567be	-0.06513928
52	0xbe184718	-0.1487087
53	0x3eae0124	0.33985245
54	0xbea2f973	-0.3183094
55	0xbd508b50	-0.05091411
56	0x3dfe755f	0.124247305
57	0xbcfa1bb5	-0.03053079
58	0x3d58ceea	0.052931704
59	0x3e0e5331	0.13898923
60	0xbe91cea9	-0.28477982
61	0xbec4e14a	-0.38453132
62	0x3f1f7829	0.62292725
63	0xbc1c5312	-0.00954129
64	0x3d8c9055	0.06863467
65	0xbf39d771	-0.7259436
66	0xbeb303a7	-0.34963724
67	0x3c8d5b35	0.017255405
68	0x3cdd3675	0.027003506
69	0xbed4e05b	-0.4157742
70	0x3e3d1cd0	0.18468022
71	0xbeabfbb8	-0.33590484
72	0x3da7fdab	0.0820268
73	0xbd5cc70f	-0.053900775
74	0xbf6a584a	-0.9154097
75	0xbe66f58f	-0.2255461
76	0xbe1ea758	-0.15493524
77	0x3e4fb0a0	0.20282221
78	0xbfa185f9	-1.261901
79	0x3be2e59c	0.006924344
80	0x3e4f35b4	0.2023533
81	0xbeb0a978	-0.34504294
82	0x3f1dde57	0.6166739
83	0x3e93bb7f	0.28853986
84	0x3dae644d	0.085152246
85	0xbe7779b1	-0.24167515
86	0xbc5d928b	-0.013523708
87	0x3ee9eddd	0.45689288
88	0x3e5e18ab	0.21689098
89	0x3e8f1c9f	0.27951524
90	0xbf308813	-0.6895763
91	0xbdd30aec	-0.103048176
92	0xbd2b312d	-0.041794945
93	0x3ea1058f	0.31449553
94	0xbe92ca94	-0.2867018
95	0x3e4b6dcd	0.19866104
96	0xbefa8151	-0.48926786
97	0xbe4b7657	-0.19869362
98	0xbce26ff7	-0.02764128
99	0xbe929334	-0.28627932
100	0xbe8a5fe5	-0.27026287
101	0xbef99d56	-0.4875285
102	0x3e072a50	0.13199735
103	0xbec3cdff	-0.382431
104	0xbc5b6685	-0.013391142
105	0x3d5901fb	0.052980404
106	0xbf1ca550	-0.61189747
107	0xbe75628b	-0.23963372
108	0xbd22f507	-0.039784458
109	0xbe8fda54	-0.2809626
110	0xbf758164	-0.9590056
111	0xbde5daa9	-0.11223347
112	0xbea3119b	-0.3184937
113	0xbec58681	-0.3857918
114	0xbe02fd8f	-0.12792037
115	0xbf0ee73a	-0.55821574
116	0xbe193a43	-0.14963631
117	0xbe4a056f	-0.19728635
118	0x3e58b9ed	0.21164675
119	0xbf141bac	-0.57854724
120	0xbf1aa0e1	-0.6040173
121	0x3e52f762	0.20602182
122	0xbf2fd204	-0.68679833
123	0xbf56c9bd	-0.8390158
124	0xbe62f0c9	-0.22162165
125	0xbe119a2d	-0.1421897
126	0x3f51dded	0.81979257
127	0xbea58fec	-0.32336366
128	0xbf9a1a4a	-1.2039273
129	0x3eef8192	0.46778542
130	0xc00d40e6	-2.207086
131	0xbe0c0219	-0.13672675
132	0x3e710e98	0.23540723
133	0x3ecd53ba	0.4010294
134	0xbf6c4fd0	-0.92309284
135	0xc0415faf	-3.021465
136	0xbf28dbb5	-0.65960246
137	0xbed44df6	-0.4146573
138	0x3f236d4e	0.6383866
139	0x3daad417	0.08341234
140	0xbf63ee4f	-0.89035505
141	0xbf4cd328	-0.800097
142	0x3e7eb902	0.24875262
143	0xbf313f43	-0.69237155
144	0x3cfe0556	0.031008404
145	0xbe317693	-0.17330389
146	0x3e26d021	0.16290332
147	0x3d6aa241	0.057283644
148	0xbecc065a	-0.39848596
149	0xbddb8764	-0.10719183
150	0x3e166c2a	0.14689699
151	0x3e207422	0.15669301
152	0x3dd82598	0.105540454
153	0xbd2ef5cb	-0.042714875
154	0xbe46d043	-0.19415383
155	0x3d638c4f	0.05555373
156	0x3e082449	0.13295092
157	0x3e58ea36	0.21183094
158	0x3d8c50e6	0.06851368
159	0x3e294016	0.16528353
160	0x3c8bb537	0.017054183
161	0x3d80b7dc	0.062850684
162	0xbd4442bf	-0.047915217
163	0xbe87cb88	-0.2652247
164	0xbe96474f	-0.2935128
165	0xbf126376	-0.57183015
166	0x3de0a411	0.10968793
167	0xbe834220	-0.25636387
168	0xbdfb941b	-0.12284108
169	0xbeba565d	-0.36394015
170	0xbe96f7bc	-0.2948588
171	0xbd5cb7e4	-0.05388631
172	0x3e0d1973	0.1377924
173	0xbe5cc3e3	-0.215591
174	0xbe3a8b55	-0.18217213
175	0xbcae106a	-0.021248061
176	0x3e3c8b29	0.1841246
177	0x3e94ff10	0.29100847
178	0xbdf01b70	-0.11723983
179	0x3d29cab7	0.04145309
180	0x3f12d1a1	0.5735112
181	0x3eb04dba	0.344343
182	0xbd59a1ed	-0.05313294
183	0xbd9b4e8c	-0.07583341
184	0x3dd4916b	0.10379299
185	0x3e5fec9b	0.21867602
186	0x3e872a42	0.26399428
187	0x3e7a60ee	0.24451038
188	0xbd9a2637	-0.0752682
189	0xbdcc525a	-0.09976645
190	0x3f135347	0.57548946
191	0x3d9f0be0	0.07765937
192	0x3eb4b92e	0.3529753
193	0x3e9c1057	0.30481216
194	0x3fcb02d4	1.5860238
195	0x3e97ba0b	0.29634127
196	0x3c798ca4	0.015231285
197	0x3f3aacd0	0.7291994
198	0x3eac8c0f	0.33700606
199	0x3feb2f17	1.8373746
200	0x3ee17140	0.44031715
201	0x3e7fe9be	0.2499151
202	0xbf627830	-0.8846464
203	0xbcf11cef	-0.029432742
204	0x3ea9206e	0.33032554
205	0x3e73e6c0	0.23818493
206	0x3f6681d6	0.90041864
207	0x3ef5e24f	0.48024222
208	0xbea11c16	-0.3146674
209	0xbed5f41c	-0.41787803
210	0xbc9b69a3	-0.01897127
211	0xbeae30b6	-0.34021538
212	0xbe67922f	-0.22614358
213	0xbece4133	-0.40284118
214	0xbe8ffd3a	-0.28122884
215	0xbec51d77	-0.38499042
216	0xbd5fd97c	-0.05465077
217	0xbe71ebb7	-0.23625074
218	0x3eca1c64	0.39474785
219	0xbebea195	-0.37232652
220	0x3d98684a	0.074417666
221	0xbe84d647	-0.2594473
222	0x3ebfd23b	0.3746508
223	0xbe34d29d	-0.17658468
224	0x3d2ca2d6	0.04214748
225	0xbe18c621	-0.1491933
226	0x3e3effa3	0.18652205
227	0x3eac4ae2	0.3365088
228	0x3e194ec7	0.14971457
229	0x3d825ec1	0.06365729
230	0xbc29971e	-0.010350971
231	0xbe86417c	-0.26221836
232	0xbe56a13c	-0.20959944
233	0xbe2c93a5	-0.16853197
234	0xbe269396	-0.16267237
235	0xbea7a597	-0.32743523
236	0x3d984f6a	0.07437022
237	0xbc3b4dcb	-0.0114321215
238	0x3d5eb928	0.054375798
239	0x3e278dbd	0.16362663
240	0xbe015a35	-0.12632068
241	0xbc14ed56	-0.009089788
242	0xbddd4828	-0.10804778
243	0x3afd5ad9	0.0019329443
244	0x3d813f38	0.06310886
245	0x3e519479	0.20466794
246	0xbd48ed26	-0.049054287
247	0xbe01cd7a	-0.1267604
248	0x3e66bf50	0.22533917
249	0xbd3507ee	-0.044197015
250	0xbd9fec59	-0.078087516
251	0x3df9759e	0.12180637
252	0x3dda3424	0.10654476
253	0x3ea9200f	0.3303227
254	0x3ee51c44	0.44748127
255	0x3da7e587	0.08198076

dc.rk_lgt f4 [1, 16]
0	0xbffa6e8a	-1.9564984
1	0xbf89ca50	-1.0764866
2	0xbfe8df3f	-1.8193129
3	0xbfea9ad9	-1.8328506
4	0xbfd97791	-1.6989614
5	0xbf28e8a2	-0.6597997
6	0xc062e5a3	-3.545266
7	0xbf9773a6	-1.1832168
8	0xbfd921c8	-1.6963434
9	0xc057c1ff	-3.3712156
10	0xbda86acd	-0.08223496
11	0xc0037b86	-2.0544143
12	0xc01edf53	-2.4823806
13	0xc052bd50	-3.2928047
14	0x3d2298e4	0.03969659
15	0xc02b8ac8	-2.6803455
