models/ogbl-collab_CN_2_1_0_run7_sigvae.pt (torch, 160127 bytes, 6 tensors)

z_embedding.weight f4 [1000, 32]
000000 08 93 f6 3f 8d 2a c0 3f c7 aa 6b 3f 09 e7 06 c0
       1.926362 1.5012985 0.9205746 -2.1078513
000010 36 b5 2b 3f 3f fb 95 bf 12 35 c1 bd 68 e6 ca bf
       0.6707338 -1.1717299 -0.094339505 -1.5851564
000020 80 58 38 bf e5 db d1 3f cb bd b7 be fe e8 af bf
       -0.7201004 1.6395231 -0.35886988 -1.3742979
000030 48 13 40 bf 60 35 0f bf 6d 9c 31 bf 59 9a 4b 3f
       -0.7502942 -0.5594082 -0.6937931 0.7953239
000040 29 24 cb 3f b6 3d ed bd 51 e9 e4 be 6d 62 bd 3e
       1.587041 -0.11584036 -0.44709256 0.36989155
000050 e9 a0 40 bf ad b7 84 3f 9c c1 55 3f 83 cc da 3f
       -0.7524553 1.0368553 0.8349855 1.7093662
000060 d6 cf a2 3f 5b 29 9f 3f df cf 19 3f 8b 86 a7 3f
       1.2719676 1.2434496 0.6008281 1.3087934
000070 08 f2 4e be 49 59 07 3d 7b 9b 87 be 5c ac 4f 3f
       -0.20209515 0.033044133 -0.2648581 0.81122375
000080 9e 11 31 c0 d8 b5 2a c0 71 ac 8e bf 01 81 22 40
       -2.7667003 -2.6673489 -1.1146375 2.5391238
000090 c9 83 62 3f f8 a4 18 be ae a5 d3 3f 14 85 c8 bf
       0.8848234 -0.1490668 1.6534936 -1.5665612
0000a0 78 4c 0a c0 65 ef 7b 3f a0 8e 0a c0 ba 23 88 bf
       -2.1609173 0.9841216 -2.1649551 -1.0635903
0000b0 e4 12 0e c0 3c 02 5f 40 0d 74 18 c0 3c 9c 38 bf
       -2.219903 3.4845114 -2.3820832 -0.72113395
0000c0 54 c6 94 bf 34 07 fb bf 1b c9 a9 be 16 7d fd 3f
       -1.1623025 -1.9611573 -0.33161244 1.9803798
0000d0 fe 11 6e bf bb a4 f9 3f 6e 27 17 c0 5d d7 87 bf
       -0.92996204 1.9503397 -2.3617816 -1.0612599
0000e0 b1 c8 66 c0 d4 3e 87 bf 90 d9 01 bf ba f9 e9 3f
       -3.6059992 -1.0566049 -0.507226 1.8279335
0000f0 2f 81 0b 3f d6 23 2b 40 0d cd 01 c0 79 f7 0f 40
       0.54493994 2.6740623 -2.0281403 2.2494795
000100 25 fa b8 3f da 3d 5b 3f f4 f4 0d 40 2d ee 05 3f
       1.4451338 0.85641253 2.2180758 0.5231655
000110 ac 7b b1 3e 41 11 4a be c5 fc 86 bf 5c 95 a3 3f
       0.34664667 -0.19733144 -1.0545889 1.2779956
000120 9c 52 30 be 00 17 06 3f 48 ec 67 3d 7d 43 da 3e
       -0.17219013 0.52378845 0.05662182 0.42629614
000130 88 33 13 3f 08 48 24 bf a2 35 0d c0 a1 34 40 bf
       0.57500505 -0.6417241 -2.2063985 -0.75080305
000140 4d 10 32 3c a3 6f ad be 63 9b ab bf d8 da 15 bf
       0.010868144 -0.33874235 -1.3406795 -0.58537054
000150 a0 43 09 3f ab 4d 06 3f e5 12 92 3f 3c 88 53 3d
       0.5361881 0.5246226 1.1412016 0.051643595
000160 a3 73 3e 3f 3b 92 f6 be e8 54 86 bf 1d 99 1a 3f
       0.743952 -0.4815844 -1.0494661 0.6038988
000170 2a 74 dc bf a9 e8 53 bf 8c d7 aa 3f 76 92 f7 3e
       -1.722295 -0.82776886 1.334703 0.48353928
000180 60 9c 20 c0 46 db f9 3e af da 48 3f 81 ad ea 3c
       -2.5095444 0.48800105 0.78458685 0.028647186
000190 8a 08 24 3f b4 4f 15 3f 0e 91 88 3f 81 7a e6 be
       0.6407553 0.5832474 1.0669267 -0.45015338
0001a0 c2 b6 3d be ce b4 40 3f 6a 3c cf 3e ca bf 36 3e
       -0.18526748 0.75275886 0.4047578 0.17846599
0001b0 38 a2 87 3e 2e f7 a2 3f 49 d1 ab ba f4 71 9b be
       0.2649095 1.2731683 -0.0013108636 -0.30360377
0001c0 ee 7f ba bf 23 95 d1 bd 18 62 19 bf bd 40 f4 3e
       -1.4570291 -0.10233524 -0.59915304 0.4770564
0001d0 c0 e6 39 3f d4 ad ba 3d 8e 33 c7 be 89 25 07 3f
       0.7261772 0.09115186 -0.3890652 0.5279165
0001e0 c1 d6 4f bc cc 9d 76 3e 5a b7 07 3e 46 a5 43 3f
       -0.012685479 0.24083632 0.13253537 0.7642406
0001f0 47 29 8c 3f 30 06 ae 3e ca 4f 38 3f 05 a4 d2 3e
       1.0950097 0.33989096 0.7199675 0.41140762
000200 45 30 f7 3f c1 84 81 3f 2b dc b7 bf 3f 9f 90 bf
       1.9311606 1.0118638 -1.4364065 -1.1298598
000210 a3 4c 0b be 1a 55 d1 3f 17 9d 27 3f 09 75 13 3f
       -0.13603453 1.6354096 0.65474075 0.57600456
000220 ef 1c 92 3f bd 14 98 3c 9f 24 e7 bf 4d e9 6c 3f
       1.141508 0.018564576 -1.8058051 0.9254349
000230 23 2d c0 be 35 3c 84 3f 5b c8 2f bf 38 06 23 3f
       -0.37534437 1.0330874 -0.68665093 0.63681364
000240 28 01 79 bf 7d 5d 75 3f f6 41 cf 3f 95 ad b9 3f
       -0.9726739 0.95845777 1.6192005 1.4506098
000250 7c f9 89 3e cd 6c 57 be f6 98 3b bf 1a 9a d5 3d
       0.26948154 -0.21037598 -0.73280275 0.10429783
000260 95 8f b2 3e 40 b4 77 3f b7 6e ee be ff 69 cd 3f
       0.3487517 0.96759415 -0.46568844 1.6047972
000270 4a ba 1e c0 4b c8 d5 be a1 04 99 bf 50 f5 4f 3f
       -2.4801202 -0.41754374 -1.1954538 0.8123369
000280 54 45 f3 bf f7 0f 6a 3e f3 a5 cb 3c 64 20 b1 be
       -1.9005532 0.22857653 0.024859404 -0.34595025
000290 c0 db 92 3e 7d 18 3b bf 15 04 33 3e e0 05 8c bf
       0.2868328 -0.7308424 0.17482026 -1.0939293
0002a0 97 13 cd bf ba 2b ad 3f 4e f8 a4 3f c7 33 56 3d
       -1.6021603 1.3528969 1.2888277 0.052295472
0002b0 32 ff c5 bf 7d b7 41 3f 72 88 46 3f c2 b2 01 40
       -1.5468504 0.75670606 0.7755195 2.0265355
0002c0 7d b5 12 3d 39 f7 f6 3d fa 3f 4e bf 05 8f 54 be
       0.035817612 0.12058873 -0.8056637 -0.20757683
0002d0 22 94 6e bf c8 a4 cb bf a7 67 91 bf f5 c8 05 bf
       -0.9319478 -1.5909662 -1.1359757 -0.5225976
0002e0 54 ce 04 bf d3 29 c0 bf 9b 9c f6 bf 6f eb 02 3e
       -0.5187733 -1.5012764 -1.9266542 0.12785123
0002f0 d3 ee 82 3f 97 48 0e bf 38 4b 34 3f 6f ba 35 3f
       1.0229133 -0.55579513 0.70427275 0.709876
000300 29 1f e3 3f c4 ea 6b bf 1e 63 76 3f 40 8d ac be
       1.7743884 -0.921551 0.9624499 -0.33701515
000310 55 71 96 bf 42 53 b7 3e 11 21 f5 3e 0b 46 ad 3f
       -1.1753336 0.35805708 0.4787679 1.3537
000320 01 ac 06 3f a1 2b 07 40 57 50 05 bf f4 97 6e bf
       0.5260621 2.112038 -0.52075714 -0.9320061
000330 ef 9a 3d 3e e5 ca 88 3f 85 3c a7 3f 6e 6f eb 3e
       0.18516134 1.0686918 1.3065344 0.45983452
000340 63 8b 50 bf f8 b7 82 bf 9f 66 fd be ce 9d 17 bf
       -0.8146269 -1.0212393 -0.49492356 -0.59225166
000350 00 05 1e 3e 39 ac e1 3e f0 d9 17 be 60 61 14 c0
       0.15431595 0.44076708 -0.1482923 -2.3184433
000360 0b c6 cb be 60 4d 8a 3f 5d f3 e3 bf a2 07 c1 3f
       -0.39799532 1.0804863 -1.7808644 1.5080454
000370 6b 6d 9e 3e 41 14 00 bf fc 7a 84 3f 5b 46 d8 3f
       0.30942854 -0.50030905 1.0350032 1.6896471
000380 1d 9f 93 bb 74 59 d5 3f 40 9d 1d 3e 5f b6 87 bf
       -0.0045050518 1.6667924 0.15392017 -1.060253
000390 b0 99 12 bf b8 25 ab 3d 65 c0 cc 3e 57 9e fe 3f
       -0.5726576 0.08356804 0.39990535 1.9892071
0003a0 30 6e 93 bd cf f5 67 bf 1a 1e 03 c0 07 60 8a bf
       -0.07198751 -0.9060945 -2.0487123 -1.0810555
0003b0 47 5e 90 3c f2 34 a0 3d 4a cb 45 3e b7 c0 d1 3e
       0.01762308 0.078225985 0.1931583 0.40967342
0003c0 7c db 6d bf e4 68 8d 3e bb f3 09 bf 97 d7 ec 3e
       -0.9291303 0.27619088 -0.5388753 0.46258232
0003d0 20 34 5f bf 53 27 de bc a1 dc b4 be aa 5f bb 3f
       -0.8718891 -0.02711836 -0.35324576 1.4638569
0003e0 12 b2 a0 3f 58 07 37 bf 75 9a 5a 3f 64 53 03 3f
       1.2554343 -0.7149558 0.8539193 0.5129912
0003f0 d0 2b 0a 3f f0 c4 10 3f 91 7b 01 3f e4 ca 63 3e
       0.539731 0.565505 0.5057917 0.22245365

gce.weight f4 [32, 32]
000000 f4 61 09 be 12 5c 82 3e bc 73 97 be c2 86 39 3d
       -0.13416272 0.2546087 -0.29580486 0.04529453
000010 96 6c 73 3e e6 3c 44 3e 1d 78 e9 3d f7 b4 95 3e
       0.23771891 0.19163856 0.11399863 0.29239628
000020 bd 29 02 3d a1 7e c2 3e 78 4e 8b 3e f8 f7 74 3e
       0.031778086 0.37987235 0.27208304 0.23922718
000030 e5 a7 ca be d9 5d 2e 3d 80 51 23 3e 21 89 26 3e
       -0.39581218 0.04256997 0.15949059 0.16263248
000040 9e 79 f9 3d 5c 5c bc be bc 19 c1 bd e6 5e b3 bd
       0.121814 -0.36789215 -0.094287366 -0.08758335
000050 57 57 51 be 42 1e 44 3e 38 ee 7f 3e 3b f4 94 3d
       -0.20443474 0.19152167 0.24993217 0.07273146
000060 78 ea 3e be 11 aa ec 3d 7b e1 c8 3a 52 dc a1 be
       -0.1864413 0.11555875 0.0015325987 -0.31613404
000070 f8 12 27 be 29 e3 d3 3d c7 10 a8 3c ff 5b a5 bc
       -0.1631583 0.10346062 0.020515813 -0.020185469
000080 ce df 73 3e 48 5a f0 bd 49 45 97 3d 6f 9c 7c be
       0.23815843 -0.1173597 0.07386262 -0.2466905
000090 36 04 ac bd 9f 97 c6 3d 6b 50 9c 3e 4e b6 92 3e
       -0.08399241 0.09696888 0.30530104 0.28654712
0000a0 01 c2 d0 bb 08 95 4f be 8b 06 01 be 21 0a fa bc
       -0.0063707833 -0.20271695 -0.12600152 -0.030522408
0000b0 af 3b 15 be 48 d0 52 be 30 ff 05 3f 9e 4c 90 3e
       -0.14573549 -0.20587265 0.5234251 0.28183454
0000c0 76 e9 82 be ad f5 76 be 36 9a 87 3d 2a d4 88 3e
       -0.25568742 -0.24117155 0.0662121 0.26724368
0000d0 ff 42 58 3e ec 3b 94 be 8a ff a5 3e 7b dd 70 3e
       0.21119307 -0.28951967 0.32421523 0.23521988
0000e0 e8 65 4a 3e bc 8d 05 bc fa 05 38 be e3 ff 09 be
       0.19765437 -0.008151468 -0.1797103 -0.1347652
0000f0 f5 be 50 3e 8a d1 60 3e 57 7c 86 3e 8d 09 f4 bd
       0.20385344 0.21954933 0.2626674 -0.11915884
000100 75 d5 71 3e 06 6c 74 3e c8 72 41 3e 9f 00 b8 be
       0.23616584 0.23869333 0.18891442 -0.35937974
000110 e8 de c2 be b1 1b b6 3e 7c 29 d0 bc fb 25 7d 3d
       -0.3806069 0.35568002 -0.025410406 0.0618038
000120 21 e4 53 3e 62 11 4b 3e 4f 8e 3b 3d a1 77 38 bd
       0.20692493 0.1983085 0.045790013 -0.045035962
000130 ee b3 60 3b 8b a6 42 be ff 24 ec 3e 1b fc 98 3e
       0.0034286934 -0.19008844 0.46121976 0.2987984
000140 c0 ae 53 be da 9c 50 be 3f 1d 57 be 37 b2 b9 3e
       -0.2067213 -0.20372334 -0.2100725 0.3626878
000150 81 f3 8b be ab 43 16 bd de 3e be 3e a8 a0 ee 3c
       -0.27334216 -0.036685627 0.3715734 0.029129341
000160 e5 45 0a be 40 76 a7 bc 13 5e 08 3e 25 c8 f3 bd
       -0.13503225 -0.020442128 0.13317136 -0.11903409
000170 f1 80 de be 69 c9 02 be 11 c0 4b 3e 64 64 02 3d
       -0.4345775 -0.12772144 0.19897486 0.03183402
000180 bd 3c c6 be ba 67 e9 3d 53 9a f9 3c 7e 31 50 3e
       -0.38718215 0.113967374 0.030469095 0.2033138
000190 b8 f9 fc 3e 97 9f 7d be ca 42 eb 3d 20 55 0f bd
       0.4940927 -0.2476791 0.114873484 -0.03499329
0001a0 3e 90 ab 3e d3 a8 7f 3e cd 9e 12 3e bd c6 bd be
       0.33508486 0.24966745 0.1431839 -0.37065688
0001b0 27 64 3f bd 3e 6b f9 bc 5a 76 d1 be 41 28 89 3e
       -0.046726372 -0.030446645 -0.40910608 0.26788524
0001c0 3e 02 4d 3d 10 8a bc 3e b8 7b 26 bd 68 12 ac 3d
       0.050050966 0.36824083 -0.04064533 0.08401948
0001d0 56 e3 d0 be 27 46 ba bc 6f 07 3e bc 05 2c 81 be
       -0.40798444 -0.02273853 -0.011598452 -0.25228897
0001e0 4d 17 04 3e b8 3c db bd 20 45 d5 3d 22 cc a5 be
       0.12899514 -0.107049406 0.10413575 -0.32382303
0001f0 ac 5d a4 bd d8 da 6f be e3 25 f6 bd 17 7f 84 ba
       -0.08025679 -0.23423326 -0.12018945 -0.0010108677
000200 6d 06 4a 3d 14 df 62 be da bb 3e be 5f f4 a8 3e
       0.049322534 -0.2215541 -0.18626347 0.3299894
000210 8e 81 c9 3e b6 d2 36 bd a8 32 62 be ae 67 6d 3d
       0.39356655 -0.044634543 -0.22089636 0.057960205
000220 17 9f 34 3e 56 2b ca 3d 84 9f 88 be f9 8f a1 be
       0.17638813 0.09871547 -0.266842 -0.31555155
000230 18 39 39 3d 5e 66 9c bd b9 6f ed bd 20 91 1a 3e
       0.045220464 -0.076367125 -0.11593575 0.15094423
000240 21 f1 96 3e ff 41 fe 3e 6a 1c 4e be 39 e3 31 3e
       0.29480842 0.49659726 -0.20128027 0.17371835
000250 22 ef 72 be 62 f8 86 3e 4b 9c 3c be 44 31 38 bd
       -0.23724034 0.26361376 -0.18418996 -0.04496886
000260 b7 c7 40 3e cf f2 94 3c e3 d7 3e 3d 07 53 70 be
       0.18826185 0.018182186 0.046592604 -0.23469172
000270 cc 1a 96 bd 77 f8 06 be 29 bc bf 3e f7 7b 3d 3e
       -0.0732933 -0.1318072 0.37448242 0.1850432
000280 55 95 13 3e ae 26 96 be d9 ac dc bd 97 62 90 3e
       0.14412434 -0.29326385 -0.107751556 0.28200218
000290 8b e3 97 3c 7a 63 aa be 0a 3a 79 3d 29 c9 82 3e
       0.018541118 -0.3327902 0.060846366 0.25544098
0002a0 dc ee 55 3e ba e1 92 3e ee c0 98 bd db a2 9b 3e
       0.20891899 0.2868784 -0.074586734 0.30397686
0002b0 ea f2 12 bd 13 79 ab bd 59 ac dc 3e 64 be f0 3d
       -0.035876192 -0.083727024 0.4310024 0.11755064
0002c0 37 6b eb bd a4 c7 77 3e 35 b1 11 be a6 7c 8f 3d
       -0.11495059 0.2419725 -0.14227755 0.07006197
0002d0 94 55 60 be d0 a3 c5 bc dd 3e 3e bc 49 16 a8 bd
       -0.21907645 -0.024125963 -0.011611667 -0.082073756
0002e0 c6 d2 3a 3e 0f 22 59 3d 95 c4 8d bc 1f fb 35 3e
       0.18244466 0.053010996 -0.017305652 0.17771576
0002f0 88 b2 8e be ec ac 1d 3e 46 0f 87 3e 8a 27 be bd
       -0.27870584 0.15397996 0.2637884 -0.09284885
000300 94 18 fb bd 07 94 8a 3d d3 bc af be 9c 84 ca 3e
       -0.12260547 0.06766515 -0.3432375 0.39554298
000310 18 fe b1 3e 2d ca 4f be 93 7a 96 bd af 7a e1 be
       0.3476417 -0.20291968 -0.07347598 -0.44038913
000320 b2 c4 9c be 01 dd 1e 3e 7a 25 02 be 9f 86 cd 3c
       -0.30618817 0.15513994 -0.12709609 0.025088606
000330 24 fd 64 3e 17 60 1d 3e ef 1a 72 bd 75 90 7f be
       0.2236219 0.15368687 -0.059107717 -0.2495745
000340 4b 3e 00 be 27 85 0f 3f 95 0e c5 be a2 76 9b 3e
       -0.12523763 0.5606255 -0.38487688 0.30363947
000350 44 65 b0 3e 6f bb 3a be dd 9e 5c bd 13 38 97 be
       0.3445226 -0.18235563 -0.05386244 -0.2953497
000360 2d ea 8b 3e d1 4d 65 3d 21 c2 a4 3d 98 44 58 bd
       0.273271 0.055982415 0.0804484 -0.05279979
000370 8e 94 c0 3e 1f 4b b0 3c 4b 0d ab 3e 23 9f 70 bb
       0.37613338 0.021520196 0.3340858 -0.0036715947
000380 49 77 83 3d 00 c1 0d 3e c9 a6 24 bd db 9a 77 3d
       0.06419236 0.13843155 -0.04019812 0.060450416
000390 20 59 91 be a9 46 f4 bd 18 45 11 3c 0f 27 be be
       -0.2838831 -0.1192754 0.008866571 -0.37139174
0003a0 dc 62 56 3e 83 4e 78 3e 10 25 a1 bd de ff 43 3e
       0.2093615 0.242487 -0.07868397 0.19140574
0003b0 b3 5d dd be 9d bf 9e be 1d cd cf 3e 71 d6 08 3e
       -0.4323555 -0.31005564 0.40586177 0.13363053
0003c0 16 63 5f 3d fd 52 22 be cb 83 97 3e 3b aa 17 3e
       0.054537855 -0.1585197 0.29592738 0.14811032
0003d0 59 6b 02 3d 61 3b 84 3e 4c 99 a9 bd 05 7f b8 be
       0.031840656 0.25826553 -0.08281192 -0.36034408
0003e0 d6 50 62 3e f3 b9 37 3e 8f 38 39 bc a0 0c b9 3d
       0.22101149 0.17942028 -0.0113049885 0.09035611
0003f0 46 a0 28 bd b4 1f 58 3d 5c cc cc bd 4b 59 3e 3e
       -0.041168474 0.05276461 -0.09999916 0.1858875

gc1.weight f4 [160, 32]
000000 58 5b f9 bc 7f b7 85 bd ea 3d ac 3d 74 96 89 bd
       -0.030439064 -0.0652914 0.08410247 -0.0671815
000010 64 d1 cd bd 7d 8a fb 3c 50 f6 d4 bc 83 67 55 be
       -0.10049704 0.030705685 -0.025996357 -0.20840268
000020 58 bf c8 be a3 bc 02 3e b5 3f 91 3d ef 21 27 3b
       -0.39208484 0.12767272 0.07092229 0.0025502404
000030 ad 08 92 bd 38 52 cc bd 00 72 a4 3c b5 b0 27 be
       -0.07130561 -0.099766195 0.02007389 -0.16376002
000040 89 3c 59 be f2 21 9d 3c 5b 97 96 bc 87 df 62 be
       -0.21214499 0.019181225 -0.018382719 -0.22155581
000050 20 ce 3d 3e 29 8f d2 bd 2b 3f 44 3d ea 62 a2 bd
       0.18535662 -0.10281212 0.047911804 -0.079290226
000060 b9 e8 96 3e 2a 20 84 be a6 81 e1 3c a4 36 90 3d
       0.29474428 -0.2580579 0.027527642 0.07041672
000070 58 ed 5d be 07 f5 12 bd f0 18 7e be 91 1a 25 bc
       -0.2167257 -0.035878208 -0.248142 -0.010077135
000080 de 88 42 3e b9 36 97 3b b2 3e 5f be ed 80 8a 3d
       0.18997523 0.0046146777 -0.2180126 0.06762872
000090 11 ab c6 3c e0 42 48 3c 39 da 70 be 9a af 8a 3e
       0.024251493 0.0122229755 -0.23520745 0.27087098
0000a0 71 2c 29 3f 5e dd 4f 3e d9 d1 ed 3b a2 f4 80 3c
       0.6608344 0.20299289 0.007257682 0.01574165
0000b0 ed 6e ac bd 16 70 28 3e 28 76 45 bd 4e 25 ba bd
       -0.08419595 0.16449007 -0.048208386 -0.090891466
0000c0 4e 1d 4e 3e 52 c4 ae bd 9d 64 a9 bd 04 d4 2b 3e
       0.20128366 -0.08533539 -0.082711436 0.16780096
0000d0 cf ff af be 2d 47 ad 3e 74 35 ca be 4f 65 ff 3e
       -0.34374854 0.33843365 -0.39493906 0.4988198
0000e0 65 ad 35 3c 67 41 d7 bd d5 68 2f 3d 2c 13 4c 3e
       0.011088704 -0.105105214 0.042824585 0.19929188
0000f0 f3 c5 29 be c0 11 6d 3e cd b3 9d 3e 50 46 43 bf
       -0.16579418 0.23151302 0.3080124 -0.76279163
000100 a7 9b 0b 3e e0 50 22 be 25 1e 5c 3c 50 3e eb 3d
       0.13633595 -0.15851164 0.013434921 0.114864945
000110 0f 28 a7 3d 37 bc 8b bd de 25 8b 3e f4 76 80 be
       0.081619374 -0.068230085 0.27177328 -0.25090754
000120 f5 95 ab bc bf 69 22 be 31 f1 d6 bc 35 e7 6b be
       -0.020945529 -0.15860651 -0.026238056 -0.23037417
000130 8c 47 a6 3d f0 93 97 bd 2f 16 20 be 9f 89 88 bd
       0.08119115 -0.07401264 -0.15633462 -0.06666874
000140 05 ff 34 bd 7f d9 97 3d 91 41 38 3d e4 c4 16 3e
       -0.044188518 0.07414531 0.044984404 0.14723545
000150 10 69 49 bd 78 48 07 3e d2 a1 2f be bd 50 90 be
       -0.04917246 0.13211238 -0.17151573 -0.28186598
000160 e1 8f 35 3e 2d f0 5a be e4 58 be bd ee 3f 18 3d
       0.17730667 -0.21380682 -0.09294298 0.037170343
000170 7f 38 32 bd 2d 68 b4 3d ce 3a 89 bd 57 8b c4 3d
       -0.04351091 0.088089325 -0.06700669 0.095968895
000180 c8 98 d4 be 32 52 30 bd ee 93 4d be b4 7d f6 3d
       -0.41522813 -0.043047138 -0.20075962 0.12035695
000190 b0 74 93 bd bf 77 be 3d b2 ef 6c be 8e 75 59 3e
       -0.07199991 0.093001835 -0.23138312 0.2123625
0001a0 63 28 bb 3e c4 8d 82 bc 49 85 04 3c d9 75 f8 bd
       0.3655425 -0.01593674 0.008088418 -0.12131853
0001b0 27 de a7 be 85 d3 02 bd e0 f6 51 3d 60 32 0b 3d
       -0.32786676 -0.031940002 0.05126083 0.03398359
0001c0 8e 28 98 3d e9 89 a5 bd ba 6d 77 be a0 9b 32 be
       0.0742961 -0.08082945 -0.24162951 -0.17442179
0001d0 27 db c1 bd 1e 47 87 3c 04 4c 58 be dd 10 40 3e
       -0.09465628 0.016513404 -0.21122748 0.18756433
0001e0 9e d5 f9 bd c4 e4 f4 be 7d 53 bb bc f9 65 83 3e
       -0.12198947 -0.47830784 -0.022866959 0.25663736
0001f0 22 78 0c be 2b d8 e8 3d ea c6 4d 3e 0a 65 de be
       -0.13717702 0.11369356 0.20095411 -0.43436462
000200 4d f5 18 3c a4 94 97 3d 95 58 4c 3e 40 b2 79 bc
       0.009335828 0.07401398 0.19955666 -0.015240252
000210 82 ad 00 be 35 a5 22 bd a3 d2 e2 3c ba 82 ae 3d
       -0.12566188 -0.039708335 0.02768833 0.08521028
000220 b4 1c 75 bd af e0 1a 3e 00 f4 5e 3e af 54 ad 3e
       -0.059841827 0.15124772 0.21772766 0.3385367
000230 33 a9 e6 bd 4f a3 2e bd 69 eb 33 bd b6 d3 91 3e
       -0.11262741 -0.042636212 -0.043925676 0.28481835
000240 07 f1 c3 3d 53 62 ba 3d 8b ea c1 be 80 d2 a0 3d
       0.09567457 0.09100785 -0.37874255 0.0785265
000250 43 28 9e 3e 5b 52 77 bd fd 4e 94 bd e6 88 20 be
       0.30890092 -0.060381275 -0.07241628 -0.15677223
000260 79 a9 9f bd 8f cc ff 3d 36 bd 81 3e d8 96 ed bc
       -0.07795996 0.12490188 0.2533967 -0.029002592
000270 a9 e1 c3 3d 1a 92 24 3e 9c 76 78 be 25 18 fb bd
       0.09564526 0.16071358 -0.24263996 -0.122604646
000280 1f bf 8f 3d ba fe f0 be 5b d7 27 bc c9 80 0c 3d
       0.07018875 -0.4706934 -0.010244216 0.034302507
000290 a7 8c ac 3d fb a4 43 be d9 f7 fa bd 09 93 ff 3e
       0.08425265 -0.19105904 -0.122543044 0.49916866
0002a0 7b 68 28 3d 90 0c 59 be d3 1c b5 3d 0d 55 02 bf
       0.041115265 -0.21196198 0.088433884 -0.5091103
0002b0 98 09 26 bc 44 88 e2 3d 47 cf e8 bd 0f 22 23 3e
       -0.010134123 0.11061147 -0.1136766 0.15930961
0002c0 4e 47 8f 3e 57 1b 80 bc 12 33 26 3e 22 8b b3 bd
       0.2798409 -0.015638037 0.1623042 -0.08766772
0002d0 6e f1 76 be f4 11 d7 3d 59 2e 06 bd b9 76 8f 3e
       -0.24115536 0.10501471 -0.032759044 0.28020266
0002e0 9c 28 f5 bd 1b 29 13 bf 84 8f b0 be 2c 87 cf be
       -0.11970636 -0.57484597 -0.34484494 -0.40532815
0002f0 6b 1b fe be 37 67 51 3c 78 30 6a 3e 7e 0f 67 be
       -0.49630293 0.012780956 0.22870052 -0.22564504
000300 41 71 df 3c 63 11 50 3d 9d e0 03 3e 83 45 33 bc
       0.027275683 0.05079783 0.12878652 -0.010941866
000310 b8 77 32 3c eb 5b b7 3d e9 b7 cc 3c dd 02 d0 3d
       0.010892801 0.08953079 0.024990039 0.10156796
000320 4e 90 91 bd 0d 1b 4e 3d 41 c5 1a be 81 46 d9 3d
       -0.07107602 0.050318766 -0.15114309 0.10609151
000330 67 a3 7c 3c 1f ac 18 bd 63 4f 2d 3e e5 41 91 3d
       0.0154198175 -0.037273522 0.16924815 0.070926465
000340 33 00 1f bc 4e 82 1d bd 47 25 18 3e 86 60 28 bb
       -0.009704637 -0.038454346 0.1485797 -0.0025692298
000350 4e dc eb bc 6b 57 79 bc bc 4a 7b bd a0 4c e2 bd
       -0.028791573 -0.015218596 -0.06135057 -0.11049771
000360 5b b6 0a 3d 4d e7 c9 bd 8c d5 87 bd 38 6f 9e 3d
       0.033865314 -0.0985857 -0.06632528 0.07736057
000370 ec 77 2c be 26 a3 a2 bd 6a d5 fd bd 0e cc 1b 3d
       -0.16842622 -0.07941274 -0.12394221 0.0380364
000380 c4 e3 91 bd 1f e3 1e be 54 c6 88 3e 3d 4b b6 bc
       -0.07123521 -0.15516327 0.26713812 -0.022252673
000390 aa 85 d9 3d af 73 70 3e ea 6e 41 3e 1a d1 b2 bc
       0.106211975 0.2348163 0.18889967 -0.021828223
0003a0 34 01 fa bd 0c 9f 26 bd f1 49 ff 3c 10 13 e9 3d
       -0.12207261 -0.040679023 0.031163188 0.11380589
0003b0 2a 30 27 be 6f a6 67 3d bb 81 f0 bd 36 19 a2 3d
       -0.16326967 0.056555208 -0.11743494 0.07914965
0003c0 eb 93 22 be 22 62 41 3d 2a 01 17 bd e5 38 c8 bd
       -0.15876739 0.047212727 -0.036866345 -0.09776477
0003d0 86 7c a1 bd 93 52 73 bd 0f f6 10 3d 8f 6b ea 3d
       -0.07885079 -0.05940492 0.03539091 0.114462964
0003e0 50 7b 0b 3e e2 52 b9 bc cc aa ae bd 20 bb 8d 3e
       0.13621259 -0.02262253 -0.08528671 0.27681828
0003f0 b3 a9 42 be 4c d2 06 bd 01 12 08 bd 2d 7b 92 3b
       -0.19010048 -0.0329154 -0.033220295 0.00447025

gc2.weight f4 [32, 16]
000000 76 91 12 bf 2d 37 99 3d 8d 8e 64 3e c4 05 b3 3d
       -0.57253206 0.07481227 0.22320004 0.08741334
000010 38 ab 33 3f c7 c7 c2 3e 82 0f 0c 3f d1 0a 8f be
       0.70183134 0.38043043 0.54711163 -0.2793794
000020 71 c4 7d 3f d1 41 33 bd e3 c1 f4 3e aa 3e b0 bf
       0.9912787 -0.04376394 0.47804174 -1.3769124
000030 f7 e9 2c be f6 90 d2 3d d2 3a 6a 3e 02 ae c4 3e
       -0.16886126 0.10281555 0.22874 0.38414007
000040 6e 3b 8a 3f 82 92 ca 3e 5f e1 27 bf 7f 70 17 3a
       1.0799387 0.39564902 -0.65578264 0.0005776956
000050 83 62 45 3d 78 74 26 3f 14 3e 10 3e 08 de 12 bd
       0.04818965 0.6502147 0.14086181 -0.035856277
000060 7d 8a 71 bf be 31 09 bc 92 ab 46 3f 2c 93 84 be
       -0.9435194 -0.008373676 0.77605546 -0.25893533
000070 0b 0f 2a 3e cc dd 1b 3f 7f c9 94 bf 76 ec f9 bc
       0.16607301 0.6088531 -1.1623992 -0.030508261
000080 4e 48 b1 3e 3d f5 89 bd 64 74 84 be 43 d4 12 be
       0.34625477 -0.067362286 -0.2587005 -0.14338784
000090 86 65 36 be 2d 50 2f 3d e5 fc 4e 3d 79 44 89 3d
       -0.17812166 0.04280107 0.050534148 0.06702513
0000a0 89 b6 39 be 8c 6f 90 bd 9a d7 b5 3e 3c 40 4b 3e
       -0.18136038 -0.07052526 0.35516053 0.19848722
0000b0 90 0b 3c 3e 40 a8 92 be ce 91 af 3e 91 7c bb 3e
       0.18363786 -0.2864399 0.34290928 0.36618474
0000c0 1f 13 a8 be 8d be 4b bf 37 0c 49 3e a7 dc cc be
       -0.32827088 -0.7958763 0.19633566 -0.40012094
0000d0 c2 28 db 3d b0 6c 75 be b1 22 c5 3e 79 3f 67 be
       0.10701133 -0.23967242 0.3850303 -0.22582807
0000e0 d9 61 d1 3d e5 5b 8c be aa 11 a4 be 9b cd df 3e
       0.10223741 -0.2741386 -0.32044727 0.43711552
0000f0 b6 dd 9f 3e 35 b1 b9 be 7f 55 19 3d fa 4f 4d 3e
       0.3122384 -0.3626801 0.03743505 0.2005004
000100 b0 83 2e 3e 9a fd ba be 3c ec 9a 3d 29 54 9d 3d
       0.17042422 -0.36521608 0.075645894 0.07682068
000110 24 90 2d 3e 6a 1f fc be 12 eb 02 3e bd f7 8c be
       0.16949517 -0.49242717 0.12784985 -0.2753276
000120 d0 17 52 be 44 7a 34 3e b3 4b b1 3e 6b c3 11 3e
       -0.20516896 0.17624766 0.34628066 0.14234702
000130 71 34 02 be 48 b7 b6 3e 28 2c 92 be ed 64 dc 3c
       -0.12715317 0.35686707 -0.28549314 0.026903594
000140 bd 00 db bf 6d 71 4d 3f f6 5c 2a 3f 47 17 04 40
       -1.71096 0.802512 0.665481 2.0639207
000150 17 35 ed 3e 99 1d 65 be 34 92 d7 3e 9b ac 92 3e
       0.46329567 -0.22374572 0.42103732 0.28647313
000160 02 fb 31 be 0b 9e 25 3f d2 fb 4b bf d6 f6 7d 3e
       -0.17380908 0.6469428 -0.7968112 0.24801192
000170 20 82 00 3e 6b 11 af 3e c9 4f ca 3d de 7a be be
       0.12549639 0.34192976 0.09878499 -0.37203115
000180 81 b7 c4 be a6 2e 1b 3f c2 2c 9b bd fc 0d cc 3e
       -0.38421252 0.60618055 -0.07576896 0.3985442
000190 0c 26 61 bc 16 11 6c 3d 86 33 c5 3e db 5a 4f 3e
       -0.013741981 0.057633482 0.38515872 0.20249502
0001a0 50 00 0d bf 36 94 94 bd e4 bc 68 3d af a8 99 3e
       -0.550786 -0.072548315 0.056820765 0.30011508
0001b0 43 14 da 3e 4d 6f a8 3d 30 de a9 3e 7a 80 9a be
       0.42593583 0.08224354 0.33177328 -0.30176145
0001c0 a9 df 7b 3e b8 f4 b5 3e e7 84 d5 3e e6 7e d6 be
       0.24597038 0.35538268 0.4170296 -0.4189369
0001d0 8f 98 67 3b fe 37 be 3e 39 88 fb bb bb f3 f4 bd
       0.0035338735 0.37152094 -0.007676151 -0.119605504
0001e0 f7 28 d7 3e 50 97 dd 3d 58 d0 e8 bd 83 67 11 bf
       0.4202344 0.10819876 -0.113678634 -0.5679857
0001f0 35 0d e1 be 43 df f5 bd b7 70 a3 be c6 0b 38 3e
       -0.4395539 -0.120054744 -0.31921932 0.17973241
000200 2f 3d a0 3c 9a df 88 3e a6 e6 90 be d3 2c 17 3f
       0.019560425 0.26733094 -0.2830097 0.5905277
000210 a7 67 c6 3d dd 40 2c bf 3f 4f 9b 3d af c1 04 3e
       0.09687739 -0.67286474 0.07583474 0.1296451
000220 75 48 d1 be 80 8c 65 bd ae e9 47 be ca f4 aa 3e
       -0.40875593 -0.056042194 -0.19522735 0.33389884
000230 2b 1c 06 3f a8 09 85 3e 1b 3b 99 bf fa 2b f7 bd
       0.5238673 0.2598393 -1.1971163 -0.12068935
000240 11 df 8c be fc 11 2c 3e 4b b7 b6 3e 60 ba 05 bf
       -0.27513936 0.16803735 0.35686716 -0.5223751
000250 b7 09 2f bf d3 25 c9 be 79 49 48 3f 9a 15 33 3f
       -0.683742 -0.3928667 0.7823711 0.69954836
000260 36 61 53 bf 99 f4 7c 3f 2b fc c6 be b0 f2 0d bf
       -0.8257021 0.98810726 -0.38864264 -0.55448437
000270 24 08 93 3f 68 72 92 3e 32 8e 18 bf 38 d9 60 3e
       1.1486859 0.2860291 -0.5959197 0.21957862
000280 15 d0 47 be c3 05 9f 3e ff 9d 9b 3e 40 5a 9a be
       -0.19512971 0.31059083 0.3039398 -0.3014698
000290 1a 15 02 be be 91 d3 3e 7b 72 56 be d0 2c b4 be
       -0.12703362 0.4132213 -0.20942108 -0.3519044
0002a0 55 32 b2 3e c0 c8 94 be d9 34 a6 3d 4b f2 0f be
       0.34804025 -0.2905941 0.08115549 -0.14057271
0002b0 45 53 c0 be 37 c5 6d be 0c cd 31 3e ee 44 83 3d
       -0.3756353 -0.23219763 0.17363375 0.06409632
0002c0 50 7b 0f bf 38 92 5d be 0b 72 28 bf f5 d1 b9 3d
       -0.56047535 -0.2163781 -0.65799016 0.09073249
0002d0 d4 04 49 3f 35 99 a3 3e 9b db 7a bf 71 7f 6d bf
       0.7852299 0.31952825 -0.9799134 -0.92772585
0002e0 a0 e8 95 3f 62 8b 27 bf 7d 6a 40 3f 8f 95 86 3f
       1.1711617 -0.65447056 0.7516249 1.0514392
0002f0 59 d9 90 bf 16 41 7f bf fb c6 81 3e f1 4a 80 3c
       -1.1316329 -0.9970869 0.25347123 0.015660735
000300 b9 b9 ed 3d 34 23 c8 be 72 3a b7 3f f0 af 18 3b
       0.116076894 -0.39089358 1.4314711 0.0023298226
000310 6b 37 37 3f 43 ef 7c bd e3 a0 6c 3f ab c9 8b 3f
       0.71568936 -0.061751615 0.92432994 1.0920919
000320 bc 35 2b be f8 60 96 3f a4 f2 84 3e 78 59 77 be
       -0.16719717 1.1748343 0.2596637 -0.24155223
000330 af 05 8f 3e 89 14 21 3f 9f 3a 98 bf 27 26 6d be
       0.27934024 0.6292196 -1.189289 -0.23159085
000340 d7 86 15 3f bc ba 4e be c9 de eb bd 33 1d 1c be
       0.58408874 -0.20188421 -0.11517102 -0.15245514
000350 05 5a 64 bf c2 89 17 3f b3 9c 22 bf 55 2f 90 be
       -0.8919986 0.59194577 -0.63520354 -0.2816111
000360 1b 9c 80 3e d1 ae 00 bf a1 ff d5 3d aa c7 0f bf
       0.251191 -0.5026675 0.10449148 -0.5616404
000370 b8 0b 11 bf fe 4f d8 be c7 65 e6 3e 02 4a d6 3e
       -0.56658506 -0.4224853 0.44999525 0.41853338
000380 c4 61 e1 3e 1b d3 5a 40 bc 7f 04 c0 e5 46 0c c0
       0.44019902 3.4191349 -2.0702963 -2.191827
000390 ae db 5b 40 5d d5 73 c0 27 cd 0b 3f fe a8 a3 3f
       3.4352832 -3.8098977 0.5460991 1.2785947
0003a0 85 ae 6d 3f 3b 35 0b be ab 2a ad be e7 8c 7b bf
       0.9284442 -0.13594525 -0.33821616 -0.98261875
0003b0 8f b1 ae 3d b3 09 63 3e 67 2b cc be 7e 6e 80 bf
       0.0852996 0.22171669 -0.39876863 -1.003372
0003c0 3e ce d6 3e dd b9 93 3e 00 f3 95 be 96 3b 16 bf
       0.41954225 0.2885274 -0.29286957 -0.5868467
0003d0 2d cc 66 bf 36 82 d9 bc 37 41 e5 3c 11 8c b1 bd
       -0.901553 -0.026551347 0.027985198 -0.08669294
0003e0 a6 60 80 3e d6 89 8e be 43 bd 81 3d eb 02 cf be
       0.25073737 -0.27839535 0.06334927 -0.40431914
0003f0 64 fc 5d bd ff 13 f1 be ad 24 1a 3e 7d 96 13 3f
       -0.054195777 -0.47085568 0.15053053 0.576515

gc3.weight f4 [32, 16]
000000 2f 50 0e be 36 aa fb bc bf e0 8e 3e be ac aa bd
       -0.13897775 -0.030720811 0.27905843 -0.08333729
000010 29 55 4c bd 98 90 d3 3c 2b 4a ac bd eb 6f e9 3e
       -0.049885903 0.025825784 -0.08412584 0.455932
000020 9c 53 29 bf 1e c3 5c be 14 12 2b 3f df 9e 38 bf
       -0.661432 -0.21558806 0.6682446 -0.7211742
000030 83 c6 82 3c 1a 90 a8 bc 22 83 cd 3e ca 84 28 be
       0.015963798 -0.020576525 0.4013911 -0.16456905
000040 34 1c bb be 01 9a bb be 5c cc 5a bf 19 a2 e5 be
       -0.36544955 -0.36640933 -0.8546808 -0.44850233
000050 d9 d4 90 be e7 3d f4 be d7 1c 44 be 32 83 2e bf
       -0.2828739 -0.47703478 -0.19151627 -0.6816894
000060 b1 b6 c9 be 66 fd 25 bf 08 d4 7a 3e 33 2e e1 be
       -0.39397195 -0.6483978 0.24494946 -0.4398056
000070 20 b9 f3 be 3c 45 8b be b7 44 7b 3e d9 71 da be
       -0.47602177 -0.2720126 0.24537931 -0.42664984
000080 b0 99 4a 3d 26 22 65 be 48 ab ac bd 07 39 6a 3d
       0.049462974 -0.22376308 -0.08431107 0.05718329
000090 7f 29 c4 be fc 4f e9 bd 70 4a ee bd 7a 01 01 bf
       -0.3831291 -0.11392209 -0.116352916 -0.5039288
0000a0 f1 1e 08 be 64 58 25 3e c4 b9 7e be 8f 02 6e be
       -0.13293053 0.16147 -0.24875551 -0.23243164
0000b0 bf 9f a9 3d 55 14 9b bd f2 fa d7 be b0 7a aa 3d
       0.08282422 -0.075722374 -0.42183644 0.08324182
0000c0 72 cf 5b 3e a1 a8 6b 3e 24 57 56 3e 69 5f 85 bd
       0.21465853 0.23013546 0.20931679 -0.06512339
0000d0 06 43 18 be 33 03 ae 3e d1 f7 a2 be 40 7c 50 bd
       -0.14869317 0.33986816 -0.31829694 -0.050899744
0000e0 80 7e fe 3d b2 0b fa bc 94 df 58 3d ee 57 0e 3e
       0.12426472 -0.030523155 0.052947596 0.1390073
0000f0 1c cd 91 be d7 df c4 be 01 79 1f 3f fc 1c 1c bc
       -0.284768 -0.38452026 0.6229401 -0.009528395
000100 c2 90 8c 3d 64 d7 39 bf a9 03 b3 be 0b 5d 8d 3c
       0.06863548 -0.72594285 -0.3496373 0.01725628
000110 ee 37 dd 3c 47 e0 d4 be f8 1e 3d 3e ae fb ab be
       0.027004208 -0.4157736 0.18468845 -0.33590454
000120 07 fe a7 3d 75 c3 5c bd 49 58 6a bf 5e f5 66 be
       0.08202749 -0.05389734 -0.9154096 -0.22554538
000130 0b a7 1e be 38 b1 4f 3e 1b 86 a1 bf 95 f4 e2 3b
       -0.1549341 0.20282447 -1.2619051 0.006926129
000140 fd 38 4f 3e cd a7 b0 be 0e df 1d 3f 25 bd 93 3e
       0.20236583 -0.34503022 0.6166848 0.28855243
000150 81 6a ae 3d 7e 76 77 be 18 7e 5d bc 50 ef e9 3e
       0.08516408 -0.24166295 -0.013518833 0.45690393
000160 32 1c 5e 3e 69 1c 8f 3e 34 87 30 bf d8 03 d3 bd
       0.21690443 0.27951363 -0.68956304 -0.103034675
000170 61 28 2b bd 13 06 a1 3e 23 c9 92 be 30 70 4b 3e
       -0.041786555 0.31449947 -0.2866908 0.19867015
000180 aa 81 fa be 09 77 4b be bd 75 e2 bc 78 93 92 be
       -0.4892705 -0.19869627 -0.027644033 -0.28628135
000190 29 60 8a be 9f 9d f9 be 5f 2b 07 3e 4f ce c3 be
       -0.2702649 -0.48753068 0.13200139 -0.38243338
0001a0 7a 70 5b bc 59 02 59 3d 69 a5 1c bf 21 63 75 be
       -0.013393516 0.052980755 -0.61189896 -0.23963596
0001b0 2f f7 22 bd 55 da 8f be 7e 81 75 bf 77 db e5 bd
       -0.039786514 -0.28096262 -0.95900714 -0.112235
0001c0 d4 0f a3 be 99 84 c5 be f2 f9 02 be 53 e6 0e bf
       -0.31848013 -0.38577726 -0.12790659 -0.55820197
0001d0 6e 36 19 be 9c 01 4a be 5c be 58 3e cf 1a 14 bf
       -0.1496217 -0.19727176 0.21166366 -0.57853407
0001e0 f5 9f 1a bf 7f f9 52 3e 23 d1 2f bf d2 c8 56 bf
       -0.60400325 0.20602988 -0.6867849 -0.8390018
0001f0 26 ed 62 be a3 97 11 be b6 de 51 3f 56 8e a5 be
       -0.22160777 -0.14218001 0.81980455 -0.32335156
000200 77 19 9a bf c5 84 ef 3e 98 40 0d c0 92 fb 0b be
       -1.2039021 0.46780983 -2.2070675 -0.13670185
000210 d9 14 71 3e de 56 cd 3e d6 4d 6c bf 65 5f 41 c0
       0.23543109 0.40105337 -0.9230627 -3.0214474
000220 1b da 28 bf 80 4a d4 be d6 6e 23 3f e0 e0 aa 3d
       -0.659578 -0.4146309 0.63841 0.08343673
000230 9c ec 63 bf 7d d1 4c bf 20 bf 7e 3e 91 3d 31 bf
       -0.8903291 -0.80007154 0.24877596 -0.6923457
000240 8f 33 fe 3c a2 71 31 be 50 d4 26 3e 27 b6 6a 3d
       0.031030444 -0.17328504 0.16291928 0.05730262
000250 fb 03 cc be 33 7e db bd 95 72 16 3e 74 78 20 3e
       -0.39846787 -0.1071743 0.14692147 0.15670949
000260 81 30 d8 3d fa e8 2e bd 79 cb 46 be db a3 63 3d
       0.105561264 -0.042702653 -0.19413556 0.055576187
000270 05 28 08 3e 1b ee 58 3e e1 58 8c 3d 93 44 29 3e
       0.13296516 0.2118458 0.0685289 0.16530065
000280 1a c6 8b 3c eb bb 80 3d f8 3b 44 bd a1 ca 87 be
       0.017062236 0.062858425 -0.047908753 -0.2652178
000290 4d 46 96 be 08 63 12 bf 98 a8 e0 3d 40 41 83 be
       -0.2935051 -0.5718236 0.10969657 -0.2563572
0002a0 c8 8f fb bd e9 55 ba be af f6 96 be 26 af 5c bd
       -0.122832835 -0.3639367 -0.2948508 -0.053877972
0002b0 e9 1a 0d 3e d4 c2 5c be 77 89 3a be 7a 04 ae bc
       0.13779797 -0.21558696 -0.18216501 -0.021242369
0002c0 b1 93 3c 3e 3f 02 95 3e e8 10 f0 bd 9c e5 29 3d
       0.18415715 0.29103276 -0.117219746 0.04147874
0002d0 33 d3 12 3f 90 50 b0 3e f0 83 59 bd f6 43 9b bd
       0.57353514 0.34436464 -0.05310434 -0.07581322
0002e0 99 a0 d4 3d e5 f3 5f 3e 4f 2d 87 3e 80 69 7a 3e
       0.10382194 0.21870382 0.26401755 0.24454308
0002f0 e4 1b 9a bd 22 51 cc bd 54 54 13 3f a2 19 9f 3d
       -0.07524851 -0.09976412 0.5755055 0.07768561
000300 54 ba b4 3e 7f 11 9c 3e 0c 03 cb 3f 1b bb 97 3e
       0.35298407 0.30482098 1.5860305 0.29634938
000310 77 b1 79 3c 57 ad 3a 3f 06 8d ac 3e 57 2f eb 3f
       0.015240065 0.72920746 0.33701342 1.8373822
000320 63 72 e1 3e 58 eb 7f 3e ad 77 62 bf 74 09 f1 bc
       0.44032583 0.2499212 -0.8846386 -0.029423453
000330 ad 21 a9 3e 47 e8 73 3e 56 82 66 3f 73 e3 f5 3e
       0.33033505 0.23819076 0.90042627 0.48025092
000340 3e 1a a1 be 6a f2 d5 be f8 52 9b bc 0a 2f ae be
       -0.31465334 -0.4178651 -0.018960461 -0.34020263
000350 fc 8e 67 be 7c 3f ce be 8c fb 8f be f5 1b c5 be
       -0.22613138 -0.4028281 -0.28121603 -0.38497892
000360 15 cb 5f bd fd e9 71 be 0e 1e ca 3e a7 9f be be
       -0.054637033 -0.23624416 0.39476055 -0.3723118
000370 3d 6d 98 3d 3d d5 84 be 96 d3 bf 3e f7 cf 34 be
       0.074427105 -0.25943938 0.37466115 -0.17657457
000380 d6 a2 2c 3d 21 c6 18 be a3 ff 3e 3e e2 4a ac 3e
       0.04214748 -0.1491933 0.18652205 0.3365088
000390 c7 4e 19 3e c1 5e 82 3d 1e 97 29 bc 7c 41 86 be
       0.14971457 0.06365729 -0.010350971 -0.26221836
0003a0 3c a1 56 be a5 93 2c be 96 93 26 be 97 a5 a7 be
       -0.20959944 -0.16853197 -0.16267237 -0.32743523
0003b0 6a 4f 98 3d cb 4d 3b bc 28 b9 5e 3d bd 8d 27 3e
       0.07437022 -0.0114321215 0.054375798 0.16362663
0003c0 b5 57 01 be 6a c6 14 bc fb 43 dd bd 44 8f fe 3a
       -0.12631114 -0.009080509 -0.10803982 0.0019421359
0003d0 fd 43 81 3d ec 96 51 3e 9c e1 48 bd 3d cb 01 be
       0.06311796 0.20467728 -0.049043283 -0.12675186
0003e0 ef c1 66 3e 7d 03 35 bd 6c e7 9f bd fb 7a f9 3d
       0.22534917 -0.04419278 -0.07807812 0.1218166
0003f0 c0 37 da 3d d7 20 a9 3e 36 1d e5 3e 3a e9 a7 3d
       0.10655165 0.33032867 0.4474885 0.08198781

dc.rk_lgt f4 [1, 16]
000000 4a 6f fa bf 75 ca 89 bf f0 df e8 bf b7 9a ea bf
       -1.9565213 -1.076491 -1.819334 -1.8328465
000010 80 77 d9 bf 73 e8 28 bf 6d e5 62 c0 6f 74 97 bf
       -1.6989594 -0.6597969 -3.545253 -1.1832408
000020 88 21 d9 bf c7 c1 57 c0 6c 64 a8 bd 59 7b 03 c0
       -1.6963358 -3.3712022 -0.08222279 -2.0544035
000030 d8 de 1e c0 f8 bc 52 c0 dd ac 22 3d c9 8a 2b c0
       -2.4823513 -3.2927837 0.039715637 -2.6803458
