models/ogbl-collab_CN_2_1_0_run6_gnn.pt (torch, 668318 bytes, 10 tensors)

convs.0.bias f4 [256]
00000000: 66db 4c40 a652 8e3f 7313 1940 4ae7 77bf
00000010: a267 acbf fde5 2240 0e84 6ebe 3759 40bf
00000020: 8c3d 6d40 d3bb 37bf 062f d13f 8a35 2840
00000030: 91da 8ebf 0bdb 6d40 dc72 8cbf b2b6 6e3f
00000040: 4d79 9ebf b844 3240 e32d 40bf e3e9 abbf
00000050: cb76 40bf fd59 9f40 9cad c5bd c8f3 0dc1
00000060: b846 d13e 63a1 7240 5665 f03f ebe0 b440
00000070: 0764 f63f ad24 8b3f b797 5ebf 3ef7 d9be
00000080: 0ab0 2dc0 9222 a5c0 bf60 163e bd9a ef3f
00000090: f8bf 0740 6715 db3f ad81 4140 b2ed f23f
000000a0: 3de9 bc3f 152b b43e 3636 37c0 3fe7 bd40
000000b0: 98e7 4c40 c076 24bf d5e8 3c3e 0ffd 4e3f
000000c0: 0dc6 fdbf e9af 9140 244b 51bf fbc5 09bf
000000d0: 7afb 3ac0 45c1 bd3d 8ce8 8640 757b b640
000000e0: d520 9a40 da3f b040 15eb 1340 9c95 383e
000000f0: c16d 3e40 1f49 3340 d1c9 4cc1 9472 11bf
00000100: 9a9f 3c3e 3424 8c40 3fcf 44c0 932b 10bf
00000110: 2d1a 0140 fef1 0c41 839e b43f 70f0 0140
00000120: e690 f13f 19d7 23c0 6a7d a140 dd29 db40
00000130: 1d7b aa40 7233 a83f 1f5b c6bf e2f1 2140
00000140: fc0c b53f 3b91 49be 6c5f a540 c7e4 803f
00000150: 11f7 9dbd a4e2 8340 a20d 81bf a5e9 6ec0
00000160: a550 1440 4b3f 383e bd11 d63f 201e b6be
00000170: 957b 5d40 d9ce d4bd 8f27 9240 f0ff 9d3f
00000180: f1dc 5340 6a33 3fc1 8f19 be40 f3ff 303f
00000190: d09c 09bf b5ff 983f a619 abbf 75be de3f
000001a0: b717 e03f 1375 f53f db9b 3fbf 2cc1 9cbf
000001b0: 379d 52c1 eed2 7440 c4c5 a040 8e15 5abf
000001c0: a54b 983f cd98 0640 ed4f a4be 0b73 d9bd
000001d0: 1135 6c40 c338 47bf 9f3e 443f ffc0 9040
000001e0: e587 743e 3fd2 abbe 56cd a83f 1121 6040
000001f0: 2e4b 4cbf 5265 87bf ce4a 3d40 7f75 3e40
00000200: 4cbd a53e e55e 04bf 6b63 87c0 90cb a240
00000210: 0846 24bf 539d bdbf bafe 8fbe 7b58 8e3f
00000220: 155d b13f d988 c740 b847 5fbe f673 2c40
00000230: 6234 18bd e950 a9bf 40ae cd40 a96c b9be
00000240: 1290 3d40 e5da cb3d b1ee 4a40 246e 783f
00000250: d61a 87bf 9965 37be 534a 0240 ab18 37bf
00000260: 3a86 2040 223e 49c0 b1bc 5dbf a1d6 1240
00000270: 7e28 5fc0 09ea f3c0 5233 5bbd 50b4 0640
00000280: 1049 8b40 0d24 4840 293b 94bf b3f4 4640
00000290: 8bcb 6040 aec3 d7bf fac5 e4bd a09a 093f
000002a0: 8fb7 4740 d682 de3f 3b25 36be ea3b 85bf
000002b0: 3782 0f40 4280 18c0 ce16 1f3f fd5c ca3e
000002c0: 0b6e 4b40 329d 4bc1 6111 79bd aac8 4bc1
000002d0: 04c1 ca3f 8063 8b40 d334 2ebf e202 b53f
000002e0: b283 1840 2986 0e40 e6e9 9f40 d7cd 1bc0
000002f0: 4dcc fdbf 2048 74bf dfd0 df3f 5acd 4240
00000300: cf47 4e3f 03b2 2b40 3455 aebf f021 33bd
00000310: f281 afbc 7095 03be aab2 1f40 1a2b 8dc0
00000320: 252f 8140 a99c f2bf 8f56 9740 da86 9d40
00000330: 9ad2 b83f 34fb af40 1f1a 4fbf ab25 77bf
00000340: 532d f0bf 8aeb c240 55f0 bb3f ccf1 4cbf
00000350: 080c 4dc0 c85c 8840 0a5f febf 8fe8 7940
00000360: 141d 2640 b8b6 16c0 dc58 17bf 6f51 a8be
00000370: 5050 a8c0 0768 5c40 77fa d340 249c 27bc
00000380: 5dc2 a6be 1157 9440 babf 6640 751e 06be
00000390: 100f a8bf 070c 6940 d28c 9d3d afb3 cbbf
000003a0: beb0 fa3e a874 8b3f 56c5 7e40 2f55 0440
000003b0: c3a8 4340 3e4b 7cbf 52c0 e13d 9b0a e4bf
000003c0: 6f24 7dbf da91 c4be e65e 4c40 83bf ac40
000003d0: cd6e bfbe d754 d23f 2e45 3140 ad32 a73f
000003e0: f0cf 3b3f 58e6 1b40 dc9c 9340 47f4 5f40
000003f0: f645 aabe 4ed6 a43f fb18 fc3f 5aff f13c
3.200891 1.1118972 2.391812 -0.96837294 -1.3469126 2.5452874 -0.23292562 -0.7513613
3.7068815 -0.7177097 1.6342475 2.6282678 -1.1160451 3.7164943 -1.0972552 0.9324752
-1.2380768 2.7854443 -0.7507002 -1.3430752 -0.75181264 4.979735 -0.09652254 -8.872017
0.40874267 3.7911003 1.8780925 5.652456 1.9249276 1.0870568 -0.8695025 -0.42571443
-2.7138696 -5.16047 0.14685343 1.8719097 2.1210918 1.7115906 3.0235398 1.8978789
1.4758679 0.3518912 -2.8626838 5.9344783 3.2016354 -0.642437 0.18448193 0.80854887
-1.9826065 4.5527234 -0.8175528 -0.5381772 -2.921599 0.09265379 4.215887 5.7025704
4.816508 5.5077944 2.3112233 0.18025821 2.9754488 2.801338 -12.799272 -0.5681546
0.18420258 4.3794193 -3.0751493 -0.5631649 2.0172226 8.80908 1.4110874 2.0303001
1.8872344 -2.5600035 5.0465593 6.8488603 5.3275285 1.31407 -1.5496558 2.5303884
1.4144588 -0.19684307 5.167898 1.0069817 -0.0771314 4.121416 -1.0082285 -3.7330105
2.3174222 0.17992894 1.6724163 -0.3556986 3.4606678 -0.103910156 4.567329 1.2343731
3.3103602 -11.950052 5.94062 0.6914055 -0.537549 1.1953036 -1.3367202 1.7401873
1.7507237 1.9176353 -0.7484719 -1.2246451 -13.163383 3.8253741 5.0241413 -0.8518914
1.1898085 2.1030762 -0.3209223 -0.10617646 3.690739 -0.77820987 0.7665805 4.523559
0.23879965 -0.33558843 1.3187664 3.5020182 -0.79802215 -1.0577796 2.9576907 2.9759214
0.32370985 -0.517073 -4.230886 5.087349 -0.6416936 -1.4813637 -0.28124028 1.1120752
1.3856531 6.235455 -0.21804702 2.6945777 -0.03715933 -1.3227817 6.4275208 -0.36215714
2.9619184 0.0995386 3.1708186 0.9704306 -1.0555065 -0.1790985 2.0357864 -0.71522015
2.5081925 -3.1444173 -0.86616045 2.29435 -3.4868464 -7.6223187 -0.05351574 2.1047554
4.352669 3.1272004 -1.1580554 3.1086853 3.5124233 -1.6856592 -0.111705735 0.53751564
3.1205785 1.7383678 -0.1778764 -1.0408909 2.2423227 -2.3828282 0.6214417 0.3952407
3.1785915 -12.725878 -0.06080759 -12.73649 1.5840154 4.355896 -0.68049353 1.4141505
2.383038 2.2269385 4.997302 -2.4344385 -1.9827973 -0.95422554 1.7485617 3.0437837
0.8057832 2.68274 -1.3619752 -0.043733537 -0.021424267 -0.12849975 2.4952798 -4.4115114
4.037005 -1.8954059 4.729316 4.9227114 1.443927 5.4994144 -0.8089923 -0.9654185
-1.8763832 6.0912523 1.4682719 -0.8005645 -3.2038593 4.261326 -1.9872754 3.9048193
2.5955248 -2.3549023 -0.59119964 -0.3287463 -5.259804 3.4438493 6.6243243 -0.010230098
-0.32570162 4.635628 3.605452 -0.13097556 -1.3129597 3.641359 0.07692875 -1.591421
0.4896297 1.0894976 3.9807944 2.0676992 3.0571754 -0.9855231 0.1102301 -1.7815737
-0.9888372 -0.38392526 3.1932921 5.398378 -0.37389222 1.6432141 2.7698474 1.306234
0.7336416 2.435934 4.612898 3.4992845 -0.332565 1.2877901 1.9695123 0.029540706

convs.0.lin.weight f4 [256, 128]
00000000: 3aaa 98be 08de 5f3f db3a cebd 1ab6 bf3d
00000010: 8002 c63d 5523 babe 8310 97bd fd61 8abd
00000020: 1536 053f 8e3f 4abf 66fe ae3e ff8c f4bc
00000030: 9597 153c bcab 903d 8d49 583b 1599 97bc
00000040: bd0e e93e a2c2 3f3e 85c5 393e 2ba5 e5bd
00000050: 1137 1d3e dd70 98bd 13a4 cf3c 43aa 973e
00000060: e7c1 e4bc 71aa 163d 0800 8b3d bfbc 9e3d
00000070: a2eb 5abe d794 a83b 4090 f8be bd20 bc3e
00000080: 2e04 89be 1b74 853e 3042 a8be 9315 aebd
00000090: c990 c4bd 4fc2 3abe ad82 473f ea30 e43d
000000a0: d29a 0dbe 7216 263e 290d e43e 1193 2f3e
000000b0: f766 003e 6a23 d13e 705c c93d aca6 30bf
000000c0: 5309 6bbb e722 923e 2519 283e 7a7f 283c
000000d0: 4f9f e9bd d934 23bf 19dc 1c3d 9ccd 333e
000000e0: 86ac 9ebd 658d ebbe 2e25 f93e e23e a2bd
000000f0: ee05 163e e5b9 c63e f998 343e 5da9 a8be
00000100: 4c77 c63e d21b 443c faae 0bbe b7ef 37be
00000110: 4e64 60bd 0967 9e3c c627 273e 1dac 7c3d
00000120: 7312 62be f6bf 6bbe c403 62bd c698 7abe
00000130: ffa0 863d 99f0 503d d226 9c3d 66bc 373e
00000140: 939c 4cbe ab0a 393e ea2b 3c3e dbc5 0c3e
00000150: 921b 713e e8c2 a6bb e0da 26bd c013 563f
00000160: e683 2f3f 1997 6bbd 8f84 333e 21fe 45be
00000170: b18d 8b3e f39e 5cbe f208 afbe 8fda 9bbe
00000180: 71a0 2fbe e02c 80bd c35a 58bd a9fb 77be
00000190: e864 61be 5c87 be3d eb91 b2be 4d2b 28be
000001a0: 5c1b 713e e339 cf3d b412 51bb d11c 1f3f
000001b0: 1a8d 053f fefb 503e 7910 20be c363 1cbf
000001c0: 07ab d93e 3549 7f3e b2a0 3f3e f577 af3e
000001d0: ccfa a2bd 9128 163f 4079 f1bd 85d1 10be
000001e0: 2767 8dbe 4371 90be 103c a23d 1786 a13e
000001f0: b4bb cf3d e0d5 6fbe f623 4dbe 5a14 453d
00000200: c4f9 3dbe 5882 063f b722 1a3d dd17 45bf
00000210: 4088 9ebe e1c1 96be b386 12be 1407 e8bd
00000220: a9bd 133f eee2 adbe 2fae ef3d f428 96bd
00000230: bd8b 853d 75b3 543c b790 e0bc 9f81 2cbe
00000240: 9588 063f feed 103d bbc2 923e aefb 3ebe
00000250: a9b2 dd3c ae83 173d a176 10be e09b 623b
00000260: 848a 84be e27c 8d3d 1b98 903e 31ea 14be
00000270: 19c1 a23e a8c9 dd3d 8406 85be 800f 8f3c
00000280: 11d2 1ebf 71ce 313e 9bab 32be 2732 8cbc
00000290: 9700 83be 6639 c1be 2492 893d 6703 a63e
000002a0: fafc 3dbd 1f9c 67be f48a b03e 3fcd 0b3e
000002b0: d1aa 93bd 45ba 9a3e b430 533e 9a2a 41bf
000002c0: f6ca bf3e e081 163f 2a2a 823d 24fb 703e
000002d0: dfbc a3bd 40ad 6bbe ddcc a1be 5c81 9b3e
000002e0: d0fc babe 4d88 6fbe 8e9a 393f 4acd babe
000002f0: fdbb 983d e73f 4c3f 2948 2dbe 8257 adbe
00000300: 41bf 373e 9f0c ff3d 84eb 56bc a7b3 74bc
00000310: ee06 f93d 8ec7 c83d f3f9 093e 4e45 95be
00000320: fe89 2ebd 6365 61be 81dd 9fbe f9ac 5fbd
00000330: 7e95 fbbd b172 8fbd a3fe 9ebe 4a32 b0bd
00000340: 2db8 0bbe 2ed6 c6be 4365 b33d 37be 6bbd
00000350: 0a45 d1bd 9b3b 063e 508b 4cbe 65eb 273f
00000360: 6782 9a3e 02cd 233d eaeb 533d 2bd4 0ebf
00000370: 9229 4bbd 922d 2bbf 1048 cc3d 854a 81bd
00000380: 2711 fabe f13a 42be ea47 923d b22e 06bf
00000390: e457 e9be 5c1f ac3e 2b05 edbe 3d71 8fbc
000003a0: 2577 7d3e 84a6 f83d 2d63 51be a0f5 073f
000003b0: 0453 083e 60ff 7bbc 7b36 11be 4d9b 3abf
000003c0: 72c7 c63e 2af6 dd3e a255 ac3e 923e cf3e
000003d0: b47d 3d3d 230e 1d3f 9d19 613c 0ebb 013f
000003e0: c811 41bd 3a7a 83be 26e0 ec3d 4896 f4bc
000003f0: 467b 1a3e 63ff fcbd 38a2 03be 851d dd3e
-0.29817373 0.8744817 -0.100698195 0.09360905 0.096684456 -0.3635508 -0.07376196 -0.06756971
0.5203565 -0.79003227 0.34178466 -0.029852388 0.009130378 0.07064006 0.0033002824 -0.018505612
0.45519057 0.1872659 0.18141754 -0.11213144 0.15353037 -0.07443402 0.025346791 0.29622087
-0.027924491 0.03678364 0.06787115 0.07750844 -0.2137895 0.005144696 -0.48547554 0.36743727
-0.26761 0.26065144 -0.32862997 -0.08500209 -0.09597928 -0.18238185 0.7793377 0.11142142
-0.1382859 0.162195 0.4454129 0.17145945 0.12539278 0.4084733 0.09832084 -0.6900432
-0.0035863712 0.28542253 0.16415842 0.010284299 -0.11407339 -0.63752514 0.03829584 0.17558903
-0.0774775 -0.46006313 0.48661178 -0.0792215 0.146507 0.388137 0.1763648 -0.32941714
0.3876289 0.0119695235 -0.13640967 -0.17962538 -0.054783158 0.01933624 0.16323766 0.061687578
-0.2207735 -0.23022446 -0.055179372 -0.24472341 0.06573676 0.0510107 0.07624592 0.17942962
-0.19981603 0.18070476 0.18376127 0.13747351 0.23545673 -0.0050891526 -0.04073608 0.83623886
0.68560636 -0.057517145 0.17531036 -0.19335224 0.2725654 -0.2154501 -0.34186512 -0.30440184
-0.17151047 -0.06258559 -0.052820932 -0.24217094 -0.22011149 0.093031615 -0.34876952 -0.16422768
0.23545593 0.10118463 -0.0031902017 0.62153345 0.5216843 0.20408627 -0.15631284 -0.61089724
0.42513296 0.2493027 0.18713644 0.34271207 -0.07957992 0.5865565 -0.11790705 -0.14142425
-0.27617761 -0.28211412 0.07921612 0.31547615 0.101432234 -0.2342143 -0.2003325 0.048115112
-0.1855231 0.5254264 0.037630763 -0.7698954 -0.30963326 -0.29444793 -0.14309196 -0.11329475
0.57711273 -0.33962196 0.11703145 -0.0733203 0.065207936 0.012982239 -0.027412755 -0.16846322
0.5255216 0.035383217 0.28664193 -0.18650696 0.02706273 0.036990814 -0.14107753 0.0034577772
-0.2588693 0.06908585 0.28241047 -0.14542462 0.31787947 0.108294785 -0.25981534 0.017463446
-0.62039286 0.17363907 -0.17448275 -0.017113758 -0.25586388 -0.37739104 0.06717327 0.3242447
-0.046383835 -0.22618149 0.34481013 0.13652514 -0.07210315 0.30220237 0.20624048 -0.7545563
0.37459534 0.58791924 0.063556984 0.23533303 -0.07995009 -0.23015308 -0.3160161 0.3037213
-0.36521006 -0.23391838 0.72501457 -0.36484748 0.07457731 0.7978501 -0.16922058 -0.33855826
0.17944051 0.12453579 -0.013117675 -0.014935411 0.12159525 0.09803687 0.13474254 -0.29154438
-0.04261207 -0.22011332 -0.31223682 -0.05460832 -0.12284373 -0.070042975 -0.31053647 -0.08603342
-0.13644476 -0.3883528 0.087595485 -0.05755445 -0.10218246 0.13108675 -0.19975019 0.6559356
0.30177614 0.039990433 0.051738657 -0.5579249 -0.04960019 -0.6686641 0.09974682 -0.063130416
-0.4884121 -0.18967797 0.07142623 -0.52415 -0.45574868 0.33617675 -0.46293005 -0.01751005
0.24752481 0.12141135 -0.20447989 0.5310917 0.13312918 -0.01538071 -0.14180939 -0.7289322
0.3882404 0.4335187 0.33659083 0.40477425 0.046262458 0.61349696 0.013739017 0.5067605
-0.0471361 -0.2567919 0.115661904 -0.029856816 0.15086088 -0.12353399 -0.1285485 0.43186584

convs.1.bias f4 [256]
00000000: c659 14c0 6182 2a3f 7569 f0bf e2df 87bf
00000010: 02e2 32bf c50a 2cbf 8987 c33d 3fbd c43e
00000020: 7b3d 403d 12ca 9140 f2ed 3b3f 13d8 0fbe
00000030: 218b e93e f593 6fbe 1438 3740 669b a940
00000040: 2fad 5640 0a61 a93f 1640 afbf 6dc3 5a40
00000050: 2d97 b2be 4aa3 8dbe b901 41be f011 8fc0
00000060: fc12 dfbe dd1f 66bf b2ec 2abe 4aa2 b73f
00000070: cf8c cf3d 33ce a6be 5250 b2bd d10b edbe
00000080: 8c3c 30bf 2f88 2c3e bc8e 2b3f c42d 7340
00000090: e2fe 1a40 2e03 b540 826e acbe d3f9 edbf
000000a0: 71cc a3be 24e7 b340 5a4f 8540 e3b3 e53e
000000b0: 5695 233e 9421 5e40 5ed9 763e 0c76 6b40
000000c0: 29d6 e43c 03a3 9b40 74f8 9f40 1b5f b7be
000000d0: 8928 4fbf f336 aebe 5af2 00c0 f79b ca3e
000000e0: 1c4a a5bd e603 fdbe 6b27 3cbf da99 1d40
000000f0: 17aa 5640 043b e6bf e10c 4ebf e16c 6640
00000100: 02b0 8abf 5443 313e bc7a e83c e5fd 00bf
00000110: a21c 35bf 6ccd be3c bf09 ecbd dd55 3d3d
00000120: 5efa 22be a7c6 1440 0f0f 41bf dfe2 5640
00000130: b0a6 4fbe 39cc 3dbf 1596 9140 bc59 c0bd
00000140: 2b08 203f e9c3 733f 79f1 293e d8a5 3b40
00000150: 97a9 41c0 f0fb 7740 0767 003f 2275 df3d
00000160: 5252 203e 2d7d c13e ea8d 45bf 11fe a940
00000170: fc68 96bf a1de 5fc0 e40c 5040 c9c7 3e3f
00000180: 5114 9840 e70d b93d f980 c13f 4f90 1dc0
00000190: 378d 8f40 533b 3c40 e50b 38be ed0e 96be
000001a0: 9304 b5be 4f93 8c40 3499 9bbe 0bb9 4c3e
000001b0: d71a 4dbf 719d c3be e71a 1abf 8be9 1e3f
000001c0: 47a7 dfbf 946d 3dbf f732 c73d 45ea 0dbe
000001d0: ccb7 0e3e 5fef 07bc 09ae ddbe a606 073f
000001e0: c2fe 733f 6a01 6a3d e257 9d3d 3361 5cbe
000001f0: cfb2 d23e 0ef6 85bf 1357 f9be 1885 e13e
00000200: eeae 06bf e2ce e53d a26e 843f 0dbf 2cbf
00000210: 17bb f03e ae66 61bf c692 a4bd a4af 9340
00000220: 6205 51bf c178 c5be 0c5d 2fbf 410f 0abe
00000230: 7d41 83bd 380f 30bf 4bf1 ccbe 3a1a 1b3e
00000240: 2808 2b3a c527 643e 703f f23e e9b3 9cbf
00000250: fed2 99be 7e66 253d 5388 6140 897d 9840
00000260: d641 edbe 69e4 ebbe 14ae 3cbe 85b1 84bf
00000270: 04ce 81be 4977 68be e07c 3fbf 079c 59bf
00000280: 7a0a 4ebf 20e2 e43f a9a7 81be 656e 8d3e
00000290: f5b0 6dbe 933f 66bd 9a88 833e 3e92 e9be
000002a0: 8fde 5bbe d283 d93e 1905 c2bd 5038 36be
000002b0: 3129 6a3e bffc 10bd cbcd e33e d469 1340
000002c0: 9e4e 55bf b4a6 a93e 0e5e 363f 1253 f3be
000002d0: 5bb3 883e 6196 323f acf3 563f ced6 e2be
000002e0: 5214 8e40 703d 143f bed1 c6bf 622d aa40
000002f0: 6e3d 093d 0c99 5340 1977 783e e48c 75bf
00000300: 3be8 2f40 dc3a a0bd d27e 8940 7db1 8b40
00000310: c8be f73e 6355 b940 1ddc 793f 178d 1f40
00000320: 91fb e4be c0ed a240 2c6b 21bf 50c4 c03e
00000330: b893 6b40 c7ae 8140 71cd 003f cf1e 553f
00000340: 415b 6240 281f 1dbf 2703 40bd db2e 3940
00000350: 03f2 57bf 115d 23bc 4919 4cc0 daf3 11bf
00000360: 68dc 153f 57e2 7b40 da3c 8a3e 5759 dabe
00000370: a04c a9be 0636 b33d 3519 8abf 5878 c03f
00000380: 048c b1be 7f95 13bd 650d 643f 47af f83f
00000390: 5c17 9abf ce7b 6c40 c419 b53f d8d7 c33f
000003a0: 26a4 0840 c8bc b83f 4090 173e 7362 823e
000003b0: 5bd0 a740 4e67 6b40 d330 803e cc7b 1c3c
000003c0: b49e 0bbf 097e e13e 4b82 b93f 199d 9fbe
000003d0: 3531 9840 d0b1 71bf 3a37 14be 32cb 333d
000003e0: 75e9 2bbf ecab a03f d962 3740 67ac 6fbe
000003f0: cb78 7dbf 6d0f 7740 9c30 48be 5228 7fbe
-2.3179793 0.6660519 -1.8782183 -1.0615199 -0.6987611 -0.67203933 0.09547336 0.38425633
0.046933632 4.555917 0.7340995 -0.1404727 0.4561396 -0.23396285 2.8627977 5.3002195
3.3543203 1.3232739 -1.3691432 3.4181778 -0.34880963 -0.27663642 -0.18848313 -4.4709396
-0.4356917 -0.8989237 -0.16691855 1.4346402 0.10134279 -0.32579193 -0.08706726 -0.46298078
-0.6884239 0.16848825 0.6701467 3.7996683 2.4218068 5.656638 -0.3367806 -1.8591865
-0.31991914 5.6219654 4.1659365 0.44863805 0.15974936 3.4707994 0.24106357 3.67908
0.02793415 4.863649 4.9990788 -0.35814747 -0.80921227 -0.34026298 -2.014792 0.39572117
-0.08070776 -0.49417037 -0.7349765 2.4625154 3.3541315 -1.798676 -0.804884 3.6003954
-1.0834963 0.1731084 0.028378837 -0.5038741 -0.70746815 0.023291312 -0.115252964 0.046224464
-0.1591582 2.3246248 -0.754136 3.357597 -0.2027843 -0.74139744 4.5495706 -0.093921155
0.62512463 0.9522081 0.16596021 2.9319973 -3.025976 3.874752 0.5015721 0.10911013
0.15656403 0.37790814 -0.7716967 5.312264 -1.1750789 -3.4979632 3.2507868 0.745236
4.75248 0.09035855 1.5117484 -2.461933 4.485988 2.9411209 -0.17973287 -0.29308262
-0.35355052 4.392982 -0.30390322 0.19992463 -0.8011908 -0.38206056 -0.601973 0.6207511
-1.7472924 -0.7399533 0.09726518 -0.13858898 0.139373 -0.008296817 -0.4329684 0.5274452
0.95310605 0.057130255 0.07682778 -0.21521454 0.41152045 -1.0465715 -0.48699245 0.44046855
-0.5261067 0.112211004 1.0346262 -0.6747902 0.47017738 -0.880473 -0.08035807 4.6151905
-0.8164884 -0.3856869 -0.68501353 -0.13482381 -0.06408975 -0.6877322 -0.40027842 0.15146723
0.00065243477 0.22280796 0.47314024 -1.2242404 -0.30043787 0.040380947 3.5239456 4.765324
-0.4633929 -0.460727 -0.1842578 -1.0366675 -0.2535249 -0.22701754 -0.7479992 -0.85003704
-0.80484736 1.7881508 -0.25323227 0.27623287 -0.23212035 -0.056212973 0.25690156 -0.45619386
-0.21471618 0.42483383 -0.094736286 -0.17794919 0.22867276 -0.035397287 0.44492945 2.3033342
-0.83323085 0.33134997 0.71237266 -0.47524315 0.26699337 0.6976071 0.83965564 -0.44304508
4.4399805 0.57906246 -1.5532758 5.31804 0.03350585 3.3062162 0.24264182 -0.9591811
2.7485492 -0.078237265 4.296731 4.365416 0.48387742 5.791673 0.9760149 2.4929864
-0.4472318 5.091522 -0.63054156 0.37649775 3.680891 4.052585 0.5031348 0.83250135
3.5368197 -0.61375666 -0.046878006 2.8934848 -0.84353656 -0.009970919 -3.1890433 -0.5701271
0.5853944 3.9356897 0.2699955 -0.42646286 -0.33066273 0.087505385 -1.0788943 1.5036726
-0.34677136 -0.036031242 0.8908294 1.942849 -1.2038379 3.6950564 1.4148488 1.5300245
2.1350188 1.4432611 0.14801121 0.25465736 5.244184 3.6781802 0.2503725 0.009551
-0.54539037 0.4404147 1.4492887 -0.31174543 4.7560067 -0.94411945 -0.14474192 0.043894954
-0.671531 1.2552466 2.8654082 -0.2340561 -0.9901244 3.8603165 -0.19549793 -0.24917725

convs.1.lin.weight f4 [256, 256]
00000000: 6adf 0ebf ba6c 953e b660 7dbe 0454 973f
00000010: bf8e 5e3f 26cc 3a3e 4c3c a4bc 2e14 523e
00000020: 5d20 8abd 3743 66bd d285 abbd c325 363d
00000030: c54c 04be ba6e b5be fcf1 5a3f 212e e8bd
00000040: bf2d 82be 7f3f 393d cc47 0040 f154 9fbd
00000050: 1661 9abf d162 08be 97a2 683f fdbd c73c
00000060: fede 943e 6918 8fbd 5df6 c93e aff1 2fbe
00000070: b149 993d 4e24 d53e 647f 07c0 aee1 a5bf
00000080: 3bf7 a23e ff8a de3e e2a3 2ec0 85bd 5ebe
00000090: 8207 363e 4a16 b6bc e757 383e 59f9 a23e
000000a0: d72a ffbe aadc 093f d36b 0cbe c157 903e
000000b0: 75f6 1ebe d7fd 653f c47d aa3e 91a3 d4bd
000000c0: e2ee 3f3e fbd2 1a40 f61a 16bf 8f49 733f
000000d0: 0c7b 173f ab40 e03e e537 a7bd cae2 aabd
000000e0: 228a 81bd b948 dabd 48be 5dbf b17c 41bf
000000f0: 720d cebd addb 51be 7e56 cbbc d337 f63f
00000100: a9ee 9dbf b058 febd d538 2d3f 29fe 8e3f
00000110: a990 4e3d ae0d 9cbd 7e72 193f 1020 353e
00000120: 5c06 1c3e adf3 b23f 3c72 063d 6a29 1d3f
00000130: fe0e d139 f3ec 9d3d aa3a 05bf afb2 bb3d
00000140: 170b c6bd 0e69 08bf 0863 78be 1c2f 85bc
00000150: e477 d5bf a9ad 4cbe cc9d 7dbe 19d8 5cbe
00000160: 961d 773e ea16 2bbf f861 64be 17b2 2c3f
00000170: a472 ea3d 7248 8dbe 338a 4dbe 8bf9 e43e
00000180: b096 adbd 2694 79bd 360e 78be 6207 fa3f
00000190: dfbc f3be 0db9 55be af99 c63f 7b64 c9bd
000001a0: 5b93 b0bb 66ad 883f d981 b23f f153 59bf
000001b0: 8d67 afbc 7110 253e ca08 5abe 1061 31be
000001c0: ca35 0a3d 48ff 6abd ac12 ca3f 44b8 e13f
000001d0: ee54 ce3d 61dd 3ebe 1021 e9bf f93c c33d
000001e0: 20a0 1f3f e410 5e3f 7c86 18be 3e30 c2be
000001f0: aa7e dbbe d69b 2e40 42fb f13d eead 843c
00000200: 5f86 483b 662d 713e 591a 623d 5bb0 9e3c
00000210: 59d7 88bf 2214 17bf d182 28bd 8382 21be
00000220: 84a2 ca3d 9897 a1bd 9a88 edbc a8a1 77bc
00000230: cddf 533f 78e4 6f3f 7fd9 61be 6d94 923f
00000240: e71b 763e 5980 3d3d abc4 15bd 1f0a 0fbd
00000250: c3c0 1440 6217 a8bf cdf5 6cbe 3c7a bb3e
00000260: 508e 7d3e 1fa0 223e 20ee acbe ac86 c0be
00000270: bc78 78be a52c 2bbf bbb0 3d3d 0d2e be3c
00000280: cc3a 6dbc 0353 15be 5e98 b93f f9d1 ddbd
00000290: fe13 893d b247 7c3f 52fb f73c f2a4 d53d
000002a0: b160 e6bd 6cc6 853e ff84 56bc a908 643f
000002b0: 4452 853e 8bc3 90bf 05f6 da3d 20dc dbbf
000002c0: f2d3 a3bc 8c22 733a fa7c febd 4f42 e0bd
000002d0: 2639 033f 53e4 fbbc b079 7f3f b528 903e
000002e0: 6cef a5bd 88a3 2d3e d2bd b9bd 5fba e43a
000002f0: db72 e33f c37e 17bd 9eb7 64bd 1424 363e
00000300: f305 0c3e 8cbd 4d3e 5baf 0cbf 70ba 5fbd
00000310: 7c36 70bc a69e e7bd 3ccf e5bd e27d d13f
00000320: f2e7 56be 2b74 e43f 9187 e1bc 0220 553d
00000330: f5ed cb3e 781f 93bd 12e7 9e3d c00e cb3e
00000340: 0bb3 ba3f 652d 833d c04d e5bc 0e23 883e
00000350: 2a40 8b3f 6418 113e ee70 33bf 951b 3bbd
00000360: 1865 d73a 9178 d73f 37d8 15c0 52bd 2240
00000370: 9e7f 143f 2127 2d3e 6b5e 13bd d927 4740
00000380: 1943 22c0 0c1c 9d3d 288b 26be 6ac5 563f
00000390: ca53 c23e 810d 2bbe a224 f8bf abf8 e93f
000003a0: 0b41 3d3f 70c0 ceba b86e 5c3d 22e6 a2be
000003b0: d2af be3f 17b5 013e 52df 54bf 82e5 35bf
000003c0: 63df 9c3e e5f3 dfbf cb63 39bd c219 c0bc
000003d0: 2a01 763e 6628 593e 00c9 76be 3736 633e
000003e0: ffc9 8abe cd9c 133d 8410 30be 7212 d93c
000003f0: 1b32 3ebf adfb 22bc 4c49 8a3f dd06 3abf
-0.5580965 0.29184514 -0.24743924 1.1822515 0.86936563 0.18241939 -0.020048283 0.2051551
-0.06744454 -0.056216445 -0.083751336 0.044469606 -0.1291991 -0.3543604 0.8552549 -0.113369234
-0.25425526 0.04522657 2.0043821 -0.07779873 -1.2060878 -0.13318945 0.9087309 0.024382586
0.2907638 -0.06987078 0.39445773 -0.17182039 0.07484759 0.4162926 -2.1171503 -1.2959497
0.31829247 0.4346542 -2.7287526 -0.21751983 0.17776302 -0.022227425 0.18002282 0.31830862
-0.49837372 0.5385233 -0.13713007 0.2819195 -0.15523703 0.89840454 0.33299077 -0.1038276
0.1874347 2.4191272 -0.5863489 0.95034117 0.5917213 0.43799338 -0.08164958 -0.08344038
-0.06325175 -0.10658402 -0.8661847 -0.7558089 -0.10061158 -0.20493956 -0.024821516 1.9235786
-1.2338458 -0.124192595 0.67664844 1.1171314 0.050430927 -0.07619797 0.59940326 0.17688012
0.15236801 1.3980614 0.032823786 0.6139132 0.00039874756 0.0771121 -0.5204264 0.091649406
-0.09670084 -0.532853 -0.24256527 -0.016257815 -1.6677213 -0.19988121 -0.24767226 -0.2156681
0.2413238 -0.6683184 -0.22302997 0.67459244 0.11447647 -0.27594334 -0.2007225 0.44721636
-0.08476007 -0.0609323 -0.24224171 1.9533503 -0.47605035 -0.20871373 1.551565 -0.09833618
-0.00538866 1.0677917 1.3945876 -0.8489371 -0.021411682 0.16119553 -0.21292415 -0.17322183
0.033742703 -0.05737236 1.5786948 1.7634358 0.10074793 -0.18639137 -1.8213215 0.09533114
0.62353706 0.86744523 -0.14895052 -0.3792743 -0.42870075 2.7282615 0.11815502 0.016196217
0.003059767 0.23552474 0.05520091 0.019371202 -1.0690719 -0.59015095 -0.04114038 -0.15772443
0.09894279 -0.07890242 -0.0289958 -0.015114225 0.8276337 0.9370799 -0.22055624 1.1451546
0.24034081 0.04626498 -0.03656451 -0.03492176 2.3242652 -1.3132136 -0.2314064 0.36616695
0.24761319 0.15881394 -0.33775425 -0.37602746 -0.24264807 -0.66865 0.04631112 0.023215318
-0.01447935 -0.14582448 1.4499624 -0.10831065 0.06693266 0.985469 0.030271206 0.104318514
-0.11248911 0.26127946 -0.013093232 0.89075714 0.26039326 -1.1309675 0.10691456 -1.7176552
-0.019998524 0.0009274862 -0.12426181 -0.10950147 0.51259077 -0.030748522 0.99795055 0.28156057
-0.08102307 0.16956913 -0.090694085 0.0017450562 1.7769426 -0.036986124 -0.055839173 0.177872
0.13674144 0.20091838 -0.5495507 -0.05462116 -0.014661428 -0.11309557 -0.112211674 1.6366541
-0.20986918 1.7847952 -0.027530463 0.05203248 0.39829984 -0.071837366 0.07758917 0.3965969
1.458589 0.06405143 -0.027991176 0.26589245 1.0878956 0.1416946 -0.7009419 -0.0456806
0.0016433327 1.6833669 -2.3413217 2.5428052 0.5800723 0.16909458 -0.035978716 3.111807
-2.5353453 0.07671365 -0.16264021 0.8389498 0.3795455 -0.1670437 -1.938618 1.8279012
0.7392737 -0.0015773904 0.053816527 -0.31816202 1.4897406 0.12666737 -0.8315326 -0.71053326
0.3063918 -1.7496306 -0.045261186 -0.023449782 0.24023882 0.21206817 -0.24100113 0.2218865
-0.27107236 0.03603821 -0.171938 0.026498053 -0.74295205 -0.0099476995 1.0803618 -0.7266672

convs.2.bias f4 [256]
00000000: 8e5b 763f b0e3 803e 0ac7 a9bf 47b5 62bf
00000010: 8e35 243f 3e62 ad3f 65c3 f03e 39d0 bcbe
00000020: af83 3e3e 0b40 053f bc0c 84bd cd8c 8abc
00000030: 58ec ae3f 507b 8dbf 2886 7b40 fe65 0040
00000040: b675 a4bf f1df e33f 4040 be3e be94 57bf
00000050: 6e98 dd3f 52e8 94bc 95d7 2cbd e043 1b40
00000060: e6e5 66bf 097e 76bf f389 f23e 4164 f8be
00000070: 89eb eb3e f9aa ea3d a9d7 8d3f e7b6 72bf
00000080: e642 25bf e65a 9ebe 2f1a d73e 1205 e2be
00000090: 0696 a73f a705 893f ea76 f4be bfdf 473f
000000a0: 03ef 46bf 8c2d d23e 2000 8f3e c1d2 dc3f
000000b0: b628 05bf 5b93 a63e 331f 9abf 12de 713f
000000c0: 9933 6c3f 21ae 24be 1a8e 8a3f 5f7c 22bf
000000d0: eff0 76bf 927e 9cbf 08a1 943f 3474 3dbf
000000e0: 59d6 1c3e 6a29 103e 86d6 16bf 7c0c 073f
000000f0: bdb0 eebe c240 b040 6d6d 9a3f e115 dc3e
00000100: 0074 11be 46a5 ee3e 02ad 393e 5a22 233f
00000110: eca5 6bbd a3eb 743e 2795 8e3f 98d9 2dc0
00000120: 2c0f 473f 8371 fabe cfd4 59bf f064 da3f
00000130: a73f e6bd 801a c5be 5a8c a840 0689 eebe
00000140: 2b7c 23bf cd43 16bd 45a3 123c 47e9 5f3f
00000150: 02b7 9f3f 8957 4abf cbc5 0440 bcf0 5e3f
00000160: b421 75bf e8ad 473e 2dff 7b3f 9f6f 4b3f
00000170: 2f51 66be 0a02 81bf e83d 0c3f ef9c da3e
00000180: c905 cd3f 9a06 6e3f da94 cabe a085 8c3f
00000190: 944b a33f b669 1c3e 8dd4 1bbf 3437 873f
000001a0: 5c4b b33e 5f29 1f40 e9d3 913e 2640 843f
000001b0: 17a9 42bf ab6d d33d 3063 8940 8c80 ef3e
000001c0: 5a85 d8bd 9778 113e 7b8e 883d 5096 10bf
000001d0: bb04 22be 9a8f 733f 10bb 7b3f 7f20 d7bf
000001e0: 5671 893e 7fb3 c2bc d39b fcbe 4601 71be
000001f0: c771 1c3f 76cf fc3e 3a51 2fbf e10e 853e
00000200: db2a b93d 88bb 8d40 d930 9fbe 0f67 88bd
00000210: f801 603f e6e6 a03e 13d6 b9be 97ee ea3f
00000220: 179b 413f 9f41 013d c325 763d f170 c1bf
00000230: 7585 c33f c48f 84be 86fe bbbf c095 663f
00000240: 752b 993e 13ef 093e 091f 4a3e e250 af3e
00000250: f79a 203e 0859 30bf 6cf8 0241 7a4f 97bf
00000260: 3b76 77bf 8176 ee3e 63e3 31bf af92 a1be
00000270: e212 3a3f 47dd 0f3e be0c 40bf 1512 f2bd
00000280: ed47 b1be a5e5 493f 2f47 0740 0b32 e83e
00000290: 13f2 03bf b1e5 65bd 7631 cbbe e012 d8be
000002a0: c7a0 66be 76d4 b0bf d7fe 27be f37a ea3f
000002b0: 48cb 8c3f 3463 8f3e b9c3 e1bd 34d0 0e40
000002c0: faa5 ff3e 113b a73f 5953 b13f 8bb6 013f
000002d0: 7f6a 293f 531d d23f c0e9 69bf 5494 75be
000002e0: 4059 c7bd 52d7 0240 8d84 8e3e 2adc ea3b
000002f0: 7c4d 6740 e0b0 9d3e 03d2 b43e 7871 ee3e
00000300: bc6e f83f 1f2e d43d dccf 31bd f2c0 fcbd
00000310: f3b3 1d3f a528 1dbf acee 84bf 066d 52bf
00000320: 9020 b53e c10f 663f 08f5 b2bf a917 283f
00000330: 7663 ed3f d5f2 1e3f eb5a 3f40 9235 37bf
00000340: 47a3 453e 3ec3 1840 6057 c13d 66c3 8c3e
00000350: aff7 fabd d39a eb3e bf77 0fbf cf49 4e3d
00000360: c18c b7bd 17f5 89bf ec02 d6bf 6761 a83e
00000370: b2e3 3bbe 8941 5fbf 71f5 9abf 9dac 293f
00000380: cbe3 0140 8154 413e 8ee3 6cbf efb7 0f40
00000390: 4c58 81be b2e2 7c3e ce82 b340 9e02 91bf
000003a0: 3e29 a03d 591c e03f 1ea8 66bf 3c9a c33c
000003b0: 2c6d 313f f028 8cbe 0707 0c3c 10b9 3a3f
000003c0: ca8b e93e 05d2 b4bf 035c 0b3e d04b 943f
000003d0: e190 ad3f cef6 003f a82c 0abd 3f2c 00be
000003e0: 9d8c 893f db37 033f 2fef d13e 6856 053f
000003f0: f7a1 043f d20c 35be 20a9 2cbe a834 953f
0.9623345 0.25173712 -1.3263867 -0.8855786 0.6414422 1.3545606 0.47024074 -0.3687761
0.18604921 0.52050847 -0.064477414 -0.016912842 1.3665876 -1.1053257 3.9300632 2.006225
-1.2848423 1.7802716 0.37158394 -0.8421134 1.7312143 -0.018177185 -0.042197783 2.4260178
-0.9019455 -0.96286064 0.47370872 -0.48513988 0.46078137 0.11458392 1.1081439 -0.94810337
-0.64555204 -0.30928725 0.42012164 -0.44144493 1.3092659 1.070485 -0.47746974 0.78075784
-0.7770845 0.41050375 0.27929783 1.7251817 -0.52015245 0.32534298 -1.2040771 0.9447948
0.9226623 -0.1608205 1.0824616 -0.63471025 -0.96461385 -1.2226126 1.1611643 -0.74005437
0.15316142 0.14078298 -0.58921087 0.52753425 -0.46619216 5.507905 1.2064644 0.42985442
-0.14204407 0.4661047 0.18132403 0.6372429 -0.057531282 0.23918013 1.1139268 -2.7164059
0.77757525 -0.48914728 -0.85090345 1.7062054 -0.112426095 -0.3849678 5.2671328 -0.46588916
-0.6386134 -0.036685754 0.008950059 0.8746533 1.2477725 -0.7903982 2.0745723 0.8708608
-0.9575455 0.19499934 0.9843624 0.79467195 -0.22491907 -1.0078747 0.5478196 0.42697856
1.601739 0.92978823 -0.3956669 1.0978279 1.275744 0.152747 -0.608712 1.0563722
0.35018432 2.4869 0.28481987 1.0332077 -0.7603926 0.10323652 4.293358 0.4677776
-0.1057231 0.14206158 0.06667801 -0.5647936 -0.15822117 0.95140994 0.9833231 -1.6806792
0.2684428 -0.023767231 -0.49337634 -0.23535642 0.6111111 0.4937703 -0.68483317 0.25987914
0.09041377 4.429142 -0.31091955 -0.06660282 0.87503004 0.31426162 -0.36296138 1.8354062
0.75627273 0.03155672 0.060094606 -1.5112592 1.5275103 -0.25890934 -1.4687049 0.9007225
0.29915968 0.13470106 0.19738401 0.34241396 0.15684114 -0.6888585 8.18565 -1.1821129
-0.9666478 0.46574786 -0.6948759 -0.31557223 0.7268506 0.14049254 -0.75019443 -0.11819855
-0.34625188 0.78866035 2.1137197 0.4535068 -0.5154125 -0.056127254 -0.39686173 -0.422019
-0.22522269 -1.3814838 -0.16405807 1.8318771 1.0999537 0.28005373 -0.11023659 2.2314577
0.49931318 1.3064901 1.3853561 0.50669163 0.66178125 1.6415199 -0.913723 -0.23982364
-0.0973382 2.044392 0.27835503 0.007167359 3.6141043 0.30799007 0.35316476 0.46570945
1.9408793 0.103603594 -0.04341112 -0.12341489 0.61602706 -0.61390144 -1.0385337 -0.82197607
0.35376406 0.8986779 -1.3981028 0.656611 1.8545978 0.6208928 2.9899242 -0.71566117
0.19300567 2.3869166 0.094404936 0.27492827 -0.12254273 0.4601656 -0.56042093 0.050363358
-0.089623936 -1.077792 -1.6719642 0.32886812 -0.18348578 -0.87209374 -1.2106153 0.6627901
2.0295284 0.18879892 -0.9253472 2.2456014 -0.25262678 0.24695852 5.6097174 -1.1328924
0.07820366 1.7508651 -0.90100276 0.023877256 0.6930721 -0.27374983 0.008546597 0.7293863
0.45614463 -1.4126593 0.13609318 1.1585636 1.3559839 0.50376594 -0.033733994 -0.12516879
1.0746037 0.51257104 0.41002795 0.5208497 0.5180964 -0.17680672 -0.16861391 1.1656694

convs.2.lin.weight f4 [256, 256]
00000000: f96f e53f 8137 593f 4fd5 28bf 554d a53d
00000010: 84ed 843f 0076 debf 960b 5bbe fef2 f73e
00000020: 703d 2940 1b3b 01be dc82 d13e 970d cd3e
00000030: 3109 0d40 6d7f c73e 8282 4bbf 3de1 843d
00000040: 8143 383f 2eaa b53e 43c5 89be 82cc 003f
00000050: 8db2 edbe b60b 69bf d7f6 0fbf 3259 583e
00000060: 8d13 9b3f 1ad2 dbbf 80cf 0d3f 711a 123f
00000070: ea3b 80bd 1e2c f23e 410f 053f 2509 273f
00000080: a44a d1be 472a 7f3f 6261 823f 87a9 1dbf
00000090: b219 543e 9f31 103e 1571 b4be 0165 873f
000000a0: 63ca 3dc0 7b98 f0bd f7a1 75bf 1555 733f
000000b0: c8ac 2dbf 8e7f ba3f eca8 03bf afef 2f3e
000000c0: 9ec1 833f 6d44 b13f f0c6 58be b656 1c3f
000000d0: af31 d33f 04a9 a8bf 4bae 0f3e 547d 2ac0
000000e0: 9474 9cbf e4b6 47be 2559 b7bd 726a 8abf
000000f0: ea73 993c 7c53 9fbf 20f7 323f 1b58 4cbf
00000100: a40a 0abe 7e40 10be 653b 5f3e 7248 4c3f
00000110: 59bf f1be 1a1a 2e3f ac5c f2bf 647e 8dbf
00000120: 47d5 a43c d546 83bd 8da6 9dbf 06d4 fbbe
00000130: 156c 153d 5ec3 23bf dc18 6bbf f855 cf3f
00000140: fafc 2b40 5397 ccbf d94a 93bf 7105 4a3f
00000150: 91b0 30c0 5049 653f 1971 203d 408b e8be
00000160: 8044 8cbf 4428 b73e eda5 f23e c8aa febf
00000170: 37fd 1c3f 3b6a 6fbe 5ae7 ca3d 1fb1 32bf
00000180: 4cad 763c 235b 5dbf e93d c33e 2d49 163e
00000190: 5b82 b53e 1026 113d 4f0e 6dbf b3dd 8e3f
000001a0: a4b5 6abe 1187 283f bd77 8f3f 8fe4 b8bd
000001b0: b62c df3e 2a24 883f a14c f2be 8974 06c0
000001c0: c3dd 71bf 711c 083f 7691 e83e 1b61 0bc0
000001d0: 8b58 aabf 7a48 06bf bea6 e9bf 36d4 b03f
000001e0: 661f 31bd 3d37 3b3f 6d1b c33e 4e8a 0640
000001f0: c678 97bf 811a 1ebb b468 bb3f 165a cfbf
00000200: 7bae 853f 3da6 6b3f fd76 1abf 8cb1 0dbf
00000210: 2bda 6c3f 736c 3840 e346 543f 15b0 4a3d
00000220: 8b11 db3e 4dda f7bf 51ea e4bf c074 9b3f
00000230: 032a 7b40 f4c7 4a3f c84d 0c3f 4a60 e43f
00000240: 4be0 23be 02be 01c0 edd6 f5bf 84d9 543e
00000250: 948a 9e3c a8c4 d1bf ff4f dcbe 7980 0fc0
00000260: b658 82bf 724b 373f 3552 a7be 86da 3240
00000270: 4c99 debe c97e 123d b0a9 19bf 949d 8ebf
00000280: 562d a13f 673e 1f3f 61dd 12c0 3744 5d3f
00000290: 10b4 cbbf ae20 fc3f c427 e73f 0d93 703f
000002a0: 3e68 c0be 055e b1bf 3361 00bf a661 b33f
000002b0: 66e2 f83f 5527 893b 7ede 0dc0 c3dd 4abf
000002c0: 8ae6 fdbe 21ff f2bf 4858 a4bf 32e0 ecbf
000002d0: 223e aebe 4f57 783f 8802 333e 4645 473e
000002e0: f7ce 6dbe 8659 5dbf 1abd 06bf 750f 8d3f
000002f0: fc2e a63d 1f43 95bf 464a 84bf 538c 363f
00000300: 42e5 36be e8ed eb3f a51e 75bf 339e 5abe
00000310: 698d d8be 3a0b 593e f9d0 4a3f cd93 553e
00000320: 5c05 813f a168 263f 3e28 c9be 3f93 07c0
00000330: 778c a93d 1839 fc3e c170 1d3f b92d 3640
00000340: 0f58 183f 0dc4 7c3f 825c 80be ae8b 9e3f
00000350: 67a6 603f bd11 9bbe 6bbb 84bf acca c53e
00000360: 1b2c 263f a98a 883f 04f6 7cbf 5c75 f33e
00000370: 6e65 cc3e a66c 01bf 6c37 443f bf15 4e3f
00000380: 0232 b13f 04b2 09bf 3954 533f c005 5bbf
00000390: 7523 4a3f 378b 3cbd 7f67 87bf 7c7f 83bf
000003a0: 4049 603a 2a1e 463e 29c0 a43f 95a8 893f
000003b0: a6b2 c7bd 8be3 34bf f45d c43f b6c2 ed3b
000003c0: 1169 8ebd 975f d83f 9b73 e73f 00ee d1bf
000003d0: bce0 05bf e84b da3e fcf5 ddbf 8764 89bf
000003e0: 6a2d 6b3f 829b 453f 5537 0f3e efc2 a5bf
000003f0: ad15 f53d 7431 0e3e 5a96 9a3e 5c3a 5440
1.7924796 0.8485032 -0.65950483 0.080713905 1.0384984 -1.7379761 -0.21391138 0.48427576
2.6443748 -0.12620203 0.4092015 0.4004943 2.203686 0.38964406 -0.79496014 0.06488273
0.71978 0.354814 -0.2690831 0.50312054 -0.46425286 -0.91033494 -0.5623602 0.21127775
1.2115341 -1.7173493 0.55394745 0.57071596 -0.06261428 0.47299284 0.519764 0.6524833
-0.4087726 0.99673885 1.0185969 -0.61586803 0.20712927 0.14081429 -0.35242525 1.0577699
-2.9654777 -0.11747833 -0.95950264 0.950517 -0.6784177 1.4570177 -0.5142963 0.17181276
1.0293462 1.3849007 -0.21169639 0.6106981 1.6499537 -1.317658 0.14031331 -2.6638994
-1.2223077 -0.19503361 -0.0895255 -1.0813735 0.01873203 -1.2447352 0.6990833 -0.7982194
-0.13480622 -0.14087102 0.21800001 0.7979804 -0.472163 0.6800858 -1.8934531 -1.1054196
0.02012123 -0.064099945 -1.2316452 -0.491852 0.03648003 -0.6396998 -0.9183481 1.619811
2.6873155 -1.598368 -1.1507217 0.7891455 -2.7607768 0.8956499 0.03917036 -0.4541874
-1.0958405 0.35772908 0.47392216 -1.9895868 0.61323875 -0.23380367 0.09907408 -0.69801515
0.015055966 -0.8646719 0.3813317 0.14676352 0.35451016 0.03543669 -0.9259996 1.1161407
-0.22920853 0.65831095 1.1208416 -0.09027969 0.435888 1.0636036 -0.47324088 -2.1008627
-0.94479007 0.531684 0.45423478 -2.1778018 -1.3308271 -0.5245434 -1.8254011 1.3814762
-0.043242835 0.7313116 0.38106862 2.1021914 -1.1833732 -0.0024124684 1.4641328 -1.6199367
1.0443872 0.92050534 -0.6033781 -0.5534904 0.925204 2.8816192 0.82920665 0.04948433
0.42786822 -1.9363495 -1.7884008 1.2145004 3.9244392 0.79211354 0.54806185 1.7841885
-0.1600353 -2.0272222 -1.9206215 0.207861 0.019353189 -1.638814 -0.43029782 -2.2422163
-1.0183322 0.71599495 -0.32679906 2.7945876 -0.4347633 0.035765443 -0.6002455 -1.1141839
1.259196 0.62204593 -2.294762 0.8643221 -1.5914326 1.9697473 1.805901 0.9397438
-0.3757953 -1.3856817 -0.50148314 1.4014175 1.9444091 0.004185597 -2.2167048 -0.7924463
-0.4958995 -1.8984109 -1.2839441 -1.8505919 -0.3403178 0.9700822 0.17481434 0.1946002
-0.23223482 -0.86464727 -0.52632296 1.1020342 0.0811443 -1.1661109 -1.0335166 0.7130787
-0.17860892 1.8431978 -0.95749885 -0.2134941 -0.42295387 0.21195689 0.79225117 0.20857163
1.007976 0.650034 -0.39288515 -2.1183622 0.08278745 0.4926231 0.61500174 2.8465407
0.59509367 0.9873665 -0.25070578 1.2386377 0.8775391 -0.3028697 -1.0369695 0.3863119
0.6491105 1.0667316 -0.9881289 0.47550476 0.39921135 -0.5055641 0.7664707 0.8050193
1.3843386 -0.53787255 0.8255039 -0.8555565 0.78960353 -0.046031203 -1.057846 -1.027328
0.0008555837 0.19347444 1.2871143 1.0754572 -0.09750871 -0.70659703 1.5341172 0.0072558774
-0.069536336 1.6904172 1.8082155 -1.6400757 -0.5229604 0.42636037 -1.7340693 -1.0733804
0.9186617 0.7719041 0.13985951 -1.2950114 0.11967025 0.13886052 0.30192834 3.316062

lins.0.0.weight f4 [256]
00000000: 2adf 9c3e bca3 393f 1975 9f3e cfda bd3f
00000010: 3363 0340 c373 0c3f 3152 483f f624 a23f
00000020: 1974 4d3e 0ac5 753f f1b8 193f d20c dd3e
00000030: 86d8 7b3f 4737 de3e 1a69 0140 4a92 0a3f
00000040: 2586 103f 54a7 bd3e 11c6 983f 51da 083f
00000050: fa2b 8d3f 3d69 803e 6687 cc3f 6ad0 4e3f
00000060: 2f27 de3e 8648 e63e a77f d93e d22e 603e
00000070: a4fe 113f af5e d23e e8b3 0540 6ae1 7e3f
00000080: 5bbd 2540 f05e 8a3f 8a05 b13f 9a83 e63e
00000090: a88c 013f 7382 193f 2b16 db3e 2862 a73e
000000a0: 83d0 053f 9222 b13f 2fd0 fa3f 802e 973d
000000b0: d8d8 d83e 33bb 9f3f 3831 263f 1fe2 043f
000000c0: b841 0a40 7079 4840 37a3 2e40 bd98 bf3f
000000d0: fbf1 9f3f ae60 ca3f 6555 883e aa8b 753e
000000e0: 6a6c ad3e b353 5c3e 3430 103f 0d5a 1040
000000f0: 055b f23e a33d d03e 65fc c43f d763 e93f
00000100: 938a d63f 3009 af3e b938 9f3e f952 a83f
00000110: f87d a53e 1d0c ebbd 74d3 ca3e 5af3 ae3e
00000120: 1364 013f 49f2 fb3f 1ac0 3a3e 6948 223e
00000130: dde9 713e 5c80 b53f b023 733f b287 e23e
00000140: 5036 f83e ab99 af3f e8fd 933e d837 113f
00000150: f067 b73f f7ac 593e 9ef2 873f 2a09 f33f
00000160: af46 a93e e2c7 953f 5593 fa3e ce85 0040
00000170: a2df 883e 2497 ba3f fa41 933e 362a 073f
00000180: dde3 943e ca01 793f e00c 6e3e 981e a43f
00000190: e0ff 2d40 6abb 1c3f 515b af3f 5fd3 d73e
000001a0: 6894 cd3e 96a8 633f 98b8 c43f 53e1 953f
000001b0: 1e4d 583f 247d ee3e 2bde 813e eda8 313f
000001c0: 3d81 1a3f e7d0 de3e 0dda dd3f c0a6 d13f
000001d0: f2da fc3e 7ed1 fa3f 467a f43f a93e b23e
000001e0: aea4 983f 025a a63f 40a8 ee3e 3f39 b03e
000001f0: df1a bf3f 9d24 9a3f 011c de3e cc44 653e
00000200: 4a68 863e 594b 923f f847 1540 ab99 cb3d
00000210: 7b56 bc3f 6d6b 5f3f eeff 3040 97ff c93e
00000220: 8110 063f 3e6d 483e bba4 ba3f 39fb db3e
00000230: 57e4 ca3f 0593 983f aa45 163e 51f1 c43f
00000240: 07a1 863e a543 913f bad0 c03e 5640 f03e
00000250: 2c92 0440 cb27 c93f d5cf 213f 635b b13f
00000260: ac87 ec3e f18a d43f df16 033f a990 db3e
00000270: 604a e33f 1c02 a83f 3257 493f 16ce bb3e
00000280: ffb1 453e 9e40 0d3f 0155 973f 1d65 e63e
00000290: 6ec8 b53e bd8d d23f 22b2 f13f eebd fe3e
000002a0: b7df 0b3f 1d26 c93e 360e 833f 1b11 b63f
000002b0: af7f 953e 6a40 c83f c12e ad3e b640 d53f
000002c0: 5e42 de3e 6e34 943f bfe1 bd3f 7100 c53f
000002d0: 57c5 ca3f d35f a63e 2ee2 dd3f ec7c 0c3f
000002e0: 7b77 f93e bfa5 d63e 75b9 8c3e 49d7 3d40
000002f0: 35b5 fa3f 9b2d ec3e 9fea 013f 89ce cc3e
00000300: 8d48 ca3e 6a80 023f da10 1540 d8a3 0b3f
00000310: 579e b33f fc05 c13f 5b36 c03e 56de 6b40
00000320: 3e5e 6f3e e102 6640 f382 863e 7fb2 9f3e
00000330: ec34 c63e eb34 a03e ad8e ac3f e62f d83e
00000340: 3bbc d93f 5bf4 963e 6982 253f 25b1 263f
00000350: d78d 0440 fa38 9b3d dcb0 193f ac07 673e
00000360: 68d0 0d3f c256 0740 679a 9e3f 2fdb 3b40
00000370: 2eed 413f 869c 033f ca6f 503d 9d9d b43f
00000380: 1134 d63f d613 6d3e 9633 c63e 4944 663f
00000390: b566 be3f 7942 b43e c9d4 0a40 031d 2040
000003a0: 5c3e cf3f 2a7a 113f d564 343e 4223 0d3f
000003b0: 79ab 5a3f 776d 3a40 b9b8 b93f ca20 b73f
000003c0: cdfa b13f b18c 9e3f b3fe e73e f8fc 5c3e
000003d0: a32b b83f 6816 103f 4926 fe3e 7ae9 0d3f
000003e0: 6816 903f 55e1 053f 2799 b93e f8b5 373e
000003f0: b121 c73f 61a0 103f f5fc 033f fd95 bd3f
0.3063901 0.72515464 0.31144026 1.48324 2.0529296 0.5486414 0.78250414 1.266753
0.20063819 0.9600378 0.60047823 0.43173844 0.98377264 0.43401548 2.02204 0.5412947
0.5645469 0.37041724 1.1935445 0.53458124 1.1029046 0.2508029 1.597882 0.80786765
0.4338927 0.44977206 0.42480204 0.2189286 0.57029176 0.41087863 2.0891056 0.99562705
2.5896823 1.0810223 1.3829815 0.4502228 0.5060525 0.59964675 0.4279035 0.32692075
0.5227129 1.3838675 1.9594783 0.07381916 0.4235294 1.2479004 0.6491885 0.51907533
2.1602612 3.132412 2.7287118 1.4968487 1.2495722 1.5810754 0.2662765 0.23979059
0.33871776 0.21516304 0.5632355 2.2554963 0.47335067 0.40672025 1.5389525 1.8233594
1.676104 0.34186697 0.31097963 1.3150321 0.3232267 -0.1147692 0.3961445 0.34170038
0.50543326 1.9683315 0.18237343 0.15847935 0.23624368 1.4179797 0.9497633 0.44244152
0.48478937 1.3718771 0.28904653 0.56725836 1.4328594 0.21257387 1.0620916 1.8987172
0.3306174 1.1701624 0.4894053 2.0081668 0.26733118 1.4577374 0.28761274 0.52798784
0.29080096 0.97268355 0.23247099 1.2821836 2.7187424 0.6122347 1.3699743 0.4215345
0.40152287 0.88929117 1.5368834 1.1709388 0.8449267 0.4657985 0.25364813 0.69398385
0.6035345 0.43518755 1.7332169 1.6379013 0.49385792 1.9595182 1.9099815 0.3481343
1.1925256 1.2996218 0.4661274 0.34418675 1.4930075 1.2042423 0.4338074 0.22389525
0.2625144 1.1429244 2.3325176 0.09941419 1.4713892 0.87273294 2.7656207 0.39452812
0.5236893 0.19572923 1.4581522 0.42965105 1.5850934 1.1919867 0.14675012 1.5386144
0.2629473 1.1348768 0.37659246 0.46924084 2.0714216 1.5715269 0.6320775 1.3856014
0.4619726 1.6604902 0.51206774 0.42883804 1.7757072 1.3125644 0.78648674 0.3668067
0.19306181 0.55176723 1.1822816 0.44999018 0.35504478 1.6449505 1.8882487 0.4975428
0.54638237 0.3928689 1.0238712 1.422397 0.29198977 1.5644658 0.33824733 1.6660373
0.4341001 1.15785 1.4834517 1.539076 1.5841473 0.32494983 1.733465 0.54878116
0.4872397 0.4192333 0.27485242 2.966265 1.958655 0.46128544 0.5074863 0.40001324
0.39508477 0.50977194 2.3291535 0.5454688 1.4032696 1.5079951 0.3754147 3.6854453
0.23375794 3.5939257 0.2627178 0.3119087 0.3871225 0.31290373 1.3481041 0.42224044
1.7010568 0.29483303 0.64652115 0.6511405 2.0711572 0.07579227 0.6003549 0.2256152
0.5539613 2.1146703 1.239087 2.935253 0.7575253 0.5141071 0.05088786 1.41106
1.673464 0.23152098 0.38711232 0.89947945 1.4875094 0.35206965 2.1692374 2.5017707
1.6190906 0.5682703 0.1761659 0.55131924 0.85417897 2.9129312 1.4509498 1.4306881
1.3904663 1.2386686 0.45311508 0.21580875 1.4388317 0.5628419 0.49638584 0.5543438
1.1256838 0.52296954 0.36249658 0.1794051 1.5557157 0.5649472 0.51557857 1.4811398

lins.0.0.bias f4 [256]
00000000: dea0 2abf 1188 21bf 5c7a fabe a56b 2bbf
00000010: 4deb 03bf d10f 07bf d558 873e 3664 9d3e
00000020: 8d6e 55bf 102d 29bf de11 01bf c129 2abf
00000030: 2024 1abf 362a 2abf a5b5 d1be 75e2 0dbf
00000040: 383a 25bf 7d1a 2abf 1c83 c03e 4ce5 43bf
00000050: 10f3 143d 3ea7 31bf 6cfd 5ebf 08a6 c2be
00000060: b7d1 17bf f8d6 03bf 015e 2abf 190e ebbe
00000070: f0df 17bf 11ae 1abf 7b18 62bf e49a 333e
00000080: 48bf 613e 8eb7 44bf ff6b 68bd f3dc f1be
00000090: 0821 d5be 9e77 0abf dd78 1cbf 46f6 36bf
000000a0: 57a4 3cbf ddda 8d3d 9291 cabe cbbc 6cbf
000000b0: 6686 fbbe 25df 633e 155f d5be f76c fcbe
000000c0: a7a6 11bf d2ee 993f 3a24 00be 6d94 b63d
000000d0: 5625 f1be 2e44 903d f2f1 6abf 3727 16bf
000000e0: 8c5e 0cbf 1ece 12bf 8e6c 57bf ee5a 863e
000000f0: deb4 23bf f7f0 40bf 2c9a 5ebd 74f2 30bd
00000100: 87e1 36be 74c7 51bf 3ba3 4fbf 7b2a a93e
00000110: a9a5 36bf a14f 51bf e775 1ebf 4fa0 1dbf
00000120: 627f 03bf 75a3 b1be 8756 2dbf d49e 61bf
00000130: 5e5b f0be 9e9d 823e 12ba ac3e f3b9 10bf
00000140: 601d 22bf 0c1f 883e 8fd2 ffbe 80e6 0bbf
00000150: ea35 a13e 6be3 d1be 9220 5b3e 0f72 aebd
00000160: 9c9e 0dbf a45f 0c3d 12a1 1dbf 1d85 aabe
00000170: 1942 fdbe 6555 793e 353d 3ebf 5229 d5be
00000180: f7d5 49bf 3f8e 16bf ba03 33bf b87e 073e
00000190: 42d0 46be 3922 19bf ec92 5b3e 2e95 f3be
000001a0: 8abe 1dbf 51a4 523e 0b6b 803e d7b7 a5bd
000001b0: c948 71be d1ad 0abf 9c42 18bf 0a26 08bf
000001c0: 3f0c e7be e219 0bbf 2618 933e dccd ffbe
000001d0: ab75 27bf be40 efbe 982f 623c 11be 11bf
000001e0: b988 71bd 07dc 553e 2178 01bf e25c e4be
000001f0: a732 883e 2edb 833e 1a53 12bf a13c 27bf
00000200: 67f5 35bf c372 c33e fcaf 00be ebdd 1cbf
00000210: a6c1 913d d6a3 5abf 5f67 e2bd 46e5 11bf
00000220: b4d9 e7be f93e 0cbf 1943 653e 436b 5cbf
00000230: b35a c03e b40c 0dbe c9f3 53bf 71b3 00bf
00000240: 4319 54bf c7af 073e 0f8c 1dbf c193 1fbf
00000250: a33c 36bf 6e33 993e 6993 9e3e 4f2b 283e
00000260: 4eaf 11bf e217 c6be d260 16bf 69a4 06bf
00000270: a135 db3e ed3c 943f c9e3 1fbf 896e dcbe
00000280: 0fe6 28bf 8ff6 09bf eec7 493e 1571 e7be
00000290: 44e4 e4be e1c0 ffbe 9ca6 4bbf bba8 febe
000002a0: a6c8 15bf 3698 74bf f61b d53d 090b 783e
000002b0: 2f52 11bf c619 8ebe 4ab4 14bf 729f 4a3d
000002c0: 7727 1dbf 7d59 7cbe 573c 563e 26a9 acbd
000002d0: a486 563d de66 ddbe cd05 5e3e 4179 31bf
000002e0: e90e dcbe cc6e 16bf 3cc4 14bf e633 48bf
000002f0: 7bef f03e f9c2 26bf 35ff 23bf a83f 2bbf
00000300: 1f42 f5be c87f 0ebf db60 3fbd 54be 15bf
00000310: d752 ef3e ebfb 993e f6cd 16bf 567d 35bf
00000320: 498e 50bf 226d 95bf f47e 1abf 43d2 03bf
00000330: 4d61 cfbe 7620 5dbf 1bae b23e 4c7c 1abf
00000340: 2350 c8be f199 50bf 9c8f dfbe 9384 01bf
00000350: 224c f4bc 9d6d 3ebf 4eea 5ebf 147b 18bf
00000360: be50 10bf 1c60 2abe 353e bc3e c193 85bd
00000370: 27e1 cabe 006d 0cbf f01d 93be d63e f83d
00000380: 1653 983e ef89 52bf 8581 0abf eab0 853e
00000390: 3a02 8abe 7bbd 23bf dea7 f0bd bbe1 64bf
000003a0: 4d6e 163c 6932 0cbf 9bc6 3dbf bb65 fabe
000003b0: c2de cb3e 8b70 3f3e a0cb af3a e56d 4dbe
000003c0: c2f1 573e 0cdb 9cbf 35ef 14bf 878b dabe
000003d0: c59b 3e3e 9dde 0ebf e66f 16bf e9b5 24bf
000003e0: a572 2d3e 7699 f4be 2ebf 22bf 6f67 1bbf
000003f0: 3397 713e b6c3 2cbf 407f 3cbf 0ac0 883e
-0.66651714 -0.63098246 -0.48921478 -0.6696113 -0.51530915 -0.5275851 0.2643496 0.30740517
-0.8337181 -0.66084385 -0.5041789 -0.6646996 -0.6021137 -0.6647066 -0.40958896 -0.5542367
-0.6454196 -0.6644667 0.3760003 -0.76521754 0.036364615 -0.69395816 -0.8710544 -0.38017297
-0.59304374 -0.5149989 -0.6654969 -0.45909193 -0.59326077 -0.60421854 -0.88318604 0.17539555
0.22045624 -0.7684258 -0.056743618 -0.47238883 -0.41626763 -0.5408877 -0.6112192 -0.71469533
-0.7368826 0.069265105 -0.39564186 -0.92475575 -0.49125975 0.22253092 -0.41674104 -0.49301884
-0.56894916 1.2026007 -0.1251382 0.08915029 -0.47098798 0.07044254 -0.9177543 -0.5865359
-0.5483177 -0.5734576 -0.84150016 0.2624125 -0.63947856 -0.75367683 -0.05434625 -0.04319997
-0.1785947 -0.81944966 -0.81108445 0.33040223 -0.7134653 -0.8176213 -0.61898655 -0.61572737
-0.51366246 -0.3469502 -0.67710155 -0.8813298 -0.46944708 0.25510877 0.3373571 -0.56533736
-0.6332607 0.26586187 -0.4996533 -0.5464859 0.31486446 -0.4099382 0.21399143 -0.08517849
-0.55320144 0.034270898 -0.615739 -0.33304682 -0.4946449 0.24348982 -0.74312145 -0.41633087
-0.7884211 -0.588108 -0.6992756 0.13231933 -0.19415382 -0.59817845 0.21442765 -0.47574753
-0.61618865 0.20570494 0.25081667 -0.08091705 -0.23562922 -0.5417147 -0.5947664 -0.53183043
-0.4512653 -0.5433637 0.2872936 -0.49961746 -0.6541392 -0.46729082 0.013805293 -0.56930643
-0.05896828 0.20884715 -0.5057393 -0.44602114 0.26601145 0.25753158 -0.5715805 -0.6532689
-0.7107758 0.38173494 -0.12567133 -0.6127612 0.07117014 -0.85406244 -0.11054873 -0.5699047
-0.45283282 -0.5478359 0.22388877 -0.8610117 0.37569198 -0.13774377 -0.8279386 -0.50273806
-0.82851046 0.13250647 -0.6154184 -0.6233483 -0.71186274 0.2992205 0.3097184 0.16422771
-0.5690812 -0.38690096 -0.58741486 -0.5259462 0.42814353 1.1581093 -0.6245695 -0.43053082
-0.6597604 -0.53891844 0.19705173 -0.45203462 -0.44705403 -0.49951842 -0.795511 -0.49738106
-0.5850929 -0.95544755 0.10405724 0.2422296 -0.5676603 -0.2775404 -0.580876 0.049468465
-0.61388344 -0.24643512 0.20921455 -0.084307 0.052374497 -0.43242544 0.216819 -0.69325644
-0.42980126 -0.5876281 -0.5811193 -0.7820419 0.4705771 -0.65141255 -0.6406129 -0.66894007
-0.4790201 -0.5566373 -0.046723228 -0.5849354 0.4674289 0.3007501 -0.5890802 -0.7089437
-0.8146711 -1.167393 -0.60349965 -0.5149271 -0.40503922 -0.86377656 0.34898457 -0.6034591
-0.3912364 -0.81484896 -0.43664253 -0.5059292 -0.02982146 -0.74386007 -0.8707627 -0.595628
-0.563732 -0.16638225 0.3676621 -0.065223224 -0.39624903 -0.5485382 -0.28733778 0.1212136
0.2975089 -0.8224172 -0.5410388 0.26111537 -0.26954824 -0.63961 -0.11750768 -0.8940694
0.009181571 -0.5476442 -0.7413117 -0.4890574 0.39818388 0.18695275 0.0013412125 -0.20061453
0.21088317 -1.2254348 -0.581775 -0.42684576 0.18614109 -0.5580843 -0.58764493 -0.6434007
0.16938265 -0.4777333 -0.6357297 -0.607047 0.23592834 -0.6748613 -0.7363167 0.26709014
