models/ogbl-collab_CN_2_1_0_run7_gnn.pt (torch, 668318 bytes, 10 tensors)

convs.0.bias f4 [256]
0	0x408112c2	4.03354
1	0x3fc31762	1.5241511
2	0x404448e1	3.0669482
3	0xbf98f673	-1.195021
4	0xbfd6c4dd	-1.6778828
5	0x40504deb	3.2547557
6	0xbe876fb3	-0.26452407
7	0xbf4970cb	-0.78687733
8	0x40943e29	4.632588
9	0xbf368bbc	-0.7130697
10	0x4009f55b	2.1556003
11	0x405709b9	3.3599684
12	0xbf9b3c81	-1.2127839
13	0x409486d6	4.6414595
14	0xbfb1ba52	-1.3884985
15	0x3fa6c0b4	1.3027558
16	0xbfac9734	-1.3483644
17	0x4062678a	3.5375695
18	0xbf503054	-0.8132374
19	0xbfbce799	-1.4758178
20	0xbf4a4466	-0.7901062
21	0x40c4992d	6.143698
22	0xbe9b374a	-0.3031562
23	0xc1238da7	-10.222083
24	0x3f282d3f	0.6569404
25	0x4097b724	4.741106
26	0x401c47f4	2.4418917
27	0x40dd5483	6.9165664
28	0x40211778	2.5170574
29	0x3fbe09ef	1.4846781
30	0xbf954dad	-1.166433
31	0xbeee1872	-0.46503025
32	0xc03d8476	-2.9612098
33	0xc0c1afb5	-6.0526986
34	0x3e1a49ee	0.15067264
35	0x401cbb17	2.448919
36	0x402f8eea	2.7430978
37	0x40108641	2.2581942
38	0x4075f139	3.842848
39	0x401e148e	2.4700046
40	0x3ff68120	1.9258156
41	0x3eb3fbb6	0.35152978
42	0xc0387275	-2.881986
43	0x40e78afa	7.235715
44	0x40812c6d	4.036673
45	0xbf296829	-0.6617456
46	0x3ec9d8e4	0.39423287
47	0x3f9424b2	1.1573699
48	0xc022ed99	-2.5457518
49	0x40a1db4d	5.05802
50	0xbf719270	-0.9436407
51	0xbf0b5b4e	-0.54436195
52	0xc06a32c5	-3.6593487
53	0x3c9712fc	0.01844167
54	0x40a756b4	5.229334
55	0x40dee193	6.965036
56	0x40be34b0	5.9439316
57	0x40d85946	6.7608976
58	0x403d839e	2.9611583
59	0x3dcb5cc2	0.099298015
60	0x40716329	3.7716773
61	0x4063aa86	3.557283
62	0xc1674d2d	-14.456342
63	0xbf337eaf	-0.7011518
64	0x3e56b23e	0.20966431
65	0x40ad0844	5.407259
66	0xc0644cf1	-3.5671961
67	0xbf1b3e26	-0.60641706
68	0x40267bd2	2.6013074
69	0x41276b06	10.463629
70	0x3ff078e1	1.8786889
71	0x4028bfca	2.6367059
72	0x401d8241	2.461075
73	0xc03d25a2	-2.955422
74	0x40c72bec	6.2241116
75	0x41048294	8.281879
76	0x40d14ab0	6.540367
77	0x3f9ef3c5	1.2418143
78	0xbfcd8502	-1.6056216
79	0x405043db	3.2541416
80	0x3ff16384	1.8858495
81	0xbe040acc	-0.12894744
82	0x40cb59fc	6.3547344
83	0x3fb07064	1.3784299
84	0xbd6a3056	-0.057175003
85	0x40a43c2b	5.1323447
86	0xbf915dc3	-1.1356739
87	0xc08fc0a9	-4.492268
88	0x403e3b21	2.972359
89	0x3dbb317d	0.091402985
90	0x400c5243	2.1925209
91	0xbe9d6dc5	-0.3074781
92	0x408ae1f5	4.3400826
93	0xbe481af9	-0.19541539
94	0x40b5477b	5.6649756
95	0x3fd42760	1.6574516
96	0x408562e2	4.1683207
97	0xc158d5f1	-13.552232
98	0x40e8220e	7.254157
99	0x3f268ea6	0.65061414
100	0xbf48d9e3	-0.7845747
101	0x3fcefb07	1.6170357
102	0xbfacd9d2	-1.3503973
103	0x4012b100	2.2920532
104	0x401347d1	2.3012583
105	0x3ff8b394	1.9429803
106	0xbf530234	-0.82425237
107	0xbfb212da	-1.3912003
108	0xc16d76d5	-14.841512
109	0x4098c26e	4.773734
110	0x40c5c6b1	6.1805043
111	0xbf5c0daa	-0.8595835
112	0x3fcdc3eb	1.6075414
113	0x402de2f5	2.7169774
114	0xbea67e39	-0.32518175
115	0xbe12e3de	-0.14344737
116	0x4093fb3b	4.624418
117	0xbf4bba9c	-0.7958162
118	0x3f800667	1.0001954
119	0x40b35d44	5.605135
120	0x3e91da05	0.28486648
121	0xbeca2ab8	-0.39485717
122	0x3fe36cf4	1.7767625
123	0x408ce831	4.4033437
124	0xbf54f083	-0.8317949
125	0xbf9a7ddb	-1.2069658
126	0x406f2f64	3.7372675
127	0x407100ca	3.7656732
128	0x3f0c4a59	0.54800946
129	0xbf017de1	-0.505827
130	0xc0a60f46	-5.1893644
131	0x40c89aa1	6.2688756
132	0xbf401080	-0.75025177
133	0xbfe2f20d	-1.7730118
134	0xbdc644de	-0.09681104
135	0x3fc3898b	1.527635
136	0x3febb959	1.8415939
137	0x40f2fe36	7.5935316
138	0xbe3cd7e7	-0.18441735
139	0x405b02cb	3.4220455
140	0xbd4a64fa	-0.049412705
141	0xbfd610fa	-1.6723931
142	0x40f979cb	7.7961173
143	0xbf0f7d64	-0.56050706
144	0x4070d425	3.7629483
145	0x3e039ed6	0.1285356
146	0x407f557d	3.9895928
147	0x3fac322c	1.3452811
148	0xbf74ae6b	-0.9557864
149	0xbde3d553	-0.11124673
150	0x401cf434	2.452405
151	0xbf5874e9	-0.8455339
152	0x404c4fdd	3.1923745
153	0xc0689652	-3.6341748
154	0xbf6282d6	-0.8848089
155	0x403cf8e0	2.9526901
156	0xc08b49ec	-4.3527737
157	0xc10a520a	-8.645029
158	0x3d95a800	0.07307434
159	0x402ec818	2.7309628
160	0x40acc4e0	5.3990326
161	0x407ce101	3.9512331
162	0xbf9ccd3f	-1.2250136
163	0x407b58e2	3.9273
164	0x408d0fa7	4.4081607
165	0xc0030ad9	-2.047537
166	0xbd6f3d59	-0.058408115
167	0x3f52f805	0.824097
168	0x407c7a89	3.944979
169	0x4011905b	2.2744358
170	0xbe1e0b1e	-0.15433928
171	0xbf90719c	-1.1284671
172	0x40397c70	2.89822
173	0xc02a629a	-2.6622682
174	0x3f6ebf95	0.9326108
175	0x3ed840b5	0.42236868
176	0x40801ef8	4.0037804
177	0xc165af56	-14.355307
178	0xbe0be765	-0.13662489
179	0xc165cdf3	-14.362781
180	0x3fcc5517	1.5963467
181	0x40ad1b52	5.409585
182	0xbf1b5ba6	-0.6068672
183	0x3ff16b14	1.8860803
184	0x404320af	3.0488698
185	0x403865a7	2.8812044
186	0x40c580ef	6.171989
187	0xc02a4095	-2.6601918
188	0xc000e110	-2.0137367
189	0xbf7ea558	-0.99471045
190	0x40131c55	2.2986042
191	0x4076c29b	3.8556278
192	0x3f928dd2	1.144953
193	0x405a5d22	3.4119344
194	0xbfe0497f	-1.7522429
195	0x3dcb6e03	0.099330924
196	0x3c19484e	0.009355618
197	0xbd991899	-0.07475395
198	0x404c8d28	3.1961155
199	0xc09dd808	-4.932621
200	0x40a12439	5.0356717
201	0xbfffd8ac	-1.9987998
202	0x40bbb313	5.8656096
203	0x40c22615	6.0671487
204	0x3ff65d05	1.9247137
205	0x40d6d655	6.7136636
206	0xbf512d6b	-0.8170993
207	0xbf83206e	-1.0244272
208	0xc00d1e98	-2.2049923
209	0x40ecfdbb	7.405973
210	0x3ffa59da	1.955867
211	0xbf524299	-0.8213287
212	0xc05cbb74	-3.4489412
213	0x40a9959f	5.2995143
214	0xc010fe99	-2.2655394
215	0x409c6e7f	4.8884883
216	0x40544442	3.3166661
217	0xc033a438	-2.806898
218	0xbf114529	-0.56746155
219	0xbe72ca42	-0.23709968
220	0xc0c4e114	-6.1524754
221	0x408a6e26	4.325946
222	0x4100a120	8.039337
223	0xbd13fa23	-0.03612722
224	0xbee27bf6	-0.442352
225	0x40b75579	5.7291837
226	0x4090bb55	4.5228677
227	0xbe298155	-0.16553243
228	0xbfc0a07d	-1.5048977
229	0x409205a3	4.563188
230	0x3c344cb9	0.01100462
231	0xbff224c9	-1.8917476
232	0x3ef1af0b	0.4720386
233	0x3fbf2cdd	1.4935566
234	0x409f1903	4.971803
235	0x402aeec2	2.6708226
236	0x404c62f9	3.1935408
237	0xbf8e970b	-1.1139845
238	0x3c23ea54	0.010004599
239	0xc0056747	-2.0844285
240	0xbfa8ac2e	-1.3177545
241	0xbea5092d	-0.32233563
242	0x4080e324	4.027727
243	0x40d42381	6.629334
244	0xbedfa0c0	-0.4367733
245	0x400acf7f	2.1689146
246	0x40615cc7	3.5212877
247	0x3fdff3d8	1.749629
248	0x3f2b45ee	0.6690358
249	0x40482839	3.127455
250	0x40b6cdbf	5.7126155
251	0x408cad53	4.3961577
252	0xbebb3af2	-0.3656841
253	0x3fde430c	1.7364211
254	0x40244b61	2.5671008
255	0x3cbdc2a6	0.023164105

convs.0.lin.weight f4 [256, 128]
0	0xbe8fef56	-0.28112286
1	0x3f37c257	0.71780914
2	0x3e157389	0.14594854
3	0x3ef0ffc6	0.4707014
4	0xbe0dbcb4	-0.13841516
5	0xbe88a32b	-0.26686987
6	0xbcbd325f	-0.023095308
7	0x3e2fa7d5	0.17153867
8	0x3f19f000	0.60131836
9	0xbf8745dd	-1.0568196
10	0x3f0dcaf0	0.55387783
11	0x3d517f9b	0.051147085
12	0xbd34e3ef	-0.044162687
13	0xbe850719	-0.25981978
14	0xbcad370e	-0.021144416
15	0x3e86619f	0.26246354
16	0x3edb2f4e	0.42809528
17	0x3e61c5c7	0.22048102
18	0x3e858f77	0.26086017
19	0xbe160865	-0.1465164
20	0x3e266ca9	0.16252388
21	0x3db93459	0.09043188
22	0x3cfb623e	0.030686494
23	0x3ede8446	0.43460292
24	0xbc7f2424	-0.015572581
25	0xbb85a289	-0.0040782136
26	0x3e06bd10	0.13158059
27	0x3dd86d1c	0.10567686
28	0xbe9650a2	-0.29358393
29	0x3c3a0141	0.011352838
30	0xbe85a136	-0.26099557
31	0x3f17bfab	0.5927684
32	0xbeb5060d	-0.3535618
33	0x3e90651d	0.28202143
34	0xbeeec94c	-0.46637952
35	0xbe1e0749	-0.15432467
36	0xbd9af275	-0.07565776
37	0xbbf3e73f	-0.007443338
38	0x3f3fc414	0.74908566
39	0x3e0c2666	0.13686523
40	0xbd3137f1	-0.04326624
41	0x3e3fb63c	0.1872186
42	0x3ef42c48	0.47690034
43	0x3de48132	0.111574546
44	0x3d7b38df	0.061333533
45	0x3ed27d98	0.41111445
46	0xbcfef8ed	-0.031124556
47	0xbf0a37ad	-0.53991205
48	0xbdbdafac	-0.092620224
49	0x3f1709a6	0.589991
50	0x3ea4d41c	0.32193077
51	0xbcb2aed3	-0.021811878
52	0xbed1f55b	-0.41007504
53	0xbf265e6b	-0.6498782
54	0x3e669da2	0.2252107
55	0x3e71a600	0.2359848
56	0xbe2fdfb9	-0.17175187
57	0xbee155da	-0.44010812
58	0x3ec645b6	0.3872506
59	0x3cd07927	0.025448395
60	0x3e624a6a	0.22098699
61	0x3f1d91b8	0.61550474
62	0x3e5449cd	0.20731278
63	0xbe42f727	-0.19039594
64	0x3e9dead2	0.30843216
65	0xbc7ef112	-0.015560405
66	0xbe2610f2	-0.16217402
67	0xbe4606e9	-0.19338574
68	0x3b3fdd6a	0.002927626
69	0xbbbacae4	-0.005700456
70	0x3e5ac3b5	0.21363719
71	0x3e2b8d0a	0.16753021
72	0xbe4239dc	-0.18967384
73	0xbe4d40e6	-0.20044288
74	0xbe11d6d7	-0.14242111
75	0xbe3fb460	-0.18721151
76	0x3e1cdb39	0.15318002
77	0x3de66d80	0.11251354
78	0xbebc21f9	-0.3674467
79	0x3d29a61c	0.04141818
80	0xbe9a61e1	-0.301528
81	0x3dede733	0.116163634
82	0x3dabb669	0.08384401
83	0x3e4b857f	0.19875143
84	0x3d2d338f	0.0422855
85	0xbdfc9b13	-0.123342656
86	0xbcd5ae3d	-0.02608406
87	0x3f3e205b	0.7426812
88	0x3f3bfa52	0.73428833
89	0xbdbedafa	-0.0931911
90	0x3e4551ce	0.19269487
91	0xbc0fe0af	-0.008781596
92	0x3e8c8243	0.27443132
93	0xbeaf464b	-0.34233317
94	0xbe6f7d3b	-0.23387615
95	0xbecdfbc0	-0.40231133
96	0xbd4ea3b6	-0.050449096
97	0x3e1f7fad	0.15576048
98	0xbd76a3ca	-0.060214795
99	0xbe328d27	-0.17436658
100	0xbea48e24	-0.32139695
101	0x3d7e370f	0.062064227
102	0xbe7bffb7	-0.24609266
103	0xbdbd49cd	-0.09242592
104	0x3dc4f8c7	0.09617763
105	0xbbcedb41	-0.006312758
106	0x3dcf344f	0.10117399
107	0x3f1c6ffb	0.6110837
108	0x3ec0c5cb	0.37650904
109	0x3e7a7eb0	0.2446239
110	0xbe300bd1	-0.17192008
111	0xbf092f06	-0.5358738
112	0x3e8aaefe	0.27086633
113	0x3e9fb445	0.31192222
114	0x3e37b1b7	0.17938887
115	0x3e99fb04	0.30074322
116	0x3e1cd6fc	0.15316385
117	0x3f27e385	0.6558154
118	0xbe1d321b	-0.15351145
119	0xbd5af415	-0.05345543
120	0xbe9ddcf3	-0.30832633
121	0xbe773e9b	-0.24144976
122	0x3d1e5628	0.038656384
123	0x3e73d016	0.23809847
124	0x3e70f070	0.2352922
125	0xbd96fb2d	-0.07372127
126	0x3e21f3b4	0.15815622
127	0x3e3187c0	0.17336941
128	0xbe270826	-0.16311702
129	0x3ed3127c	0.4122504
130	0x3e78556c	0.24251336
131	0xbf0b20e6	-0.54347074
132	0xbf145a7c	-0.5795057
133	0xbe680e2c	-0.22661656
134	0xbdad13d7	-0.0845105
135	0x3db82f30	0.08993375
136	0x3f1a1eb5	0.60203105
137	0xbefcbf81	-0.49364856
138	0x3e4e9ce2	0.20177034
139	0xbd469c7c	-0.04848908
140	0x3d5b5a3f	0.053552862
141	0xbea61388	-0.32436776
142	0xbd7584be	-0.059941046
143	0xbd02c365	-0.031924624
144	0x3ebe2868	0.37140203
145	0x3d74354f	0.05962115
146	0x3eaa2b29	0.33236054
147	0xbe502c84	-0.20329481
148	0x3d8868d1	0.06660617
149	0x3e7e064a	0.24807087
150	0xbdf384cf	-0.118905656
151	0x3e0bc14b	0.13647954
152	0xbe7261cf	-0.23670124
153	0x3d70736b	0.05870382
154	0x3eaadf24	0.33373368
155	0xbe08024a	-0.13282123
156	0x3ead54c1	0.33853725
157	0x3e117653	0.14205293
158	0xbd8a57a1	-0.06754995
159	0x3e82b654	0.2552973
160	0xbf4149c3	-0.75503176
161	0x3e5adca3	0.21373229
162	0xbe83c78c	-0.2573818
163	0xbdb290a3	-0.087189935
164	0xbe47403a	-0.19458094
165	0xbe1c14b4	-0.15242273
166	0x3d9cd2c9	0.076573916
167	0x3eb1c49d	0.34720317
168	0x3c8ff703	0.017573839
169	0xbeaabcc4	-0.33347142
170	0x3eac5bad	0.33663693
171	0x3db097d5	0.0862271
172	0xbdde4001	-0.108520515
173	0x3e9628a4	0.2932788
174	0x3d0da508	0.034581214
175	0xbf1e2a17	-0.61782974
176	0x3e9aac06	0.30209368
177	0x3f6929d2	0.9107944
178	0x3e0f15e3	0.13973193
179	0x3e6f615c	0.23376983
180	0xbe93f125	-0.28894916
181	0xbe8c09a4	-0.27351105
182	0xbdffacd0	-0.12484133
183	0x3f02abb5	0.51043254
184	0xbf1c9a3f	-0.6117286
185	0xbe541fcf	-0.20715259
186	0x3f25c7bb	0.6475789
187	0xbe48a0a6	-0.19592533
188	0x3e2e15f8	0.17000568
189	0x3f8165e4	1.010922
190	0xbe128ac1	-0.14310743
191	0xbe2909e4	-0.16507679
192	0x3df36719	0.11884899
193	0x3d771720	0.060324788
194	0xbe0fac7a	-0.14030638
195	0x3d9cb4ce	0.07651673
196	0x3e209941	0.15683462
197	0x3db60d8d	0.08889303
198	0x3e128a91	0.14310671
199	0xbe7b07c3	-0.2451468
200	0x3d18f1f4	0.03734012
201	0xbe65eabe	-0.22452828
202	0xbea6c299	-0.3257034
203	0xbc8a2322	-0.016862456
204	0xbd0e32de	-0.03471648
205	0x3c18a70e	0.009317173
206	0xbf57f288	-0.8435445
207	0xbea09465	-0.31363216
208	0xbe9c658a	-0.30546218
209	0xbed205de	-0.410201
210	0xbd30103c	-0.042984232
211	0x3c87688f	0.01652935
212	0xbec48d8a	-0.38389236
213	0x3caeaba4	0.021322079
214	0xbe35ae52	-0.17742279
215	0x3edfbc02	0.43698126
216	0x3ed2b5f8	0.41154456
217	0x3e20780a	0.15670791
218	0x3dd9a7ff	0.10627746
219	0xbef98bb0	-0.48739386
220	0xbd3bbb4d	-0.04583292
221	0xbf3d0f7a	-0.7385174
222	0x3e72941b	0.2368931
223	0xbdb33bdd	-0.087516524
224	0xbeced373	-0.40395698
225	0x3bf97601	0.007612944
226	0x3df3ce56	0.1190459
227	0xbf0a2103	-0.5395662
228	0xbf18529f	-0.5950107
229	0x3e9fc277	0.31203052
230	0xbebae045	-0.3649923
231	0x3d681cc5	0.05666806
232	0x3d9334d1	0.07187808
233	0x3e214b6e	0.1575143
234	0xbdccbb87	-0.099967055
235	0x3f19bd65	0.6005462
236	0x3d0406b5	0.03223296
237	0xbd2583c7	-0.040408876
238	0xbe157ac5	-0.14597614
239	0xbf39a230	-0.72513103
240	0x3e836f35	0.25670782
241	0x3f21b953	0.6317341
242	0x3ec752c0	0.3893032
243	0x3e982ad5	0.29720178
244	0x3e8b8ff6	0.2725827
245	0x3f4e4839	0.80578953
246	0x3cab753c	0.020929925
247	0x3f3e53f9	0.7434688
248	0xbd0d7fbd	-0.03454565
249	0xbe513953	-0.20432024
250	0x3db54c71	0.08852471
251	0xbd89ea57	-0.0673415
252	0x3e871350	0.26381922
253	0x3e0b9c1e	0.13633773
254	0x3e55be80	0.20873451
255	0x3f0ba0aa	0.5454203

convs.1.bias f4 [256]
0	0xc0240770	-2.562954
1	0x3f54e046	0.83154714
2	0xbff0e845	-1.8820883
3	0xbf9e17e3	-1.235104
4	0xbf47ceec	-0.7805011
5	0xbf40d9e2	-0.7533246
6	0x3a917dff	0.0011100172
7	0x3f03b96e	0.5145482
8	0xbdb33774	-0.08750811
9	0x40b0a78e	5.5204535
10	0x3f4cbac6	0.79972494
11	0xbe199021	-0.14996387
12	0x3f072e26	0.5280479
13	0xbd0b0fbd	-0.033950556
14	0x406b365b	3.6751926
15	0x40c9d31d	6.3070207
16	0x4086d9b6	4.214076
17	0x3fa7d120	1.3110695
18	0xbfa9eab0	-1.3274746
19	0x4089346d	4.2876496
20	0xbe94bd4d	-0.29050675
21	0x3d0d7c91	0.034542624
22	0xbe15f08a	-0.1464254
23	0xc09c84f5	-4.89123
24	0xbeed9ff6	-0.46411103
25	0xbf7393ff	-0.951477
26	0xbe800185	-0.2500116
27	0x3fab0391	1.3360463
28	0x3e38bcb3	0.18040733
29	0xbec846fb	-0.39116654
30	0xbe277103	-0.16351704
31	0xbee6ce53	-0.45079288
32	0xbf24a81f	-0.6431903
33	0x3d56c767	0.05243626
34	0x3f33bf9d	0.70214254
35	0x4096e978	4.7159996
36	0x404cad52	3.1980786
37	0x40d817c9	6.7529035
38	0xbef637d6	-0.48089474
39	0xbfee8bdf	-1.8636435
40	0xbe813178	-0.25233054
41	0x40d4abc0	6.6459656
42	0x40a28f38	5.0799828
43	0x3f3aaca1	0.7291966
44	0x3efdcc3a	0.49569875
45	0x408a7935	4.327296
46	0x3ee71c03	0.4513856
47	0x40910394	4.531687
48	0xbd248ddc	-0.04017435
49	0x40bbed05	5.872683
50	0x40bfe62b	5.9968467
51	0xbe9ed43d	-0.310213
52	0xbf521222	-0.8205892
53	0xbe5e605f	-0.2171645
54	0xc003aa52	-2.0572705
55	0x3e3839a1	0.17990734
56	0xbd75cc56	-0.060009323
57	0xbf070f29	-0.5275751
58	0xbef8c067	-0.4858429
59	0x401e1fce	2.4706912
60	0x40855a92	4.167306
61	0xc00eceb9	-2.2313673
62	0xbf570240	-0.8398781
63	0x408ef7c1	4.4677434
64	0xbf6fb332	-0.93632805
65	0x3ea5d646	0.3239004
66	0x3e5bec35	0.21476825
67	0xbf20658b	-0.6265494
68	0xbf5417a2	-0.8284856
69	0x3c9bbfbb	0.019012323
70	0xbe4e1749	-0.2012607
71	0x3e6438b8	0.22287261
72	0xbec4dfe9	-0.3845208
73	0x40452deb	3.0809276
74	0xbf2f98e6	-0.6859268
75	0x406c2a9a	3.6901002
76	0xbe89867c	-0.26860416
77	0xbf3f6beb	-0.74774045
78	0x40b090af	5.5176616
79	0xbd7210da	-0.059098102
80	0x3f343f52	0.7040912
81	0x3f5c1281	0.85965735
82	0x3dac885c	0.08424446
83	0x406dcc0a	3.7155786
84	0xc049012e	-3.140697
85	0x40849271	4.142876
86	0x3f2430aa	0.64136755
87	0x3dbd647f	0.09247684
88	0x3e950a60	0.29109478
89	0x3ec423e7	0.3830864
90	0xbf8fca27	-1.1233567
91	0x40c9333b	6.2875037
92	0xbf81fdb4	-1.0155549
93	0xc082b48a	-4.0845385
94	0x40822f79	4.068295
95	0x3eefa13f	0.46802709
96	0x40b5ba6b	5.679006
97	0x3e94ede4	0.29087746
98	0x40057183	2.0850532
99	0xc0295b96	-2.646215
100	0x40aeba8b	5.4602714
101	0x406e6e9b	3.7255008
102	0xbe22c89e	-0.15896842
103	0xbecbdd66	-0.3981735
104	0xbea0c9a4	-0.3140384
105	0x40957e8e	4.6716986
106	0xbe913a91	-0.28364995
107	0x3c0f8d48	0.008761711
108	0xbf4cf4d2	-0.80061066
109	0xbeb00445	-0.34378257
110	0xbf140ad1	-0.57829005
111	0x3f43a90a	0.7642981
112	0xbfd35ef6	-1.6513355
113	0xbf26d4a7	-0.6516823
114	0x3e242a53	0.1603177
115	0x3d154568	0.036443144
116	0x3e4aede9	0.19817318
117	0x3df2eefd	0.1186199
118	0xbeedc679	-0.46440485
119	0x3f1d9656	0.6155752
120	0x3f804533	1.0021118
121	0x3e76480d	0.24050923
122	0x3acefa76	0.0015791196
123	0xbe7f97bb	-0.24960224
124	0x3f18ac86	0.5963825
125	0xbf72d2cb	-0.94852895
126	0xbf043057	-0.5163626
127	0x3ef985af	0.48734805
128	0xbeea67a8	-0.45782208
129	0x3eac4789	0.33648327
130	0x3f941e6e	1.1571786
131	0xbf07713f	-0.52907175
132	0x3eca0b99	0.39461973
133	0xbf574204	-0.84085107
134	0xbe32b975	-0.17453559
135	0x40b26308	5.574589
136	0xbf5ee414	-0.8706677
137	0xbebbd053	-0.36682376
138	0xbf406426	-0.75152814
139	0xbdfea8e5	-0.12434558
140	0x3bd25972	0.006419354
141	0xbf4e6ba8	-0.8063302
142	0xbed167b6	-0.40899438
143	0x3dbd3b6c	0.092398494
144	0x3ca40c8b	0.020025512
145	0x3e9a05a3	0.30082425
146	0x3ec8026a	0.39064342
147	0xbf9dfa1c	-1.2341952
148	0xbe8a004f	-0.2695336
149	0x3daf90ed	0.08572564
150	0x4072344e	3.7844424
151	0x40b76408	5.730961
152	0xbf21e8c3	-0.6324579
153	0xbf1a20c5	-0.6020625
154	0xbe1299f9	-0.14316548
155	0xbf5fea7d	-0.87467176
156	0xbedd0f7f	-0.43175885
157	0xbdf2950f	-0.11844837
158	0xbf402a54	-0.7506459
159	0xbf5217d9	-0.8206764
160	0xbf4b99f2	-0.79531777
161	0x40010407	2.0158708
162	0xbeb48a55	-0.3526179
163	0x3e39f236	0.18158802
164	0xbe7f9355	-0.24958546
165	0xbcb4bf3b	-0.022063842
166	0xbdbcae92	-0.09212984
167	0xbefadc0d	-0.4899601
168	0xbdc38eee	-0.09548746
169	0x3eed0020	0.46289158
170	0xbe2ecff6	-0.17071518
171	0xbe990ed8	-0.29894137
172	0x3ea007be	0.31255907
173	0x3d8ccfb1	0.068755515
174	0x3efe1209	0.49623135
175	0x4029a7b6	2.6508613
176	0xbf50448e	-0.81354606
177	0x3e424983	0.18973355
178	0x3f59d4cf	0.85090345
179	0xbeef7b96	-0.46773976
180	0x3e8bdcb1	0.27316812
181	0x3fb27958	1.3943281
182	0x3f699598	0.91243887
183	0xbeb799ef	-0.3585963
184	0x40acb89d	5.397536
185	0x3f12add2	0.5729648
186	0xbfd09a5e	-1.6297109
187	0x40cac309	6.336308
188	0xbd785c09	-0.060634647
189	0x40867cdd	4.202742
190	0x3d9692a3	0.073521875
191	0xbf8020e4	-1.0010037
192	0x405f9c2d	3.4939072
193	0xbe78ce85	-0.24297531
194	0x40a6d809	5.2138715
195	0x40aa0599	5.3131833
196	0x3f3e5fe2	0.74365056
197	0x40da95f3	6.8308043
198	0x3f84ec49	1.0384609
199	0x404e85f8	3.2269268
200	0xbed8f34a	-0.42373115
201	0x40c2600c	6.0742245
202	0xbf2b30f7	-0.6687159
203	0x3ecf554f	0.40494773
204	0x40915b80	4.5424194
205	0x409ef835	4.9677987
206	0x3f236dd4	0.6383946
207	0x3f2e8852	0.6817676
208	0x408cf337	4.4046893
209	0xbf25d9f7	-0.6478571
210	0xbe3e9a88	-0.18613636
211	0x40408b5c	3.0085058
212	0xbf678497	-0.9043669
213	0xbdb7d11a	-0.0897543
214	0xc0608e08	-3.508669
215	0xbee0088c	-0.4375652
216	0x3f32ae5a	0.6979729
217	0x409b4001	4.851563
218	0x3ea48f57	0.3214061
219	0xbf17658c	-0.59139323
220	0xbee66832	-0.4500137
221	0x3d14c955	0.036324818
222	0xbf9b8501	-1.2149965
223	0x3ff29e87	1.8954629
224	0xbe0278d9	-0.12741412
225	0x3d6ab11a	0.057297803
226	0x3f4c7b13	0.79875296
227	0x400c3eaf	2.191326
228	0xbf9a1f79	-1.2040855
229	0x4093041e	4.5942526
230	0x3fd6c1e1	1.6777917
231	0x3ff99193	1.9497551
232	0x3ffbfed7	1.9687146
233	0x400743d2	2.1135144
234	0x3e803edd	0.2504796
235	0x3ee26282	0.4421578
236	0x40c96e17	6.2946887
237	0x40921d54	4.56608
238	0x3ebb7519	0.36612776
239	0x3ca09246	0.019600999
240	0xbf028368	-0.5098176
241	0x3e9a247e	0.30105966
242	0x3fc0083a	1.500251
243	0xbedd6e15	-0.43248048
244	0x40b80291	5.7503133
245	0xbf8367fd	-1.026611
246	0xbe4cc856	-0.19998297
247	0x3e065f43	0.13122277
248	0xbf79da12	-0.97598374
249	0x3fae5e2e	1.3622491
250	0x406b59b8	3.677351
251	0xbe836f24	-0.2567073
252	0xbf467ccb	-0.7753417
253	0x40987cf1	4.7652516
254	0xbeb5677d	-0.35430518
255	0xbe76058a	-0.2402555

convs.1.lin.weight f4 [256, 256]
0	0xbf0edf6a	-0.5580965
1	0x3e956cba	0.29184514
2	0xbe7d60b6	-0.24743924
3	0x3fdca3a2	1.7237437
4	0x3f9d109f	1.2270697
5	0x3e3acc26	0.18241939
6	0x3dd92433	0.106026076
7	0x3e4bf693	0.1991828
8	0xbd8a205d	-0.06744454
9	0xbd664327	-0.056216385
10	0xbdab85d2	-0.083751336
11	0x3d3625c3	0.044469606
12	0xbe03d20c	-0.12873095
13	0xbeb56eba	-0.3543604
14	0x3f68ba64	0.9090941
15	0xbde82e21	-0.113369234
16	0xbe822da3	-0.25425443
17	0x3d393f7f	0.04522657
18	0x3fde170c	1.7350783
19	0xbd9f54f1	-0.07779873
20	0xbfe7f4f6	-1.8121631
21	0xbe0862d1	-0.13318945
22	0x3d83e70f	0.06440555
23	0x3bb5a49f	0.005543306
24	0x3e94defe	0.2907638
25	0xbd8f1869	-0.06987078
26	0x3ec9f65d	0.39445773
27	0xbe2ff1af	-0.17182039
28	0x3d9949b1	0.07484759
29	0x3ed5244e	0.4162926
30	0xc003d0b3	-2.059613
31	0xbfb03bcd	-1.376825
32	0x3eb40955	0.3516337
33	0x3edf0732	0.43560177
34	0xc04e06a5	-3.2191556
35	0xbe5ebd85	-0.21751983
36	0x3e36080c	0.17776507
37	0xbcb6164a	-0.022227425
38	0x3e3857e7	0.18002282
39	0x3ea2f959	0.31830862
40	0xbeff2ad7	-0.49837372
41	0x3f44c045	0.7685588
42	0xbdda8162	-0.10669209
43	0x3e9057c1	0.2819195
44	0xbe1ef675	-0.15523703
45	0x3f9a2bff	1.2044677
46	0x3eaa7c93	0.33298168
47	0xbdd4a391	-0.1038276
48	0x3f8f5f6f	1.1200999
49	0x4027c8a5	2.6216214
50	0xbfb1c8ff	-1.3889464
51	0x3f9bf5c2	1.2184374
52	0x3d9d9fd5	0.07696501
53	0xbdc0d96d	-0.09416471
54	0xbda737e5	-0.08164958
55	0xbdaae2ca	-0.08344038
56	0xbd818a22	-0.06325175
57	0xbdda48b9	-0.10658402
58	0xbf5dbe48	-0.8661847
59	0xbf4a2857	-0.78967804
60	0xbdce0d72	-0.10061158
61	0xbe51dbad	-0.20493956
62	0xbccb700e	-0.024833705
63	0x4016f736	2.3588386
64	0xbee06597	-0.43827507
65	0xbdfe58b0	-0.124192595
66	0x3f2d38d5	0.67664844
67	0x3f89964c	1.0748992
68	0x3d4e90a9	0.050430927
69	0xbd9c0dae	-0.07619797
70	0x3f19727e	0.59940326
71	0x3e352010	0.17688012
72	0x3e1c065c	0.15236801
73	0x3fa6bcfd	1.3026425
74	0x3d06723c	0.032823786
75	0x3f1d296a	0.6139132
76	0x39d10efe	0.00039874756
77	0x3e80aa0a	0.2512973
78	0xbe01382e	-0.12619087
79	0x3dbbb2af	0.091649406
80	0xbdc60b17	-0.09670084
81	0xbf04260f	-0.5162057
82	0xbe786308	-0.24256527
83	0xbc852f1c	-0.016257815
84	0xc00d9d67	-2.212732
85	0xbe4cada9	-0.19988121
86	0xbdde54b5	-0.10856
87	0xbeaaf8c1	-0.3339291
88	0x3e771d96	0.2413238
89	0xbfc0b6ae	-1.505575
90	0xbe6461f8	-0.22302997
91	0x3efe5426	0.49673575
92	0x3dea72a4	0.11447647
93	0xbf0c5cc4	-0.5482905
94	0xbe4d8a33	-0.2007225
95	0x3ee4f98b	0.44721636
96	0xbdad96b0	-0.08476007
97	0xbd7995fa	-0.060934044
98	0xbe780e36	-0.24224171
99	0x3ff4bdb8	1.9120398
100	0x3e9e8ae8	0.30965352
101	0xbe55b90d	-0.20871373
102	0x3fb3f8cb	1.40603
103	0xbdc9647b	-0.09833618
104	0xbbb0935b	-0.00538866
105	0x3f7c6c6f	0.98602957
106	0x3fcbaf79	1.5912925
107	0xbfb3c609	-1.404481
108	0xbcaf6bbb	-0.021413675
109	0x3e251071	0.16119553
110	0xbe5a08ca	-0.21292415
111	0xbe31625c	-0.17322677
112	0x3d0a35ca	0.033742703
113	0xbd6aff48	-0.05737236
114	0x3fecd664	1.8502927
115	0x3fb164ff	1.3858947
116	0x3dce54ee	0.10074793
117	0xbf0070e7	-0.50172275
118	0xbff575dd	-1.9176594
119	0x3dc33cf9	0.09533114
120	0x3f7b7c5f	0.9823665
121	0x3f740b47	0.9532971
122	0xbe18867c	-0.14895052
123	0xbec2303e	-0.3792743
124	0x3e017167	0.12640916
125	0x4049b9cb	3.151965
126	0x3df1fb42	0.11815502
127	0x3c84adee	0.016196217
128	0x3b48865f	0.003059767
129	0x3e109fce	0.1412346
130	0x3d423325	0.047412056
131	0x3c9eb05b	0.019371202
132	0xbf0acc93	-0.54218405
133	0xbf215143	-0.6301462
134	0xbd27c38a	-0.040957965
135	0xbe218283	-0.15772443
136	0x3dcaa284	0.09894279
137	0xbda19798	-0.07890242
138	0xbf0190b3	-0.5061142
139	0xbc77a1a8	-0.015114225
140	0x3f5f0e40	0.8713112
141	0x3f31cd38	0.69453764
142	0xbe61d97f	-0.22055624
143	0x3fe60531	1.7970334
144	0x3e761be7	0.24034081
145	0x3e300333	0.1718872
146	0xbd15c4ab	-0.03656451
147	0xbd0f0a1f	-0.03492176
148	0x404aa9fa	3.1666245
149	0xbf7de62f	-0.9917936
150	0xbe6f2a6a	-0.23356023
151	0x3f0e93a6	0.55694044
152	0x3e7d8e50	0.24761319
153	0x3e02c9e7	0.12772332
154	0xbeaced54	-0.33774817
155	0xbec08695	-0.37602678
156	0xbe0038f3	-0.12521724
157	0xbdf168c8	-0.117875636
158	0x3d3de6b6	0.0463626
159	0x3cbe2da1	0.023215117
160	0xbc6d3acc	-0.01447935
161	0xbe155303	-0.14582448
162	0x40070b06	2.1100478
163	0xbdddd203	-0.10831072
164	0x3d8913fe	0.06693266
165	0x3f8a1e58	1.079051
166	0x3f2ff3d2	0.68731415
167	0x3dd5a4f2	0.104318514
168	0xbde6609a	-0.11248894
169	0x3e85c66c	0.26127946
170	0x3c9da956	0.019245785
171	0x3fa907f9	1.3205558
172	0x3e855244	0.26039326
173	0xbebeee4d	-0.37291184
174	0x3ddaf605	0.10691456
175	0xbfc131b1	-1.509329
176	0xbca3d3f2	-0.019998524
177	0x3a73228c	0.0009274862
178	0xbe4044b9	-0.18776216
179	0xbddd403a	-0.10803266
180	0x3f4fe787	0.8121266
181	0xbcfbe453	-0.030748522
182	0x3f8e44a9	1.1114703
183	0x3e9028b5	0.28156057
184	0xbda5ef59	-0.081022926
185	0x3e2da388	0.16956913
186	0xbdb9bdd2	-0.090694085
187	0xbdb97fca	-0.09057577
188	0x3fc579b0	1.5427761
189	0xbd177ebe	-0.036986105
190	0xbd64b79e	-0.055839173
191	0x3e362414	0.177872
192	0x3e0c05f3	0.13674144
193	0x3e4dbd8c	0.20091838
194	0xbf83a189	-1.0283672
195	0xbd5fba70	-0.05462116
196	0xbeb12739	-0.34600237
197	0x3e0fe2d7	0.14051376
198	0xbde5cf3c	-0.112211674
199	0x3fd97911	1.6990072
200	0xbe56e7f2	-0.20986918
201	0x3fcf3d33	1.6190552
202	0xbce18791	-0.027530463
203	0x3d552002	0.05203248
204	0x3ecbedf5	0.39829984
205	0xbd931f78	-0.071837366
206	0xbef87745	-0.48528495
207	0x3ecb0ec0	0.3965969
208	0x3f85adbf	1.0443648
209	0x3d832d65	0.06405143
210	0xbce3f120	-0.027824938
211	0x3e881b7e	0.26583475
212	0x3e17786e	0.14792034
213	0x3e111864	0.1416946
214	0xbf338b4c	-0.70134425
215	0xbd3b1b95	-0.0456806
216	0x3ad76518	0.0016433327
217	0x40338c51	2.8054392
218	0xc02401e9	-2.5626166
219	0x40456c14	3.0847216
220	0x3f149490	0.5803919
221	0x3e2d2721	0.16909458
222	0xbd135e6b	-0.035978716
223	0x402b9625	2.681039
224	0xc0376372	-2.8654447
225	0x3d9d1c0c	0.07671365
226	0xbe268b28	-0.16264021
227	0x3f576ab9	0.8414722
228	0x3f09eaf3	0.5387413
229	0xbe2b0d81	-0.1670437
230	0xbf6818cf	-0.90662855
231	0x3fd60bfe	1.672241
232	0x3f7cf22c	0.98807025
233	0xbacec070	-0.0015773904
234	0x3d5c6eb8	0.053816527
235	0xbea2e622	-0.31816202
236	0x3fecf4b7	1.8512181
237	0x3f17a292	0.5923244
238	0xbfa31cee	-1.2743204
239	0xbefe91e7	-0.4972069
240	0xbb3358ab	-0.0027366083
241	0xbfb9e535	-1.4523073
242	0xbd3963cb	-0.045261186
243	0xbcc019c2	-0.023449782
244	0x3ef8adda	0.48570138
245	0x3e592866	0.21206817
246	0xbe76c900	-0.24100113
247	0x3e633637	0.2218865
248	0xbed68b75	-0.41903272
249	0x3d139c5c	0.036037788
250	0xbe301084	-0.171938
251	0x3cd91272	0.026498053
252	0xbf3ccb0c	-0.73747325
253	0xbc22fbad	-0.0099476995
254	0x3f8a494c	1.0803618
255	0xbf4c10e2	-0.7971326

convs.2.bias f4 [256]
0	0x3f49b3e0	0.7879009
1	0x3e6d8976	0.23196968
2	0xbfaf9fa0	-1.3720589
3	0xbf97711e	-1.1831396
4	0x3f286c6e	0.6579045
5	0x3fc88a73	1.5667251
6	0x3f1d7ce6	0.61518705
7	0xbf0e5373	-0.55596083
8	0x3d026999	0.031838987
9	0x3ecaed67	0.3963425
10	0xbea79a53	-0.32734928
11	0x3d1db8b7	0.038506236
12	0x3fdd63da	1.7296097
13	0xbfbebff4	-1.490233
14	0x40952465	4.6606927
15	0x40085304	2.1300669
16	0xbfe29c9a	-1.7704041
17	0x3ff4962e	1.9108331
18	0x3e84bead	0.25926724
19	0xbfa792b3	-1.3091644
20	0x3ff21a31	1.8914243
21	0x3e8ba476	0.2727391
22	0xbdf77449	-0.120827265
23	0x402b2065	2.6738522
24	0xbf9662e5	-1.174893
25	0xbf68663e	-0.9078101
26	0x3eee4f16	0.46544713
27	0xbf16e348	-0.58940554
28	0x3f0be52f	0.5464658
29	0x3ebe1d4f	0.37131736
30	0x3fb9bd1c	1.4510837
31	0xbf5183a7	-0.8184151
32	0xbf5674a0	-0.83771706
33	0xbebde76b	-0.3709062
34	0x3ecc6e73	0.39928016
35	0xbf336de9	-0.70089585
36	0x3fd5c5b3	1.6700958
37	0x3fa342fa	1.2754815
38	0xbec76ef3	-0.38951835
39	0x3f81a602	1.0128787
40	0xbf6094bd	-0.87726957
41	0x3e63ce40	0.22246647
42	0x3ee12c88	0.43979287
43	0x3fef0845	1.8674399
44	0xbee4b800	-0.4467163
45	0x3f09a9b2	0.5377456
46	0xbfae5c40	-1.3621902
47	0x3f970267	1.1797608
48	0x3f812b5b	1.0091356
49	0xbc931077	-0.017952187
50	0x3f7734a9	0.9656473
51	0xbf0407c6	-0.5157436
52	0xbf882793	-1.0637077
53	0xbfb0d7b5	-1.3815829
54	0x3fb3a532	1.4034789
55	0xbf4d0a01	-0.8009339
56	0x3cf63aae	0.030057278
57	0x3ea31581	0.31852344
58	0xbf6de6cb	-0.9293029
59	0x3f0e12bd	0.5549734
60	0xbef79ad6	-0.48360318
61	0x40c314e9	6.0963025
62	0x3fca3c90	1.5799732
63	0x3f31bb16	0.69426095
64	0xbe91ee02	-0.28501898
65	0x3f4a1dfc	0.78952
66	0x3e92d2cd	0.28676453
67	0x3f3be27e	0.73392475
68	0xbc5eea26	-0.01360563
69	0x3eb9c592	0.36283547
70	0x3f9bcdef	1.2172221
71	0xc044dafb	-3.0758655
72	0x3f7ccd2e	0.9875058
73	0xbef5766a	-0.47941905
74	0xbf6f04a9	-0.93366486
75	0x3ffcc74f	1.9748324
76	0xbe19a4a7	-0.15004216
77	0xbef6d143	-0.4820653
78	0x40bfa0bb	5.9883704
79	0xbef4eb94	-0.47835982
80	0xbf721be1	-0.9457379
81	0xbe48ae05	-0.19597633
82	0xbe5acb76	-0.21366677
83	0x3f946a6a	1.1594975
84	0x3fd1ca80	1.6389923
85	0xbf742861	-0.95374113
86	0x401b086a	2.4223886
87	0x3f718450	0.9434252
88	0xbf7c9c10	-0.9867563
89	0x3e045470	0.12922835
90	0x3f5606b5	0.83603984
91	0x3f576c5c	0.8414972
92	0xbf1c714b	-0.6111037
93	0xbfb5a81c	-1.4191928
94	0x3ecc933f	0.3995609
95	0x3e1620f7	0.14661013
96	0x3fd682b3	1.6758636
97	0x3f78557f	0.97005457
98	0xbf0cb797	-0.54967636
99	0x3f8116ec	1.008512
100	0x3fa450c0	1.2837143
101	0x3d675734	0.056479648
102	0xbeeadeb1	-0.45873025
103	0x3fa47bed	1.2850319
104	0x3ecc6b45	0.3992559
105	0x4028171c	2.6264105
106	0x3efd355a	0.49454767
107	0x3f89a2cc	1.0752807
108	0xbfa91b08	-1.3211374
109	0xbe8ffef6	-0.28124207
110	0x40a04f64	5.009691
111	0x3f02c300	0.51078796
112	0xbde27391	-0.11057199
113	0x3e8db3b7	0.27676174
114	0x3f3120af	0.69190496
115	0xbf47421f	-0.7783527
116	0xbea4ed5a	-0.32212335
117	0x3f8db894	1.1071954
118	0x3f9047e3	1.1271938
119	0xc00c0801	-2.1879885
120	0x3ee7259c	0.4514588
121	0xbe37fa8e	-0.17966673
122	0xbf5e5688	-0.86850786
123	0xbec86f5f	-0.3914747
124	0x3f4d7fdb	0.80273217
125	0x3ef8235e	0.48464483
126	0xbf5100f2	-0.8164207
127	0x3ec0431a	0.37551194
128	0x3ddde6c2	0.10835029
129	0x409f9a51	4.9875875
130	0xbf033264	-0.51248765
131	0xbe796e6d	-0.2435853
132	0x3f965c33	1.1746887
133	0x3e811a38	0.25215316
134	0xbf21a4b9	-0.6314197
135	0x3ff5fbda	1.9217484
136	0x3f5ddc79	0.8666454
137	0x3e23f991	0.16013171
138	0xbbda326c	-0.006658843
139	0xc00244a8	-2.0354404
140	0x3ffa09a7	1.9534196
141	0xbe994eff	-0.29943082
142	0xbfbd9be6	-1.4813201
143	0x3f8ac54e	1.0841463
144	0x3e3b3f32	0.18285826
145	0x3e599673	0.21248798
146	0x3e825e2c	0.25462472
147	0x3f06fdf3	0.52731246
148	0xbde848b8	-0.11341995
149	0xbf78ba3a	-0.9715916
150	0x4115c5cc	9.36079
151	0xbf90608b	-1.1279463
152	0xbfa3784f	-1.277109
153	0x3f284988	0.657372
154	0xbf8dbe49	-1.1073695
155	0xbefb3330	-0.4906249
156	0x3f619746	0.8812145
157	0x3ca6d14d	0.020363474
158	0xbf73d374	-0.95244527
159	0x3d58723c	0.052843317
160	0xbea945b3	-0.3306099
161	0x3f259ca8	0.64692163
162	0x402963ba	2.6467118
163	0x3f2923b6	0.66070116
164	0xbf49090d	-0.78529435
165	0x3d27a423	0.040928017
166	0xbecd7a7a	-0.40132505
167	0xbe3dbdaa	-0.18529382
168	0xbed0cf73	-0.4078327
169	0xbfebf235	-1.8433291
170	0xbda301ee	-0.079593524
171	0x400cf67a	2.2025437
172	0x3facf02a	1.3510792
173	0x3f0e8c8b	0.556832
174	0xbcd29a5e	-0.025708374
175	0x40335be4	2.8024836
176	0x3f2ca260	0.67435265
177	0x3f94a1ba	1.1611855
178	0x3fc2ded1	1.5224248
179	0x3f5acf27	0.8547234
180	0x3f4f0901	0.80873114
181	0x3fcf7961	1.6208917
182	0xbfab46c6	-1.3380973
183	0xbec779ed	-0.3896021
184	0xbd46510c	-0.048417136
185	0x400cb8fa	2.19879
186	0x3d346a36	0.044046603
187	0xbd5927e2	-0.05301655
188	0x4079afd1	3.901356
189	0x3c3a5b3e	0.011374293
190	0x3ee3ed7e	0.4451713
191	0x3ebf3330	0.3734374
192	0x401033ca	2.253161
193	0x3db49937	0.08818286
194	0xbe0bd88e	-0.13656828
195	0x3e88ec24	0.2674266
196	0x3f07cbee	0.53045547
197	0xbf15df8a	-0.5854422
198	0xbf9ef24b	-1.2417692
199	0xbf85ed51	-1.0463048
200	0x3ee51512	0.44742638
201	0x3f7b57e9	0.98181015
202	0xbfe106ad	-1.7580162
203	0x3f5b8085	0.8574298
204	0x4005e445	2.0920575
205	0x3f6a27f8	0.9146724
206	0x405735b6	3.3626533
207	0xbf87a977	-1.0598592
208	0x3e8b8521	0.27250007
209	0x401af71b	2.4213321
210	0xbd26effc	-0.04075621
211	0x3eae9500	0.34098053
212	0xbe41855f	-0.18898533
213	0x3edc1148	0.42981935
214	0xbf74ba53	-0.9559681
215	0x3d277068	0.040878683
216	0xbe6646fc	-0.22488016
217	0xbfab4b24	-1.3382306
218	0xbff6a0eb	-1.9267858
219	0x3ed68d6a	0.41904765
220	0xbe181b28	-0.1485411
221	0xbf927eb2	-1.1444914
222	0xbfccc487	-1.5997475
223	0x3f43559f	0.7630252
224	0x401598c3	2.3374488
225	0x3e8d2b2b	0.27571997
226	0xbf8c1840	-1.09449
227	0x4024241b	2.5647037
228	0xbe4f0096	-0.20215067
229	0x3ed417e9	0.41424492
230	0x40c1a405	6.051272
231	0xbfcd8620	-1.6056557
232	0xbe8d735a	-0.2762707
233	0x3fe7fa9e	1.8123357
234	0xbf9ebe5a	-1.2401841
235	0xbe1685fb	-0.14699547
236	0x3f96dc0d	1.1785904
237	0xbda8653a	-0.082224324
238	0x3de52ff0	0.11190784
239	0x3f1258fd	0.57167035
240	0x3eda2e5a	0.42613488
241	0xbfd7bc4b	-1.6854337
242	0x3dba3eb0	0.09093988
243	0x3f914f97	1.1352414
244	0x3fcff890	1.624773
245	0x3e881449	0.26577976
246	0x3e06e57a	0.13173476
247	0x3e18cb39	0.14921273
248	0x3fc9ec8a	1.5775311
249	0x3ee983a2	0.4560824
250	0x3ef1029b	0.470723
251	0x3f16010f	0.58595365
252	0x3ed37a7c	0.41304386
253	0xbea395dc	-0.3195027
254	0xbe4b1769	-0.19833149
255	0x3f9c9bbc	1.2235026

convs.2.lin.weight f4 [256, 256]
0	0x40181904	2.3765268
1	0x3f21b870	0.63172054
2	0xbfafe34e	-1.3741243
3	0x3e656df4	0.22405225
4	0x3faea04c	1.3642669
5	0xbfbb8f37	-1.4653081
6	0xbe5e73c2	-0.21723846
7	0x3f5c9f8a	0.8618094
8	0x406074f0	3.5071373
9	0xbe013b5b	-0.12620299
10	0x3d5542b6	0.052065574
11	0x3f844e62	1.033642
12	0x4029bbbf	2.652084
13	0x3eff345b	0.49844632
14	0xbfbce193	-1.475634
15	0x3d84e13d	0.06488273
16	0x3f384381	0.71978
17	0x3ea64f6c	0.3248247
18	0x3df9c250	0.12195265
19	0x3f00cc82	0.50312054
20	0xbf2abab5	-0.6669114
21	0xbf2cead2	-0.6754581
22	0xbf1b9e99	-0.60788876
23	0x3ce16a60	0.027516544
24	0x3fd942ba	1.6973488
25	0xc0001179	-2.0010664
26	0x3e55b689	0.20870413
27	0x3e9b378c	0.30315816
28	0xbec65d66	-0.38743132
29	0x3f30978e	0.68981254
30	0x3f44695b	0.7672326
31	0x3f1cbdbe	0.61227024
32	0xbf70813e	-0.9394721
33	0x3fff5786	1.9948585
34	0x3f44b75f	0.768423
35	0xbf1da987	-0.61586803
36	0x3e5419d4	0.20712978
37	0x3e10319f	0.14081429
38	0xbdb95b2f	-0.09050595
39	0x3f9f75b0	1.245779
40	0xc0523499	-3.2844603
41	0xbd624635	-0.055242736
42	0xbf26de6a	-0.65183127
43	0x3f07b91f	0.5301685
44	0x3e9b847f	0.30374524
45	0x3fd3716f	1.6518992
46	0xbf4f6635	-0.8101533
47	0x3e2fefaf	0.17181276
48	0x3fa98ec6	1.3246696
49	0x3fcc238d	1.5948349
50	0xbf8d85e9	-1.1056491
51	0x3f622854	0.88342786
52	0x3fc9fe37	1.5780705
53	0xc00bd4a3	-2.1848533
54	0x3dcd0ac1	0.10011817
55	0xc023f811	-2.5620158
56	0xbfc87a6e	-1.5662363
57	0xbbb60622	-0.0055549303
58	0xbed27cf3	-0.41110954
59	0xbf7a2f7b	-0.977287
60	0x3c9973ea	0.01873203
61	0xc002e9b7	-2.0455148
62	0x3f5b0709	0.8555761
63	0xbf8a0b54	-1.0784707
64	0xbeb9fb62	-0.36324602
65	0x3f008855	0.50208026
66	0x3e42453a	0.1897172
67	0x3f89a2b8	1.0752783
68	0xbf045a0a	-0.5169989
69	0x3f28b095	0.6589444
70	0xbff0e00c	-1.8818374
71	0xbfdcac90	-1.7240162
72	0xbebedfe4	-0.3728019
73	0xbd462b94	-0.048381403
74	0xbff9962c	-1.9498954
75	0xbf937ee0	-1.1523094
76	0xbca4848d	-0.020082736
77	0xbf3ade81	-0.72995764
78	0xbf70c28b	-0.9404685
79	0x3fd74cff	1.6820372
80	0x403a2ea6	2.9090972
81	0xbfd36ad1	-1.6516973
82	0xbe459ba8	-0.1929766
83	0x3f4a0571	0.7891455
84	0xc040efaa	-3.014628
85	0xbf117053	-0.5681202
86	0x3eb63131	0.35584405
87	0xbea3cc90	-0.31992006
88	0xbfb2ce49	-1.3969203
89	0xbee4107a	-0.4454382
90	0x3e9a3185	0.30115905
91	0xbfe95624	-1.8229413
92	0x3f8bc7bc	1.0920329
93	0xbe97b556	-0.29630536
94	0x3dcae75a	0.09907408
95	0xbe655f87	-0.22399722
96	0x3c76ad4c	0.015055966
97	0xbf5399bb	-0.8265645
98	0x3f7ced89	0.9879995
99	0x3f4bc30b	0.79594487
100	0x3f8130a3	1.0092968
101	0x3d112610	0.03543669
102	0xbf63c646	-0.88974416
103	0x3fa8beec	1.3183265
104	0xbe7c3dc3	-0.24632935
105	0x3eed9c86	0.4640848
106	0x3fb15109	1.3852855
107	0x3ed62ac2	0.41829497
108	0x3f6967c9	0.9117399
109	0x3f3f1bdd	0.7465189
110	0xbf63f157	-0.8904013
111	0xc00a4789	-2.1606162
112	0xbf4daffc	-0.80346656
113	0x3f7a3388	0.9773488
114	0x3eded0bd	0.4351863
115	0xc02d4c00	-2.7077637
116	0xbfb70bad	-1.4300438
117	0xbf5d4363	-0.8643095
118	0xc0144602	-2.316773
119	0x3f937b5d	1.1522022
120	0x3e1b9add	0.15195794
121	0x3f74b71b	0.95591897
122	0x3f1d3812	0.6141368
123	0x403e9c39	2.978285
124	0xbf9b34e4	-1.2125516
125	0xbdb86ad5	-0.090047516
126	0x3f812798	1.0090208
127	0xbfe86d39	-1.8158332
128	0x3fb42609	1.4074107
129	0x3f908783	1.1291355
130	0xbf614a01	-0.88003546
131	0xbf4814e3	-0.7815687
132	0x3f8defb0	1.1088772
133	0x403aa291	2.9161723
134	0x3f157fdc	0.5839822
135	0x3d4ab015	0.04948433
136	0xbdd934bf	-0.10605764
137	0xc02fa15c	-2.7442236
138	0xbfdb8cce	-1.7152345
139	0x3fca1827	1.5788621
140	0x40832f55	4.099528
141	0x3f71689b	0.9430024
142	0x3e9aebc6	0.30258006
143	0x3fb20928	1.3909044
144	0xbef887f9	-0.4854124
145	0xc000f0dd	-2.0147011
146	0xc01d6a4e	-2.4596133
147	0x3ee07b3c	0.4384402
148	0xbe80413e	-0.25049776
149	0xbf970017	-1.1796902
150	0xbf0831ce	-0.53200996
151	0xc005a5dd	-2.0882485
152	0xbfe6daf1	-1.8035566
153	0x3f936c58	1.1517439
154	0xbf1e1ad3	-0.6175968
155	0x40382df7	2.8778055
156	0xbf0705ee	-0.52743423
157	0x3dd52ea2	0.10409285
158	0x3ddf7087	0.10910135
159	0xbf859052	-1.0434668
160	0x3fd8b17b	1.6929163
161	0x3e50aa6d	0.20377512
162	0xc0152017	-2.3300836
163	0x3e69094b	0.22757451
164	0xbfcfcd0d	-1.6234452
165	0x3fe400a6	1.7812698
166	0x3fca3f63	1.5800594
167	0x3f80cee4	1.0063138
168	0xbf4932e9	-0.7859331
169	0xc00bf62c	-2.1869001
170	0xbe27c216	-0.16382632
171	0x3fc24f44	1.518044
172	0x400607a1	2.0942156
173	0x3e84b2af	0.25917575
174	0xc0090dff	-2.1414793
175	0xbf586de1	-0.8454266
176	0xbf5ec7ef	-0.87023824
177	0xc033f540	-2.8118439
178	0xbfa0b3c9	-1.2554866
179	0xbfd644ce	-1.6739748
180	0xbe32aff7	-0.17449938
181	0x3f78543f	0.9700355
182	0x3e9dbc6e	0.30807823
183	0xbd2608e4	-0.040535823
184	0xbe6dcf01	-0.23223497
185	0xbf6d685a	-0.9273735
186	0xbea0273c	-0.31279933
187	0x3fa86578	1.3155966
188	0x3e9fac10	0.3118596
189	0xbf95431f	-1.1661109
190	0xbfb22dbb	-1.3920206
191	0x3f17d1d9	0.5930458
192	0xbe36e542	-0.17860892
193	0x4004db89	2.0758994
194	0xbf675085	-0.9035724
195	0xbe5a9e33	-0.2134941
196	0xbeac7947	-0.33686277
197	0x3f233ec6	0.6376766
198	0x3f55b27d	0.83475477
199	0x3e474f32	0.19463804
200	0x3f5b987b	0.8577954
201	0x3ef78415	0.48342958
202	0xbeb1b68a	-0.3470958
203	0xc0238ab9	-2.555342
204	0x3da98c77	0.08278745
205	0x3efc3918	0.4926231
206	0x3f02d15f	0.51100725
207	0x40313806	2.7690444
208	0x3f12ba80	0.57315826
209	0x3fcc0f87	1.5942239
210	0xbf965ea2	-1.174763
211	0x3fa91184	1.320847
212	0x3f8c0f5f	1.0942191
213	0xbd27c139	-0.040955756
214	0xbfaa37ad	-1.3298241
215	0x3e8863bd	0.26638594
216	0x3f44eb5f	0.7692165
217	0x3f8d5006	1.1040046
218	0xbf807a0e	-1.0037248
219	0xbea4b891	-0.32172063
220	0xbe05e16b	-0.13074271
221	0xbeeab14d	-0.45838395
222	0x3f85fd29	1.0467883
223	0x3eae8758	0.34087634
224	0x3fc10d63	1.508221
225	0xbef26dfd	-0.4734954
226	0x3fb75d51	1.4325353
227	0xbf85218c	-1.0400863
228	0x3f28215a	0.6567589
229	0xbd3c8b37	-0.046031203
230	0xbfb3064e	-1.3986299
231	0xbf5fb8c6	-0.87391317
232	0xbc9a025e	-0.018799957
233	0x3e461e2a	0.19347444
234	0x3fa5b4da	1.2945817
235	0x3f658fa1	0.89672285
236	0x3e8a9101	0.27063754
237	0xbf866276	-1.0498798
238	0x3fbb3000	1.4624023
239	0x3eb85394	0.36001265
240	0xbed169ac	-0.40900934
241	0x3feb50f4	1.838408
242	0x4010fb9c	2.265357
243	0xbfaf88c7	-1.3713616
244	0xbf17a23a	-0.59231913
245	0xbb10cafb	-0.0022093642
246	0xbfdccfdc	-1.7250934
247	0xbfa1bafe	-1.263519
248	0x3fb2f3bc	1.3980632
249	0x3fabdf93	1.3427604
250	0x3e0f3755	0.13985951
251	0xc00d75c4	-2.2103128
252	0x3e8d190d	0.27558175
253	0x3e0e3174	0.13886052
254	0x3ed48bf1	0.41513017
255	0x40438cb9	3.055464

lins.0.0.weight f4 [256]
0	0x3e9cdf2a	0.3063901
1	0x3f39a3bc	0.72515464
2	0x3e9f7519	0.31144026
3	0x3fc598dd	1.5437275
4	0x3fd6d0f1	1.6782514
5	0x3f0c73c3	0.5486414
6	0x3f52c7cd	0.8233612
7	0x3f9d81b1	1.2305204
8	0x3e4d7419	0.20063819
9	0x3f75c21f	0.9599933
10	0x3f19b8f1	0.60047823
11	0x3edd0cd2	0.43173844
12	0x3f460b8e	0.7736138
13	0x3ede3747	0.43401548
14	0x4002bcbb	2.0427692
15	0x3f0a924a	0.5412947
16	0x3f1151af	0.56765264
17	0x3ebda754	0.37041724
18	0x3faa7a38	1.3318548
19	0x3f08da51	0.53458124
20	0x3faf6fd2	1.3706
21	0x3e80693d	0.2508029
22	0x3fccda81	1.6004182
23	0x3f3a7a46	0.72842824
24	0x3ede272f	0.4338927
25	0x3ee653ef	0.4498591
26	0x3ed97fa7	0.42480204
27	0x3e602ed2	0.2189286
28	0x3f121fd9	0.57079846
29	0x3ed25eaf	0.41087863
30	0x40143b96	2.3161368
31	0x3f85c796	1.0451534
32	0x402abdf4	2.6678438
33	0x3f4ca937	0.799457
34	0x3fb4f5fd	1.413757
35	0x3ee6839a	0.4502228
36	0x3f0196da	0.50620806
37	0x3f198273	0.59964675
38	0x3edb162b	0.4279035
39	0x3ea76228	0.32692075
40	0x3f05d083	0.5227129
41	0x3fb5be54	1.4198709
42	0x40265b08	2.599306
43	0x3d972e80	0.07381916
44	0x3ed8d8d8	0.4235294
45	0x3f9de2aa	1.2334797
46	0x3f1ff794	0.6248715
47	0x3f04e21f	0.51907533
48	0x3ffc26e6	1.9699371
49	0x402a48c0	2.6606903
50	0x402c6dcd	2.6942017
51	0x3fb8e70c	1.444551
52	0x3fae937c	1.3638759
53	0x3fbc70fd	1.4721981
54	0x3e885565	0.2662765
55	0x3e758baa	0.23979059
56	0x3ead6c6a	0.33871776
57	0x3e5c53b3	0.21516304
58	0x3f10309b	0.56324166
59	0x3ff6d04f	1.9282321
60	0x3ef25b05	0.47335067
61	0x3ed03da3	0.40672025
62	0x3fc56b8e	1.5423448
63	0x4000527b	2.0050342
64	0x3fdc919a	1.7231934
65	0x3eaf074a	0.3418525
66	0x3e9f38b9	0.31097963
67	0x3faf81e6	1.3711517
68	0x3ea57df8	0.3232267
69	0xbdeb0c1d	-0.1147692
70	0x3ecad374	0.3961445
71	0x3eaef35a	0.34170038
72	0x3f016413	0.50543326
73	0x3fc1ae56	1.5131328
74	0x3e3ac01a	0.18237343
75	0x3e224869	0.15847935
76	0x3e71e9dd	0.23624368
77	0x3fb7a438	1.434699
78	0x3f72bfed	0.94824106
79	0x3ee287b2	0.44244152
80	0x3ef83650	0.48478937
81	0x3fc0945f	1.5045279
82	0x3e93fde8	0.28904653
83	0x3f1137d8	0.56725836
84	0x3fc462cf	1.5342654
85	0x3e59acf7	0.21257387
86	0x3f8d1892	1.1023123
87	0x3fd96d4c	1.698648
88	0x3ea95a85	0.33076873
89	0x3fb7ea4e	1.4368379
90	0x3efa9355	0.4894053
91	0x3ff90e1f	1.9457434
92	0x3e88dfa2	0.26733118
93	0x3fafb2f7	1.3726491
94	0x3e9341fa	0.28761274
95	0x3f072a21	0.5279866
96	0x3e94e3dd	0.29080096
97	0x3f78ffaa	0.9726511
98	0x3e6e0ce0	0.23247099
99	0x3fbd07bc	1.4767985
100	0x402ba1f5	2.68176
101	0x3f1cbb6a	0.6122347
102	0x3fa82a56	1.313792
103	0x3ed7d35f	0.4215345
104	0x3ecd9468	0.40152287
105	0x3f6486b1	0.8926802
106	0x3fbe241f	1.4854773
107	0x3fa13fbb	1.2597574
108	0x3f5843b9	0.84478337
109	0x3eee7d24	0.4657985
110	0x3e81de2b	0.25364813
111	0x3f151007	0.5822758
112	0x3f1a8104	0.6035311
113	0x3eded0e7	0.43518755
114	0x3fd12d08	1.6341867
115	0x3fec9216	1.8482082
116	0x3efcdaf2	0.49385792
117	0x40080e8e	2.1258883
118	0x3fcd5847	1.6042565
119	0x3eb23ea9	0.3481343
120	0x3fa07ad8	1.2537489
121	0x3fa80ed4	1.3129525
122	0x3eeea840	0.4661274
123	0x3eb0393f	0.34418675
124	0x3fb56bb4	1.4173493
125	0x3f89e35a	1.0772507
126	0x3ede1c01	0.4338074
127	0x3e6544cc	0.22389525
128	0x3e86684a	0.2625144
129	0x3f896cd8	1.0736341
130	0x40151f16	2.3300223
131	0x3dcb99ab	0.09941419
132	0x3fa7f5f8	1.3121939
133	0x3f797e15	0.9745801
134	0x403314de	2.7981486
135	0x3ec9ff97	0.39452812
136	0x3f061081	0.5236893
137	0x3e486d3e	0.19572923
138	0x3fb9428d	1.4473435
139	0x3edbfb39	0.42965105
140	0x3fcce862	1.6008418
141	0x3f913805	1.1345221
142	0x3e1645aa	0.14675012
143	0x3fd73610	1.6813374
144	0x3e86a107	0.2629473
145	0x3f9c0e22	1.2191813
146	0x3ec0d0ba	0.37659246
147	0x3ef04056	0.46924084
148	0x400baf92	2.182591
149	0x3fc15ec8	1.510705
150	0x3ec50059	0.38476828
151	0x3fb98cf8	1.4496145
152	0x3eec8812	0.46197563
153	0x3fa40df1	1.2816755
154	0x3f042ea3	0.5163366
155	0x3eda3511	0.4261861
156	0x3fda94df	1.7076682
157	0x3fc00365	1.5001036
158	0x3f47e296	0.7808012
159	0x3eb927ac	0.3616308
160	0x3e45b1ff	0.19306181
161	0x3f0bc789	0.5460134
162	0x3f9881bb	1.1914591
163	0x3ee6692e	0.4500212
164	0x3eb5c86e	0.35504478
165	0x3feb5bdc	1.8387408
166	0x4005a0f4	2.0879488
167	0x3efebdee	0.4975428
168	0x3f0b7e4a	0.54489577
169	0x3ec9261d	0.3928689
170	0x3f5f8b04	0.87321496
171	0x3fc13677	1.5094746
172	0x3e957faf	0.29198977
173	0x3fe71d75	1.8055865
174	0x3ead2ec1	0.33824733
175	0x3fdb7771	1.7145826
176	0x3ede425e	0.4341001
177	0x3f94346e	1.15785
178	0x3fb77e54	1.4335427
179	0x3fcec3c4	1.6153493
180	0x3fbca2b7	1.4737157
181	0x3ea65931	0.32489923
182	0x3fbe483a	1.4865792
183	0x3f0c7cec	0.54878116
184	0x3ef981ed	0.48731938
185	0x3ed6a5bf	0.4192333
186	0x3e8cb975	0.27485242
187	0x405349b9	3.3013747
188	0x401aa2da	2.4161897
189	0x3eec581f	0.4616098
190	0x3f01ea9f	0.5074863
191	0x3eccce89	0.40001324
192	0x3eca488d	0.39508477
193	0x3f02806a	0.50977194
194	0x401ecfbd	2.4814293
195	0x3f0ba3d8	0.5454688
196	0x3fd5001d	1.664066
197	0x3fc7c918	1.5608244
198	0x3ec03614	0.37541258
199	0x40746909	3.8189108
200	0x3e6f5e3e	0.23375794
201	0x407dd55b	3.9661472
202	0x3e8682f3	0.2627178
203	0x3e9fb27f	0.3119087
204	0x3ec634ec	0.3871225
205	0x3ea034eb	0.31290373
206	0x3fa4b52b	1.2867788
207	0x3ed82fe6	0.42224044
208	0x3fcd3d76	1.6034381
209	0x3e96f45b	0.29483303
210	0x3f1680bc	0.58790183
211	0x3f2001a0	0.6250248
212	0x3ff4b375	1.9117266
213	0x3d9b38fa	0.07579227
214	0x3f1f4fe9	0.6223131
215	0x3e6707ac	0.2256152
216	0x3f0dd0b5	0.55396587
217	0x402f37f4	2.73779
218	0x3f9a9337	1.2076176
219	0x400f7050	2.24123
220	0x3f270137	0.6523623
221	0x3f039aa2	0.51407826
222	0x3d506fca	0.05088786
223	0x3fbc52a9	1.4712726
224	0x3fcfea62	1.6243403
225	0x3e6d13d6	0.23152098
226	0x3ec63396	0.38711232
227	0x3f5cd674	0.8626473
228	0x3fd0d342	1.6314471
229	0x3eb44279	0.35206965
230	0x4007027f	2.1095273
231	0x4036ef41	2.858353
232	0x3fb49b04	1.4109807
233	0x3f117a2a	0.5682703
234	0x3e3464d5	0.1761659
235	0x3f0d23fc	0.5513303
236	0x3f16d7a1	0.58922774
237	0x4045bbd5	3.0895894
238	0x3fb0658c	1.378099
239	0x3fcfba9b	1.6228822
240	0x3fb4974f	1.4108676
241	0x3fc66214	1.5498681
242	0x3ee7feb3	0.45311508
243	0x3e5cfcf8	0.21580875
244	0x3faa65f7	1.3312367
245	0x3f101668	0.5628419
246	0x3efe2649	0.49638584
247	0x3f0de97a	0.5543438
248	0x3fa0f6a6	1.2575271
249	0x3f05bdcf	0.5224275
250	0x3eb99927	0.36249658
251	0x3e37b5f8	0.1794051
252	0x3fb500c8	1.4140863
253	0x3f10a061	0.5649472
254	0x3f03fcf5	0.51557857
255	0x3fe52cad	1.7904259
